…
I1024 10:24:28.650689 33691 upgrade_proto.cpp:80] Successfully upgraded batch norm layers using deprecated params.
I1024 10:24:28.651587 33691 net.cpp:51] Initializing net from parameters: 
state {
  phase: TRAIN
  level: 0
  stage: ""
}
layer {
  name: "Data1"
  type: "Data"
  top: "Data1"
  top: "Data2"
  transform_param {
    mirror: true
    crop_size: 32
    mean_value: 125.306915
    mean_value: 122.950394
    mean_value: 113.865387
  }
  data_param {
    source: "/data/hjy1312/data/RESNET/cifar-10/cifar10_pad_train_lmdb"
    batch_size: 128
    backend: LMDB
  }
}
layer {
  name: "Convolution1"
  type: "Convolution"
  bottom: "Data1"
  top: "Convolution1"
  param {
    lr_mult: 1
    decay_mult: 1
  }
  param {
    lr_mult: 2
    decay_mult: 0
  }
  convolution_param {
    num_output: 16
    bias_term: true
    pad: 1
    kernel_size: 3
    stride: 1
    weight_filler {
      type: "msra"
    }
    bias_filler {
      type: "constant"
    }
  }
}
layer {
  name: "BatchNorm1"
  type: "BatchNorm"
  bottom: "Convolution1"
  top: "Convolution1"
  param {
    lr_mult: 0
    decay_mult: 0
  }
  param {
    lr_mult: 0
    decay_mult: 0
  }
  param {
    lr_mult: 0
    decay_mult: 0
  }
  batch_norm_param {
    use_global_stats: false
  }
}
layer {
  name: "Scale1"
  type: "Scale"
  bottom: "Convolution1"
  top: "Convolution1"
  scale_param {
    bias_term: true
  }
}
layer {
  name: "Sigmoid1"
  type: "Sigmoid"
  bottom: "Convolution1"
  top: "Sigmoid1"
}
layer {
  name: "Eltwise1"
  type: "Eltwise"
  bottom: "Convolution1"
  bottom: "Sigmoid1"
  top: "Eltwise1"
  eltwise_param {
    operation: PROD
  }
}
layer {
  name: "Convolution2"
  type: "Convolution"
  bottom: "Eltwise1"
  top: "Convolution2"
  param {
    lr_mult: 1
    decay_mult: 1
  }
  param {
    lr_mult: 2
    decay_mult: 0
  }
  convolution_param {
    num_output: 16
    bias_term: true
    pad: 1
    kernel_size: 3
    stride: 1
    weight_filler {
      type: "msra"
    }
    bias_filler {
      type: "constant"
    }
  }
}
layer {
  name: "BatchNorm2"
  type: "BatchNorm"
  bottom: "Convolution2"
  top: "Convolution2"
  param {
    lr_mult: 0
    decay_mult: 0
  }
  param {
    lr_mult: 0
    decay_mult: 0
  }
  param {
    lr_mult: 0
    decay_mult: 0
  }
  batch_norm_param {
    use_global_stats: false
  }
}
layer {
  name: "Scale2"
  type: "Scale"
  bottom: "Convolution2"
  top: "Convolution2"
  scale_param {
    bias_term: true
  }
}
layer {
  name: "Sigmoid2"
  type: "Sigmoid"
  bottom: "Convolution2"
  top: "Sigmoid2"
}
layer {
  name: "Eltwise2"
  type: "Eltwise"
  bottom: "Convolution2"
  bottom: "Sigmoid2"
  top: "Eltwise2"
  eltwise_param {
    operation: PROD
  }
}
layer {
  name: "Convolution3"
  type: "Convolution"
  bottom: "Eltwise2"
  top: "Convolution3"
  param {
    lr_mult: 1
    decay_mult: 1
  }
  param {
    lr_mult: 2
    decay_mult: 0
  }
  convolution_param {
    num_output: 16
    bias_term: true
    pad: 1
    kernel_size: 3
    stride: 1
    weight_filler {
      type: "msra"
    }
    bias_filler {
      type: "constant"
    }
  }
}
layer {
  name: "BatchNorm3"
  type: "BatchNorm"
  bottom: "Convolution3"
  top: "Convolution3"
  param {
    lr_mult: 0
    decay_mult: 0
  }
  param {
    lr_mult: 0
    decay_mult: 0
  }
  param {
    lr_mult: 0
    decay_mult: 0
  }
  batch_norm_param {
    use_global_stats: false
  }
}
layer {
  name: "Scale3"
  type: "Scale"
  bottom: "Convolution3"
  top: "Convolution3"
  scale_param {
    bias_term: true
  }
}
layer {
  name: "Eltwise3"
  type: "Eltwise"
  bottom: "Convolution3"
  bottom: "Eltwise1"
  top: "Eltwise3"
  eltwise_param {
    operation: SUM
  }
}
layer {
  name: "Sigmoid3"
  type: "Sigmoid"
  bottom: "Eltwise3"
  top: "Sigmoid3"
}
layer {
  name: "Eltwise4"
  type: "Eltwise"
  bottom: "Eltwise3"
  bottom: "Sigmoid3"
  top: "Eltwise4"
  eltwise_param {
    operation: PROD
  }
}
layer {
  name: "Convolution4"
  type: "Convolution"
  bottom: "Eltwise4"
  top: "Convolution4"
  param {
    lr_mult: 1
    decay_mult: 1
  }
  param {
    lr_mult: 2
    decay_mult: 0
  }
  convolution_param {
    num_output: 16
    bias_term: true
    pad: 1
    kernel_size: 3
    stride: 1
    weight_filler {
      type: "msra"
    }
    bias_filler {
      type: "constant"
    }
  }
}
layer {
  name: "BatchNorm4"
  type: "BatchNorm"
  bottom: "Convolution4"
  top: "Convolution4"
  param {
    lr_mult: 0
    decay_mult: 0
  }
  param {
    lr_mult: 0
    decay_mult: 0
  }
  param {
    lr_mult: 0
    decay_mult: 0
  }
  batch_norm_param {
    use_global_stats: false
  }
}
layer {
  name: "Scale4"
  type: "Scale"
  bottom: "Convolution4"
  top: "Convolution4"
  scale_param {
    bias_term: true
  }
}
layer {
  name: "Sigmoid4"
  type: "Sigmoid"
  bottom: "Convolution4"
  top: "Sigmoid4"
}
layer {
  name: "Eltwise5"
  type: "Eltwise"
  bottom: "Convolution4"
  bottom: "Sigmoid4"
  top: "Eltwise5"
  eltwise_param {
    operation: PROD
  }
}
layer {
  name: "Convolution5"
  type: "Convolution"
  bottom: "Eltwise5"
  top: "Convolution5"
  param {
    lr_mult: 1
    decay_mult: 1
  }
  param {
    lr_mult: 2
    decay_mult: 0
  }
  convolution_param {
    num_output: 16
    bias_term: true
    pad: 1
    kernel_size: 3
    stride: 1
    weight_filler {
      type: "msra"
    }
    bias_filler {
      type: "constant"
    }
  }
}
layer {
  name: "BatchNorm5"
  type: "BatchNorm"
  bottom: "Convolution5"
  top: "Convolution5"
  param {
    lr_mult: 0
    decay_mult: 0
  }
  param {
    lr_mult: 0
    decay_mult: 0
  }
  param {
    lr_mult: 0
    decay_mult: 0
  }
  batch_norm_param {
    use_global_stats: false
  }
}
layer {
  name: "Scale5"
  type: "Scale"
  bottom: "Convolution5"
  top: "Convolution5"
  scale_param {
    bias_term: true
  }
}
layer {
  name: "Eltwise6"
  type: "Eltwise"
  bottom: "Convolution5"
  bottom: "Eltwise4"
  top: "Eltwise6"
  eltwise_param {
    operation: SUM
  }
}
layer {
  name: "Sigmoid5"
  type: "Sigmoid"
  bottom: "Eltwise6"
  top: "Sigmoid5"
}
layer {
  name: "Eltwise7"
  type: "Eltwise"
  bottom: "Eltwise6"
  bottom: "Sigmoid5"
  top: "Eltwise7"
  eltwise_param {
    operation: PROD
  }
}
layer {
  name: "Convolution6"
  type: "Convolution"
  bottom: "Eltwise7"
  top: "Convolution6"
  param {
    lr_mult: 1
    decay_mult: 1
  }
  param {
    lr_mult: 2
    decay_mult: 0
  }
  convolution_param {
    num_output: 16
    bias_term: true
    pad: 1
    kernel_size: 3
    stride: 1
    weight_filler {
      type: "msra"
    }
    bias_filler {
      type: "constant"
    }
  }
}
layer {
  name: "BatchNorm6"
  type: "BatchNorm"
  bottom: "Convolution6"
  top: "Convolution6"
  param {
    lr_mult: 0
    decay_mult: 0
  }
  param {
    lr_mult: 0
    decay_mult: 0
  }
  param {
    lr_mult: 0
    decay_mult: 0
  }
  batch_norm_param {
    use_global_stats: false
  }
}
layer {
  name: "Scale6"
  type: "Scale"
  bottom: "Convolution6"
  top: "Convolution6"
  scale_param {
    bias_term: true
  }
}
layer {
  name: "Sigmoid6"
  type: "Sigmoid"
  bottom: "Convolution6"
  top: "Sigmoid6"
}
layer {
  name: "Eltwise8"
  type: "Eltwise"
  bottom: "Convolution6"
  bottom: "Sigmoid6"
  top: "Eltwise8"
  eltwise_param {
    operation: PROD
  }
}
layer {
  name: "Convolution7"
  type: "Convolution"
  bottom: "Eltwise8"
  top: "Convolution7"
  param {
    lr_mult: 1
    decay_mult: 1
  }
  param {
    lr_mult: 2
    decay_mult: 0
  }
  convolution_param {
    num_output: 16
    bias_term: true
    pad: 1
    kernel_size: 3
    stride: 1
    weight_filler {
      type: "msra"
    }
    bias_filler {
      type: "constant"
    }
  }
}
layer {
  name: "BatchNorm7"
  type: "BatchNorm"
  bottom: "Convolution7"
  top: "Convolution7"
  param {
    lr_mult: 0
    decay_mult: 0
  }
  param {
    lr_mult: 0
    decay_mult: 0
  }
  param {
    lr_mult: 0
    decay_mult: 0
  }
  batch_norm_param {
    use_global_stats: false
  }
}
layer {
  name: "Scale7"
  type: "Scale"
  bottom: "Convolution7"
  top: "Convolution7"
  scale_param {
    bias_term: true
  }
}
layer {
  name: "Eltwise9"
  type: "Eltwise"
  bottom: "Convolution7"
  bottom: "Eltwise7"
  top: "Eltwise9"
  eltwise_param {
    operation: SUM
  }
}
layer {
  name: "Sigmoid7"
  type: "Sigmoid"
  bottom: "Eltwise9"
  top: "Sigmoid7"
}
layer {
  name: "Eltwise10"
  type: "Eltwise"
  bottom: "Eltwise9"
  bottom: "Sigmoid7"
  top: "Eltwise10"
  eltwise_param {
    operation: PROD
  }
}
layer {
  name: "Convolution8"
  type: "Convolution"
  bottom: "Eltwise10"
  top: "Convolution8"
  param {
    lr_mult: 1
    decay_mult: 1
  }
  param {
    lr_mult: 2
    decay_mult: 0
  }
  convolution_param {
    num_output: 32
    bias_term: true
    pad: 1
    kernel_size: 3
    stride: 2
    weight_filler {
      type: "msra"
    }
    bias_filler {
      type: "constant"
    }
  }
}
layer {
  name: "BatchNorm8"
  type: "BatchNorm"
  bottom: "Convolution8"
  top: "Convolution8"
  param {
    lr_mult: 0
    decay_mult: 0
  }
  param {
    lr_mult: 0
    decay_mult: 0
  }
  param {
    lr_mult: 0
    decay_mult: 0
  }
  batch_norm_param {
    use_global_stats: false
  }
}
layer {
  name: "Scale8"
  type: "Scale"
  bottom: "Convolution8"
  top: "Convolution8"
  scale_param {
    bias_term: true
  }
}
layer {
  name: "Sigmoid8"
  type: "Sigmoid"
  bottom: "Convolution8"
  top: "Sigmoid8"
}
layer {
  name: "Eltwise11"
  type: "Eltwise"
  bottom: "Convolution8"
  bottom: "Sigmoid8"
  top: "Eltwise11"
  eltwise_param {
    operation: PROD
  }
}
layer {
  name: "Convolution9"
  type: "Convolution"
  bottom: "Eltwise11"
  top: "Convolution9"
  param {
    lr_mult: 1
    decay_mult: 1
  }
  param {
    lr_mult: 2
    decay_mult: 0
  }
  convolution_param {
    num_output: 32
    bias_term: true
    pad: 1
    kernel_size: 3
    stride: 1
    weight_filler {
      type: "msra"
    }
    bias_filler {
      type: "constant"
    }
  }
}
layer {
  name: "BatchNorm9"
  type: "BatchNorm"
  bottom: "Convolution9"
  top: "Convolution9"
  param {
    lr_mult: 0
    decay_mult: 0
  }
  param {
    lr_mult: 0
    decay_mult: 0
  }
  param {
    lr_mult: 0
    decay_mult: 0
  }
  batch_norm_param {
    use_global_stats: false
  }
}
layer {
  name: "Scale9"
  type: "Scale"
  bottom: "Convolution9"
  top: "Convolution9"
  scale_param {
    bias_term: true
  }
}
layer {
  name: "Convolution10"
  type: "Convolution"
  bottom: "Eltwise10"
  top: "Convolution10"
  param {
    lr_mult: 1
    decay_mult: 1
  }
  param {
    lr_mult: 2
    decay_mult: 0
  }
  convolution_param {
    num_output: 32
    bias_term: true
    pad: 0
    kernel_size: 1
    stride: 2
    weight_filler {
      type: "msra"
    }
    bias_filler {
      type: "constant"
    }
  }
}
layer {
  name: "BatchNorm10"
  type: "BatchNorm"
  bottom: "Convolution10"
  top: "Convolution10"
  param {
    lr_mult: 0
    decay_mult: 0
  }
  param {
    lr_mult: 0
    decay_mult: 0
  }
  param {
    lr_mult: 0
    decay_mult: 0
  }
  batch_norm_param {
    use_global_stats: false
  }
}
layer {
  name: "Scale10"
  type: "Scale"
  bottom: "Convolution10"
  top: "Convolution10"
  scale_param {
    bias_term: true
  }
}
layer {
  name: "Eltwise12"
  type: "Eltwise"
  bottom: "Convolution9"
  bottom: "Convolution10"
  top: "Eltwise12"
  eltwise_param {
    operation: SUM
  }
}
layer {
  name: "Sigmoid9"
  type: "Sigmoid"
  bottom: "Eltwise12"
  top: "Sigmoid9"
}
layer {
  name: "Eltwise13"
  type: "Eltwise"
  bottom: "Eltwise12"
  bottom: "Sigmoid9"
  top: "Eltwise13"
  eltwise_param {
    operation: PROD
  }
}
layer {
  name: "Convolution11"
  type: "Convolution"
  bottom: "Eltwise13"
  top: "Convolution11"
  param {
    lr_mult: 1
    decay_mult: 1
  }
  param {
    lr_mult: 2
    decay_mult: 0
  }
  convolution_param {
    num_output: 32
    bias_term: true
    pad: 1
    kernel_size: 3
    stride: 1
    weight_filler {
      type: "msra"
    }
    bias_filler {
      type: "constant"
    }
  }
}
layer {
  name: "BatchNorm11"
  type: "BatchNorm"
  bottom: "Convolution11"
  top: "Convolution11"
  param {
    lr_mult: 0
    decay_mult: 0
  }
  param {
    lr_mult: 0
    decay_mult: 0
  }
  param {
    lr_mult: 0
    decay_mult: 0
  }
  batch_norm_param {
    use_global_stats: false
  }
}
layer {
  name: "Scale11"
  type: "Scale"
  bottom: "Convolution11"
  top: "Convolution11"
  scale_param {
    bias_term: true
  }
}
layer {
  name: "Sigmoid10"
  type: "Sigmoid"
  bottom: "Convolution11"
  top: "Sigmoid10"
}
layer {
  name: "Eltwise14"
  type: "Eltwise"
  bottom: "Convolution11"
  bottom: "Sigmoid10"
  top: "Eltwise14"
  eltwise_param {
    operation: PROD
  }
}
layer {
  name: "Convolution12"
  type: "Convolution"
  bottom: "Eltwise14"
  top: "Convolution12"
  param {
    lr_mult: 1
    decay_mult: 1
  }
  param {
    lr_mult: 2
    decay_mult: 0
  }
  convolution_param {
    num_output: 32
    bias_term: true
    pad: 1
    kernel_size: 3
    stride: 1
    weight_filler {
      type: "msra"
    }
    bias_filler {
      type: "constant"
    }
  }
}
layer {
  name: "BatchNorm12"
  type: "BatchNorm"
  bottom: "Convolution12"
  top: "Convolution12"
  param {
    lr_mult: 0
    decay_mult: 0
  }
  param {
    lr_mult: 0
    decay_mult: 0
  }
  param {
    lr_mult: 0
    decay_mult: 0
  }
  batch_norm_param {
    use_global_stats: false
  }
}
layer {
  name: "Scale12"
  type: "Scale"
  bottom: "Convolution12"
  top: "Convolution12"
  scale_param {
    bias_term: true
  }
}
layer {
  name: "Eltwise15"
  type: "Eltwise"
  bottom: "Convolution12"
  bottom: "Eltwise13"
  top: "Eltwise15"
  eltwise_param {
    operation: SUM
  }
}
layer {
  name: "Sigmoid11"
  type: "Sigmoid"
  bottom: "Eltwise15"
  top: "Sigmoid11"
}
layer {
  name: "Eltwise16"
  type: "Eltwise"
  bottom: "Eltwise15"
  bottom: "Sigmoid11"
  top: "Eltwise16"
  eltwise_param {
    operation: PROD
  }
}
layer {
  name: "Convolution13"
  type: "Convolution"
  bottom: "Eltwise16"
  top: "Convolution13"
  param {
    lr_mult: 1
    decay_mult: 1
  }
  param {
    lr_mult: 2
    decay_mult: 0
  }
  convolution_param {
    num_output: 32
    bias_term: true
    pad: 1
    kernel_size: 3
    stride: 1
    weight_filler {
      type: "msra"
    }
    bias_filler {
      type: "constant"
    }
  }
}
layer {
  name: "BatchNorm13"
  type: "BatchNorm"
  bottom: "Convolution13"
  top: "Convolution13"
  param {
    lr_mult: 0
    decay_mult: 0
  }
  param {
    lr_mult: 0
    decay_mult: 0
  }
  param {
    lr_mult: 0
    decay_mult: 0
  }
  batch_norm_param {
    use_global_stats: false
  }
}
layer {
  name: "Scale13"
  type: "Scale"
  bottom: "Convolution13"
  top: "Convolution13"
  scale_param {
    bias_term: true
  }
}
layer {
  name: "Sigmoid12"
  type: "Sigmoid"
  bottom: "Convolution13"
  top: "Sigmoid12"
}
layer {
  name: "Eltwise17"
  type: "Eltwise"
  bottom: "Convolution13"
  bottom: "Sigmoid12"
  top: "Eltwise17"
  eltwise_param {
    operation: PROD
  }
}
layer {
  name: "Convolution14"
  type: "Convolution"
  bottom: "Eltwise17"
  top: "Convolution14"
  param {
    lr_mult: 1
    decay_mult: 1
  }
  param {
    lr_mult: 2
    decay_mult: 0
  }
  convolution_param {
    num_output: 32
    bias_term: true
    pad: 1
    kernel_size: 3
    stride: 1
    weight_filler {
      type: "msra"
    }
    bias_filler {
      type: "constant"
    }
  }
}
layer {
  name: "BatchNorm14"
  type: "BatchNorm"
  bottom: "Convolution14"
  top: "Convolution14"
  param {
    lr_mult: 0
    decay_mult: 0
  }
  param {
    lr_mult: 0
    decay_mult: 0
  }
  param {
    lr_mult: 0
    decay_mult: 0
  }
  batch_norm_param {
    use_global_stats: false
  }
}
layer {
  name: "Scale14"
  type: "Scale"
  bottom: "Convolution14"
  top: "Convolution14"
  scale_param {
    bias_term: true
  }
}
layer {
  name: "Eltwise18"
  type: "Eltwise"
  bottom: "Convolution14"
  bottom: "Eltwise16"
  top: "Eltwise18"
  eltwise_param {
    operation: SUM
  }
}
layer {
  name: "Sigmoid13"
  type: "Sigmoid"
  bottom: "Eltwise18"
  top: "Sigmoid13"
}
layer {
  name: "Eltwise19"
  type: "Eltwise"
  bottom: "Eltwise18"
  bottom: "Sigmoid13"
  top: "Eltwise19"
  eltwise_param {
    operation: PROD
  }
}
layer {
  name: "Convolution15"
  type: "Convolution"
  bottom: "Eltwise19"
  top: "Convolution15"
  param {
    lr_mult: 1
    decay_mult: 1
  }
  param {
    lr_mult: 2
    decay_mult: 0
  }
  convolution_param {
    num_output: 64
    bias_term: true
    pad: 1
    kernel_size: 3
    stride: 2
    weight_filler {
      type: "msra"
    }
    bias_filler {
      type: "constant"
    }
  }
}
layer {
  name: "BatchNorm15"
  type: "BatchNorm"
  bottom: "Convolution15"
  top: "Convolution15"
  param {
    lr_mult: 0
    decay_mult: 0
  }
  param {
    lr_mult: 0
    decay_mult: 0
  }
  param {
    lr_mult: 0
    decay_mult: 0
  }
  batch_norm_param {
    use_global_stats: false
  }
}
layer {
  name: "Scale15"
  type: "Scale"
  bottom: "Convolution15"
  top: "Convolution15"
  scale_param {
    bias_term: true
  }
}
layer {
  name: "Sigmoid14"
  type: "Sigmoid"
  bottom: "Convolution15"
  top: "Sigmoid14"
}
layer {
  name: "Eltwise20"
  type: "Eltwise"
  bottom: "Convolution15"
  bottom: "Sigmoid14"
  top: "Eltwise20"
  eltwise_param {
    operation: PROD
  }
}
layer {
  name: "Convolution16"
  type: "Convolution"
  bottom: "Eltwise20"
  top: "Convolution16"
  param {
    lr_mult: 1
    decay_mult: 1
  }
  param {
    lr_mult: 2
    decay_mult: 0
  }
  convolution_param {
    num_output: 64
    bias_term: true
    pad: 1
    kernel_size: 3
    stride: 1
    weight_filler {
      type: "msra"
    }
    bias_filler {
      type: "constant"
    }
  }
}
layer {
  name: "BatchNorm16"
  type: "BatchNorm"
  bottom: "Convolution16"
  top: "Convolution16"
  param {
    lr_mult: 0
    decay_mult: 0
  }
  param {
    lr_mult: 0
    decay_mult: 0
  }
  param {
    lr_mult: 0
    decay_mult: 0
  }
  batch_norm_param {
    use_global_stats: false
  }
}
layer {
  name: "Scale16"
  type: "Scale"
  bottom: "Convolution16"
  top: "Convolution16"
  scale_param {
    bias_term: true
  }
}
layer {
  name: "Convolution17"
  type: "Convolution"
  bottom: "Eltwise19"
  top: "Convolution17"
  param {
    lr_mult: 1
    decay_mult: 1
  }
  param {
    lr_mult: 2
    decay_mult: 0
  }
  convolution_param {
    num_output: 64
    bias_term: true
    pad: 0
    kernel_size: 1
    stride: 2
    weight_filler {
      type: "msra"
    }
    bias_filler {
      type: "constant"
    }
  }
}
layer {
  name: "BatchNorm17"
  type: "BatchNorm"
  bottom: "Convolution17"
  top: "Convolution17"
  param {
    lr_mult: 0
    decay_mult: 0
  }
  param {
    lr_mult: 0
    decay_mult: 0
  }
  param {
    lr_mult: 0
    decay_mult: 0
  }
  batch_norm_param {
    use_global_stats: false
  }
}
layer {
  name: "Scale17"
  type: "Scale"
  bottom: "Convolution17"
  top: "Convolution17"
  scale_param {
    bias_term: true
  }
}
layer {
  name: "Eltwise21"
  type: "Eltwise"
  bottom: "Convolution16"
  bottom: "Convolution17"
  top: "Eltwise21"
  eltwise_param {
    operation: SUM
  }
}
layer {
  name: "Sigmoid15"
  type: "Sigmoid"
  bottom: "Eltwise21"
  top: "Sigmoid15"
}
layer {
  name: "Eltwise22"
  type: "Eltwise"
  bottom: "Eltwise21"
  bottom: "Sigmoid15"
  top: "Eltwise22"
  eltwise_param {
    operation: PROD
  }
}
layer {
  name: "Convolution18"
  type: "Convolution"
  bottom: "Eltwise22"
  top: "Convolution18"
  param {
    lr_mult: 1
    decay_mult: 1
  }
  param {
    lr_mult: 2
    decay_mult: 0
  }
  convolution_param {
    num_output: 64
    bias_term: true
    pad: 1
    kernel_size: 3
    stride: 1
    weight_filler {
      type: "msra"
    }
    bias_filler {
      type: "constant"
    }
  }
}
layer {
  name: "BatchNorm18"
  type: "BatchNorm"
  bottom: "Convolution18"
  top: "Convolution18"
  param {
    lr_mult: 0
    decay_mult: 0
  }
  param {
    lr_mult: 0
    decay_mult: 0
  }
  param {
    lr_mult: 0
    decay_mult: 0
  }
  batch_norm_param {
    use_global_stats: false
  }
}
layer {
  name: "Scale18"
  type: "Scale"
  bottom: "Convolution18"
  top: "Convolution18"
  scale_param {
    bias_term: true
  }
}
layer {
  name: "Sigmoid16"
  type: "Sigmoid"
  bottom: "Convolution18"
  top: "Sigmoid16"
}
layer {
  name: "Eltwise23"
  type: "Eltwise"
  bottom: "Convolution18"
  bottom: "Sigmoid16"
  top: "Eltwise23"
  eltwise_param {
    operation: PROD
  }
}
layer {
  name: "Convolution19"
  type: "Convolution"
  bottom: "Eltwise23"
  top: "Convolution19"
  param {
    lr_mult: 1
    decay_mult: 1
  }
  param {
    lr_mult: 2
    decay_mult: 0
  }
  convolution_param {
    num_output: 64
    bias_term: true
    pad: 1
    kernel_size: 3
    stride: 1
    weight_filler {
      type: "msra"
    }
    bias_filler {
      type: "constant"
    }
  }
}
layer {
  name: "BatchNorm19"
  type: "BatchNorm"
  bottom: "Convolution19"
  top: "Convolution19"
  param {
    lr_mult: 0
    decay_mult: 0
  }
  param {
    lr_mult: 0
    decay_mult: 0
  }
  param {
    lr_mult: 0
    decay_mult: 0
  }
  batch_norm_param {
    use_global_stats: false
  }
}
layer {
  name: "Scale19"
  type: "Scale"
  bottom: "Convolution19"
  top: "Convolution19"
  scale_param {
    bias_term: true
  }
}
layer {
  name: "Eltwise24"
  type: "Eltwise"
  bottom: "Convolution19"
  bottom: "Eltwise22"
  top: "Eltwise24"
  eltwise_param {
    operation: SUM
  }
}
layer {
  name: "Sigmoid17"
  type: "Sigmoid"
  bottom: "Eltwise24"
  top: "Sigmoid17"
}
layer {
  name: "Eltwise25"
  type: "Eltwise"
  bottom: "Eltwise24"
  bottom: "Sigmoid17"
  top: "Eltwise25"
  eltwise_param {
    operation: PROD
  }
}
layer {
  name: "Convolution20"
  type: "Convolution"
  bottom: "Eltwise25"
  top: "Convolution20"
  param {
    lr_mult: 1
    decay_mult: 1
  }
  param {
    lr_mult: 2
    decay_mult: 0
  }
  convolution_param {
    num_output: 64
    bias_term: true
    pad: 1
    kernel_size: 3
    stride: 1
    weight_filler {
      type: "msra"
    }
    bias_filler {
      type: "constant"
    }
  }
}
layer {
  name: "BatchNorm20"
  type: "BatchNorm"
  bottom: "Convolution20"
  top: "Convolution20"
  param {
    lr_mult: 0
    decay_mult: 0
  }
  param {
    lr_mult: 0
    decay_mult: 0
  }
  param {
    lr_mult: 0
    decay_mult: 0
  }
  batch_norm_param {
    use_global_stats: false
  }
}
layer {
  name: "Scale20"
  type: "Scale"
  bottom: "Convolution20"
  top: "Convolution20"
  scale_param {
    bias_term: true
  }
}
layer {
  name: "Sigmoid18"
  type: "Sigmoid"
  bottom: "Convolution20"
  top: "Sigmoid18"
}
layer {
  name: "Eltwise26"
  type: "Eltwise"
  bottom: "Convolution20"
  bottom: "Sigmoid18"
  top: "Eltwise26"
  eltwise_param {
    operation: PROD
  }
}
layer {
  name: "Convolution21"
  type: "Convolution"
  bottom: "Eltwise26"
  top: "Convolution21"
  param {
    lr_mult: 1
    decay_mult: 1
  }
  param {
    lr_mult: 2
    decay_mult: 0
  }
  convolution_param {
    num_output: 64
    bias_term: true
    pad: 1
    kernel_size: 3
    stride: 1
    weight_filler {
      type: "msra"
    }
    bias_filler {
      type: "constant"
    }
  }
}
layer {
  name: "BatchNorm21"
  type: "BatchNorm"
  bottom: "Convolution21"
  top: "Convolution21"
  param {
    lr_mult: 0
    decay_mult: 0
  }
  param {
    lr_mult: 0
    decay_mult: 0
  }
  param {
    lr_mult: 0
    decay_mult: 0
  }
  batch_norm_param {
    use_global_stats: false
  }
}
layer {
  name: "Scale21"
  type: "Scale"
  bottom: "Convolution21"
  top: "Convolution21"
  scale_param {
    bias_term: true
  }
}
layer {
  name: "Eltwise27"
  type: "Eltwise"
  bottom: "Convolution21"
  bottom: "Eltwise25"
  top: "Eltwise27"
  eltwise_param {
    operation: SUM
  }
}
layer {
  name: "Sigmoid19"
  type: "Sigmoid"
  bottom: "Eltwise27"
  top: "Sigmoid19"
}
layer {
  name: "Eltwise28"
  type: "Eltwise"
  bottom: "Eltwise27"
  bottom: "Sigmoid19"
  top: "Eltwise28"
  eltwise_param {
    operation: PROD
  }
}
layer {
  name: "Pooling1"
  type: "Pooling"
  bottom: "Eltwise28"
  top: "Pooling1"
  pooling_param {
    pool: AVE
    global_pooling: true
  }
}
layer {
  name: "InnerProduct1"
  type: "InnerProduct"
  bottom: "Pooling1"
  top: "InnerProduct1"
  inner_product_param {
    num_output: 10
    weight_filler {
      type: "msra"
    }
    bias_filler {
      type: "constant"
    }
  }
}
layer {
  name: "Accuracy1"
  type: "Accuracy"
  bottom: "InnerProduct1"
  bottom: "Data2"
  top: "Accuracy1"
}
layer {
  name: "SoftmaxWithLoss1"
  type: "SoftmaxWithLoss"
  bottom: "InnerProduct1"
  bottom: "Data2"
  top: "SoftmaxWithLoss1"
}
I1024 10:24:28.652586 33691 layer_factory.hpp:77] Creating layer Data1
I1024 10:24:28.652748 33691 db_lmdb.cpp:35] Opened lmdb /data/hjy1312/data/RESNET/cifar-10/cifar10_pad_train_lmdb
I1024 10:24:28.652827 33691 net.cpp:84] Creating Layer Data1
I1024 10:24:28.652849 33691 net.cpp:380] Data1 -> Data1
I1024 10:24:28.652895 33691 net.cpp:380] Data1 -> Data2
I1024 10:24:28.654494 33691 data_layer.cpp:45] output data size: 128,3,32,32
I1024 10:24:28.666271 33691 net.cpp:122] Setting up Data1
I1024 10:24:28.666321 33691 net.cpp:129] Top shape: 128 3 32 32 (393216)
I1024 10:24:28.666330 33691 net.cpp:129] Top shape: 128 (128)
I1024 10:24:28.666337 33691 net.cpp:137] Memory required for data: 1573376
I1024 10:24:28.666348 33691 layer_factory.hpp:77] Creating layer Data2_Data1_1_split
I1024 10:24:28.666364 33691 net.cpp:84] Creating Layer Data2_Data1_1_split
I1024 10:24:28.666373 33691 net.cpp:406] Data2_Data1_1_split <- Data2
I1024 10:24:28.666389 33691 net.cpp:380] Data2_Data1_1_split -> Data2_Data1_1_split_0
I1024 10:24:28.666404 33691 net.cpp:380] Data2_Data1_1_split -> Data2_Data1_1_split_1
I1024 10:24:28.666470 33691 net.cpp:122] Setting up Data2_Data1_1_split
I1024 10:24:28.666481 33691 net.cpp:129] Top shape: 128 (128)
I1024 10:24:28.666487 33691 net.cpp:129] Top shape: 128 (128)
I1024 10:24:28.666493 33691 net.cpp:137] Memory required for data: 1574400
I1024 10:24:28.666517 33691 layer_factory.hpp:77] Creating layer Convolution1
I1024 10:24:28.666554 33691 net.cpp:84] Creating Layer Convolution1
I1024 10:24:28.666564 33691 net.cpp:406] Convolution1 <- Data1
I1024 10:24:28.666574 33691 net.cpp:380] Convolution1 -> Convolution1
I1024 10:24:29.045609 33691 net.cpp:122] Setting up Convolution1
I1024 10:24:29.045666 33691 net.cpp:129] Top shape: 128 16 32 32 (2097152)
I1024 10:24:29.045675 33691 net.cpp:137] Memory required for data: 9963008
I1024 10:24:29.045693 33691 layer_factory.hpp:77] Creating layer BatchNorm1
I1024 10:24:29.045709 33691 net.cpp:84] Creating Layer BatchNorm1
I1024 10:24:29.045717 33691 net.cpp:406] BatchNorm1 <- Convolution1
I1024 10:24:29.045724 33691 net.cpp:367] BatchNorm1 -> Convolution1 (in-place)
I1024 10:24:29.045904 33691 net.cpp:122] Setting up BatchNorm1
I1024 10:24:29.045914 33691 net.cpp:129] Top shape: 128 16 32 32 (2097152)
I1024 10:24:29.045920 33691 net.cpp:137] Memory required for data: 18351616
I1024 10:24:29.045933 33691 layer_factory.hpp:77] Creating layer Scale1
I1024 10:24:29.045944 33691 net.cpp:84] Creating Layer Scale1
I1024 10:24:29.045949 33691 net.cpp:406] Scale1 <- Convolution1
I1024 10:24:29.045956 33691 net.cpp:367] Scale1 -> Convolution1 (in-place)
I1024 10:24:29.045997 33691 layer_factory.hpp:77] Creating layer Scale1
I1024 10:24:29.046104 33691 net.cpp:122] Setting up Scale1
I1024 10:24:29.046114 33691 net.cpp:129] Top shape: 128 16 32 32 (2097152)
I1024 10:24:29.046119 33691 net.cpp:137] Memory required for data: 26740224
I1024 10:24:29.046128 33691 layer_factory.hpp:77] Creating layer Convolution1_Scale1_0_split
I1024 10:24:29.046135 33691 net.cpp:84] Creating Layer Convolution1_Scale1_0_split
I1024 10:24:29.046141 33691 net.cpp:406] Convolution1_Scale1_0_split <- Convolution1
I1024 10:24:29.046149 33691 net.cpp:380] Convolution1_Scale1_0_split -> Convolution1_Scale1_0_split_0
I1024 10:24:29.046157 33691 net.cpp:380] Convolution1_Scale1_0_split -> Convolution1_Scale1_0_split_1
I1024 10:24:29.046191 33691 net.cpp:122] Setting up Convolution1_Scale1_0_split
I1024 10:24:29.046224 33691 net.cpp:129] Top shape: 128 16 32 32 (2097152)
I1024 10:24:29.046231 33691 net.cpp:129] Top shape: 128 16 32 32 (2097152)
I1024 10:24:29.046236 33691 net.cpp:137] Memory required for data: 43517440
I1024 10:24:29.046241 33691 layer_factory.hpp:77] Creating layer Sigmoid1
I1024 10:24:29.046248 33691 net.cpp:84] Creating Layer Sigmoid1
I1024 10:24:29.046253 33691 net.cpp:406] Sigmoid1 <- Convolution1_Scale1_0_split_0
I1024 10:24:29.046260 33691 net.cpp:380] Sigmoid1 -> Sigmoid1
I1024 10:24:29.047664 33691 net.cpp:122] Setting up Sigmoid1
I1024 10:24:29.047711 33691 net.cpp:129] Top shape: 128 16 32 32 (2097152)
I1024 10:24:29.047721 33691 net.cpp:137] Memory required for data: 51906048
I1024 10:24:29.047730 33691 layer_factory.hpp:77] Creating layer Eltwise1
I1024 10:24:29.047747 33691 net.cpp:84] Creating Layer Eltwise1
I1024 10:24:29.047756 33691 net.cpp:406] Eltwise1 <- Convolution1_Scale1_0_split_1
I1024 10:24:29.047767 33691 net.cpp:406] Eltwise1 <- Sigmoid1
I1024 10:24:29.047777 33691 net.cpp:380] Eltwise1 -> Eltwise1
I1024 10:24:29.047822 33691 net.cpp:122] Setting up Eltwise1
I1024 10:24:29.047834 33691 net.cpp:129] Top shape: 128 16 32 32 (2097152)
I1024 10:24:29.047840 33691 net.cpp:137] Memory required for data: 60294656
I1024 10:24:29.047848 33691 layer_factory.hpp:77] Creating layer Eltwise1_Eltwise1_0_split
I1024 10:24:29.047860 33691 net.cpp:84] Creating Layer Eltwise1_Eltwise1_0_split
I1024 10:24:29.047868 33691 net.cpp:406] Eltwise1_Eltwise1_0_split <- Eltwise1
I1024 10:24:29.047878 33691 net.cpp:380] Eltwise1_Eltwise1_0_split -> Eltwise1_Eltwise1_0_split_0
I1024 10:24:29.047888 33691 net.cpp:380] Eltwise1_Eltwise1_0_split -> Eltwise1_Eltwise1_0_split_1
I1024 10:24:29.047930 33691 net.cpp:122] Setting up Eltwise1_Eltwise1_0_split
I1024 10:24:29.047941 33691 net.cpp:129] Top shape: 128 16 32 32 (2097152)
I1024 10:24:29.047948 33691 net.cpp:129] Top shape: 128 16 32 32 (2097152)
I1024 10:24:29.047955 33691 net.cpp:137] Memory required for data: 77071872
I1024 10:24:29.047962 33691 layer_factory.hpp:77] Creating layer Convolution2
I1024 10:24:29.047981 33691 net.cpp:84] Creating Layer Convolution2
I1024 10:24:29.047988 33691 net.cpp:406] Convolution2 <- Eltwise1_Eltwise1_0_split_0
I1024 10:24:29.047999 33691 net.cpp:380] Convolution2 -> Convolution2
I1024 10:24:29.050878 33691 net.cpp:122] Setting up Convolution2
I1024 10:24:29.050902 33691 net.cpp:129] Top shape: 128 16 32 32 (2097152)
I1024 10:24:29.050910 33691 net.cpp:137] Memory required for data: 85460480
I1024 10:24:29.050928 33691 layer_factory.hpp:77] Creating layer BatchNorm2
I1024 10:24:29.050943 33691 net.cpp:84] Creating Layer BatchNorm2
I1024 10:24:29.050951 33691 net.cpp:406] BatchNorm2 <- Convolution2
I1024 10:24:29.050961 33691 net.cpp:367] BatchNorm2 -> Convolution2 (in-place)
I1024 10:24:29.051182 33691 net.cpp:122] Setting up BatchNorm2
I1024 10:24:29.051195 33691 net.cpp:129] Top shape: 128 16 32 32 (2097152)
I1024 10:24:29.051203 33691 net.cpp:137] Memory required for data: 93849088
I1024 10:24:29.051215 33691 layer_factory.hpp:77] Creating layer Scale2
I1024 10:24:29.051229 33691 net.cpp:84] Creating Layer Scale2
I1024 10:24:29.051235 33691 net.cpp:406] Scale2 <- Convolution2
I1024 10:24:29.051244 33691 net.cpp:367] Scale2 -> Convolution2 (in-place)
I1024 10:24:29.051290 33691 layer_factory.hpp:77] Creating layer Scale2
I1024 10:24:29.051426 33691 net.cpp:122] Setting up Scale2
I1024 10:24:29.051440 33691 net.cpp:129] Top shape: 128 16 32 32 (2097152)
I1024 10:24:29.051445 33691 net.cpp:137] Memory required for data: 102237696
I1024 10:24:29.051456 33691 layer_factory.hpp:77] Creating layer Convolution2_Scale2_0_split
I1024 10:24:29.051466 33691 net.cpp:84] Creating Layer Convolution2_Scale2_0_split
I1024 10:24:29.051473 33691 net.cpp:406] Convolution2_Scale2_0_split <- Convolution2
I1024 10:24:29.051484 33691 net.cpp:380] Convolution2_Scale2_0_split -> Convolution2_Scale2_0_split_0
I1024 10:24:29.051496 33691 net.cpp:380] Convolution2_Scale2_0_split -> Convolution2_Scale2_0_split_1
I1024 10:24:29.051548 33691 net.cpp:122] Setting up Convolution2_Scale2_0_split
I1024 10:24:29.051575 33691 net.cpp:129] Top shape: 128 16 32 32 (2097152)
I1024 10:24:29.051584 33691 net.cpp:129] Top shape: 128 16 32 32 (2097152)
I1024 10:24:29.051590 33691 net.cpp:137] Memory required for data: 119014912
I1024 10:24:29.051599 33691 layer_factory.hpp:77] Creating layer Sigmoid2
I1024 10:24:29.051612 33691 net.cpp:84] Creating Layer Sigmoid2
I1024 10:24:29.051620 33691 net.cpp:406] Sigmoid2 <- Convolution2_Scale2_0_split_0
I1024 10:24:29.051630 33691 net.cpp:380] Sigmoid2 -> Sigmoid2
I1024 10:24:29.052633 33691 net.cpp:122] Setting up Sigmoid2
I1024 10:24:29.052654 33691 net.cpp:129] Top shape: 128 16 32 32 (2097152)
I1024 10:24:29.052660 33691 net.cpp:137] Memory required for data: 127403520
I1024 10:24:29.052667 33691 layer_factory.hpp:77] Creating layer Eltwise2
I1024 10:24:29.052681 33691 net.cpp:84] Creating Layer Eltwise2
I1024 10:24:29.052688 33691 net.cpp:406] Eltwise2 <- Convolution2_Scale2_0_split_1
I1024 10:24:29.052698 33691 net.cpp:406] Eltwise2 <- Sigmoid2
I1024 10:24:29.052707 33691 net.cpp:380] Eltwise2 -> Eltwise2
I1024 10:24:29.052743 33691 net.cpp:122] Setting up Eltwise2
I1024 10:24:29.052755 33691 net.cpp:129] Top shape: 128 16 32 32 (2097152)
I1024 10:24:29.052762 33691 net.cpp:137] Memory required for data: 135792128
I1024 10:24:29.052769 33691 layer_factory.hpp:77] Creating layer Convolution3
I1024 10:24:29.052788 33691 net.cpp:84] Creating Layer Convolution3
I1024 10:24:29.052795 33691 net.cpp:406] Convolution3 <- Eltwise2
I1024 10:24:29.052808 33691 net.cpp:380] Convolution3 -> Convolution3
I1024 10:24:29.055377 33691 net.cpp:122] Setting up Convolution3
I1024 10:24:29.055400 33691 net.cpp:129] Top shape: 128 16 32 32 (2097152)
I1024 10:24:29.055408 33691 net.cpp:137] Memory required for data: 144180736
I1024 10:24:29.055419 33691 layer_factory.hpp:77] Creating layer BatchNorm3
I1024 10:24:29.055435 33691 net.cpp:84] Creating Layer BatchNorm3
I1024 10:24:29.055444 33691 net.cpp:406] BatchNorm3 <- Convolution3
I1024 10:24:29.055455 33691 net.cpp:367] BatchNorm3 -> Convolution3 (in-place)
I1024 10:24:29.055676 33691 net.cpp:122] Setting up BatchNorm3
I1024 10:24:29.055690 33691 net.cpp:129] Top shape: 128 16 32 32 (2097152)
I1024 10:24:29.055696 33691 net.cpp:137] Memory required for data: 152569344
I1024 10:24:29.055713 33691 layer_factory.hpp:77] Creating layer Scale3
I1024 10:24:29.055724 33691 net.cpp:84] Creating Layer Scale3
I1024 10:24:29.055732 33691 net.cpp:406] Scale3 <- Convolution3
I1024 10:24:29.055742 33691 net.cpp:367] Scale3 -> Convolution3 (in-place)
I1024 10:24:29.055788 33691 layer_factory.hpp:77] Creating layer Scale3
I1024 10:24:29.055927 33691 net.cpp:122] Setting up Scale3
I1024 10:24:29.055939 33691 net.cpp:129] Top shape: 128 16 32 32 (2097152)
I1024 10:24:29.055946 33691 net.cpp:137] Memory required for data: 160957952
I1024 10:24:29.055956 33691 layer_factory.hpp:77] Creating layer Eltwise3
I1024 10:24:29.055966 33691 net.cpp:84] Creating Layer Eltwise3
I1024 10:24:29.055974 33691 net.cpp:406] Eltwise3 <- Convolution3
I1024 10:24:29.055981 33691 net.cpp:406] Eltwise3 <- Eltwise1_Eltwise1_0_split_1
I1024 10:24:29.055994 33691 net.cpp:380] Eltwise3 -> Eltwise3
I1024 10:24:29.056025 33691 net.cpp:122] Setting up Eltwise3
I1024 10:24:29.056037 33691 net.cpp:129] Top shape: 128 16 32 32 (2097152)
I1024 10:24:29.056043 33691 net.cpp:137] Memory required for data: 169346560
I1024 10:24:29.056051 33691 layer_factory.hpp:77] Creating layer Eltwise3_Eltwise3_0_split
I1024 10:24:29.056061 33691 net.cpp:84] Creating Layer Eltwise3_Eltwise3_0_split
I1024 10:24:29.056067 33691 net.cpp:406] Eltwise3_Eltwise3_0_split <- Eltwise3
I1024 10:24:29.056077 33691 net.cpp:380] Eltwise3_Eltwise3_0_split -> Eltwise3_Eltwise3_0_split_0
I1024 10:24:29.056088 33691 net.cpp:380] Eltwise3_Eltwise3_0_split -> Eltwise3_Eltwise3_0_split_1
I1024 10:24:29.056129 33691 net.cpp:122] Setting up Eltwise3_Eltwise3_0_split
I1024 10:24:29.056139 33691 net.cpp:129] Top shape: 128 16 32 32 (2097152)
I1024 10:24:29.056157 33691 net.cpp:129] Top shape: 128 16 32 32 (2097152)
I1024 10:24:29.056175 33691 net.cpp:137] Memory required for data: 186123776
I1024 10:24:29.056182 33691 layer_factory.hpp:77] Creating layer Sigmoid3
I1024 10:24:29.056195 33691 net.cpp:84] Creating Layer Sigmoid3
I1024 10:24:29.056202 33691 net.cpp:406] Sigmoid3 <- Eltwise3_Eltwise3_0_split_0
I1024 10:24:29.056210 33691 net.cpp:380] Sigmoid3 -> Sigmoid3
I1024 10:24:29.056442 33691 net.cpp:122] Setting up Sigmoid3
I1024 10:24:29.056462 33691 net.cpp:129] Top shape: 128 16 32 32 (2097152)
I1024 10:24:29.056468 33691 net.cpp:137] Memory required for data: 194512384
I1024 10:24:29.056476 33691 layer_factory.hpp:77] Creating layer Eltwise4
I1024 10:24:29.056486 33691 net.cpp:84] Creating Layer Eltwise4
I1024 10:24:29.056494 33691 net.cpp:406] Eltwise4 <- Eltwise3_Eltwise3_0_split_1
I1024 10:24:29.056502 33691 net.cpp:406] Eltwise4 <- Sigmoid3
I1024 10:24:29.056511 33691 net.cpp:380] Eltwise4 -> Eltwise4
I1024 10:24:29.056543 33691 net.cpp:122] Setting up Eltwise4
I1024 10:24:29.056555 33691 net.cpp:129] Top shape: 128 16 32 32 (2097152)
I1024 10:24:29.056560 33691 net.cpp:137] Memory required for data: 202900992
I1024 10:24:29.056567 33691 layer_factory.hpp:77] Creating layer Eltwise4_Eltwise4_0_split
I1024 10:24:29.056576 33691 net.cpp:84] Creating Layer Eltwise4_Eltwise4_0_split
I1024 10:24:29.056583 33691 net.cpp:406] Eltwise4_Eltwise4_0_split <- Eltwise4
I1024 10:24:29.056594 33691 net.cpp:380] Eltwise4_Eltwise4_0_split -> Eltwise4_Eltwise4_0_split_0
I1024 10:24:29.056605 33691 net.cpp:380] Eltwise4_Eltwise4_0_split -> Eltwise4_Eltwise4_0_split_1
I1024 10:24:29.056649 33691 net.cpp:122] Setting up Eltwise4_Eltwise4_0_split
I1024 10:24:29.056661 33691 net.cpp:129] Top shape: 128 16 32 32 (2097152)
I1024 10:24:29.056669 33691 net.cpp:129] Top shape: 128 16 32 32 (2097152)
I1024 10:24:29.056676 33691 net.cpp:137] Memory required for data: 219678208
I1024 10:24:29.056684 33691 layer_factory.hpp:77] Creating layer Convolution4
I1024 10:24:29.056699 33691 net.cpp:84] Creating Layer Convolution4
I1024 10:24:29.056706 33691 net.cpp:406] Convolution4 <- Eltwise4_Eltwise4_0_split_0
I1024 10:24:29.056718 33691 net.cpp:380] Convolution4 -> Convolution4
I1024 10:24:29.059487 33691 net.cpp:122] Setting up Convolution4
I1024 10:24:29.059512 33691 net.cpp:129] Top shape: 128 16 32 32 (2097152)
I1024 10:24:29.059520 33691 net.cpp:137] Memory required for data: 228066816
I1024 10:24:29.059531 33691 layer_factory.hpp:77] Creating layer BatchNorm4
I1024 10:24:29.059543 33691 net.cpp:84] Creating Layer BatchNorm4
I1024 10:24:29.059552 33691 net.cpp:406] BatchNorm4 <- Convolution4
I1024 10:24:29.059568 33691 net.cpp:367] BatchNorm4 -> Convolution4 (in-place)
I1024 10:24:29.059794 33691 net.cpp:122] Setting up BatchNorm4
I1024 10:24:29.059808 33691 net.cpp:129] Top shape: 128 16 32 32 (2097152)
I1024 10:24:29.059814 33691 net.cpp:137] Memory required for data: 236455424
I1024 10:24:29.059826 33691 layer_factory.hpp:77] Creating layer Scale4
I1024 10:24:29.059836 33691 net.cpp:84] Creating Layer Scale4
I1024 10:24:29.059844 33691 net.cpp:406] Scale4 <- Convolution4
I1024 10:24:29.059852 33691 net.cpp:367] Scale4 -> Convolution4 (in-place)
I1024 10:24:29.059897 33691 layer_factory.hpp:77] Creating layer Scale4
I1024 10:24:29.060029 33691 net.cpp:122] Setting up Scale4
I1024 10:24:29.060044 33691 net.cpp:129] Top shape: 128 16 32 32 (2097152)
I1024 10:24:29.060050 33691 net.cpp:137] Memory required for data: 244844032
I1024 10:24:29.060060 33691 layer_factory.hpp:77] Creating layer Convolution4_Scale4_0_split
I1024 10:24:29.060075 33691 net.cpp:84] Creating Layer Convolution4_Scale4_0_split
I1024 10:24:29.060081 33691 net.cpp:406] Convolution4_Scale4_0_split <- Convolution4
I1024 10:24:29.060091 33691 net.cpp:380] Convolution4_Scale4_0_split -> Convolution4_Scale4_0_split_0
I1024 10:24:29.060103 33691 net.cpp:380] Convolution4_Scale4_0_split -> Convolution4_Scale4_0_split_1
I1024 10:24:29.060148 33691 net.cpp:122] Setting up Convolution4_Scale4_0_split
I1024 10:24:29.060166 33691 net.cpp:129] Top shape: 128 16 32 32 (2097152)
I1024 10:24:29.060183 33691 net.cpp:129] Top shape: 128 16 32 32 (2097152)
I1024 10:24:29.060189 33691 net.cpp:137] Memory required for data: 261621248
I1024 10:24:29.060197 33691 layer_factory.hpp:77] Creating layer Sigmoid4
I1024 10:24:29.060209 33691 net.cpp:84] Creating Layer Sigmoid4
I1024 10:24:29.060217 33691 net.cpp:406] Sigmoid4 <- Convolution4_Scale4_0_split_0
I1024 10:24:29.060226 33691 net.cpp:380] Sigmoid4 -> Sigmoid4
I1024 10:24:29.061240 33691 net.cpp:122] Setting up Sigmoid4
I1024 10:24:29.061261 33691 net.cpp:129] Top shape: 128 16 32 32 (2097152)
I1024 10:24:29.061269 33691 net.cpp:137] Memory required for data: 270009856
I1024 10:24:29.061277 33691 layer_factory.hpp:77] Creating layer Eltwise5
I1024 10:24:29.061290 33691 net.cpp:84] Creating Layer Eltwise5
I1024 10:24:29.061297 33691 net.cpp:406] Eltwise5 <- Convolution4_Scale4_0_split_1
I1024 10:24:29.061306 33691 net.cpp:406] Eltwise5 <- Sigmoid4
I1024 10:24:29.061316 33691 net.cpp:380] Eltwise5 -> Eltwise5
I1024 10:24:29.061348 33691 net.cpp:122] Setting up Eltwise5
I1024 10:24:29.061359 33691 net.cpp:129] Top shape: 128 16 32 32 (2097152)
I1024 10:24:29.061365 33691 net.cpp:137] Memory required for data: 278398464
I1024 10:24:29.061372 33691 layer_factory.hpp:77] Creating layer Convolution5
I1024 10:24:29.061391 33691 net.cpp:84] Creating Layer Convolution5
I1024 10:24:29.061400 33691 net.cpp:406] Convolution5 <- Eltwise5
I1024 10:24:29.061411 33691 net.cpp:380] Convolution5 -> Convolution5
I1024 10:24:29.063225 33691 net.cpp:122] Setting up Convolution5
I1024 10:24:29.063247 33691 net.cpp:129] Top shape: 128 16 32 32 (2097152)
I1024 10:24:29.063256 33691 net.cpp:137] Memory required for data: 286787072
I1024 10:24:29.063266 33691 layer_factory.hpp:77] Creating layer BatchNorm5
I1024 10:24:29.063279 33691 net.cpp:84] Creating Layer BatchNorm5
I1024 10:24:29.063287 33691 net.cpp:406] BatchNorm5 <- Convolution5
I1024 10:24:29.063297 33691 net.cpp:367] BatchNorm5 -> Convolution5 (in-place)
I1024 10:24:29.063526 33691 net.cpp:122] Setting up BatchNorm5
I1024 10:24:29.063539 33691 net.cpp:129] Top shape: 128 16 32 32 (2097152)
I1024 10:24:29.063546 33691 net.cpp:137] Memory required for data: 295175680
I1024 10:24:29.063565 33691 layer_factory.hpp:77] Creating layer Scale5
I1024 10:24:29.063576 33691 net.cpp:84] Creating Layer Scale5
I1024 10:24:29.063585 33691 net.cpp:406] Scale5 <- Convolution5
I1024 10:24:29.063593 33691 net.cpp:367] Scale5 -> Convolution5 (in-place)
I1024 10:24:29.063638 33691 layer_factory.hpp:77] Creating layer Scale5
I1024 10:24:29.063776 33691 net.cpp:122] Setting up Scale5
I1024 10:24:29.063788 33691 net.cpp:129] Top shape: 128 16 32 32 (2097152)
I1024 10:24:29.063796 33691 net.cpp:137] Memory required for data: 303564288
I1024 10:24:29.063804 33691 layer_factory.hpp:77] Creating layer Eltwise6
I1024 10:24:29.063820 33691 net.cpp:84] Creating Layer Eltwise6
I1024 10:24:29.063828 33691 net.cpp:406] Eltwise6 <- Convolution5
I1024 10:24:29.063836 33691 net.cpp:406] Eltwise6 <- Eltwise4_Eltwise4_0_split_1
I1024 10:24:29.063845 33691 net.cpp:380] Eltwise6 -> Eltwise6
I1024 10:24:29.063879 33691 net.cpp:122] Setting up Eltwise6
I1024 10:24:29.063890 33691 net.cpp:129] Top shape: 128 16 32 32 (2097152)
I1024 10:24:29.063897 33691 net.cpp:137] Memory required for data: 311952896
I1024 10:24:29.063904 33691 layer_factory.hpp:77] Creating layer Eltwise6_Eltwise6_0_split
I1024 10:24:29.063913 33691 net.cpp:84] Creating Layer Eltwise6_Eltwise6_0_split
I1024 10:24:29.063920 33691 net.cpp:406] Eltwise6_Eltwise6_0_split <- Eltwise6
I1024 10:24:29.063931 33691 net.cpp:380] Eltwise6_Eltwise6_0_split -> Eltwise6_Eltwise6_0_split_0
I1024 10:24:29.063942 33691 net.cpp:380] Eltwise6_Eltwise6_0_split -> Eltwise6_Eltwise6_0_split_1
I1024 10:24:29.063989 33691 net.cpp:122] Setting up Eltwise6_Eltwise6_0_split
I1024 10:24:29.064000 33691 net.cpp:129] Top shape: 128 16 32 32 (2097152)
I1024 10:24:29.064009 33691 net.cpp:129] Top shape: 128 16 32 32 (2097152)
I1024 10:24:29.064016 33691 net.cpp:137] Memory required for data: 328730112
I1024 10:24:29.064036 33691 layer_factory.hpp:77] Creating layer Sigmoid5
I1024 10:24:29.064047 33691 net.cpp:84] Creating Layer Sigmoid5
I1024 10:24:29.064054 33691 net.cpp:406] Sigmoid5 <- Eltwise6_Eltwise6_0_split_0
I1024 10:24:29.064064 33691 net.cpp:380] Sigmoid5 -> Sigmoid5
I1024 10:24:29.065086 33691 net.cpp:122] Setting up Sigmoid5
I1024 10:24:29.065107 33691 net.cpp:129] Top shape: 128 16 32 32 (2097152)
I1024 10:24:29.065114 33691 net.cpp:137] Memory required for data: 337118720
I1024 10:24:29.065121 33691 layer_factory.hpp:77] Creating layer Eltwise7
I1024 10:24:29.065132 33691 net.cpp:84] Creating Layer Eltwise7
I1024 10:24:29.065142 33691 net.cpp:406] Eltwise7 <- Eltwise6_Eltwise6_0_split_1
I1024 10:24:29.065152 33691 net.cpp:406] Eltwise7 <- Sigmoid5
I1024 10:24:29.065161 33691 net.cpp:380] Eltwise7 -> Eltwise7
I1024 10:24:29.065196 33691 net.cpp:122] Setting up Eltwise7
I1024 10:24:29.065207 33691 net.cpp:129] Top shape: 128 16 32 32 (2097152)
I1024 10:24:29.065212 33691 net.cpp:137] Memory required for data: 345507328
I1024 10:24:29.065219 33691 layer_factory.hpp:77] Creating layer Eltwise7_Eltwise7_0_split
I1024 10:24:29.065232 33691 net.cpp:84] Creating Layer Eltwise7_Eltwise7_0_split
I1024 10:24:29.065238 33691 net.cpp:406] Eltwise7_Eltwise7_0_split <- Eltwise7
I1024 10:24:29.065248 33691 net.cpp:380] Eltwise7_Eltwise7_0_split -> Eltwise7_Eltwise7_0_split_0
I1024 10:24:29.065261 33691 net.cpp:380] Eltwise7_Eltwise7_0_split -> Eltwise7_Eltwise7_0_split_1
I1024 10:24:29.065304 33691 net.cpp:122] Setting up Eltwise7_Eltwise7_0_split
I1024 10:24:29.065315 33691 net.cpp:129] Top shape: 128 16 32 32 (2097152)
I1024 10:24:29.065323 33691 net.cpp:129] Top shape: 128 16 32 32 (2097152)
I1024 10:24:29.065330 33691 net.cpp:137] Memory required for data: 362284544
I1024 10:24:29.065337 33691 layer_factory.hpp:77] Creating layer Convolution6
I1024 10:24:29.065356 33691 net.cpp:84] Creating Layer Convolution6
I1024 10:24:29.065363 33691 net.cpp:406] Convolution6 <- Eltwise7_Eltwise7_0_split_0
I1024 10:24:29.065376 33691 net.cpp:380] Convolution6 -> Convolution6
I1024 10:24:29.067952 33691 net.cpp:122] Setting up Convolution6
I1024 10:24:29.067978 33691 net.cpp:129] Top shape: 128 16 32 32 (2097152)
I1024 10:24:29.067987 33691 net.cpp:137] Memory required for data: 370673152
I1024 10:24:29.067998 33691 layer_factory.hpp:77] Creating layer BatchNorm6
I1024 10:24:29.068013 33691 net.cpp:84] Creating Layer BatchNorm6
I1024 10:24:29.068022 33691 net.cpp:406] BatchNorm6 <- Convolution6
I1024 10:24:29.068032 33691 net.cpp:367] BatchNorm6 -> Convolution6 (in-place)
I1024 10:24:29.068259 33691 net.cpp:122] Setting up BatchNorm6
I1024 10:24:29.068272 33691 net.cpp:129] Top shape: 128 16 32 32 (2097152)
I1024 10:24:29.068279 33691 net.cpp:137] Memory required for data: 379061760
I1024 10:24:29.068291 33691 layer_factory.hpp:77] Creating layer Scale6
I1024 10:24:29.068301 33691 net.cpp:84] Creating Layer Scale6
I1024 10:24:29.068308 33691 net.cpp:406] Scale6 <- Convolution6
I1024 10:24:29.068318 33691 net.cpp:367] Scale6 -> Convolution6 (in-place)
I1024 10:24:29.068370 33691 layer_factory.hpp:77] Creating layer Scale6
I1024 10:24:29.068508 33691 net.cpp:122] Setting up Scale6
I1024 10:24:29.068521 33691 net.cpp:129] Top shape: 128 16 32 32 (2097152)
I1024 10:24:29.068527 33691 net.cpp:137] Memory required for data: 387450368
I1024 10:24:29.068537 33691 layer_factory.hpp:77] Creating layer Convolution6_Scale6_0_split
I1024 10:24:29.068547 33691 net.cpp:84] Creating Layer Convolution6_Scale6_0_split
I1024 10:24:29.068554 33691 net.cpp:406] Convolution6_Scale6_0_split <- Convolution6
I1024 10:24:29.068565 33691 net.cpp:380] Convolution6_Scale6_0_split -> Convolution6_Scale6_0_split_0
I1024 10:24:29.068576 33691 net.cpp:380] Convolution6_Scale6_0_split -> Convolution6_Scale6_0_split_1
I1024 10:24:29.068624 33691 net.cpp:122] Setting up Convolution6_Scale6_0_split
I1024 10:24:29.068637 33691 net.cpp:129] Top shape: 128 16 32 32 (2097152)
I1024 10:24:29.068646 33691 net.cpp:129] Top shape: 128 16 32 32 (2097152)
I1024 10:24:29.068658 33691 net.cpp:137] Memory required for data: 404227584
I1024 10:24:29.068673 33691 layer_factory.hpp:77] Creating layer Sigmoid6
I1024 10:24:29.068684 33691 net.cpp:84] Creating Layer Sigmoid6
I1024 10:24:29.068691 33691 net.cpp:406] Sigmoid6 <- Convolution6_Scale6_0_split_0
I1024 10:24:29.068701 33691 net.cpp:380] Sigmoid6 -> Sigmoid6
I1024 10:24:29.068944 33691 net.cpp:122] Setting up Sigmoid6
I1024 10:24:29.068964 33691 net.cpp:129] Top shape: 128 16 32 32 (2097152)
I1024 10:24:29.068970 33691 net.cpp:137] Memory required for data: 412616192
I1024 10:24:29.068977 33691 layer_factory.hpp:77] Creating layer Eltwise8
I1024 10:24:29.068987 33691 net.cpp:84] Creating Layer Eltwise8
I1024 10:24:29.068995 33691 net.cpp:406] Eltwise8 <- Convolution6_Scale6_0_split_1
I1024 10:24:29.069005 33691 net.cpp:406] Eltwise8 <- Sigmoid6
I1024 10:24:29.069015 33691 net.cpp:380] Eltwise8 -> Eltwise8
I1024 10:24:29.069047 33691 net.cpp:122] Setting up Eltwise8
I1024 10:24:29.069061 33691 net.cpp:129] Top shape: 128 16 32 32 (2097152)
I1024 10:24:29.069068 33691 net.cpp:137] Memory required for data: 421004800
I1024 10:24:29.069075 33691 layer_factory.hpp:77] Creating layer Convolution7
I1024 10:24:29.069092 33691 net.cpp:84] Creating Layer Convolution7
I1024 10:24:29.069099 33691 net.cpp:406] Convolution7 <- Eltwise8
I1024 10:24:29.069109 33691 net.cpp:380] Convolution7 -> Convolution7
I1024 10:24:29.071828 33691 net.cpp:122] Setting up Convolution7
I1024 10:24:29.071851 33691 net.cpp:129] Top shape: 128 16 32 32 (2097152)
I1024 10:24:29.071861 33691 net.cpp:137] Memory required for data: 429393408
I1024 10:24:29.071871 33691 layer_factory.hpp:77] Creating layer BatchNorm7
I1024 10:24:29.071883 33691 net.cpp:84] Creating Layer BatchNorm7
I1024 10:24:29.071892 33691 net.cpp:406] BatchNorm7 <- Convolution7
I1024 10:24:29.071903 33691 net.cpp:367] BatchNorm7 -> Convolution7 (in-place)
I1024 10:24:29.072136 33691 net.cpp:122] Setting up BatchNorm7
I1024 10:24:29.072149 33691 net.cpp:129] Top shape: 128 16 32 32 (2097152)
I1024 10:24:29.072156 33691 net.cpp:137] Memory required for data: 437782016
I1024 10:24:29.072168 33691 layer_factory.hpp:77] Creating layer Scale7
I1024 10:24:29.072180 33691 net.cpp:84] Creating Layer Scale7
I1024 10:24:29.072186 33691 net.cpp:406] Scale7 <- Convolution7
I1024 10:24:29.072196 33691 net.cpp:367] Scale7 -> Convolution7 (in-place)
I1024 10:24:29.072243 33691 layer_factory.hpp:77] Creating layer Scale7
I1024 10:24:29.072382 33691 net.cpp:122] Setting up Scale7
I1024 10:24:29.072396 33691 net.cpp:129] Top shape: 128 16 32 32 (2097152)
I1024 10:24:29.072402 33691 net.cpp:137] Memory required for data: 446170624
I1024 10:24:29.072412 33691 layer_factory.hpp:77] Creating layer Eltwise9
I1024 10:24:29.072422 33691 net.cpp:84] Creating Layer Eltwise9
I1024 10:24:29.072429 33691 net.cpp:406] Eltwise9 <- Convolution7
I1024 10:24:29.072438 33691 net.cpp:406] Eltwise9 <- Eltwise7_Eltwise7_0_split_1
I1024 10:24:29.072448 33691 net.cpp:380] Eltwise9 -> Eltwise9
I1024 10:24:29.072479 33691 net.cpp:122] Setting up Eltwise9
I1024 10:24:29.072490 33691 net.cpp:129] Top shape: 128 16 32 32 (2097152)
I1024 10:24:29.072497 33691 net.cpp:137] Memory required for data: 454559232
I1024 10:24:29.072504 33691 layer_factory.hpp:77] Creating layer Eltwise9_Eltwise9_0_split
I1024 10:24:29.072516 33691 net.cpp:84] Creating Layer Eltwise9_Eltwise9_0_split
I1024 10:24:29.072523 33691 net.cpp:406] Eltwise9_Eltwise9_0_split <- Eltwise9
I1024 10:24:29.072531 33691 net.cpp:380] Eltwise9_Eltwise9_0_split -> Eltwise9_Eltwise9_0_split_0
I1024 10:24:29.072541 33691 net.cpp:380] Eltwise9_Eltwise9_0_split -> Eltwise9_Eltwise9_0_split_1
I1024 10:24:29.072590 33691 net.cpp:122] Setting up Eltwise9_Eltwise9_0_split
I1024 10:24:29.072602 33691 net.cpp:129] Top shape: 128 16 32 32 (2097152)
I1024 10:24:29.072610 33691 net.cpp:129] Top shape: 128 16 32 32 (2097152)
I1024 10:24:29.072618 33691 net.cpp:137] Memory required for data: 471336448
I1024 10:24:29.072624 33691 layer_factory.hpp:77] Creating layer Sigmoid7
I1024 10:24:29.072638 33691 net.cpp:84] Creating Layer Sigmoid7
I1024 10:24:29.072655 33691 net.cpp:406] Sigmoid7 <- Eltwise9_Eltwise9_0_split_0
I1024 10:24:29.072664 33691 net.cpp:380] Sigmoid7 -> Sigmoid7
I1024 10:24:29.075420 33691 net.cpp:122] Setting up Sigmoid7
I1024 10:24:29.075443 33691 net.cpp:129] Top shape: 128 16 32 32 (2097152)
I1024 10:24:29.075450 33691 net.cpp:137] Memory required for data: 479725056
I1024 10:24:29.075458 33691 layer_factory.hpp:77] Creating layer Eltwise10
I1024 10:24:29.075469 33691 net.cpp:84] Creating Layer Eltwise10
I1024 10:24:29.075476 33691 net.cpp:406] Eltwise10 <- Eltwise9_Eltwise9_0_split_1
I1024 10:24:29.075485 33691 net.cpp:406] Eltwise10 <- Sigmoid7
I1024 10:24:29.075496 33691 net.cpp:380] Eltwise10 -> Eltwise10
I1024 10:24:29.075529 33691 net.cpp:122] Setting up Eltwise10
I1024 10:24:29.075541 33691 net.cpp:129] Top shape: 128 16 32 32 (2097152)
I1024 10:24:29.075546 33691 net.cpp:137] Memory required for data: 488113664
I1024 10:24:29.075553 33691 layer_factory.hpp:77] Creating layer Eltwise10_Eltwise10_0_split
I1024 10:24:29.075567 33691 net.cpp:84] Creating Layer Eltwise10_Eltwise10_0_split
I1024 10:24:29.075574 33691 net.cpp:406] Eltwise10_Eltwise10_0_split <- Eltwise10
I1024 10:24:29.075583 33691 net.cpp:380] Eltwise10_Eltwise10_0_split -> Eltwise10_Eltwise10_0_split_0
I1024 10:24:29.075597 33691 net.cpp:380] Eltwise10_Eltwise10_0_split -> Eltwise10_Eltwise10_0_split_1
I1024 10:24:29.075642 33691 net.cpp:122] Setting up Eltwise10_Eltwise10_0_split
I1024 10:24:29.075654 33691 net.cpp:129] Top shape: 128 16 32 32 (2097152)
I1024 10:24:29.075662 33691 net.cpp:129] Top shape: 128 16 32 32 (2097152)
I1024 10:24:29.075669 33691 net.cpp:137] Memory required for data: 504890880
I1024 10:24:29.075675 33691 layer_factory.hpp:77] Creating layer Convolution8
I1024 10:24:29.075690 33691 net.cpp:84] Creating Layer Convolution8
I1024 10:24:29.075698 33691 net.cpp:406] Convolution8 <- Eltwise10_Eltwise10_0_split_0
I1024 10:24:29.075711 33691 net.cpp:380] Convolution8 -> Convolution8
I1024 10:24:29.079676 33691 net.cpp:122] Setting up Convolution8
I1024 10:24:29.079713 33691 net.cpp:129] Top shape: 128 32 16 16 (1048576)
I1024 10:24:29.079721 33691 net.cpp:137] Memory required for data: 509085184
I1024 10:24:29.079730 33691 layer_factory.hpp:77] Creating layer BatchNorm8
I1024 10:24:29.079743 33691 net.cpp:84] Creating Layer BatchNorm8
I1024 10:24:29.079751 33691 net.cpp:406] BatchNorm8 <- Convolution8
I1024 10:24:29.079761 33691 net.cpp:367] BatchNorm8 -> Convolution8 (in-place)
I1024 10:24:29.079954 33691 net.cpp:122] Setting up BatchNorm8
I1024 10:24:29.079964 33691 net.cpp:129] Top shape: 128 32 16 16 (1048576)
I1024 10:24:29.079969 33691 net.cpp:137] Memory required for data: 513279488
I1024 10:24:29.079978 33691 layer_factory.hpp:77] Creating layer Scale8
I1024 10:24:29.079988 33691 net.cpp:84] Creating Layer Scale8
I1024 10:24:29.079994 33691 net.cpp:406] Scale8 <- Convolution8
I1024 10:24:29.080001 33691 net.cpp:367] Scale8 -> Convolution8 (in-place)
I1024 10:24:29.080037 33691 layer_factory.hpp:77] Creating layer Scale8
I1024 10:24:29.080152 33691 net.cpp:122] Setting up Scale8
I1024 10:24:29.080163 33691 net.cpp:129] Top shape: 128 32 16 16 (1048576)
I1024 10:24:29.080166 33691 net.cpp:137] Memory required for data: 517473792
I1024 10:24:29.080174 33691 layer_factory.hpp:77] Creating layer Convolution8_Scale8_0_split
I1024 10:24:29.080181 33691 net.cpp:84] Creating Layer Convolution8_Scale8_0_split
I1024 10:24:29.080188 33691 net.cpp:406] Convolution8_Scale8_0_split <- Convolution8
I1024 10:24:29.080193 33691 net.cpp:380] Convolution8_Scale8_0_split -> Convolution8_Scale8_0_split_0
I1024 10:24:29.080204 33691 net.cpp:380] Convolution8_Scale8_0_split -> Convolution8_Scale8_0_split_1
I1024 10:24:29.080238 33691 net.cpp:122] Setting up Convolution8_Scale8_0_split
I1024 10:24:29.080246 33691 net.cpp:129] Top shape: 128 32 16 16 (1048576)
I1024 10:24:29.080252 33691 net.cpp:129] Top shape: 128 32 16 16 (1048576)
I1024 10:24:29.080257 33691 net.cpp:137] Memory required for data: 525862400
I1024 10:24:29.080268 33691 layer_factory.hpp:77] Creating layer Sigmoid8
I1024 10:24:29.080288 33691 net.cpp:84] Creating Layer Sigmoid8
I1024 10:24:29.080294 33691 net.cpp:406] Sigmoid8 <- Convolution8_Scale8_0_split_0
I1024 10:24:29.080303 33691 net.cpp:380] Sigmoid8 -> Sigmoid8
I1024 10:24:29.081239 33691 net.cpp:122] Setting up Sigmoid8
I1024 10:24:29.081257 33691 net.cpp:129] Top shape: 128 32 16 16 (1048576)
I1024 10:24:29.081264 33691 net.cpp:137] Memory required for data: 530056704
I1024 10:24:29.081269 33691 layer_factory.hpp:77] Creating layer Eltwise11
I1024 10:24:29.081277 33691 net.cpp:84] Creating Layer Eltwise11
I1024 10:24:29.081282 33691 net.cpp:406] Eltwise11 <- Convolution8_Scale8_0_split_1
I1024 10:24:29.081290 33691 net.cpp:406] Eltwise11 <- Sigmoid8
I1024 10:24:29.081298 33691 net.cpp:380] Eltwise11 -> Eltwise11
I1024 10:24:29.081328 33691 net.cpp:122] Setting up Eltwise11
I1024 10:24:29.081341 33691 net.cpp:129] Top shape: 128 32 16 16 (1048576)
I1024 10:24:29.081344 33691 net.cpp:137] Memory required for data: 534251008
I1024 10:24:29.081349 33691 layer_factory.hpp:77] Creating layer Convolution9
I1024 10:24:29.081362 33691 net.cpp:84] Creating Layer Convolution9
I1024 10:24:29.081368 33691 net.cpp:406] Convolution9 <- Eltwise11
I1024 10:24:29.081375 33691 net.cpp:380] Convolution9 -> Convolution9
I1024 10:24:29.084112 33691 net.cpp:122] Setting up Convolution9
I1024 10:24:29.084132 33691 net.cpp:129] Top shape: 128 32 16 16 (1048576)
I1024 10:24:29.084138 33691 net.cpp:137] Memory required for data: 538445312
I1024 10:24:29.084146 33691 layer_factory.hpp:77] Creating layer BatchNorm9
I1024 10:24:29.084156 33691 net.cpp:84] Creating Layer BatchNorm9
I1024 10:24:29.084161 33691 net.cpp:406] BatchNorm9 <- Convolution9
I1024 10:24:29.084170 33691 net.cpp:367] BatchNorm9 -> Convolution9 (in-place)
I1024 10:24:29.084360 33691 net.cpp:122] Setting up BatchNorm9
I1024 10:24:29.084370 33691 net.cpp:129] Top shape: 128 32 16 16 (1048576)
I1024 10:24:29.084375 33691 net.cpp:137] Memory required for data: 542639616
I1024 10:24:29.084383 33691 layer_factory.hpp:77] Creating layer Scale9
I1024 10:24:29.084391 33691 net.cpp:84] Creating Layer Scale9
I1024 10:24:29.084396 33691 net.cpp:406] Scale9 <- Convolution9
I1024 10:24:29.084403 33691 net.cpp:367] Scale9 -> Convolution9 (in-place)
I1024 10:24:29.084440 33691 layer_factory.hpp:77] Creating layer Scale9
I1024 10:24:29.084558 33691 net.cpp:122] Setting up Scale9
I1024 10:24:29.084568 33691 net.cpp:129] Top shape: 128 32 16 16 (1048576)
I1024 10:24:29.084573 33691 net.cpp:137] Memory required for data: 546833920
I1024 10:24:29.084580 33691 layer_factory.hpp:77] Creating layer Convolution10
I1024 10:24:29.084592 33691 net.cpp:84] Creating Layer Convolution10
I1024 10:24:29.084599 33691 net.cpp:406] Convolution10 <- Eltwise10_Eltwise10_0_split_1
I1024 10:24:29.084606 33691 net.cpp:380] Convolution10 -> Convolution10
I1024 10:24:29.086940 33691 net.cpp:122] Setting up Convolution10
I1024 10:24:29.086961 33691 net.cpp:129] Top shape: 128 32 16 16 (1048576)
I1024 10:24:29.086966 33691 net.cpp:137] Memory required for data: 551028224
I1024 10:24:29.086988 33691 layer_factory.hpp:77] Creating layer BatchNorm10
I1024 10:24:29.086999 33691 net.cpp:84] Creating Layer BatchNorm10
I1024 10:24:29.087005 33691 net.cpp:406] BatchNorm10 <- Convolution10
I1024 10:24:29.087013 33691 net.cpp:367] BatchNorm10 -> Convolution10 (in-place)
I1024 10:24:29.087206 33691 net.cpp:122] Setting up BatchNorm10
I1024 10:24:29.087218 33691 net.cpp:129] Top shape: 128 32 16 16 (1048576)
I1024 10:24:29.087221 33691 net.cpp:137] Memory required for data: 555222528
I1024 10:24:29.087230 33691 layer_factory.hpp:77] Creating layer Scale10
I1024 10:24:29.087240 33691 net.cpp:84] Creating Layer Scale10
I1024 10:24:29.087245 33691 net.cpp:406] Scale10 <- Convolution10
I1024 10:24:29.087251 33691 net.cpp:367] Scale10 -> Convolution10 (in-place)
I1024 10:24:29.087287 33691 layer_factory.hpp:77] Creating layer Scale10
I1024 10:24:29.087402 33691 net.cpp:122] Setting up Scale10
I1024 10:24:29.087419 33691 net.cpp:129] Top shape: 128 32 16 16 (1048576)
I1024 10:24:29.087431 33691 net.cpp:137] Memory required for data: 559416832
I1024 10:24:29.087440 33691 layer_factory.hpp:77] Creating layer Eltwise12
I1024 10:24:29.087446 33691 net.cpp:84] Creating Layer Eltwise12
I1024 10:24:29.087452 33691 net.cpp:406] Eltwise12 <- Convolution9
I1024 10:24:29.087458 33691 net.cpp:406] Eltwise12 <- Convolution10
I1024 10:24:29.087466 33691 net.cpp:380] Eltwise12 -> Eltwise12
I1024 10:24:29.087491 33691 net.cpp:122] Setting up Eltwise12
I1024 10:24:29.087498 33691 net.cpp:129] Top shape: 128 32 16 16 (1048576)
I1024 10:24:29.087502 33691 net.cpp:137] Memory required for data: 563611136
I1024 10:24:29.087507 33691 layer_factory.hpp:77] Creating layer Eltwise12_Eltwise12_0_split
I1024 10:24:29.087523 33691 net.cpp:84] Creating Layer Eltwise12_Eltwise12_0_split
I1024 10:24:29.087529 33691 net.cpp:406] Eltwise12_Eltwise12_0_split <- Eltwise12
I1024 10:24:29.087538 33691 net.cpp:380] Eltwise12_Eltwise12_0_split -> Eltwise12_Eltwise12_0_split_0
I1024 10:24:29.087546 33691 net.cpp:380] Eltwise12_Eltwise12_0_split -> Eltwise12_Eltwise12_0_split_1
I1024 10:24:29.087582 33691 net.cpp:122] Setting up Eltwise12_Eltwise12_0_split
I1024 10:24:29.087590 33691 net.cpp:129] Top shape: 128 32 16 16 (1048576)
I1024 10:24:29.087596 33691 net.cpp:129] Top shape: 128 32 16 16 (1048576)
I1024 10:24:29.087601 33691 net.cpp:137] Memory required for data: 571999744
I1024 10:24:29.087606 33691 layer_factory.hpp:77] Creating layer Sigmoid9
I1024 10:24:29.087615 33691 net.cpp:84] Creating Layer Sigmoid9
I1024 10:24:29.087621 33691 net.cpp:406] Sigmoid9 <- Eltwise12_Eltwise12_0_split_0
I1024 10:24:29.087628 33691 net.cpp:380] Sigmoid9 -> Sigmoid9
I1024 10:24:29.087829 33691 net.cpp:122] Setting up Sigmoid9
I1024 10:24:29.087846 33691 net.cpp:129] Top shape: 128 32 16 16 (1048576)
I1024 10:24:29.087851 33691 net.cpp:137] Memory required for data: 576194048
I1024 10:24:29.087855 33691 layer_factory.hpp:77] Creating layer Eltwise13
I1024 10:24:29.087863 33691 net.cpp:84] Creating Layer Eltwise13
I1024 10:24:29.087868 33691 net.cpp:406] Eltwise13 <- Eltwise12_Eltwise12_0_split_1
I1024 10:24:29.087875 33691 net.cpp:406] Eltwise13 <- Sigmoid9
I1024 10:24:29.087882 33691 net.cpp:380] Eltwise13 -> Eltwise13
I1024 10:24:29.087910 33691 net.cpp:122] Setting up Eltwise13
I1024 10:24:29.087919 33691 net.cpp:129] Top shape: 128 32 16 16 (1048576)
I1024 10:24:29.087924 33691 net.cpp:137] Memory required for data: 580388352
I1024 10:24:29.087929 33691 layer_factory.hpp:77] Creating layer Eltwise13_Eltwise13_0_split
I1024 10:24:29.087937 33691 net.cpp:84] Creating Layer Eltwise13_Eltwise13_0_split
I1024 10:24:29.087942 33691 net.cpp:406] Eltwise13_Eltwise13_0_split <- Eltwise13
I1024 10:24:29.087949 33691 net.cpp:380] Eltwise13_Eltwise13_0_split -> Eltwise13_Eltwise13_0_split_0
I1024 10:24:29.087956 33691 net.cpp:380] Eltwise13_Eltwise13_0_split -> Eltwise13_Eltwise13_0_split_1
I1024 10:24:29.087994 33691 net.cpp:122] Setting up Eltwise13_Eltwise13_0_split
I1024 10:24:29.088002 33691 net.cpp:129] Top shape: 128 32 16 16 (1048576)
I1024 10:24:29.088008 33691 net.cpp:129] Top shape: 128 32 16 16 (1048576)
I1024 10:24:29.088012 33691 net.cpp:137] Memory required for data: 588776960
I1024 10:24:29.088017 33691 layer_factory.hpp:77] Creating layer Convolution11
I1024 10:24:29.088029 33691 net.cpp:84] Creating Layer Convolution11
I1024 10:24:29.088034 33691 net.cpp:406] Convolution11 <- Eltwise13_Eltwise13_0_split_0
I1024 10:24:29.088043 33691 net.cpp:380] Convolution11 -> Convolution11
I1024 10:24:29.090556 33691 net.cpp:122] Setting up Convolution11
I1024 10:24:29.090579 33691 net.cpp:129] Top shape: 128 32 16 16 (1048576)
I1024 10:24:29.090585 33691 net.cpp:137] Memory required for data: 592971264
I1024 10:24:29.090593 33691 layer_factory.hpp:77] Creating layer BatchNorm11
I1024 10:24:29.090605 33691 net.cpp:84] Creating Layer BatchNorm11
I1024 10:24:29.090610 33691 net.cpp:406] BatchNorm11 <- Convolution11
I1024 10:24:29.090617 33691 net.cpp:367] BatchNorm11 -> Convolution11 (in-place)
I1024 10:24:29.090816 33691 net.cpp:122] Setting up BatchNorm11
I1024 10:24:29.090833 33691 net.cpp:129] Top shape: 128 32 16 16 (1048576)
I1024 10:24:29.090838 33691 net.cpp:137] Memory required for data: 597165568
I1024 10:24:29.090847 33691 layer_factory.hpp:77] Creating layer Scale11
I1024 10:24:29.090857 33691 net.cpp:84] Creating Layer Scale11
I1024 10:24:29.090863 33691 net.cpp:406] Scale11 <- Convolution11
I1024 10:24:29.090869 33691 net.cpp:367] Scale11 -> Convolution11 (in-place)
I1024 10:24:29.090909 33691 layer_factory.hpp:77] Creating layer Scale11
I1024 10:24:29.091025 33691 net.cpp:122] Setting up Scale11
I1024 10:24:29.091035 33691 net.cpp:129] Top shape: 128 32 16 16 (1048576)
I1024 10:24:29.091040 33691 net.cpp:137] Memory required for data: 601359872
I1024 10:24:29.091048 33691 layer_factory.hpp:77] Creating layer Convolution11_Scale11_0_split
I1024 10:24:29.091054 33691 net.cpp:84] Creating Layer Convolution11_Scale11_0_split
I1024 10:24:29.091059 33691 net.cpp:406] Convolution11_Scale11_0_split <- Convolution11
I1024 10:24:29.091068 33691 net.cpp:380] Convolution11_Scale11_0_split -> Convolution11_Scale11_0_split_0
I1024 10:24:29.091076 33691 net.cpp:380] Convolution11_Scale11_0_split -> Convolution11_Scale11_0_split_1
I1024 10:24:29.091112 33691 net.cpp:122] Setting up Convolution11_Scale11_0_split
I1024 10:24:29.091121 33691 net.cpp:129] Top shape: 128 32 16 16 (1048576)
I1024 10:24:29.091127 33691 net.cpp:129] Top shape: 128 32 16 16 (1048576)
I1024 10:24:29.091131 33691 net.cpp:137] Memory required for data: 609748480
I1024 10:24:29.091136 33691 layer_factory.hpp:77] Creating layer Sigmoid10
I1024 10:24:29.091146 33691 net.cpp:84] Creating Layer Sigmoid10
I1024 10:24:29.091152 33691 net.cpp:406] Sigmoid10 <- Convolution11_Scale11_0_split_0
I1024 10:24:29.091159 33691 net.cpp:380] Sigmoid10 -> Sigmoid10
I1024 10:24:29.091361 33691 net.cpp:122] Setting up Sigmoid10
I1024 10:24:29.091375 33691 net.cpp:129] Top shape: 128 32 16 16 (1048576)
I1024 10:24:29.091380 33691 net.cpp:137] Memory required for data: 613942784
I1024 10:24:29.091385 33691 layer_factory.hpp:77] Creating layer Eltwise14
I1024 10:24:29.091392 33691 net.cpp:84] Creating Layer Eltwise14
I1024 10:24:29.091398 33691 net.cpp:406] Eltwise14 <- Convolution11_Scale11_0_split_1
I1024 10:24:29.091404 33691 net.cpp:406] Eltwise14 <- Sigmoid10
I1024 10:24:29.091411 33691 net.cpp:380] Eltwise14 -> Eltwise14
I1024 10:24:29.091441 33691 net.cpp:122] Setting up Eltwise14
I1024 10:24:29.091450 33691 net.cpp:129] Top shape: 128 32 16 16 (1048576)
I1024 10:24:29.091454 33691 net.cpp:137] Memory required for data: 618137088
I1024 10:24:29.091459 33691 layer_factory.hpp:77] Creating layer Convolution12
I1024 10:24:29.091470 33691 net.cpp:84] Creating Layer Convolution12
I1024 10:24:29.091483 33691 net.cpp:406] Convolution12 <- Eltwise14
I1024 10:24:29.091500 33691 net.cpp:380] Convolution12 -> Convolution12
I1024 10:24:29.093996 33691 net.cpp:122] Setting up Convolution12
I1024 10:24:29.094013 33691 net.cpp:129] Top shape: 128 32 16 16 (1048576)
I1024 10:24:29.094019 33691 net.cpp:137] Memory required for data: 622331392
I1024 10:24:29.094027 33691 layer_factory.hpp:77] Creating layer BatchNorm12
I1024 10:24:29.094038 33691 net.cpp:84] Creating Layer BatchNorm12
I1024 10:24:29.094043 33691 net.cpp:406] BatchNorm12 <- Convolution12
I1024 10:24:29.094053 33691 net.cpp:367] BatchNorm12 -> Convolution12 (in-place)
I1024 10:24:29.094250 33691 net.cpp:122] Setting up BatchNorm12
I1024 10:24:29.094260 33691 net.cpp:129] Top shape: 128 32 16 16 (1048576)
I1024 10:24:29.094264 33691 net.cpp:137] Memory required for data: 626525696
I1024 10:24:29.094274 33691 layer_factory.hpp:77] Creating layer Scale12
I1024 10:24:29.094280 33691 net.cpp:84] Creating Layer Scale12
I1024 10:24:29.094286 33691 net.cpp:406] Scale12 <- Convolution12
I1024 10:24:29.094292 33691 net.cpp:367] Scale12 -> Convolution12 (in-place)
I1024 10:24:29.094331 33691 layer_factory.hpp:77] Creating layer Scale12
I1024 10:24:29.094447 33691 net.cpp:122] Setting up Scale12
I1024 10:24:29.094461 33691 net.cpp:129] Top shape: 128 32 16 16 (1048576)
I1024 10:24:29.094473 33691 net.cpp:137] Memory required for data: 630720000
I1024 10:24:29.094480 33691 layer_factory.hpp:77] Creating layer Eltwise15
I1024 10:24:29.094491 33691 net.cpp:84] Creating Layer Eltwise15
I1024 10:24:29.094504 33691 net.cpp:406] Eltwise15 <- Convolution12
I1024 10:24:29.094517 33691 net.cpp:406] Eltwise15 <- Eltwise13_Eltwise13_0_split_1
I1024 10:24:29.094525 33691 net.cpp:380] Eltwise15 -> Eltwise15
I1024 10:24:29.094555 33691 net.cpp:122] Setting up Eltwise15
I1024 10:24:29.094565 33691 net.cpp:129] Top shape: 128 32 16 16 (1048576)
I1024 10:24:29.094569 33691 net.cpp:137] Memory required for data: 634914304
I1024 10:24:29.094574 33691 layer_factory.hpp:77] Creating layer Eltwise15_Eltwise15_0_split
I1024 10:24:29.094581 33691 net.cpp:84] Creating Layer Eltwise15_Eltwise15_0_split
I1024 10:24:29.094586 33691 net.cpp:406] Eltwise15_Eltwise15_0_split <- Eltwise15
I1024 10:24:29.094595 33691 net.cpp:380] Eltwise15_Eltwise15_0_split -> Eltwise15_Eltwise15_0_split_0
I1024 10:24:29.094604 33691 net.cpp:380] Eltwise15_Eltwise15_0_split -> Eltwise15_Eltwise15_0_split_1
I1024 10:24:29.094640 33691 net.cpp:122] Setting up Eltwise15_Eltwise15_0_split
I1024 10:24:29.094647 33691 net.cpp:129] Top shape: 128 32 16 16 (1048576)
I1024 10:24:29.094653 33691 net.cpp:129] Top shape: 128 32 16 16 (1048576)
I1024 10:24:29.094658 33691 net.cpp:137] Memory required for data: 643302912
I1024 10:24:29.094662 33691 layer_factory.hpp:77] Creating layer Sigmoid11
I1024 10:24:29.094671 33691 net.cpp:84] Creating Layer Sigmoid11
I1024 10:24:29.094676 33691 net.cpp:406] Sigmoid11 <- Eltwise15_Eltwise15_0_split_0
I1024 10:24:29.094683 33691 net.cpp:380] Sigmoid11 -> Sigmoid11
I1024 10:24:29.095580 33691 net.cpp:122] Setting up Sigmoid11
I1024 10:24:29.095597 33691 net.cpp:129] Top shape: 128 32 16 16 (1048576)
I1024 10:24:29.095603 33691 net.cpp:137] Memory required for data: 647497216
I1024 10:24:29.095608 33691 layer_factory.hpp:77] Creating layer Eltwise16
I1024 10:24:29.095618 33691 net.cpp:84] Creating Layer Eltwise16
I1024 10:24:29.095624 33691 net.cpp:406] Eltwise16 <- Eltwise15_Eltwise15_0_split_1
I1024 10:24:29.095630 33691 net.cpp:406] Eltwise16 <- Sigmoid11
I1024 10:24:29.095638 33691 net.cpp:380] Eltwise16 -> Eltwise16
I1024 10:24:29.095669 33691 net.cpp:122] Setting up Eltwise16
I1024 10:24:29.095677 33691 net.cpp:129] Top shape: 128 32 16 16 (1048576)
I1024 10:24:29.095681 33691 net.cpp:137] Memory required for data: 651691520
I1024 10:24:29.095686 33691 layer_factory.hpp:77] Creating layer Eltwise16_Eltwise16_0_split
I1024 10:24:29.095693 33691 net.cpp:84] Creating Layer Eltwise16_Eltwise16_0_split
I1024 10:24:29.095698 33691 net.cpp:406] Eltwise16_Eltwise16_0_split <- Eltwise16
I1024 10:24:29.095706 33691 net.cpp:380] Eltwise16_Eltwise16_0_split -> Eltwise16_Eltwise16_0_split_0
I1024 10:24:29.095715 33691 net.cpp:380] Eltwise16_Eltwise16_0_split -> Eltwise16_Eltwise16_0_split_1
I1024 10:24:29.095752 33691 net.cpp:122] Setting up Eltwise16_Eltwise16_0_split
I1024 10:24:29.095760 33691 net.cpp:129] Top shape: 128 32 16 16 (1048576)
I1024 10:24:29.095767 33691 net.cpp:129] Top shape: 128 32 16 16 (1048576)
I1024 10:24:29.095770 33691 net.cpp:137] Memory required for data: 660080128
I1024 10:24:29.095775 33691 layer_factory.hpp:77] Creating layer Convolution13
I1024 10:24:29.095789 33691 net.cpp:84] Creating Layer Convolution13
I1024 10:24:29.095795 33691 net.cpp:406] Convolution13 <- Eltwise16_Eltwise16_0_split_0
I1024 10:24:29.095803 33691 net.cpp:380] Convolution13 -> Convolution13
I1024 10:24:29.098963 33691 net.cpp:122] Setting up Convolution13
I1024 10:24:29.098984 33691 net.cpp:129] Top shape: 128 32 16 16 (1048576)
I1024 10:24:29.098990 33691 net.cpp:137] Memory required for data: 664274432
I1024 10:24:29.098999 33691 layer_factory.hpp:77] Creating layer BatchNorm13
I1024 10:24:29.099009 33691 net.cpp:84] Creating Layer BatchNorm13
I1024 10:24:29.099016 33691 net.cpp:406] BatchNorm13 <- Convolution13
I1024 10:24:29.099023 33691 net.cpp:367] BatchNorm13 -> Convolution13 (in-place)
I1024 10:24:29.099236 33691 net.cpp:122] Setting up BatchNorm13
I1024 10:24:29.099247 33691 net.cpp:129] Top shape: 128 32 16 16 (1048576)
I1024 10:24:29.099252 33691 net.cpp:137] Memory required for data: 668468736
I1024 10:24:29.099261 33691 layer_factory.hpp:77] Creating layer Scale13
I1024 10:24:29.099272 33691 net.cpp:84] Creating Layer Scale13
I1024 10:24:29.099277 33691 net.cpp:406] Scale13 <- Convolution13
I1024 10:24:29.099283 33691 net.cpp:367] Scale13 -> Convolution13 (in-place)
I1024 10:24:29.099323 33691 layer_factory.hpp:77] Creating layer Scale13
I1024 10:24:29.099442 33691 net.cpp:122] Setting up Scale13
I1024 10:24:29.099452 33691 net.cpp:129] Top shape: 128 32 16 16 (1048576)
I1024 10:24:29.099457 33691 net.cpp:137] Memory required for data: 672663040
I1024 10:24:29.099463 33691 layer_factory.hpp:77] Creating layer Convolution13_Scale13_0_split
I1024 10:24:29.099470 33691 net.cpp:84] Creating Layer Convolution13_Scale13_0_split
I1024 10:24:29.099475 33691 net.cpp:406] Convolution13_Scale13_0_split <- Convolution13
I1024 10:24:29.099484 33691 net.cpp:380] Convolution13_Scale13_0_split -> Convolution13_Scale13_0_split_0
I1024 10:24:29.099493 33691 net.cpp:380] Convolution13_Scale13_0_split -> Convolution13_Scale13_0_split_1
I1024 10:24:29.099529 33691 net.cpp:122] Setting up Convolution13_Scale13_0_split
I1024 10:24:29.099539 33691 net.cpp:129] Top shape: 128 32 16 16 (1048576)
I1024 10:24:29.099545 33691 net.cpp:129] Top shape: 128 32 16 16 (1048576)
I1024 10:24:29.099550 33691 net.cpp:137] Memory required for data: 681051648
I1024 10:24:29.099555 33691 layer_factory.hpp:77] Creating layer Sigmoid12
I1024 10:24:29.099562 33691 net.cpp:84] Creating Layer Sigmoid12
I1024 10:24:29.099568 33691 net.cpp:406] Sigmoid12 <- Convolution13_Scale13_0_split_0
I1024 10:24:29.099575 33691 net.cpp:380] Sigmoid12 -> Sigmoid12
I1024 10:24:29.099781 33691 net.cpp:122] Setting up Sigmoid12
I1024 10:24:29.099795 33691 net.cpp:129] Top shape: 128 32 16 16 (1048576)
I1024 10:24:29.099800 33691 net.cpp:137] Memory required for data: 685245952
I1024 10:24:29.099805 33691 layer_factory.hpp:77] Creating layer Eltwise17
I1024 10:24:29.099812 33691 net.cpp:84] Creating Layer Eltwise17
I1024 10:24:29.099818 33691 net.cpp:406] Eltwise17 <- Convolution13_Scale13_0_split_1
I1024 10:24:29.099825 33691 net.cpp:406] Eltwise17 <- Sigmoid12
I1024 10:24:29.099833 33691 net.cpp:380] Eltwise17 -> Eltwise17
I1024 10:24:29.099861 33691 net.cpp:122] Setting up Eltwise17
I1024 10:24:29.099870 33691 net.cpp:129] Top shape: 128 32 16 16 (1048576)
I1024 10:24:29.099874 33691 net.cpp:137] Memory required for data: 689440256
I1024 10:24:29.099879 33691 layer_factory.hpp:77] Creating layer Convolution14
I1024 10:24:29.099891 33691 net.cpp:84] Creating Layer Convolution14
I1024 10:24:29.099897 33691 net.cpp:406] Convolution14 <- Eltwise17
I1024 10:24:29.099906 33691 net.cpp:380] Convolution14 -> Convolution14
I1024 10:24:29.102445 33691 net.cpp:122] Setting up Convolution14
I1024 10:24:29.102468 33691 net.cpp:129] Top shape: 128 32 16 16 (1048576)
I1024 10:24:29.102474 33691 net.cpp:137] Memory required for data: 693634560
I1024 10:24:29.102483 33691 layer_factory.hpp:77] Creating layer BatchNorm14
I1024 10:24:29.102500 33691 net.cpp:84] Creating Layer BatchNorm14
I1024 10:24:29.102514 33691 net.cpp:406] BatchNorm14 <- Convolution14
I1024 10:24:29.102526 33691 net.cpp:367] BatchNorm14 -> Convolution14 (in-place)
I1024 10:24:29.102735 33691 net.cpp:122] Setting up BatchNorm14
I1024 10:24:29.102746 33691 net.cpp:129] Top shape: 128 32 16 16 (1048576)
I1024 10:24:29.102751 33691 net.cpp:137] Memory required for data: 697828864
I1024 10:24:29.102759 33691 layer_factory.hpp:77] Creating layer Scale14
I1024 10:24:29.102766 33691 net.cpp:84] Creating Layer Scale14
I1024 10:24:29.102772 33691 net.cpp:406] Scale14 <- Convolution14
I1024 10:24:29.102778 33691 net.cpp:367] Scale14 -> Convolution14 (in-place)
I1024 10:24:29.102818 33691 layer_factory.hpp:77] Creating layer Scale14
I1024 10:24:29.102941 33691 net.cpp:122] Setting up Scale14
I1024 10:24:29.102957 33691 net.cpp:129] Top shape: 128 32 16 16 (1048576)
I1024 10:24:29.102970 33691 net.cpp:137] Memory required for data: 702023168
I1024 10:24:29.102977 33691 layer_factory.hpp:77] Creating layer Eltwise18
I1024 10:24:29.102986 33691 net.cpp:84] Creating Layer Eltwise18
I1024 10:24:29.102993 33691 net.cpp:406] Eltwise18 <- Convolution14
I1024 10:24:29.102999 33691 net.cpp:406] Eltwise18 <- Eltwise16_Eltwise16_0_split_1
I1024 10:24:29.103005 33691 net.cpp:380] Eltwise18 -> Eltwise18
I1024 10:24:29.103031 33691 net.cpp:122] Setting up Eltwise18
I1024 10:24:29.103040 33691 net.cpp:129] Top shape: 128 32 16 16 (1048576)
I1024 10:24:29.103045 33691 net.cpp:137] Memory required for data: 706217472
I1024 10:24:29.103049 33691 layer_factory.hpp:77] Creating layer Eltwise18_Eltwise18_0_split
I1024 10:24:29.103056 33691 net.cpp:84] Creating Layer Eltwise18_Eltwise18_0_split
I1024 10:24:29.103061 33691 net.cpp:406] Eltwise18_Eltwise18_0_split <- Eltwise18
I1024 10:24:29.103068 33691 net.cpp:380] Eltwise18_Eltwise18_0_split -> Eltwise18_Eltwise18_0_split_0
I1024 10:24:29.103077 33691 net.cpp:380] Eltwise18_Eltwise18_0_split -> Eltwise18_Eltwise18_0_split_1
I1024 10:24:29.103114 33691 net.cpp:122] Setting up Eltwise18_Eltwise18_0_split
I1024 10:24:29.103123 33691 net.cpp:129] Top shape: 128 32 16 16 (1048576)
I1024 10:24:29.103128 33691 net.cpp:129] Top shape: 128 32 16 16 (1048576)
I1024 10:24:29.103133 33691 net.cpp:137] Memory required for data: 714606080
I1024 10:24:29.103137 33691 layer_factory.hpp:77] Creating layer Sigmoid13
I1024 10:24:29.103147 33691 net.cpp:84] Creating Layer Sigmoid13
I1024 10:24:29.103152 33691 net.cpp:406] Sigmoid13 <- Eltwise18_Eltwise18_0_split_0
I1024 10:24:29.103159 33691 net.cpp:380] Sigmoid13 -> Sigmoid13
I1024 10:24:29.103363 33691 net.cpp:122] Setting up Sigmoid13
I1024 10:24:29.103377 33691 net.cpp:129] Top shape: 128 32 16 16 (1048576)
I1024 10:24:29.103382 33691 net.cpp:137] Memory required for data: 718800384
I1024 10:24:29.103387 33691 layer_factory.hpp:77] Creating layer Eltwise19
I1024 10:24:29.103394 33691 net.cpp:84] Creating Layer Eltwise19
I1024 10:24:29.103400 33691 net.cpp:406] Eltwise19 <- Eltwise18_Eltwise18_0_split_1
I1024 10:24:29.103406 33691 net.cpp:406] Eltwise19 <- Sigmoid13
I1024 10:24:29.103412 33691 net.cpp:380] Eltwise19 -> Eltwise19
I1024 10:24:29.103441 33691 net.cpp:122] Setting up Eltwise19
I1024 10:24:29.103451 33691 net.cpp:129] Top shape: 128 32 16 16 (1048576)
I1024 10:24:29.103456 33691 net.cpp:137] Memory required for data: 722994688
I1024 10:24:29.103459 33691 layer_factory.hpp:77] Creating layer Eltwise19_Eltwise19_0_split
I1024 10:24:29.103466 33691 net.cpp:84] Creating Layer Eltwise19_Eltwise19_0_split
I1024 10:24:29.103471 33691 net.cpp:406] Eltwise19_Eltwise19_0_split <- Eltwise19
I1024 10:24:29.103479 33691 net.cpp:380] Eltwise19_Eltwise19_0_split -> Eltwise19_Eltwise19_0_split_0
I1024 10:24:29.103487 33691 net.cpp:380] Eltwise19_Eltwise19_0_split -> Eltwise19_Eltwise19_0_split_1
I1024 10:24:29.103526 33691 net.cpp:122] Setting up Eltwise19_Eltwise19_0_split
I1024 10:24:29.103535 33691 net.cpp:129] Top shape: 128 32 16 16 (1048576)
I1024 10:24:29.103541 33691 net.cpp:129] Top shape: 128 32 16 16 (1048576)
I1024 10:24:29.103545 33691 net.cpp:137] Memory required for data: 731383296
I1024 10:24:29.103550 33691 layer_factory.hpp:77] Creating layer Convolution15
I1024 10:24:29.103561 33691 net.cpp:84] Creating Layer Convolution15
I1024 10:24:29.103567 33691 net.cpp:406] Convolution15 <- Eltwise19_Eltwise19_0_split_0
I1024 10:24:29.103577 33691 net.cpp:380] Convolution15 -> Convolution15
I1024 10:24:29.107305 33691 net.cpp:122] Setting up Convolution15
I1024 10:24:29.107326 33691 net.cpp:129] Top shape: 128 64 8 8 (524288)
I1024 10:24:29.107331 33691 net.cpp:137] Memory required for data: 733480448
I1024 10:24:29.107339 33691 layer_factory.hpp:77] Creating layer BatchNorm15
I1024 10:24:29.107350 33691 net.cpp:84] Creating Layer BatchNorm15
I1024 10:24:29.107357 33691 net.cpp:406] BatchNorm15 <- Convolution15
I1024 10:24:29.107369 33691 net.cpp:367] BatchNorm15 -> Convolution15 (in-place)
I1024 10:24:29.107590 33691 net.cpp:122] Setting up BatchNorm15
I1024 10:24:29.107601 33691 net.cpp:129] Top shape: 128 64 8 8 (524288)
I1024 10:24:29.107606 33691 net.cpp:137] Memory required for data: 735577600
I1024 10:24:29.107614 33691 layer_factory.hpp:77] Creating layer Scale15
I1024 10:24:29.107623 33691 net.cpp:84] Creating Layer Scale15
I1024 10:24:29.107628 33691 net.cpp:406] Scale15 <- Convolution15
I1024 10:24:29.107635 33691 net.cpp:367] Scale15 -> Convolution15 (in-place)
I1024 10:24:29.107676 33691 layer_factory.hpp:77] Creating layer Scale15
I1024 10:24:29.107800 33691 net.cpp:122] Setting up Scale15
I1024 10:24:29.107810 33691 net.cpp:129] Top shape: 128 64 8 8 (524288)
I1024 10:24:29.107815 33691 net.cpp:137] Memory required for data: 737674752
I1024 10:24:29.107822 33691 layer_factory.hpp:77] Creating layer Convolution15_Scale15_0_split
I1024 10:24:29.107831 33691 net.cpp:84] Creating Layer Convolution15_Scale15_0_split
I1024 10:24:29.107836 33691 net.cpp:406] Convolution15_Scale15_0_split <- Convolution15
I1024 10:24:29.107843 33691 net.cpp:380] Convolution15_Scale15_0_split -> Convolution15_Scale15_0_split_0
I1024 10:24:29.107851 33691 net.cpp:380] Convolution15_Scale15_0_split -> Convolution15_Scale15_0_split_1
I1024 10:24:29.107888 33691 net.cpp:122] Setting up Convolution15_Scale15_0_split
I1024 10:24:29.107899 33691 net.cpp:129] Top shape: 128 64 8 8 (524288)
I1024 10:24:29.107905 33691 net.cpp:129] Top shape: 128 64 8 8 (524288)
I1024 10:24:29.107909 33691 net.cpp:137] Memory required for data: 741869056
I1024 10:24:29.107914 33691 layer_factory.hpp:77] Creating layer Sigmoid14
I1024 10:24:29.107921 33691 net.cpp:84] Creating Layer Sigmoid14
I1024 10:24:29.107926 33691 net.cpp:406] Sigmoid14 <- Convolution15_Scale15_0_split_0
I1024 10:24:29.107933 33691 net.cpp:380] Sigmoid14 -> Sigmoid14
I1024 10:24:29.108844 33691 net.cpp:122] Setting up Sigmoid14
I1024 10:24:29.108861 33691 net.cpp:129] Top shape: 128 64 8 8 (524288)
I1024 10:24:29.108867 33691 net.cpp:137] Memory required for data: 743966208
I1024 10:24:29.108872 33691 layer_factory.hpp:77] Creating layer Eltwise20
I1024 10:24:29.108882 33691 net.cpp:84] Creating Layer Eltwise20
I1024 10:24:29.108888 33691 net.cpp:406] Eltwise20 <- Convolution15_Scale15_0_split_1
I1024 10:24:29.108896 33691 net.cpp:406] Eltwise20 <- Sigmoid14
I1024 10:24:29.108903 33691 net.cpp:380] Eltwise20 -> Eltwise20
I1024 10:24:29.108934 33691 net.cpp:122] Setting up Eltwise20
I1024 10:24:29.108944 33691 net.cpp:129] Top shape: 128 64 8 8 (524288)
I1024 10:24:29.108948 33691 net.cpp:137] Memory required for data: 746063360
I1024 10:24:29.108953 33691 layer_factory.hpp:77] Creating layer Convolution16
I1024 10:24:29.108965 33691 net.cpp:84] Creating Layer Convolution16
I1024 10:24:29.108971 33691 net.cpp:406] Convolution16 <- Eltwise20
I1024 10:24:29.108980 33691 net.cpp:380] Convolution16 -> Convolution16
I1024 10:24:29.113263 33691 net.cpp:122] Setting up Convolution16
I1024 10:24:29.113286 33691 net.cpp:129] Top shape: 128 64 8 8 (524288)
I1024 10:24:29.113291 33691 net.cpp:137] Memory required for data: 748160512
I1024 10:24:29.113299 33691 layer_factory.hpp:77] Creating layer BatchNorm16
I1024 10:24:29.113310 33691 net.cpp:84] Creating Layer BatchNorm16
I1024 10:24:29.113317 33691 net.cpp:406] BatchNorm16 <- Convolution16
I1024 10:24:29.113327 33691 net.cpp:367] BatchNorm16 -> Convolution16 (in-place)
I1024 10:24:29.113544 33691 net.cpp:122] Setting up BatchNorm16
I1024 10:24:29.113555 33691 net.cpp:129] Top shape: 128 64 8 8 (524288)
I1024 10:24:29.113560 33691 net.cpp:137] Memory required for data: 750257664
I1024 10:24:29.113569 33691 layer_factory.hpp:77] Creating layer Scale16
I1024 10:24:29.113579 33691 net.cpp:84] Creating Layer Scale16
I1024 10:24:29.113584 33691 net.cpp:406] Scale16 <- Convolution16
I1024 10:24:29.113590 33691 net.cpp:367] Scale16 -> Convolution16 (in-place)
I1024 10:24:29.113632 33691 layer_factory.hpp:77] Creating layer Scale16
I1024 10:24:29.113759 33691 net.cpp:122] Setting up Scale16
I1024 10:24:29.113773 33691 net.cpp:129] Top shape: 128 64 8 8 (524288)
I1024 10:24:29.113785 33691 net.cpp:137] Memory required for data: 752354816
I1024 10:24:29.113793 33691 layer_factory.hpp:77] Creating layer Convolution17
I1024 10:24:29.113806 33691 net.cpp:84] Creating Layer Convolution17
I1024 10:24:29.113813 33691 net.cpp:406] Convolution17 <- Eltwise19_Eltwise19_0_split_1
I1024 10:24:29.113821 33691 net.cpp:380] Convolution17 -> Convolution17
I1024 10:24:29.116371 33691 net.cpp:122] Setting up Convolution17
I1024 10:24:29.116392 33691 net.cpp:129] Top shape: 128 64 8 8 (524288)
I1024 10:24:29.116399 33691 net.cpp:137] Memory required for data: 754451968
I1024 10:24:29.116406 33691 layer_factory.hpp:77] Creating layer BatchNorm17
I1024 10:24:29.116418 33691 net.cpp:84] Creating Layer BatchNorm17
I1024 10:24:29.116425 33691 net.cpp:406] BatchNorm17 <- Convolution17
I1024 10:24:29.116433 33691 net.cpp:367] BatchNorm17 -> Convolution17 (in-place)
I1024 10:24:29.116648 33691 net.cpp:122] Setting up BatchNorm17
I1024 10:24:29.116658 33691 net.cpp:129] Top shape: 128 64 8 8 (524288)
I1024 10:24:29.116663 33691 net.cpp:137] Memory required for data: 756549120
I1024 10:24:29.116672 33691 layer_factory.hpp:77] Creating layer Scale17
I1024 10:24:29.116680 33691 net.cpp:84] Creating Layer Scale17
I1024 10:24:29.116686 33691 net.cpp:406] Scale17 <- Convolution17
I1024 10:24:29.116693 33691 net.cpp:367] Scale17 -> Convolution17 (in-place)
I1024 10:24:29.116734 33691 layer_factory.hpp:77] Creating layer Scale17
I1024 10:24:29.116860 33691 net.cpp:122] Setting up Scale17
I1024 10:24:29.116869 33691 net.cpp:129] Top shape: 128 64 8 8 (524288)
I1024 10:24:29.116874 33691 net.cpp:137] Memory required for data: 758646272
I1024 10:24:29.116881 33691 layer_factory.hpp:77] Creating layer Eltwise21
I1024 10:24:29.116890 33691 net.cpp:84] Creating Layer Eltwise21
I1024 10:24:29.116895 33691 net.cpp:406] Eltwise21 <- Convolution16
I1024 10:24:29.116901 33691 net.cpp:406] Eltwise21 <- Convolution17
I1024 10:24:29.116909 33691 net.cpp:380] Eltwise21 -> Eltwise21
I1024 10:24:29.116933 33691 net.cpp:122] Setting up Eltwise21
I1024 10:24:29.116941 33691 net.cpp:129] Top shape: 128 64 8 8 (524288)
I1024 10:24:29.116946 33691 net.cpp:137] Memory required for data: 760743424
I1024 10:24:29.116950 33691 layer_factory.hpp:77] Creating layer Eltwise21_Eltwise21_0_split
I1024 10:24:29.116957 33691 net.cpp:84] Creating Layer Eltwise21_Eltwise21_0_split
I1024 10:24:29.116962 33691 net.cpp:406] Eltwise21_Eltwise21_0_split <- Eltwise21
I1024 10:24:29.116971 33691 net.cpp:380] Eltwise21_Eltwise21_0_split -> Eltwise21_Eltwise21_0_split_0
I1024 10:24:29.116979 33691 net.cpp:380] Eltwise21_Eltwise21_0_split -> Eltwise21_Eltwise21_0_split_1
I1024 10:24:29.117017 33691 net.cpp:122] Setting up Eltwise21_Eltwise21_0_split
I1024 10:24:29.117024 33691 net.cpp:129] Top shape: 128 64 8 8 (524288)
I1024 10:24:29.117030 33691 net.cpp:129] Top shape: 128 64 8 8 (524288)
I1024 10:24:29.117034 33691 net.cpp:137] Memory required for data: 764937728
I1024 10:24:29.117039 33691 layer_factory.hpp:77] Creating layer Sigmoid15
I1024 10:24:29.117048 33691 net.cpp:84] Creating Layer Sigmoid15
I1024 10:24:29.117053 33691 net.cpp:406] Sigmoid15 <- Eltwise21_Eltwise21_0_split_0
I1024 10:24:29.117059 33691 net.cpp:380] Sigmoid15 -> Sigmoid15
I1024 10:24:29.117965 33691 net.cpp:122] Setting up Sigmoid15
I1024 10:24:29.117982 33691 net.cpp:129] Top shape: 128 64 8 8 (524288)
I1024 10:24:29.117987 33691 net.cpp:137] Memory required for data: 767034880
I1024 10:24:29.117993 33691 layer_factory.hpp:77] Creating layer Eltwise22
I1024 10:24:29.118002 33691 net.cpp:84] Creating Layer Eltwise22
I1024 10:24:29.118008 33691 net.cpp:406] Eltwise22 <- Eltwise21_Eltwise21_0_split_1
I1024 10:24:29.118016 33691 net.cpp:406] Eltwise22 <- Sigmoid15
I1024 10:24:29.118021 33691 net.cpp:380] Eltwise22 -> Eltwise22
I1024 10:24:29.118054 33691 net.cpp:122] Setting up Eltwise22
I1024 10:24:29.118063 33691 net.cpp:129] Top shape: 128 64 8 8 (524288)
I1024 10:24:29.118068 33691 net.cpp:137] Memory required for data: 769132032
I1024 10:24:29.118085 33691 layer_factory.hpp:77] Creating layer Eltwise22_Eltwise22_0_split
I1024 10:24:29.118093 33691 net.cpp:84] Creating Layer Eltwise22_Eltwise22_0_split
I1024 10:24:29.118098 33691 net.cpp:406] Eltwise22_Eltwise22_0_split <- Eltwise22
I1024 10:24:29.118108 33691 net.cpp:380] Eltwise22_Eltwise22_0_split -> Eltwise22_Eltwise22_0_split_0
I1024 10:24:29.118115 33691 net.cpp:380] Eltwise22_Eltwise22_0_split -> Eltwise22_Eltwise22_0_split_1
I1024 10:24:29.118157 33691 net.cpp:122] Setting up Eltwise22_Eltwise22_0_split
I1024 10:24:29.118166 33691 net.cpp:129] Top shape: 128 64 8 8 (524288)
I1024 10:24:29.118171 33691 net.cpp:129] Top shape: 128 64 8 8 (524288)
I1024 10:24:29.118176 33691 net.cpp:137] Memory required for data: 773326336
I1024 10:24:29.118180 33691 layer_factory.hpp:77] Creating layer Convolution18
I1024 10:24:29.118194 33691 net.cpp:84] Creating Layer Convolution18
I1024 10:24:29.118201 33691 net.cpp:406] Convolution18 <- Eltwise22_Eltwise22_0_split_0
I1024 10:24:29.118208 33691 net.cpp:380] Convolution18 -> Convolution18
I1024 10:24:29.121836 33691 net.cpp:122] Setting up Convolution18
I1024 10:24:29.121857 33691 net.cpp:129] Top shape: 128 64 8 8 (524288)
I1024 10:24:29.121863 33691 net.cpp:137] Memory required for data: 775423488
I1024 10:24:29.121872 33691 layer_factory.hpp:77] Creating layer BatchNorm18
I1024 10:24:29.121881 33691 net.cpp:84] Creating Layer BatchNorm18
I1024 10:24:29.121887 33691 net.cpp:406] BatchNorm18 <- Convolution18
I1024 10:24:29.121896 33691 net.cpp:367] BatchNorm18 -> Convolution18 (in-place)
I1024 10:24:29.122118 33691 net.cpp:122] Setting up BatchNorm18
I1024 10:24:29.122128 33691 net.cpp:129] Top shape: 128 64 8 8 (524288)
I1024 10:24:29.122133 33691 net.cpp:137] Memory required for data: 777520640
I1024 10:24:29.122143 33691 layer_factory.hpp:77] Creating layer Scale18
I1024 10:24:29.122149 33691 net.cpp:84] Creating Layer Scale18
I1024 10:24:29.122155 33691 net.cpp:406] Scale18 <- Convolution18
I1024 10:24:29.122164 33691 net.cpp:367] Scale18 -> Convolution18 (in-place)
I1024 10:24:29.122203 33691 layer_factory.hpp:77] Creating layer Scale18
I1024 10:24:29.122330 33691 net.cpp:122] Setting up Scale18
I1024 10:24:29.122340 33691 net.cpp:129] Top shape: 128 64 8 8 (524288)
I1024 10:24:29.122345 33691 net.cpp:137] Memory required for data: 779617792
I1024 10:24:29.122352 33691 layer_factory.hpp:77] Creating layer Convolution18_Scale18_0_split
I1024 10:24:29.122359 33691 net.cpp:84] Creating Layer Convolution18_Scale18_0_split
I1024 10:24:29.122364 33691 net.cpp:406] Convolution18_Scale18_0_split <- Convolution18
I1024 10:24:29.122371 33691 net.cpp:380] Convolution18_Scale18_0_split -> Convolution18_Scale18_0_split_0
I1024 10:24:29.122380 33691 net.cpp:380] Convolution18_Scale18_0_split -> Convolution18_Scale18_0_split_1
I1024 10:24:29.122419 33691 net.cpp:122] Setting up Convolution18_Scale18_0_split
I1024 10:24:29.122427 33691 net.cpp:129] Top shape: 128 64 8 8 (524288)
I1024 10:24:29.122433 33691 net.cpp:129] Top shape: 128 64 8 8 (524288)
I1024 10:24:29.122438 33691 net.cpp:137] Memory required for data: 783812096
I1024 10:24:29.122442 33691 layer_factory.hpp:77] Creating layer Sigmoid16
I1024 10:24:29.122449 33691 net.cpp:84] Creating Layer Sigmoid16
I1024 10:24:29.122454 33691 net.cpp:406] Sigmoid16 <- Convolution18_Scale18_0_split_0
I1024 10:24:29.122463 33691 net.cpp:380] Sigmoid16 -> Sigmoid16
I1024 10:24:29.122699 33691 net.cpp:122] Setting up Sigmoid16
I1024 10:24:29.122714 33691 net.cpp:129] Top shape: 128 64 8 8 (524288)
I1024 10:24:29.122720 33691 net.cpp:137] Memory required for data: 785909248
I1024 10:24:29.122725 33691 layer_factory.hpp:77] Creating layer Eltwise23
I1024 10:24:29.122733 33691 net.cpp:84] Creating Layer Eltwise23
I1024 10:24:29.122741 33691 net.cpp:406] Eltwise23 <- Convolution18_Scale18_0_split_1
I1024 10:24:29.122748 33691 net.cpp:406] Eltwise23 <- Sigmoid16
I1024 10:24:29.122756 33691 net.cpp:380] Eltwise23 -> Eltwise23
I1024 10:24:29.122784 33691 net.cpp:122] Setting up Eltwise23
I1024 10:24:29.122798 33691 net.cpp:129] Top shape: 128 64 8 8 (524288)
I1024 10:24:29.122812 33691 net.cpp:137] Memory required for data: 788006400
I1024 10:24:29.122817 33691 layer_factory.hpp:77] Creating layer Convolution19
I1024 10:24:29.122830 33691 net.cpp:84] Creating Layer Convolution19
I1024 10:24:29.122836 33691 net.cpp:406] Convolution19 <- Eltwise23
I1024 10:24:29.122844 33691 net.cpp:380] Convolution19 -> Convolution19
I1024 10:24:29.126313 33691 net.cpp:122] Setting up Convolution19
I1024 10:24:29.126333 33691 net.cpp:129] Top shape: 128 64 8 8 (524288)
I1024 10:24:29.126340 33691 net.cpp:137] Memory required for data: 790103552
I1024 10:24:29.126348 33691 layer_factory.hpp:77] Creating layer BatchNorm19
I1024 10:24:29.126358 33691 net.cpp:84] Creating Layer BatchNorm19
I1024 10:24:29.126363 33691 net.cpp:406] BatchNorm19 <- Convolution19
I1024 10:24:29.126372 33691 net.cpp:367] BatchNorm19 -> Convolution19 (in-place)
I1024 10:24:29.126608 33691 net.cpp:122] Setting up BatchNorm19
I1024 10:24:29.126622 33691 net.cpp:129] Top shape: 128 64 8 8 (524288)
I1024 10:24:29.126627 33691 net.cpp:137] Memory required for data: 792200704
I1024 10:24:29.126660 33691 layer_factory.hpp:77] Creating layer Scale19
I1024 10:24:29.126670 33691 net.cpp:84] Creating Layer Scale19
I1024 10:24:29.126677 33691 net.cpp:406] Scale19 <- Convolution19
I1024 10:24:29.126683 33691 net.cpp:367] Scale19 -> Convolution19 (in-place)
I1024 10:24:29.126729 33691 layer_factory.hpp:77] Creating layer Scale19
I1024 10:24:29.126857 33691 net.cpp:122] Setting up Scale19
I1024 10:24:29.126866 33691 net.cpp:129] Top shape: 128 64 8 8 (524288)
I1024 10:24:29.126870 33691 net.cpp:137] Memory required for data: 794297856
I1024 10:24:29.126878 33691 layer_factory.hpp:77] Creating layer Eltwise24
I1024 10:24:29.126885 33691 net.cpp:84] Creating Layer Eltwise24
I1024 10:24:29.126890 33691 net.cpp:406] Eltwise24 <- Convolution19
I1024 10:24:29.126896 33691 net.cpp:406] Eltwise24 <- Eltwise22_Eltwise22_0_split_1
I1024 10:24:29.126904 33691 net.cpp:380] Eltwise24 -> Eltwise24
I1024 10:24:29.126926 33691 net.cpp:122] Setting up Eltwise24
I1024 10:24:29.126935 33691 net.cpp:129] Top shape: 128 64 8 8 (524288)
I1024 10:24:29.126940 33691 net.cpp:137] Memory required for data: 796395008
I1024 10:24:29.126945 33691 layer_factory.hpp:77] Creating layer Eltwise24_Eltwise24_0_split
I1024 10:24:29.126952 33691 net.cpp:84] Creating Layer Eltwise24_Eltwise24_0_split
I1024 10:24:29.126958 33691 net.cpp:406] Eltwise24_Eltwise24_0_split <- Eltwise24
I1024 10:24:29.126965 33691 net.cpp:380] Eltwise24_Eltwise24_0_split -> Eltwise24_Eltwise24_0_split_0
I1024 10:24:29.126974 33691 net.cpp:380] Eltwise24_Eltwise24_0_split -> Eltwise24_Eltwise24_0_split_1
I1024 10:24:29.127015 33691 net.cpp:122] Setting up Eltwise24_Eltwise24_0_split
I1024 10:24:29.127023 33691 net.cpp:129] Top shape: 128 64 8 8 (524288)
I1024 10:24:29.127029 33691 net.cpp:129] Top shape: 128 64 8 8 (524288)
I1024 10:24:29.127034 33691 net.cpp:137] Memory required for data: 800589312
I1024 10:24:29.127038 33691 layer_factory.hpp:77] Creating layer Sigmoid17
I1024 10:24:29.127045 33691 net.cpp:84] Creating Layer Sigmoid17
I1024 10:24:29.127050 33691 net.cpp:406] Sigmoid17 <- Eltwise24_Eltwise24_0_split_0
I1024 10:24:29.127058 33691 net.cpp:380] Sigmoid17 -> Sigmoid17
I1024 10:24:29.127964 33691 net.cpp:122] Setting up Sigmoid17
I1024 10:24:29.127980 33691 net.cpp:129] Top shape: 128 64 8 8 (524288)
I1024 10:24:29.127985 33691 net.cpp:137] Memory required for data: 802686464
I1024 10:24:29.127991 33691 layer_factory.hpp:77] Creating layer Eltwise25
I1024 10:24:29.128001 33691 net.cpp:84] Creating Layer Eltwise25
I1024 10:24:29.128007 33691 net.cpp:406] Eltwise25 <- Eltwise24_Eltwise24_0_split_1
I1024 10:24:29.128015 33691 net.cpp:406] Eltwise25 <- Sigmoid17
I1024 10:24:29.128021 33691 net.cpp:380] Eltwise25 -> Eltwise25
I1024 10:24:29.128051 33691 net.cpp:122] Setting up Eltwise25
I1024 10:24:29.128060 33691 net.cpp:129] Top shape: 128 64 8 8 (524288)
I1024 10:24:29.128064 33691 net.cpp:137] Memory required for data: 804783616
I1024 10:24:29.128074 33691 layer_factory.hpp:77] Creating layer Eltwise25_Eltwise25_0_split
I1024 10:24:29.128092 33691 net.cpp:84] Creating Layer Eltwise25_Eltwise25_0_split
I1024 10:24:29.128098 33691 net.cpp:406] Eltwise25_Eltwise25_0_split <- Eltwise25
I1024 10:24:29.128105 33691 net.cpp:380] Eltwise25_Eltwise25_0_split -> Eltwise25_Eltwise25_0_split_0
I1024 10:24:29.128113 33691 net.cpp:380] Eltwise25_Eltwise25_0_split -> Eltwise25_Eltwise25_0_split_1
I1024 10:24:29.128155 33691 net.cpp:122] Setting up Eltwise25_Eltwise25_0_split
I1024 10:24:29.128165 33691 net.cpp:129] Top shape: 128 64 8 8 (524288)
I1024 10:24:29.128170 33691 net.cpp:129] Top shape: 128 64 8 8 (524288)
I1024 10:24:29.128175 33691 net.cpp:137] Memory required for data: 808977920
I1024 10:24:29.128178 33691 layer_factory.hpp:77] Creating layer Convolution20
I1024 10:24:29.128190 33691 net.cpp:84] Creating Layer Convolution20
I1024 10:24:29.128196 33691 net.cpp:406] Convolution20 <- Eltwise25_Eltwise25_0_split_0
I1024 10:24:29.128206 33691 net.cpp:380] Convolution20 -> Convolution20
I1024 10:24:29.131007 33691 net.cpp:122] Setting up Convolution20
I1024 10:24:29.131027 33691 net.cpp:129] Top shape: 128 64 8 8 (524288)
I1024 10:24:29.131033 33691 net.cpp:137] Memory required for data: 811075072
I1024 10:24:29.131042 33691 layer_factory.hpp:77] Creating layer BatchNorm20
I1024 10:24:29.131073 33691 net.cpp:84] Creating Layer BatchNorm20
I1024 10:24:29.131080 33691 net.cpp:406] BatchNorm20 <- Convolution20
I1024 10:24:29.131088 33691 net.cpp:367] BatchNorm20 -> Convolution20 (in-place)
I1024 10:24:29.131309 33691 net.cpp:122] Setting up BatchNorm20
I1024 10:24:29.131317 33691 net.cpp:129] Top shape: 128 64 8 8 (524288)
I1024 10:24:29.131322 33691 net.cpp:137] Memory required for data: 813172224
I1024 10:24:29.131333 33691 layer_factory.hpp:77] Creating layer Scale20
I1024 10:24:29.131341 33691 net.cpp:84] Creating Layer Scale20
I1024 10:24:29.131346 33691 net.cpp:406] Scale20 <- Convolution20
I1024 10:24:29.131353 33691 net.cpp:367] Scale20 -> Convolution20 (in-place)
I1024 10:24:29.131395 33691 layer_factory.hpp:77] Creating layer Scale20
I1024 10:24:29.131525 33691 net.cpp:122] Setting up Scale20
I1024 10:24:29.131533 33691 net.cpp:129] Top shape: 128 64 8 8 (524288)
I1024 10:24:29.131538 33691 net.cpp:137] Memory required for data: 815269376
I1024 10:24:29.131546 33691 layer_factory.hpp:77] Creating layer Convolution20_Scale20_0_split
I1024 10:24:29.131554 33691 net.cpp:84] Creating Layer Convolution20_Scale20_0_split
I1024 10:24:29.131559 33691 net.cpp:406] Convolution20_Scale20_0_split <- Convolution20
I1024 10:24:29.131567 33691 net.cpp:380] Convolution20_Scale20_0_split -> Convolution20_Scale20_0_split_0
I1024 10:24:29.131577 33691 net.cpp:380] Convolution20_Scale20_0_split -> Convolution20_Scale20_0_split_1
I1024 10:24:29.131614 33691 net.cpp:122] Setting up Convolution20_Scale20_0_split
I1024 10:24:29.131623 33691 net.cpp:129] Top shape: 128 64 8 8 (524288)
I1024 10:24:29.131629 33691 net.cpp:129] Top shape: 128 64 8 8 (524288)
I1024 10:24:29.131633 33691 net.cpp:137] Memory required for data: 819463680
I1024 10:24:29.131639 33691 layer_factory.hpp:77] Creating layer Sigmoid18
I1024 10:24:29.131645 33691 net.cpp:84] Creating Layer Sigmoid18
I1024 10:24:29.131650 33691 net.cpp:406] Sigmoid18 <- Convolution20_Scale20_0_split_0
I1024 10:24:29.131657 33691 net.cpp:380] Sigmoid18 -> Sigmoid18
I1024 10:24:29.132561 33691 net.cpp:122] Setting up Sigmoid18
I1024 10:24:29.132578 33691 net.cpp:129] Top shape: 128 64 8 8 (524288)
I1024 10:24:29.132585 33691 net.cpp:137] Memory required for data: 821560832
I1024 10:24:29.132589 33691 layer_factory.hpp:77] Creating layer Eltwise26
I1024 10:24:29.132596 33691 net.cpp:84] Creating Layer Eltwise26
I1024 10:24:29.132603 33691 net.cpp:406] Eltwise26 <- Convolution20_Scale20_0_split_1
I1024 10:24:29.132611 33691 net.cpp:406] Eltwise26 <- Sigmoid18
I1024 10:24:29.132619 33691 net.cpp:380] Eltwise26 -> Eltwise26
I1024 10:24:29.132650 33691 net.cpp:122] Setting up Eltwise26
I1024 10:24:29.132659 33691 net.cpp:129] Top shape: 128 64 8 8 (524288)
I1024 10:24:29.132676 33691 net.cpp:137] Memory required for data: 823657984
I1024 10:24:29.132681 33691 layer_factory.hpp:77] Creating layer Convolution21
I1024 10:24:29.132699 33691 net.cpp:84] Creating Layer Convolution21
I1024 10:24:29.132704 33691 net.cpp:406] Convolution21 <- Eltwise26
I1024 10:24:29.132712 33691 net.cpp:380] Convolution21 -> Convolution21
I1024 10:24:29.136363 33691 net.cpp:122] Setting up Convolution21
I1024 10:24:29.136385 33691 net.cpp:129] Top shape: 128 64 8 8 (524288)
I1024 10:24:29.136391 33691 net.cpp:137] Memory required for data: 825755136
I1024 10:24:29.136400 33691 layer_factory.hpp:77] Creating layer BatchNorm21
I1024 10:24:29.136409 33691 net.cpp:84] Creating Layer BatchNorm21
I1024 10:24:29.136415 33691 net.cpp:406] BatchNorm21 <- Convolution21
I1024 10:24:29.136425 33691 net.cpp:367] BatchNorm21 -> Convolution21 (in-place)
I1024 10:24:29.136649 33691 net.cpp:122] Setting up BatchNorm21
I1024 10:24:29.136660 33691 net.cpp:129] Top shape: 128 64 8 8 (524288)
I1024 10:24:29.136665 33691 net.cpp:137] Memory required for data: 827852288
I1024 10:24:29.136673 33691 layer_factory.hpp:77] Creating layer Scale21
I1024 10:24:29.136682 33691 net.cpp:84] Creating Layer Scale21
I1024 10:24:29.136687 33691 net.cpp:406] Scale21 <- Convolution21
I1024 10:24:29.136695 33691 net.cpp:367] Scale21 -> Convolution21 (in-place)
I1024 10:24:29.136737 33691 layer_factory.hpp:77] Creating layer Scale21
I1024 10:24:29.136863 33691 net.cpp:122] Setting up Scale21
I1024 10:24:29.136874 33691 net.cpp:129] Top shape: 128 64 8 8 (524288)
I1024 10:24:29.136879 33691 net.cpp:137] Memory required for data: 829949440
I1024 10:24:29.136888 33691 layer_factory.hpp:77] Creating layer Eltwise27
I1024 10:24:29.136894 33691 net.cpp:84] Creating Layer Eltwise27
I1024 10:24:29.136899 33691 net.cpp:406] Eltwise27 <- Convolution21
I1024 10:24:29.136906 33691 net.cpp:406] Eltwise27 <- Eltwise25_Eltwise25_0_split_1
I1024 10:24:29.136912 33691 net.cpp:380] Eltwise27 -> Eltwise27
I1024 10:24:29.136940 33691 net.cpp:122] Setting up Eltwise27
I1024 10:24:29.136947 33691 net.cpp:129] Top shape: 128 64 8 8 (524288)
I1024 10:24:29.136952 33691 net.cpp:137] Memory required for data: 832046592
I1024 10:24:29.136957 33691 layer_factory.hpp:77] Creating layer Eltwise27_Eltwise27_0_split
I1024 10:24:29.136963 33691 net.cpp:84] Creating Layer Eltwise27_Eltwise27_0_split
I1024 10:24:29.136968 33691 net.cpp:406] Eltwise27_Eltwise27_0_split <- Eltwise27
I1024 10:24:29.136977 33691 net.cpp:380] Eltwise27_Eltwise27_0_split -> Eltwise27_Eltwise27_0_split_0
I1024 10:24:29.136986 33691 net.cpp:380] Eltwise27_Eltwise27_0_split -> Eltwise27_Eltwise27_0_split_1
I1024 10:24:29.137027 33691 net.cpp:122] Setting up Eltwise27_Eltwise27_0_split
I1024 10:24:29.137034 33691 net.cpp:129] Top shape: 128 64 8 8 (524288)
I1024 10:24:29.137040 33691 net.cpp:129] Top shape: 128 64 8 8 (524288)
I1024 10:24:29.137044 33691 net.cpp:137] Memory required for data: 836240896
I1024 10:24:29.137049 33691 layer_factory.hpp:77] Creating layer Sigmoid19
I1024 10:24:29.137056 33691 net.cpp:84] Creating Layer Sigmoid19
I1024 10:24:29.137061 33691 net.cpp:406] Sigmoid19 <- Eltwise27_Eltwise27_0_split_0
I1024 10:24:29.137068 33691 net.cpp:380] Sigmoid19 -> Sigmoid19
I1024 10:24:29.137280 33691 net.cpp:122] Setting up Sigmoid19
I1024 10:24:29.137293 33691 net.cpp:129] Top shape: 128 64 8 8 (524288)
I1024 10:24:29.137298 33691 net.cpp:137] Memory required for data: 838338048
I1024 10:24:29.137303 33691 layer_factory.hpp:77] Creating layer Eltwise28
I1024 10:24:29.137312 33691 net.cpp:84] Creating Layer Eltwise28
I1024 10:24:29.137318 33691 net.cpp:406] Eltwise28 <- Eltwise27_Eltwise27_0_split_1
I1024 10:24:29.137325 33691 net.cpp:406] Eltwise28 <- Sigmoid19
I1024 10:24:29.137331 33691 net.cpp:380] Eltwise28 -> Eltwise28
I1024 10:24:29.137362 33691 net.cpp:122] Setting up Eltwise28
I1024 10:24:29.137370 33691 net.cpp:129] Top shape: 128 64 8 8 (524288)
I1024 10:24:29.137375 33691 net.cpp:137] Memory required for data: 840435200
I1024 10:24:29.137387 33691 layer_factory.hpp:77] Creating layer Pooling1
I1024 10:24:29.137408 33691 net.cpp:84] Creating Layer Pooling1
I1024 10:24:29.137413 33691 net.cpp:406] Pooling1 <- Eltwise28
I1024 10:24:29.137420 33691 net.cpp:380] Pooling1 -> Pooling1
I1024 10:24:29.138365 33691 net.cpp:122] Setting up Pooling1
I1024 10:24:29.138382 33691 net.cpp:129] Top shape: 128 64 1 1 (8192)
I1024 10:24:29.138388 33691 net.cpp:137] Memory required for data: 840467968
I1024 10:24:29.138394 33691 layer_factory.hpp:77] Creating layer InnerProduct1
I1024 10:24:29.138411 33691 net.cpp:84] Creating Layer InnerProduct1
I1024 10:24:29.138417 33691 net.cpp:406] InnerProduct1 <- Pooling1
I1024 10:24:29.138425 33691 net.cpp:380] InnerProduct1 -> InnerProduct1
I1024 10:24:29.138602 33691 net.cpp:122] Setting up InnerProduct1
I1024 10:24:29.138617 33691 net.cpp:129] Top shape: 128 10 (1280)
I1024 10:24:29.138622 33691 net.cpp:137] Memory required for data: 840473088
I1024 10:24:29.138630 33691 layer_factory.hpp:77] Creating layer InnerProduct1_InnerProduct1_0_split
I1024 10:24:29.138638 33691 net.cpp:84] Creating Layer InnerProduct1_InnerProduct1_0_split
I1024 10:24:29.138643 33691 net.cpp:406] InnerProduct1_InnerProduct1_0_split <- InnerProduct1
I1024 10:24:29.138651 33691 net.cpp:380] InnerProduct1_InnerProduct1_0_split -> InnerProduct1_InnerProduct1_0_split_0
I1024 10:24:29.138660 33691 net.cpp:380] InnerProduct1_InnerProduct1_0_split -> InnerProduct1_InnerProduct1_0_split_1
I1024 10:24:29.138701 33691 net.cpp:122] Setting up InnerProduct1_InnerProduct1_0_split
I1024 10:24:29.138710 33691 net.cpp:129] Top shape: 128 10 (1280)
I1024 10:24:29.138716 33691 net.cpp:129] Top shape: 128 10 (1280)
I1024 10:24:29.138720 33691 net.cpp:137] Memory required for data: 840483328
I1024 10:24:29.138725 33691 layer_factory.hpp:77] Creating layer Accuracy1
I1024 10:24:29.138732 33691 net.cpp:84] Creating Layer Accuracy1
I1024 10:24:29.138738 33691 net.cpp:406] Accuracy1 <- InnerProduct1_InnerProduct1_0_split_0
I1024 10:24:29.138746 33691 net.cpp:406] Accuracy1 <- Data2_Data1_1_split_0
I1024 10:24:29.138753 33691 net.cpp:380] Accuracy1 -> Accuracy1
…
I1024 10:24:29.142462 33691 upgrade_proto.cpp:80] Successfully upgraded batch norm layers using deprecated params.
I1024 10:24:29.142472 33691 solver.cpp:172] Creating test net (#0) specified by test_net file: test.prototxt
I1024 10:24:29.143162 33691 net.cpp:51] Initializing net from parameters: 
state {
  phase: TEST
}
layer {
  name: "Data1"
  type: "Data"
  top: "Data1"
  top: "Data2"
  transform_param {
    crop_size: 32
    mean_value: 125.306915
    mean_value: 122.950394
    mean_value: 113.865387
  }
  data_param {
    source: "/data/hjy1312/data/RESNET/cifar-10/cifar10_test_lmdb"
    batch_size: 128
    backend: LMDB
  }
}
layer {
  name: "Convolution1"
  type: "Convolution"
  bottom: "Data1"
  top: "Convolution1"
  param {
    lr_mult: 1
    decay_mult: 1
  }
  param {
    lr_mult: 2
    decay_mult: 0
  }
  convolution_param {
    num_output: 16
    bias_term: true
    pad: 1
    kernel_size: 3
    stride: 1
    weight_filler {
      type: "msra"
    }
    bias_filler {
      type: "constant"
    }
  }
}
layer {
  name: "BatchNorm1"
  type: "BatchNorm"
  bottom: "Convolution1"
  top: "Convolution1"
  param {
    lr_mult: 0
    decay_mult: 0
  }
  param {
    lr_mult: 0
    decay_mult: 0
  }
  param {
    lr_mult: 0
    decay_mult: 0
  }
  batch_norm_param {
    use_global_stats: true
  }
}
layer {
  name: "Scale1"
  type: "Scale"
  bottom: "Convolution1"
  top: "Convolution1"
  scale_param {
    bias_term: true
  }
}
layer {
  name: "Sigmoid1"
  type: "Sigmoid"
  bottom: "Convolution1"
  top: "Sigmoid1"
}
layer {
  name: "Eltwise1"
  type: "Eltwise"
  bottom: "Convolution1"
  bottom: "Sigmoid1"
  top: "Eltwise1"
  eltwise_param {
    operation: PROD
  }
}
layer {
  name: "Convolution2"
  type: "Convolution"
  bottom: "Eltwise1"
  top: "Convolution2"
  param {
    lr_mult: 1
    decay_mult: 1
  }
  param {
    lr_mult: 2
    decay_mult: 0
  }
  convolution_param {
    num_output: 16
    bias_term: true
    pad: 1
    kernel_size: 3
    stride: 1
    weight_filler {
      type: "msra"
    }
    bias_filler {
      type: "constant"
    }
  }
}
layer {
  name: "BatchNorm2"
  type: "BatchNorm"
  bottom: "Convolution2"
  top: "Convolution2"
  param {
    lr_mult: 0
    decay_mult: 0
  }
  param {
    lr_mult: 0
    decay_mult: 0
  }
  param {
    lr_mult: 0
    decay_mult: 0
  }
  batch_norm_param {
    use_global_stats: true
  }
}
layer {
  name: "Scale2"
  type: "Scale"
  bottom: "Convolution2"
  top: "Convolution2"
  scale_param {
    bias_term: true
  }
}
layer {
  name: "Sigmoid2"
  type: "Sigmoid"
  bottom: "Convolution2"
  top: "Sigmoid2"
}
layer {
  name: "Eltwise2"
  type: "Eltwise"
  bottom: "Convolution2"
  bottom: "Sigmoid2"
  top: "Eltwise2"
  eltwise_param {
    operation: PROD
  }
}
layer {
  name: "Convolution3"
  type: "Convolution"
  bottom: "Eltwise2"
  top: "Convolution3"
  param {
    lr_mult: 1
    decay_mult: 1
  }
  param {
    lr_mult: 2
    decay_mult: 0
  }
  convolution_param {
    num_output: 16
    bias_term: true
    pad: 1
    kernel_size: 3
    stride: 1
    weight_filler {
      type: "msra"
    }
    bias_filler {
      type: "constant"
    }
  }
}
layer {
  name: "BatchNorm3"
  type: "BatchNorm"
  bottom: "Convolution3"
  top: "Convolution3"
  param {
    lr_mult: 0
    decay_mult: 0
  }
  param {
    lr_mult: 0
    decay_mult: 0
  }
  param {
    lr_mult: 0
    decay_mult: 0
  }
  batch_norm_param {
    use_global_stats: true
  }
}
layer {
  name: "Scale3"
  type: "Scale"
  bottom: "Convolution3"
  top: "Convolution3"
  scale_param {
    bias_term: true
  }
}
layer {
  name: "Eltwise3"
  type: "Eltwise"
  bottom: "Convolution3"
  bottom: "Eltwise1"
  top: "Eltwise3"
  eltwise_param {
    operation: SUM
  }
}
layer {
  name: "Sigmoid3"
  type: "Sigmoid"
  bottom: "Eltwise3"
  top: "Sigmoid3"
}
layer {
  name: "Eltwise4"
  type: "Eltwise"
  bottom: "Eltwise3"
  bottom: "Sigmoid3"
  top: "Eltwise4"
  eltwise_param {
    operation: PROD
  }
}
layer {
  name: "Convolution4"
  type: "Convolution"
  bottom: "Eltwise4"
  top: "Convolution4"
  param {
    lr_mult: 1
    decay_mult: 1
  }
  param {
    lr_mult: 2
    decay_mult: 0
  }
  convolution_param {
    num_output: 16
    bias_term: true
    pad: 1
    kernel_size: 3
    stride: 1
    weight_filler {
      type: "msra"
    }
    bias_filler {
      type: "constant"
    }
  }
}
layer {
  name: "BatchNorm4"
  type: "BatchNorm"
  bottom: "Convolution4"
  top: "Convolution4"
  param {
    lr_mult: 0
    decay_mult: 0
  }
  param {
    lr_mult: 0
    decay_mult: 0
  }
  param {
    lr_mult: 0
    decay_mult: 0
  }
  batch_norm_param {
    use_global_stats: true
  }
}
layer {
  name: "Scale4"
  type: "Scale"
  bottom: "Convolution4"
  top: "Convolution4"
  scale_param {
    bias_term: true
  }
}
layer {
  name: "Sigmoid4"
  type: "Sigmoid"
  bottom: "Convolution4"
  top: "Sigmoid4"
}
layer {
  name: "Eltwise5"
  type: "Eltwise"
  bottom: "Convolution4"
  bottom: "Sigmoid4"
  top: "Eltwise5"
  eltwise_param {
    operation: PROD
  }
}
layer {
  name: "Convolution5"
  type: "Convolution"
  bottom: "Eltwise5"
  top: "Convolution5"
  param {
    lr_mult: 1
    decay_mult: 1
  }
  param {
    lr_mult: 2
    decay_mult: 0
  }
  convolution_param {
    num_output: 16
    bias_term: true
    pad: 1
    kernel_size: 3
    stride: 1
    weight_filler {
      type: "msra"
    }
    bias_filler {
      type: "constant"
    }
  }
}
layer {
  name: "BatchNorm5"
  type: "BatchNorm"
  bottom: "Convolution5"
  top: "Convolution5"
  param {
    lr_mult: 0
    decay_mult: 0
  }
  param {
    lr_mult: 0
    decay_mult: 0
  }
  param {
    lr_mult: 0
    decay_mult: 0
  }
  batch_norm_param {
    use_global_stats: true
  }
}
layer {
  name: "Scale5"
  type: "Scale"
  bottom: "Convolution5"
  top: "Convolution5"
  scale_param {
    bias_term: true
  }
}
layer {
  name: "Eltwise6"
  type: "Eltwise"
  bottom: "Convolution5"
  bottom: "Eltwise4"
  top: "Eltwise6"
  eltwise_param {
    operation: SUM
  }
}
layer {
  name: "Sigmoid5"
  type: "Sigmoid"
  bottom: "Eltwise6"
  top: "Sigmoid5"
}
layer {
  name: "Eltwise7"
  type: "Eltwise"
  bottom: "Eltwise6"
  bottom: "Sigmoid5"
  top: "Eltwise7"
  eltwise_param {
    operation: PROD
  }
}
layer {
  name: "Convolution6"
  type: "Convolution"
  bottom: "Eltwise7"
  top: "Convolution6"
  param {
    lr_mult: 1
    decay_mult: 1
  }
  param {
    lr_mult: 2
    decay_mult: 0
  }
  convolution_param {
    num_output: 16
    bias_term: true
    pad: 1
    kernel_size: 3
    stride: 1
    weight_filler {
      type: "msra"
    }
    bias_filler {
      type: "constant"
    }
  }
}
layer {
  name: "BatchNorm6"
  type: "BatchNorm"
  bottom: "Convolution6"
  top: "Convolution6"
  param {
    lr_mult: 0
    decay_mult: 0
  }
  param {
    lr_mult: 0
    decay_mult: 0
  }
  param {
    lr_mult: 0
    decay_mult: 0
  }
  batch_norm_param {
    use_global_stats: true
  }
}
layer {
  name: "Scale6"
  type: "Scale"
  bottom: "Convolution6"
  top: "Convolution6"
  scale_param {
    bias_term: true
  }
}
layer {
  name: "Sigmoid6"
  type: "Sigmoid"
  bottom: "Convolution6"
  top: "Sigmoid6"
}
layer {
  name: "Eltwise8"
  type: "Eltwise"
  bottom: "Convolution6"
  bottom: "Sigmoid6"
  top: "Eltwise8"
  eltwise_param {
    operation: PROD
  }
}
layer {
  name: "Convolution7"
  type: "Convolution"
  bottom: "Eltwise8"
  top: "Convolution7"
  param {
    lr_mult: 1
    decay_mult: 1
  }
  param {
    lr_mult: 2
    decay_mult: 0
  }
  convolution_param {
    num_output: 16
    bias_term: true
    pad: 1
    kernel_size: 3
    stride: 1
    weight_filler {
      type: "msra"
    }
    bias_filler {
      type: "constant"
    }
  }
}
layer {
  name: "BatchNorm7"
  type: "BatchNorm"
  bottom: "Convolution7"
  top: "Convolution7"
  param {
    lr_mult: 0
    decay_mult: 0
  }
  param {
    lr_mult: 0
    decay_mult: 0
  }
  param {
    lr_mult: 0
    decay_mult: 0
  }
  batch_norm_param {
    use_global_stats: true
  }
}
layer {
  name: "Scale7"
  type: "Scale"
  bottom: "Convolution7"
  top: "Convolution7"
  scale_param {
    bias_term: true
  }
}
layer {
  name: "Eltwise9"
  type: "Eltwise"
  bottom: "Convolution7"
  bottom: "Eltwise7"
  top: "Eltwise9"
  eltwise_param {
    operation: SUM
  }
}
layer {
  name: "Sigmoid7"
  type: "Sigmoid"
  bottom: "Eltwise9"
  top: "Sigmoid7"
}
layer {
  name: "Eltwise10"
  type: "Eltwise"
  bottom: "Eltwise9"
  bottom: "Sigmoid7"
  top: "Eltwise10"
  eltwise_param {
    operation: PROD
  }
}
layer {
  name: "Convolution8"
  type: "Convolution"
  bottom: "Eltwise10"
  top: "Convolution8"
  param {
    lr_mult: 1
    decay_mult: 1
  }
  param {
    lr_mult: 2
    decay_mult: 0
  }
  convolution_param {
    num_output: 32
    bias_term: true
    pad: 1
    kernel_size: 3
    stride: 2
    weight_filler {
      type: "msra"
    }
    bias_filler {
      type: "constant"
    }
  }
}
layer {
  name: "BatchNorm8"
  type: "BatchNorm"
  bottom: "Convolution8"
  top: "Convolution8"
  param {
    lr_mult: 0
    decay_mult: 0
  }
  param {
    lr_mult: 0
    decay_mult: 0
  }
  param {
    lr_mult: 0
    decay_mult: 0
  }
  batch_norm_param {
    use_global_stats: true
  }
}
layer {
  name: "Scale8"
  type: "Scale"
  bottom: "Convolution8"
  top: "Convolution8"
  scale_param {
    bias_term: true
  }
}
layer {
  name: "Sigmoid8"
  type: "Sigmoid"
  bottom: "Convolution8"
  top: "Sigmoid8"
}
layer {
  name: "Eltwise11"
  type: "Eltwise"
  bottom: "Convolution8"
  bottom: "Sigmoid8"
  top: "Eltwise11"
  eltwise_param {
    operation: PROD
  }
}
layer {
  name: "Convolution9"
  type: "Convolution"
  bottom: "Eltwise11"
  top: "Convolution9"
  param {
    lr_mult: 1
    decay_mult: 1
  }
  param {
    lr_mult: 2
    decay_mult: 0
  }
  convolution_param {
    num_output: 32
    bias_term: true
    pad: 1
    kernel_size: 3
    stride: 1
    weight_filler {
      type: "msra"
    }
    bias_filler {
      type: "constant"
    }
  }
}
layer {
  name: "BatchNorm9"
  type: "BatchNorm"
  bottom: "Convolution9"
  top: "Convolution9"
  param {
    lr_mult: 0
    decay_mult: 0
  }
  param {
    lr_mult: 0
    decay_mult: 0
  }
  param {
    lr_mult: 0
    decay_mult: 0
  }
  batch_norm_param {
    use_global_stats: true
  }
}
layer {
  name: "Scale9"
  type: "Scale"
  bottom: "Convolution9"
  top: "Convolution9"
  scale_param {
    bias_term: true
  }
}
layer {
  name: "Convolution10"
  type: "Convolution"
  bottom: "Eltwise10"
  top: "Convolution10"
  param {
    lr_mult: 1
    decay_mult: 1
  }
  param {
    lr_mult: 2
    decay_mult: 0
  }
  convolution_param {
    num_output: 32
    bias_term: true
    pad: 0
    kernel_size: 1
    stride: 2
    weight_filler {
      type: "msra"
    }
    bias_filler {
      type: "constant"
    }
  }
}
layer {
  name: "BatchNorm10"
  type: "BatchNorm"
  bottom: "Convolution10"
  top: "Convolution10"
  param {
    lr_mult: 0
    decay_mult: 0
  }
  param {
    lr_mult: 0
    decay_mult: 0
  }
  param {
    lr_mult: 0
    decay_mult: 0
  }
  batch_norm_param {
    use_global_stats: true
  }
}
layer {
  name: "Scale10"
  type: "Scale"
  bottom: "Convolution10"
  top: "Convolution10"
  scale_param {
    bias_term: true
  }
}
layer {
  name: "Eltwise12"
  type: "Eltwise"
  bottom: "Convolution9"
  bottom: "Convolution10"
  top: "Eltwise12"
  eltwise_param {
    operation: SUM
  }
}
layer {
  name: "Sigmoid9"
  type: "Sigmoid"
  bottom: "Eltwise12"
  top: "Sigmoid9"
}
layer {
  name: "Eltwise13"
  type: "Eltwise"
  bottom: "Eltwise12"
  bottom: "Sigmoid9"
  top: "Eltwise13"
  eltwise_param {
    operation: PROD
  }
}
layer {
  name: "Convolution11"
  type: "Convolution"
  bottom: "Eltwise13"
  top: "Convolution11"
  param {
    lr_mult: 1
    decay_mult: 1
  }
  param {
    lr_mult: 2
    decay_mult: 0
  }
  convolution_param {
    num_output: 32
    bias_term: true
    pad: 1
    kernel_size: 3
    stride: 1
    weight_filler {
      type: "msra"
    }
    bias_filler {
      type: "constant"
    }
  }
}
layer {
  name: "BatchNorm11"
  type: "BatchNorm"
  bottom: "Convolution11"
  top: "Convolution11"
  param {
    lr_mult: 0
    decay_mult: 0
  }
  param {
    lr_mult: 0
    decay_mult: 0
  }
  param {
    lr_mult: 0
    decay_mult: 0
  }
  batch_norm_param {
    use_global_stats: true
  }
}
layer {
  name: "Scale11"
  type: "Scale"
  bottom: "Convolution11"
  top: "Convolution11"
  scale_param {
    bias_term: true
  }
}
layer {
  name: "Sigmoid10"
  type: "Sigmoid"
  bottom: "Convolution11"
  top: "Sigmoid10"
}
layer {
  name: "Eltwise14"
  type: "Eltwise"
  bottom: "Convolution11"
  bottom: "Sigmoid10"
  top: "Eltwise14"
  eltwise_param {
    operation: PROD
  }
}
layer {
  name: "Convolution12"
  type: "Convolution"
  bottom: "Eltwise14"
  top: "Convolution12"
  param {
    lr_mult: 1
    decay_mult: 1
  }
  param {
    lr_mult: 2
    decay_mult: 0
  }
  convolution_param {
    num_output: 32
    bias_term: true
    pad: 1
    kernel_size: 3
    stride: 1
    weight_filler {
      type: "msra"
    }
    bias_filler {
      type: "constant"
    }
  }
}
layer {
  name: "BatchNorm12"
  type: "BatchNorm"
  bottom: "Convolution12"
  top: "Convolution12"
  param {
    lr_mult: 0
    decay_mult: 0
  }
  param {
    lr_mult: 0
    decay_mult: 0
  }
  param {
    lr_mult: 0
    decay_mult: 0
  }
  batch_norm_param {
    use_global_stats: true
  }
}
layer {
  name: "Scale12"
  type: "Scale"
  bottom: "Convolution12"
  top: "Convolution12"
  scale_param {
    bias_term: true
  }
}
layer {
  name: "Eltwise15"
  type: "Eltwise"
  bottom: "Convolution12"
  bottom: "Eltwise13"
  top: "Eltwise15"
  eltwise_param {
    operation: SUM
  }
}
layer {
  name: "Sigmoid11"
  type: "Sigmoid"
  bottom: "Eltwise15"
  top: "Sigmoid11"
}
layer {
  name: "Eltwise16"
  type: "Eltwise"
  bottom: "Eltwise15"
  bottom: "Sigmoid11"
  top: "Eltwise16"
  eltwise_param {
    operation: PROD
  }
}
layer {
  name: "Convolution13"
  type: "Convolution"
  bottom: "Eltwise16"
  top: "Convolution13"
  param {
    lr_mult: 1
    decay_mult: 1
  }
  param {
    lr_mult: 2
    decay_mult: 0
  }
  convolution_param {
    num_output: 32
    bias_term: true
    pad: 1
    kernel_size: 3
    stride: 1
    weight_filler {
      type: "msra"
    }
    bias_filler {
      type: "constant"
    }
  }
}
layer {
  name: "BatchNorm13"
  type: "BatchNorm"
  bottom: "Convolution13"
  top: "Convolution13"
  param {
    lr_mult: 0
    decay_mult: 0
  }
  param {
    lr_mult: 0
    decay_mult: 0
  }
  param {
    lr_mult: 0
    decay_mult: 0
  }
  batch_norm_param {
    use_global_stats: true
  }
}
layer {
  name: "Scale13"
  type: "Scale"
  bottom: "Convolution13"
  top: "Convolution13"
  scale_param {
    bias_term: true
  }
}
layer {
  name: "Sigmoid12"
  type: "Sigmoid"
  bottom: "Convolution13"
  top: "Sigmoid12"
}
layer {
  name: "Eltwise17"
  type: "Eltwise"
  bottom: "Convolution13"
  bottom: "Sigmoid12"
  top: "Eltwise17"
  eltwise_param {
    operation: PROD
  }
}
layer {
  name: "Convolution14"
  type: "Convolution"
  bottom: "Eltwise17"
  top: "Convolution14"
  param {
    lr_mult: 1
    decay_mult: 1
  }
  param {
    lr_mult: 2
    decay_mult: 0
  }
  convolution_param {
    num_output: 32
    bias_term: true
    pad: 1
    kernel_size: 3
    stride: 1
    weight_filler {
      type: "msra"
    }
    bias_filler {
      type: "constant"
    }
  }
}
layer {
  name: "BatchNorm14"
  type: "BatchNorm"
  bottom: "Convolution14"
  top: "Convolution14"
  param {
    lr_mult: 0
    decay_mult: 0
  }
  param {
    lr_mult: 0
    decay_mult: 0
  }
  param {
    lr_mult: 0
    decay_mult: 0
  }
  batch_norm_param {
    use_global_stats: true
  }
}
layer {
  name: "Scale14"
  type: "Scale"
  bottom: "Convolution14"
  top: "Convolution14"
  scale_param {
    bias_term: true
  }
}
layer {
  name: "Eltwise18"
  type: "Eltwise"
  bottom: "Convolution14"
  bottom: "Eltwise16"
  top: "Eltwise18"
  eltwise_param {
    operation: SUM
  }
}
layer {
  name: "Sigmoid13"
  type: "Sigmoid"
  bottom: "Eltwise18"
  top: "Sigmoid13"
}
layer {
  name: "Eltwise19"
  type: "Eltwise"
  bottom: "Eltwise18"
  bottom: "Sigmoid13"
  top: "Eltwise19"
  eltwise_param {
    operation: PROD
  }
}
layer {
  name: "Convolution15"
  type: "Convolution"
  bottom: "Eltwise19"
  top: "Convolution15"
  param {
    lr_mult: 1
    decay_mult: 1
  }
  param {
    lr_mult: 2
    decay_mult: 0
  }
  convolution_param {
    num_output: 64
    bias_term: true
    pad: 1
    kernel_size: 3
    stride: 2
    weight_filler {
      type: "msra"
    }
    bias_filler {
      type: "constant"
    }
  }
}
layer {
  name: "BatchNorm15"
  type: "BatchNorm"
  bottom: "Convolution15"
  top: "Convolution15"
  param {
    lr_mult: 0
    decay_mult: 0
  }
  param {
    lr_mult: 0
    decay_mult: 0
  }
  param {
    lr_mult: 0
    decay_mult: 0
  }
  batch_norm_param {
    use_global_stats: true
  }
}
layer {
  name: "Scale15"
  type: "Scale"
  bottom: "Convolution15"
  top: "Convolution15"
  scale_param {
    bias_term: true
  }
}
layer {
  name: "Sigmoid14"
  type: "Sigmoid"
  bottom: "Convolution15"
  top: "Sigmoid14"
}
layer {
  name: "Eltwise20"
  type: "Eltwise"
  bottom: "Convolution15"
  bottom: "Sigmoid14"
  top: "Eltwise20"
  eltwise_param {
    operation: PROD
  }
}
layer {
  name: "Convolution16"
  type: "Convolution"
  bottom: "Eltwise20"
  top: "Convolution16"
  param {
    lr_mult: 1
    decay_mult: 1
  }
  param {
    lr_mult: 2
    decay_mult: 0
  }
  convolution_param {
    num_output: 64
    bias_term: true
    pad: 1
    kernel_size: 3
    stride: 1
    weight_filler {
      type: "msra"
    }
    bias_filler {
      type: "constant"
    }
  }
}
layer {
  name: "BatchNorm16"
  type: "BatchNorm"
  bottom: "Convolution16"
  top: "Convolution16"
  param {
    lr_mult: 0
    decay_mult: 0
  }
  param {
    lr_mult: 0
    decay_mult: 0
  }
  param {
    lr_mult: 0
    decay_mult: 0
  }
  batch_norm_param {
    use_global_stats: true
  }
}
layer {
  name: "Scale16"
  type: "Scale"
  bottom: "Convolution16"
  top: "Convolution16"
  scale_param {
    bias_term: true
  }
}
layer {
  name: "Convolution17"
  type: "Convolution"
  bottom: "Eltwise19"
  top: "Convolution17"
  param {
    lr_mult: 1
    decay_mult: 1
  }
  param {
    lr_mult: 2
    decay_mult: 0
  }
  convolution_param {
    num_output: 64
    bias_term: true
    pad: 0
    kernel_size: 1
    stride: 2
    weight_filler {
      type: "msra"
    }
    bias_filler {
      type: "constant"
    }
  }
}
layer {
  name: "BatchNorm17"
  type: "BatchNorm"
  bottom: "Convolution17"
  top: "Convolution17"
  param {
    lr_mult: 0
    decay_mult: 0
  }
  param {
    lr_mult: 0
    decay_mult: 0
  }
  param {
    lr_mult: 0
    decay_mult: 0
  }
  batch_norm_param {
    use_global_stats: true
  }
}
layer {
  name: "Scale17"
  type: "Scale"
  bottom: "Convolution17"
  top: "Convolution17"
  scale_param {
    bias_term: true
  }
}
layer {
  name: "Eltwise21"
  type: "Eltwise"
  bottom: "Convolution16"
  bottom: "Convolution17"
  top: "Eltwise21"
  eltwise_param {
    operation: SUM
  }
}
layer {
  name: "Sigmoid15"
  type: "Sigmoid"
  bottom: "Eltwise21"
  top: "Sigmoid15"
}
layer {
  name: "Eltwise22"
  type: "Eltwise"
  bottom: "Eltwise21"
  bottom: "Sigmoid15"
  top: "Eltwise22"
  eltwise_param {
    operation: PROD
  }
}
layer {
  name: "Convolution18"
  type: "Convolution"
  bottom: "Eltwise22"
  top: "Convolution18"
  param {
    lr_mult: 1
    decay_mult: 1
  }
  param {
    lr_mult: 2
    decay_mult: 0
  }
  convolution_param {
    num_output: 64
    bias_term: true
    pad: 1
    kernel_size: 3
    stride: 1
    weight_filler {
      type: "msra"
    }
    bias_filler {
      type: "constant"
    }
  }
}
layer {
  name: "BatchNorm18"
  type: "BatchNorm"
  bottom: "Convolution18"
  top: "Convolution18"
  param {
    lr_mult: 0
    decay_mult: 0
  }
  param {
    lr_mult: 0
    decay_mult: 0
  }
  param {
    lr_mult: 0
    decay_mult: 0
  }
  batch_norm_param {
    use_global_stats: true
  }
}
layer {
  name: "Scale18"
  type: "Scale"
  bottom: "Convolution18"
  top: "Convolution18"
  scale_param {
    bias_term: true
  }
}
layer {
  name: "Sigmoid16"
  type: "Sigmoid"
  bottom: "Convolution18"
  top: "Sigmoid16"
}
layer {
  name: "Eltwise23"
  type: "Eltwise"
  bottom: "Convolution18"
  bottom: "Sigmoid16"
  top: "Eltwise23"
  eltwise_param {
    operation: PROD
  }
}
layer {
  name: "Convolution19"
  type: "Convolution"
  bottom: "Eltwise23"
  top: "Convolution19"
  param {
    lr_mult: 1
    decay_mult: 1
  }
  param {
    lr_mult: 2
    decay_mult: 0
  }
  convolution_param {
    num_output: 64
    bias_term: true
    pad: 1
    kernel_size: 3
    stride: 1
    weight_filler {
      type: "msra"
    }
    bias_filler {
      type: "constant"
    }
  }
}
layer {
  name: "BatchNorm19"
  type: "BatchNorm"
  bottom: "Convolution19"
  top: "Convolution19"
  param {
    lr_mult: 0
    decay_mult: 0
  }
  param {
    lr_mult: 0
    decay_mult: 0
  }
  param {
    lr_mult: 0
    decay_mult: 0
  }
  batch_norm_param {
    use_global_stats: true
  }
}
layer {
  name: "Scale19"
  type: "Scale"
  bottom: "Convolution19"
  top: "Convolution19"
  scale_param {
    bias_term: true
  }
}
layer {
  name: "Eltwise24"
  type: "Eltwise"
  bottom: "Convolution19"
  bottom: "Eltwise22"
  top: "Eltwise24"
  eltwise_param {
    operation: SUM
  }
}
layer {
  name: "Sigmoid17"
  type: "Sigmoid"
  bottom: "Eltwise24"
  top: "Sigmoid17"
}
layer {
  name: "Eltwise25"
  type: "Eltwise"
  bottom: "Eltwise24"
  bottom: "Sigmoid17"
  top: "Eltwise25"
  eltwise_param {
    operation: PROD
  }
}
layer {
  name: "Convolution20"
  type: "Convolution"
  bottom: "Eltwise25"
  top: "Convolution20"
  param {
    lr_mult: 1
    decay_mult: 1
  }
  param {
    lr_mult: 2
    decay_mult: 0
  }
  convolution_param {
    num_output: 64
    bias_term: true
    pad: 1
    kernel_size: 3
    stride: 1
    weight_filler {
      type: "msra"
    }
    bias_filler {
      type: "constant"
    }
  }
}
layer {
  name: "BatchNorm20"
  type: "BatchNorm"
  bottom: "Convolution20"
  top: "Convolution20"
  param {
    lr_mult: 0
    decay_mult: 0
  }
  param {
    lr_mult: 0
    decay_mult: 0
  }
  param {
    lr_mult: 0
    decay_mult: 0
  }
  batch_norm_param {
    use_global_stats: true
  }
}
layer {
  name: "Scale20"
  type: "Scale"
  bottom: "Convolution20"
  top: "Convolution20"
  scale_param {
    bias_term: true
  }
}
layer {
  name: "Sigmoid18"
  type: "Sigmoid"
  bottom: "Convolution20"
  top: "Sigmoid18"
}
layer {
  name: "Eltwise26"
  type: "Eltwise"
  bottom: "Convolution20"
  bottom: "Sigmoid18"
  top: "Eltwise26"
  eltwise_param {
    operation: PROD
  }
}
layer {
  name: "Convolution21"
  type: "Convolution"
  bottom: "Eltwise26"
  top: "Convolution21"
  param {
    lr_mult: 1
    decay_mult: 1
  }
  param {
    lr_mult: 2
    decay_mult: 0
  }
  convolution_param {
    num_output: 64
    bias_term: true
    pad: 1
    kernel_size: 3
    stride: 1
    weight_filler {
      type: "msra"
    }
    bias_filler {
      type: "constant"
    }
  }
}
layer {
  name: "BatchNorm21"
  type: "BatchNorm"
  bottom: "Convolution21"
  top: "Convolution21"
  param {
    lr_mult: 0
    decay_mult: 0
  }
  param {
    lr_mult: 0
    decay_mult: 0
  }
  param {
    lr_mult: 0
    decay_mult: 0
  }
  batch_norm_param {
    use_global_stats: true
  }
}
layer {
  name: "Scale21"
  type: "Scale"
  bottom: "Convolution21"
  top: "Convolution21"
  scale_param {
    bias_term: true
  }
}
layer {
  name: "Eltwise27"
  type: "Eltwise"
  bottom: "Convolution21"
  bottom: "Eltwise25"
  top: "Eltwise27"
  eltwise_param {
    operation: SUM
  }
}
layer {
  name: "Sigmoid19"
  type: "Sigmoid"
  bottom: "Eltwise27"
  top: "Sigmoid19"
}
layer {
  name: "Eltwise28"
  type: "Eltwise"
  bottom: "Eltwise27"
  bottom: "Sigmoid19"
  top: "Eltwise28"
  eltwise_param {
    operation: PROD
  }
}
layer {
  name: "Pooling1"
  type: "Pooling"
  bottom: "Eltwise28"
  top: "Pooling1"
  pooling_param {
    pool: AVE
    global_pooling: true
  }
}
layer {
  name: "InnerProduct1"
  type: "InnerProduct"
  bottom: "Pooling1"
  top: "InnerProduct1"
  inner_product_param {
    num_output: 10
    weight_filler {
      type: "msra"
    }
    bias_filler {
      type: "constant"
    }
  }
}
layer {
  name: "Accuracy1"
  type: "Accuracy"
  bottom: "InnerProduct1"
  bottom: "Data2"
  top: "Accuracy1"
}
I1024 10:24:29.143713 33691 layer_factory.hpp:77] Creating layer Data1
I1024 10:24:29.143779 33691 db_lmdb.cpp:35] Opened lmdb /data/hjy1312/data/RESNET/cifar-10/cifar10_test_lmdb
I1024 10:24:29.143806 33691 net.cpp:84] Creating Layer Data1
I1024 10:24:29.143815 33691 net.cpp:380] Data1 -> Data1
I1024 10:24:29.143826 33691 net.cpp:380] Data1 -> Data2
I1024 10:24:29.143949 33691 data_layer.cpp:45] output data size: 128,3,32,32
I1024 10:24:29.152475 33691 net.cpp:122] Setting up Data1
I1024 10:24:29.152504 33691 net.cpp:129] Top shape: 128 3 32 32 (393216)
I1024 10:24:29.152518 33691 net.cpp:129] Top shape: 128 (128)
I1024 10:24:29.152526 33691 net.cpp:137] Memory required for data: 1573376
I1024 10:24:29.152535 33691 layer_factory.hpp:77] Creating layer Convolution1
I1024 10:24:29.152556 33691 net.cpp:84] Creating Layer Convolution1
I1024 10:24:29.152568 33691 net.cpp:406] Convolution1 <- Data1
I1024 10:24:29.152585 33691 net.cpp:380] Convolution1 -> Convolution1
I1024 10:24:29.155787 33691 net.cpp:122] Setting up Convolution1
I1024 10:24:29.155818 33691 net.cpp:129] Top shape: 128 16 32 32 (2097152)
I1024 10:24:29.155836 33691 net.cpp:137] Memory required for data: 9961984
I1024 10:24:29.155856 33691 layer_factory.hpp:77] Creating layer BatchNorm1
I1024 10:24:29.155871 33691 net.cpp:84] Creating Layer BatchNorm1
I1024 10:24:29.155880 33691 net.cpp:406] BatchNorm1 <- Convolution1
I1024 10:24:29.155890 33691 net.cpp:367] BatchNorm1 -> Convolution1 (in-place)
I1024 10:24:29.156276 33691 net.cpp:122] Setting up BatchNorm1
I1024 10:24:29.156301 33691 net.cpp:129] Top shape: 128 16 32 32 (2097152)
I1024 10:24:29.156313 33691 net.cpp:137] Memory required for data: 18350592
I1024 10:24:29.156340 33691 layer_factory.hpp:77] Creating layer Scale1
I1024 10:24:29.156358 33691 net.cpp:84] Creating Layer Scale1
I1024 10:24:29.156370 33691 net.cpp:406] Scale1 <- Convolution1
I1024 10:24:29.156385 33691 net.cpp:367] Scale1 -> Convolution1 (in-place)
I1024 10:24:29.156471 33691 layer_factory.hpp:77] Creating layer Scale1
I1024 10:24:29.156747 33691 net.cpp:122] Setting up Scale1
I1024 10:24:29.156765 33691 net.cpp:129] Top shape: 128 16 32 32 (2097152)
I1024 10:24:29.156777 33691 net.cpp:137] Memory required for data: 26739200
I1024 10:24:29.156793 33691 layer_factory.hpp:77] Creating layer Convolution1_Scale1_0_split
I1024 10:24:29.156813 33691 net.cpp:84] Creating Layer Convolution1_Scale1_0_split
I1024 10:24:29.156826 33691 net.cpp:406] Convolution1_Scale1_0_split <- Convolution1
I1024 10:24:29.156841 33691 net.cpp:380] Convolution1_Scale1_0_split -> Convolution1_Scale1_0_split_0
I1024 10:24:29.156859 33691 net.cpp:380] Convolution1_Scale1_0_split -> Convolution1_Scale1_0_split_1
I1024 10:24:29.156950 33691 net.cpp:122] Setting up Convolution1_Scale1_0_split
I1024 10:24:29.156965 33691 net.cpp:129] Top shape: 128 16 32 32 (2097152)
I1024 10:24:29.156976 33691 net.cpp:129] Top shape: 128 16 32 32 (2097152)
I1024 10:24:29.156983 33691 net.cpp:137] Memory required for data: 43516416
I1024 10:24:29.156991 33691 layer_factory.hpp:77] Creating layer Sigmoid1
I1024 10:24:29.157002 33691 net.cpp:84] Creating Layer Sigmoid1
I1024 10:24:29.157011 33691 net.cpp:406] Sigmoid1 <- Convolution1_Scale1_0_split_0
I1024 10:24:29.157021 33691 net.cpp:380] Sigmoid1 -> Sigmoid1
I1024 10:24:29.158288 33691 net.cpp:122] Setting up Sigmoid1
I1024 10:24:29.158311 33691 net.cpp:129] Top shape: 128 16 32 32 (2097152)
I1024 10:24:29.158331 33691 net.cpp:137] Memory required for data: 51905024
I1024 10:24:29.158340 33691 layer_factory.hpp:77] Creating layer Eltwise1
I1024 10:24:29.158360 33691 net.cpp:84] Creating Layer Eltwise1
I1024 10:24:29.158370 33691 net.cpp:406] Eltwise1 <- Convolution1_Scale1_0_split_1
I1024 10:24:29.158385 33691 net.cpp:406] Eltwise1 <- Sigmoid1
I1024 10:24:29.158399 33691 net.cpp:380] Eltwise1 -> Eltwise1
I1024 10:24:29.158447 33691 net.cpp:122] Setting up Eltwise1
I1024 10:24:29.158462 33691 net.cpp:129] Top shape: 128 16 32 32 (2097152)
I1024 10:24:29.158468 33691 net.cpp:137] Memory required for data: 60293632
I1024 10:24:29.158481 33691 layer_factory.hpp:77] Creating layer Eltwise1_Eltwise1_0_split
I1024 10:24:29.158507 33691 net.cpp:84] Creating Layer Eltwise1_Eltwise1_0_split
I1024 10:24:29.158521 33691 net.cpp:406] Eltwise1_Eltwise1_0_split <- Eltwise1
I1024 10:24:29.158536 33691 net.cpp:380] Eltwise1_Eltwise1_0_split -> Eltwise1_Eltwise1_0_split_0
I1024 10:24:29.158548 33691 net.cpp:380] Eltwise1_Eltwise1_0_split -> Eltwise1_Eltwise1_0_split_1
I1024 10:24:29.158620 33691 net.cpp:122] Setting up Eltwise1_Eltwise1_0_split
I1024 10:24:29.158637 33691 net.cpp:129] Top shape: 128 16 32 32 (2097152)
I1024 10:24:29.158646 33691 net.cpp:129] Top shape: 128 16 32 32 (2097152)
I1024 10:24:29.158654 33691 net.cpp:137] Memory required for data: 77070848
I1024 10:24:29.158663 33691 layer_factory.hpp:77] Creating layer Convolution2
I1024 10:24:29.158680 33691 net.cpp:84] Creating Layer Convolution2
I1024 10:24:29.158690 33691 net.cpp:406] Convolution2 <- Eltwise1_Eltwise1_0_split_0
I1024 10:24:29.158704 33691 net.cpp:380] Convolution2 -> Convolution2
I1024 10:24:29.162106 33691 net.cpp:122] Setting up Convolution2
I1024 10:24:29.162135 33691 net.cpp:129] Top shape: 128 16 32 32 (2097152)
I1024 10:24:29.162161 33691 net.cpp:137] Memory required for data: 85459456
I1024 10:24:29.162179 33691 layer_factory.hpp:77] Creating layer BatchNorm2
I1024 10:24:29.162194 33691 net.cpp:84] Creating Layer BatchNorm2
I1024 10:24:29.162211 33691 net.cpp:406] BatchNorm2 <- Convolution2
I1024 10:24:29.162226 33691 net.cpp:367] BatchNorm2 -> Convolution2 (in-place)
I1024 10:24:29.162583 33691 net.cpp:122] Setting up BatchNorm2
I1024 10:24:29.162606 33691 net.cpp:129] Top shape: 128 16 32 32 (2097152)
I1024 10:24:29.162623 33691 net.cpp:137] Memory required for data: 93848064
I1024 10:24:29.162638 33691 layer_factory.hpp:77] Creating layer Scale2
I1024 10:24:29.162650 33691 net.cpp:84] Creating Layer Scale2
I1024 10:24:29.162659 33691 net.cpp:406] Scale2 <- Convolution2
I1024 10:24:29.162670 33691 net.cpp:367] Scale2 -> Convolution2 (in-place)
I1024 10:24:29.162735 33691 layer_factory.hpp:77] Creating layer Scale2
I1024 10:24:29.162933 33691 net.cpp:122] Setting up Scale2
I1024 10:24:29.162950 33691 net.cpp:129] Top shape: 128 16 32 32 (2097152)
I1024 10:24:29.162957 33691 net.cpp:137] Memory required for data: 102236672
I1024 10:24:29.162969 33691 layer_factory.hpp:77] Creating layer Convolution2_Scale2_0_split
I1024 10:24:29.162979 33691 net.cpp:84] Creating Layer Convolution2_Scale2_0_split
I1024 10:24:29.162987 33691 net.cpp:406] Convolution2_Scale2_0_split <- Convolution2
I1024 10:24:29.163010 33691 net.cpp:380] Convolution2_Scale2_0_split -> Convolution2_Scale2_0_split_0
I1024 10:24:29.163029 33691 net.cpp:380] Convolution2_Scale2_0_split -> Convolution2_Scale2_0_split_1
I1024 10:24:29.163095 33691 net.cpp:122] Setting up Convolution2_Scale2_0_split
I1024 10:24:29.163110 33691 net.cpp:129] Top shape: 128 16 32 32 (2097152)
I1024 10:24:29.163125 33691 net.cpp:129] Top shape: 128 16 32 32 (2097152)
I1024 10:24:29.163133 33691 net.cpp:137] Memory required for data: 119013888
I1024 10:24:29.163141 33691 layer_factory.hpp:77] Creating layer Sigmoid2
I1024 10:24:29.163156 33691 net.cpp:84] Creating Layer Sigmoid2
I1024 10:24:29.163166 33691 net.cpp:406] Sigmoid2 <- Convolution2_Scale2_0_split_0
I1024 10:24:29.163179 33691 net.cpp:380] Sigmoid2 -> Sigmoid2
I1024 10:24:29.163493 33691 net.cpp:122] Setting up Sigmoid2
I1024 10:24:29.163516 33691 net.cpp:129] Top shape: 128 16 32 32 (2097152)
I1024 10:24:29.163524 33691 net.cpp:137] Memory required for data: 127402496
I1024 10:24:29.163540 33691 layer_factory.hpp:77] Creating layer Eltwise2
I1024 10:24:29.163553 33691 net.cpp:84] Creating Layer Eltwise2
I1024 10:24:29.163563 33691 net.cpp:406] Eltwise2 <- Convolution2_Scale2_0_split_1
I1024 10:24:29.163573 33691 net.cpp:406] Eltwise2 <- Sigmoid2
I1024 10:24:29.163583 33691 net.cpp:380] Eltwise2 -> Eltwise2
I1024 10:24:29.163633 33691 net.cpp:122] Setting up Eltwise2
I1024 10:24:29.163646 33691 net.cpp:129] Top shape: 128 16 32 32 (2097152)
I1024 10:24:29.163661 33691 net.cpp:137] Memory required for data: 135791104
I1024 10:24:29.163676 33691 layer_factory.hpp:77] Creating layer Convolution3
I1024 10:24:29.163692 33691 net.cpp:84] Creating Layer Convolution3
I1024 10:24:29.163702 33691 net.cpp:406] Convolution3 <- Eltwise2
I1024 10:24:29.163717 33691 net.cpp:380] Convolution3 -> Convolution3
I1024 10:24:29.168191 33691 net.cpp:122] Setting up Convolution3
I1024 10:24:29.168215 33691 net.cpp:129] Top shape: 128 16 32 32 (2097152)
I1024 10:24:29.168225 33691 net.cpp:137] Memory required for data: 144179712
I1024 10:24:29.168237 33691 layer_factory.hpp:77] Creating layer BatchNorm3
I1024 10:24:29.168252 33691 net.cpp:84] Creating Layer BatchNorm3
I1024 10:24:29.168269 33691 net.cpp:406] BatchNorm3 <- Convolution3
I1024 10:24:29.168282 33691 net.cpp:367] BatchNorm3 -> Convolution3 (in-place)
I1024 10:24:29.168620 33691 net.cpp:122] Setting up BatchNorm3
I1024 10:24:29.168637 33691 net.cpp:129] Top shape: 128 16 32 32 (2097152)
I1024 10:24:29.168644 33691 net.cpp:137] Memory required for data: 152568320
I1024 10:24:29.168665 33691 layer_factory.hpp:77] Creating layer Scale3
I1024 10:24:29.168694 33691 net.cpp:84] Creating Layer Scale3
I1024 10:24:29.168710 33691 net.cpp:406] Scale3 <- Convolution3
I1024 10:24:29.168721 33691 net.cpp:367] Scale3 -> Convolution3 (in-place)
I1024 10:24:29.168790 33691 layer_factory.hpp:77] Creating layer Scale3
I1024 10:24:29.169013 33691 net.cpp:122] Setting up Scale3
I1024 10:24:29.169034 33691 net.cpp:129] Top shape: 128 16 32 32 (2097152)
I1024 10:24:29.169044 33691 net.cpp:137] Memory required for data: 160956928
I1024 10:24:29.169057 33691 layer_factory.hpp:77] Creating layer Eltwise3
I1024 10:24:29.169071 33691 net.cpp:84] Creating Layer Eltwise3
I1024 10:24:29.169080 33691 net.cpp:406] Eltwise3 <- Convolution3
I1024 10:24:29.169090 33691 net.cpp:406] Eltwise3 <- Eltwise1_Eltwise1_0_split_1
I1024 10:24:29.169102 33691 net.cpp:380] Eltwise3 -> Eltwise3
I1024 10:24:29.169234 33691 net.cpp:122] Setting up Eltwise3
I1024 10:24:29.169252 33691 net.cpp:129] Top shape: 128 16 32 32 (2097152)
I1024 10:24:29.169270 33691 net.cpp:137] Memory required for data: 169345536
I1024 10:24:29.169278 33691 layer_factory.hpp:77] Creating layer Eltwise3_Eltwise3_0_split
I1024 10:24:29.169297 33691 net.cpp:84] Creating Layer Eltwise3_Eltwise3_0_split
I1024 10:24:29.169306 33691 net.cpp:406] Eltwise3_Eltwise3_0_split <- Eltwise3
I1024 10:24:29.169325 33691 net.cpp:380] Eltwise3_Eltwise3_0_split -> Eltwise3_Eltwise3_0_split_0
I1024 10:24:29.169340 33691 net.cpp:380] Eltwise3_Eltwise3_0_split -> Eltwise3_Eltwise3_0_split_1
I1024 10:24:29.169409 33691 net.cpp:122] Setting up Eltwise3_Eltwise3_0_split
I1024 10:24:29.169423 33691 net.cpp:129] Top shape: 128 16 32 32 (2097152)
I1024 10:24:29.169433 33691 net.cpp:129] Top shape: 128 16 32 32 (2097152)
I1024 10:24:29.169441 33691 net.cpp:137] Memory required for data: 186122752
I1024 10:24:29.169450 33691 layer_factory.hpp:77] Creating layer Sigmoid3
I1024 10:24:29.169459 33691 net.cpp:84] Creating Layer Sigmoid3
I1024 10:24:29.169476 33691 net.cpp:406] Sigmoid3 <- Eltwise3_Eltwise3_0_split_0
I1024 10:24:29.169486 33691 net.cpp:380] Sigmoid3 -> Sigmoid3
I1024 10:24:29.169793 33691 net.cpp:122] Setting up Sigmoid3
I1024 10:24:29.169811 33691 net.cpp:129] Top shape: 128 16 32 32 (2097152)
I1024 10:24:29.169821 33691 net.cpp:137] Memory required for data: 194511360
I1024 10:24:29.169842 33691 layer_factory.hpp:77] Creating layer Eltwise4
I1024 10:24:29.169854 33691 net.cpp:84] Creating Layer Eltwise4
I1024 10:24:29.169872 33691 net.cpp:406] Eltwise4 <- Eltwise3_Eltwise3_0_split_1
I1024 10:24:29.169883 33691 net.cpp:406] Eltwise4 <- Sigmoid3
I1024 10:24:29.169893 33691 net.cpp:380] Eltwise4 -> Eltwise4
I1024 10:24:29.169941 33691 net.cpp:122] Setting up Eltwise4
I1024 10:24:29.169960 33691 net.cpp:129] Top shape: 128 16 32 32 (2097152)
I1024 10:24:29.169967 33691 net.cpp:137] Memory required for data: 202899968
I1024 10:24:29.169982 33691 layer_factory.hpp:77] Creating layer Eltwise4_Eltwise4_0_split
I1024 10:24:29.169992 33691 net.cpp:84] Creating Layer Eltwise4_Eltwise4_0_split
I1024 10:24:29.170004 33691 net.cpp:406] Eltwise4_Eltwise4_0_split <- Eltwise4
I1024 10:24:29.170018 33691 net.cpp:380] Eltwise4_Eltwise4_0_split -> Eltwise4_Eltwise4_0_split_0
I1024 10:24:29.170032 33691 net.cpp:380] Eltwise4_Eltwise4_0_split -> Eltwise4_Eltwise4_0_split_1
I1024 10:24:29.170099 33691 net.cpp:122] Setting up Eltwise4_Eltwise4_0_split
I1024 10:24:29.170120 33691 net.cpp:129] Top shape: 128 16 32 32 (2097152)
I1024 10:24:29.170135 33691 net.cpp:129] Top shape: 128 16 32 32 (2097152)
I1024 10:24:29.170141 33691 net.cpp:137] Memory required for data: 219677184
I1024 10:24:29.170150 33691 layer_factory.hpp:77] Creating layer Convolution4
I1024 10:24:29.170168 33691 net.cpp:84] Creating Layer Convolution4
I1024 10:24:29.170178 33691 net.cpp:406] Convolution4 <- Eltwise4_Eltwise4_0_split_0
I1024 10:24:29.170195 33691 net.cpp:380] Convolution4 -> Convolution4
I1024 10:24:29.173457 33691 net.cpp:122] Setting up Convolution4
I1024 10:24:29.173480 33691 net.cpp:129] Top shape: 128 16 32 32 (2097152)
I1024 10:24:29.173491 33691 net.cpp:137] Memory required for data: 228065792
I1024 10:24:29.173506 33691 layer_factory.hpp:77] Creating layer BatchNorm4
I1024 10:24:29.173517 33691 net.cpp:84] Creating Layer BatchNorm4
I1024 10:24:29.173523 33691 net.cpp:406] BatchNorm4 <- Convolution4
I1024 10:24:29.173532 33691 net.cpp:367] BatchNorm4 -> Convolution4 (in-place)
I1024 10:24:29.173756 33691 net.cpp:122] Setting up BatchNorm4
I1024 10:24:29.173768 33691 net.cpp:129] Top shape: 128 16 32 32 (2097152)
I1024 10:24:29.173771 33691 net.cpp:137] Memory required for data: 236454400
I1024 10:24:29.173780 33691 layer_factory.hpp:77] Creating layer Scale4
I1024 10:24:29.173789 33691 net.cpp:84] Creating Layer Scale4
I1024 10:24:29.173795 33691 net.cpp:406] Scale4 <- Convolution4
I1024 10:24:29.173801 33691 net.cpp:367] Scale4 -> Convolution4 (in-place)
I1024 10:24:29.173842 33691 layer_factory.hpp:77] Creating layer Scale4
I1024 10:24:29.173976 33691 net.cpp:122] Setting up Scale4
I1024 10:24:29.173990 33691 net.cpp:129] Top shape: 128 16 32 32 (2097152)
I1024 10:24:29.173995 33691 net.cpp:137] Memory required for data: 244843008
I1024 10:24:29.174002 33691 layer_factory.hpp:77] Creating layer Convolution4_Scale4_0_split
I1024 10:24:29.174010 33691 net.cpp:84] Creating Layer Convolution4_Scale4_0_split
I1024 10:24:29.174015 33691 net.cpp:406] Convolution4_Scale4_0_split <- Convolution4
I1024 10:24:29.174021 33691 net.cpp:380] Convolution4_Scale4_0_split -> Convolution4_Scale4_0_split_0
I1024 10:24:29.174028 33691 net.cpp:380] Convolution4_Scale4_0_split -> Convolution4_Scale4_0_split_1
I1024 10:24:29.174075 33691 net.cpp:122] Setting up Convolution4_Scale4_0_split
I1024 10:24:29.174084 33691 net.cpp:129] Top shape: 128 16 32 32 (2097152)
I1024 10:24:29.174090 33691 net.cpp:129] Top shape: 128 16 32 32 (2097152)
I1024 10:24:29.174094 33691 net.cpp:137] Memory required for data: 261620224
I1024 10:24:29.174099 33691 layer_factory.hpp:77] Creating layer Sigmoid4
I1024 10:24:29.174105 33691 net.cpp:84] Creating Layer Sigmoid4
I1024 10:24:29.174110 33691 net.cpp:406] Sigmoid4 <- Convolution4_Scale4_0_split_0
I1024 10:24:29.174119 33691 net.cpp:380] Sigmoid4 -> Sigmoid4
I1024 10:24:29.176131 33691 net.cpp:122] Setting up Sigmoid4
I1024 10:24:29.176156 33691 net.cpp:129] Top shape: 128 16 32 32 (2097152)
I1024 10:24:29.176165 33691 net.cpp:137] Memory required for data: 270008832
I1024 10:24:29.176173 33691 layer_factory.hpp:77] Creating layer Eltwise5
I1024 10:24:29.176185 33691 net.cpp:84] Creating Layer Eltwise5
I1024 10:24:29.176195 33691 net.cpp:406] Eltwise5 <- Convolution4_Scale4_0_split_1
I1024 10:24:29.176205 33691 net.cpp:406] Eltwise5 <- Sigmoid4
I1024 10:24:29.176220 33691 net.cpp:380] Eltwise5 -> Eltwise5
I1024 10:24:29.176273 33691 net.cpp:122] Setting up Eltwise5
I1024 10:24:29.176296 33691 net.cpp:129] Top shape: 128 16 32 32 (2097152)
I1024 10:24:29.176306 33691 net.cpp:137] Memory required for data: 278397440
I1024 10:24:29.176316 33691 layer_factory.hpp:77] Creating layer Convolution5
I1024 10:24:29.176334 33691 net.cpp:84] Creating Layer Convolution5
I1024 10:24:29.176345 33691 net.cpp:406] Convolution5 <- Eltwise5
I1024 10:24:29.176357 33691 net.cpp:380] Convolution5 -> Convolution5
I1024 10:24:29.178917 33691 net.cpp:122] Setting up Convolution5
I1024 10:24:29.178937 33691 net.cpp:129] Top shape: 128 16 32 32 (2097152)
I1024 10:24:29.178943 33691 net.cpp:137] Memory required for data: 286786048
I1024 10:24:29.178951 33691 layer_factory.hpp:77] Creating layer BatchNorm5
I1024 10:24:29.178961 33691 net.cpp:84] Creating Layer BatchNorm5
I1024 10:24:29.178966 33691 net.cpp:406] BatchNorm5 <- Convolution5
I1024 10:24:29.178975 33691 net.cpp:367] BatchNorm5 -> Convolution5 (in-place)
I1024 10:24:29.179205 33691 net.cpp:122] Setting up BatchNorm5
I1024 10:24:29.179215 33691 net.cpp:129] Top shape: 128 16 32 32 (2097152)
I1024 10:24:29.179220 33691 net.cpp:137] Memory required for data: 295174656
I1024 10:24:29.179234 33691 layer_factory.hpp:77] Creating layer Scale5
I1024 10:24:29.179244 33691 net.cpp:84] Creating Layer Scale5
I1024 10:24:29.179253 33691 net.cpp:406] Scale5 <- Convolution5
I1024 10:24:29.179267 33691 net.cpp:367] Scale5 -> Convolution5 (in-place)
I1024 10:24:29.179313 33691 layer_factory.hpp:77] Creating layer Scale5
I1024 10:24:29.179450 33691 net.cpp:122] Setting up Scale5
…
I1024 10:24:29.191263 33691 net.cpp:137] Memory required for data: 530055680
I1024 10:24:29.191268 33691 layer_factory.hpp:77] Creating layer Eltwise11
I1024 10:24:29.191275 33691 net.cpp:84] Creating Layer Eltwise11
I1024 10:24:29.191280 33691 net.cpp:406] Eltwise11 <- Convolution8_Scale8_0_split_1
I1024 10:24:29.191287 33691 net.cpp:406] Eltwise11 <- Sigmoid8
I1024 10:24:29.191295 33691 net.cpp:380] Eltwise11 -> Eltwise11
I1024 10:24:29.191328 33691 net.cpp:122] Setting up Eltwise11
I1024 10:24:29.191336 33691 net.cpp:129] Top shape: 128 32 16 16 (1048576)
I1024 10:24:29.191340 33691 net.cpp:137] Memory required for data: 534249984
I1024 10:24:29.191345 33691 layer_factory.hpp:77] Creating layer Convolution9
I1024 10:24:29.191359 33691 net.cpp:84] Creating Layer Convolution9
I1024 10:24:29.191365 33691 net.cpp:406] Convolution9 <- Eltwise11
I1024 10:24:29.191371 33691 net.cpp:380] Convolution9 -> Convolution9
I1024 10:24:29.193971 33691 net.cpp:122] Setting up Convolution9
I1024 10:24:29.193989 33691 net.cpp:129] Top shape: 128 32 16 16 (1048576)
I1024 10:24:29.193995 33691 net.cpp:137] Memory required for data: 538444288
I1024 10:24:29.194003 33691 layer_factory.hpp:77] Creating layer BatchNorm9
I1024 10:24:29.194013 33691 net.cpp:84] Creating Layer BatchNorm9
I1024 10:24:29.194021 33691 net.cpp:406] BatchNorm9 <- Convolution9
I1024 10:24:29.194028 33691 net.cpp:367] BatchNorm9 -> Convolution9 (in-place)
I1024 10:24:29.194257 33691 net.cpp:122] Setting up BatchNorm9
I1024 10:24:29.194267 33691 net.cpp:129] Top shape: 128 32 16 16 (1048576)
I1024 10:24:29.194272 33691 net.cpp:137] Memory required for data: 542638592
I1024 10:24:29.194281 33691 layer_factory.hpp:77] Creating layer Scale9
I1024 10:24:29.194290 33691 net.cpp:84] Creating Layer Scale9
I1024 10:24:29.194296 33691 net.cpp:406] Scale9 <- Convolution9
I1024 10:24:29.194303 33691 net.cpp:367] Scale9 -> Convolution9 (in-place)
I1024 10:24:29.194344 33691 layer_factory.hpp:77] Creating layer Scale9
I1024 10:24:29.194484 33691 net.cpp:122] Setting up Scale9
I1024 10:24:29.194512 33691 net.cpp:129] Top shape: 128 32 16 16 (1048576)
I1024 10:24:29.194517 33691 net.cpp:137] Memory required for data: 546832896
I1024 10:24:29.194525 33691 layer_factory.hpp:77] Creating layer Convolution10
I1024 10:24:29.194537 33691 net.cpp:84] Creating Layer Convolution10
I1024 10:24:29.194543 33691 net.cpp:406] Convolution10 <- Eltwise10_Eltwise10_0_split_1
I1024 10:24:29.194553 33691 net.cpp:380] Convolution10 -> Convolution10
I1024 10:24:29.196889 33691 net.cpp:122] Setting up Convolution10
I1024 10:24:29.196910 33691 net.cpp:129] Top shape: 128 32 16 16 (1048576)
I1024 10:24:29.196916 33691 net.cpp:137] Memory required for data: 551027200
I1024 10:24:29.196934 33691 layer_factory.hpp:77] Creating layer BatchNorm10
I1024 10:24:29.196944 33691 net.cpp:84] Creating Layer BatchNorm10
I1024 10:24:29.196950 33691 net.cpp:406] BatchNorm10 <- Convolution10
I1024 10:24:29.196959 33691 net.cpp:367] BatchNorm10 -> Convolution10 (in-place)
I1024 10:24:29.197185 33691 net.cpp:122] Setting up BatchNorm10
I1024 10:24:29.197194 33691 net.cpp:129] Top shape: 128 32 16 16 (1048576)
I1024 10:24:29.197199 33691 net.cpp:137] Memory required for data: 555221504
I1024 10:24:29.197208 33691 layer_factory.hpp:77] Creating layer Scale10
I1024 10:24:29.197216 33691 net.cpp:84] Creating Layer Scale10
I1024 10:24:29.197221 33691 net.cpp:406] Scale10 <- Convolution10
I1024 10:24:29.197227 33691 net.cpp:367] Scale10 -> Convolution10 (in-place)
I1024 10:24:29.197274 33691 layer_factory.hpp:77] Creating layer Scale10
I1024 10:24:29.197412 33691 net.cpp:122] Setting up Scale10
I1024 10:24:29.197422 33691 net.cpp:129] Top shape: 128 32 16 16 (1048576)
I1024 10:24:29.197427 33691 net.cpp:137] Memory required for data: 559415808
I1024 10:24:29.197434 33691 layer_factory.hpp:77] Creating layer Eltwise12
I1024 10:24:29.197441 33691 net.cpp:84] Creating Layer Eltwise12
I1024 10:24:29.197446 33691 net.cpp:406] Eltwise12 <- Convolution9
I1024 10:24:29.197453 33691 net.cpp:406] Eltwise12 <- Convolution10
I1024 10:24:29.197461 33691 net.cpp:380] Eltwise12 -> Eltwise12
I1024 10:24:29.197486 33691 net.cpp:122] Setting up Eltwise12
I1024 10:24:29.197494 33691 net.cpp:129] Top shape: 128 32 16 16 (1048576)
I1024 10:24:29.197499 33691 net.cpp:137] Memory required for data: 563610112
I1024 10:24:29.197504 33691 layer_factory.hpp:77] Creating layer Eltwise12_Eltwise12_0_split
I1024 10:24:29.197510 33691 net.cpp:84] Creating Layer Eltwise12_Eltwise12_0_split
I1024 10:24:29.197515 33691 net.cpp:406] Eltwise12_Eltwise12_0_split <- Eltwise12
I1024 10:24:29.197525 33691 net.cpp:380] Eltwise12_Eltwise12_0_split -> Eltwise12_Eltwise12_0_split_0
I1024 10:24:29.197532 33691 net.cpp:380] Eltwise12_Eltwise12_0_split -> Eltwise12_Eltwise12_0_split_1
I1024 10:24:29.197577 33691 net.cpp:122] Setting up Eltwise12_Eltwise12_0_split
I1024 10:24:29.197585 33691 net.cpp:129] Top shape: 128 32 16 16 (1048576)
I1024 10:24:29.197592 33691 net.cpp:129] Top shape: 128 32 16 16 (1048576)
I1024 10:24:29.197597 33691 net.cpp:137] Memory required for data: 571998720
I1024 10:24:29.197602 33691 layer_factory.hpp:77] Creating layer Sigmoid9
I1024 10:24:29.197613 33691 net.cpp:84] Creating Layer Sigmoid9
I1024 10:24:29.197619 33691 net.cpp:406] Sigmoid9 <- Eltwise12_Eltwise12_0_split_0
I1024 10:24:29.197626 33691 net.cpp:380] Sigmoid9 -> Sigmoid9
I1024 10:24:29.197849 33691 net.cpp:122] Setting up Sigmoid9
I1024 10:24:29.197863 33691 net.cpp:129] Top shape: 128 32 16 16 (1048576)
I1024 10:24:29.197868 33691 net.cpp:137] Memory required for data: 576193024
I1024 10:24:29.197873 33691 layer_factory.hpp:77] Creating layer Eltwise13
I1024 10:24:29.197882 33691 net.cpp:84] Creating Layer Eltwise13
I1024 10:24:29.197888 33691 net.cpp:406] Eltwise13 <- Eltwise12_Eltwise12_0_split_1
I1024 10:24:29.197895 33691 net.cpp:406] Eltwise13 <- Sigmoid9
I1024 10:24:29.197902 33691 net.cpp:380] Eltwise13 -> Eltwise13
I1024 10:24:29.197935 33691 net.cpp:122] Setting up Eltwise13
I1024 10:24:29.197943 33691 net.cpp:129] Top shape: 128 32 16 16 (1048576)
I1024 10:24:29.197953 33691 net.cpp:137] Memory required for data: 580387328
I1024 10:24:29.197975 33691 layer_factory.hpp:77] Creating layer Eltwise13_Eltwise13_0_split
I1024 10:24:29.197988 33691 net.cpp:84] Creating Layer Eltwise13_Eltwise13_0_split
I1024 10:24:29.197996 33691 net.cpp:406] Eltwise13_Eltwise13_0_split <- Eltwise13
I1024 10:24:29.198006 33691 net.cpp:380] Eltwise13_Eltwise13_0_split -> Eltwise13_Eltwise13_0_split_0
I1024 10:24:29.198014 33691 net.cpp:380] Eltwise13_Eltwise13_0_split -> Eltwise13_Eltwise13_0_split_1
I1024 10:24:29.198066 33691 net.cpp:122] Setting up Eltwise13_Eltwise13_0_split
I1024 10:24:29.198076 33691 net.cpp:129] Top shape: 128 32 16 16 (1048576)
I1024 10:24:29.198082 33691 net.cpp:129] Top shape: 128 32 16 16 (1048576)
I1024 10:24:29.198086 33691 net.cpp:137] Memory required for data: 588775936
I1024 10:24:29.198091 33691 layer_factory.hpp:77] Creating layer Convolution11
I1024 10:24:29.198103 33691 net.cpp:84] Creating Layer Convolution11
I1024 10:24:29.198109 33691 net.cpp:406] Convolution11 <- Eltwise13_Eltwise13_0_split_0
I1024 10:24:29.198118 33691 net.cpp:380] Convolution11 -> Convolution11
I1024 10:24:29.201622 33691 net.cpp:122] Setting up Convolution11
I1024 10:24:29.201642 33691 net.cpp:129] Top shape: 128 32 16 16 (1048576)
I1024 10:24:29.201648 33691 net.cpp:137] Memory required for data: 592970240
I1024 10:24:29.201656 33691 layer_factory.hpp:77] Creating layer BatchNorm11
I1024 10:24:29.201668 33691 net.cpp:84] Creating Layer BatchNorm11
I1024 10:24:29.201673 33691 net.cpp:406] BatchNorm11 <- Convolution11
I1024 10:24:29.201680 33691 net.cpp:367] BatchNorm11 -> Convolution11 (in-place)
I1024 10:24:29.201936 33691 net.cpp:122] Setting up BatchNorm11
I1024 10:24:29.201951 33691 net.cpp:129] Top shape: 128 32 16 16 (1048576)
I1024 10:24:29.201954 33691 net.cpp:137] Memory required for data: 597164544
I1024 10:24:29.201963 33691 layer_factory.hpp:77] Creating layer Scale11
I1024 10:24:29.201972 33691 net.cpp:84] Creating Layer Scale11
I1024 10:24:29.201977 33691 net.cpp:406] Scale11 <- Convolution11
I1024 10:24:29.201984 33691 net.cpp:367] Scale11 -> Convolution11 (in-place)
I1024 10:24:29.202030 33691 layer_factory.hpp:77] Creating layer Scale11
I1024 10:24:29.202168 33691 net.cpp:122] Setting up Scale11
I1024 10:24:29.202179 33691 net.cpp:129] Top shape: 128 32 16 16 (1048576)
I1024 10:24:29.202183 33691 net.cpp:137] Memory required for data: 601358848
I1024 10:24:29.202190 33691 layer_factory.hpp:77] Creating layer Convolution11_Scale11_0_split
I1024 10:24:29.202198 33691 net.cpp:84] Creating Layer Convolution11_Scale11_0_split
I1024 10:24:29.202204 33691 net.cpp:406] Convolution11_Scale11_0_split <- Convolution11
I1024 10:24:29.202211 33691 net.cpp:380] Convolution11_Scale11_0_split -> Convolution11_Scale11_0_split_0
I1024 10:24:29.202219 33691 net.cpp:380] Convolution11_Scale11_0_split -> Convolution11_Scale11_0_split_1
I1024 10:24:29.202268 33691 net.cpp:122] Setting up Convolution11_Scale11_0_split
I1024 10:24:29.202277 33691 net.cpp:129] Top shape: 128 32 16 16 (1048576)
I1024 10:24:29.202284 33691 net.cpp:129] Top shape: 128 32 16 16 (1048576)
I1024 10:24:29.202288 33691 net.cpp:137] Memory required for data: 609747456
I1024 10:24:29.202293 33691 layer_factory.hpp:77] Creating layer Sigmoid10
I1024 10:24:29.202301 33691 net.cpp:84] Creating Layer Sigmoid10
I1024 10:24:29.202306 33691 net.cpp:406] Sigmoid10 <- Convolution11_Scale11_0_split_0
I1024 10:24:29.202314 33691 net.cpp:380] Sigmoid10 -> Sigmoid10
I1024 10:24:29.203248 33691 net.cpp:122] Setting up Sigmoid10
I1024 10:24:29.203267 33691 net.cpp:129] Top shape: 128 32 16 16 (1048576)
I1024 10:24:29.203272 33691 net.cpp:137] Memory required for data: 613941760
I1024 10:24:29.203277 33691 layer_factory.hpp:77] Creating layer Eltwise14
I1024 10:24:29.203285 33691 net.cpp:84] Creating Layer Eltwise14
I1024 10:24:29.203291 33691 net.cpp:406] Eltwise14 <- Convolution11_Scale11_0_split_1
I1024 10:24:29.203300 33691 net.cpp:406] Eltwise14 <- Sigmoid10
I1024 10:24:29.203307 33691 net.cpp:380] Eltwise14 -> Eltwise14
I1024 10:24:29.203351 33691 net.cpp:122] Setting up Eltwise14
I1024 10:24:29.203368 33691 net.cpp:129] Top shape: 128 32 16 16 (1048576)
I1024 10:24:29.203373 33691 net.cpp:137] Memory required for data: 618136064
I1024 10:24:29.203378 33691 layer_factory.hpp:77] Creating layer Convolution12
I1024 10:24:29.203390 33691 net.cpp:84] Creating Layer Convolution12
I1024 10:24:29.203397 33691 net.cpp:406] Convolution12 <- Eltwise14
I1024 10:24:29.203408 33691 net.cpp:380] Convolution12 -> Convolution12
I1024 10:24:29.205305 33691 net.cpp:122] Setting up Convolution12
I1024 10:24:29.205323 33691 net.cpp:129] Top shape: 128 32 16 16 (1048576)
I1024 10:24:29.205328 33691 net.cpp:137] Memory required for data: 622330368
I1024 10:24:29.205337 33691 layer_factory.hpp:77] Creating layer BatchNorm12
I1024 10:24:29.205348 33691 net.cpp:84] Creating Layer BatchNorm12
I1024 10:24:29.205353 33691 net.cpp:406] BatchNorm12 <- Convolution12
I1024 10:24:29.205360 33691 net.cpp:367] BatchNorm12 -> Convolution12 (in-place)
I1024 10:24:29.205591 33691 net.cpp:122] Setting up BatchNorm12
I1024 10:24:29.205602 33691 net.cpp:129] Top shape: 128 32 16 16 (1048576)
I1024 10:24:29.205606 33691 net.cpp:137] Memory required for data: 626524672
I1024 10:24:29.205615 33691 layer_factory.hpp:77] Creating layer Scale12
I1024 10:24:29.205624 33691 net.cpp:84] Creating Layer Scale12
I1024 10:24:29.205631 33691 net.cpp:406] Scale12 <- Convolution12
I1024 10:24:29.205636 33691 net.cpp:367] Scale12 -> Convolution12 (in-place)
I1024 10:24:29.205682 33691 layer_factory.hpp:77] Creating layer Scale12
I1024 10:24:29.205822 33691 net.cpp:122] Setting up Scale12
I1024 10:24:29.205832 33691 net.cpp:129] Top shape: 128 32 16 16 (1048576)
I1024 10:24:29.205837 33691 net.cpp:137] Memory required for data: 630718976
I1024 10:24:29.205843 33691 layer_factory.hpp:77] Creating layer Eltwise15
I1024 10:24:29.205852 33691 net.cpp:84] Creating Layer Eltwise15
I1024 10:24:29.205857 33691 net.cpp:406] Eltwise15 <- Convolution12
I1024 10:24:29.205863 33691 net.cpp:406] Eltwise15 <- Eltwise13_Eltwise13_0_split_1
I1024 10:24:29.205870 33691 net.cpp:380] Eltwise15 -> Eltwise15
I1024 10:24:29.205899 33691 net.cpp:122] Setting up Eltwise15
I1024 10:24:29.205907 33691 net.cpp:129] Top shape: 128 32 16 16 (1048576)
I1024 10:24:29.205911 33691 net.cpp:137] Memory required for data: 634913280
I1024 10:24:29.205916 33691 layer_factory.hpp:77] Creating layer Eltwise15_Eltwise15_0_split
I1024 10:24:29.205922 33691 net.cpp:84] Creating Layer Eltwise15_Eltwise15_0_split
I1024 10:24:29.205929 33691 net.cpp:406] Eltwise15_Eltwise15_0_split <- Eltwise15
I1024 10:24:29.205935 33691 net.cpp:380] Eltwise15_Eltwise15_0_split -> Eltwise15_Eltwise15_0_split_0
I1024 10:24:29.205942 33691 net.cpp:380] Eltwise15_Eltwise15_0_split -> Eltwise15_Eltwise15_0_split_1
I1024 10:24:29.205987 33691 net.cpp:122] Setting up Eltwise15_Eltwise15_0_split
I1024 10:24:29.205996 33691 net.cpp:129] Top shape: 128 32 16 16 (1048576)
I1024 10:24:29.206002 33691 net.cpp:129] Top shape: 128 32 16 16 (1048576)
I1024 10:24:29.206007 33691 net.cpp:137] Memory required for data: 643301888
I1024 10:24:29.206012 33691 layer_factory.hpp:77] Creating layer Sigmoid11
I1024 10:24:29.206018 33691 net.cpp:84] Creating Layer Sigmoid11
I1024 10:24:29.206023 33691 net.cpp:406] Sigmoid11 <- Eltwise15_Eltwise15_0_split_0
I1024 10:24:29.206032 33691 net.cpp:380] Sigmoid11 -> Sigmoid11
I1024 10:24:29.206949 33691 net.cpp:122] Setting up Sigmoid11
I1024 10:24:29.206967 33691 net.cpp:129] Top shape: 128 32 16 16 (1048576)
I1024 10:24:29.206972 33691 net.cpp:137] Memory required for data: 647496192
I1024 10:24:29.206979 33691 layer_factory.hpp:77] Creating layer Eltwise16
I1024 10:24:29.206985 33691 net.cpp:84] Creating Layer Eltwise16
I1024 10:24:29.206991 33691 net.cpp:406] Eltwise16 <- Eltwise15_Eltwise15_0_split_1
I1024 10:24:29.207000 33691 net.cpp:406] Eltwise16 <- Sigmoid11
I1024 10:24:29.207007 33691 net.cpp:380] Eltwise16 -> Eltwise16
I1024 10:24:29.207044 33691 net.cpp:122] Setting up Eltwise16
I1024 10:24:29.207058 33691 net.cpp:129] Top shape: 128 32 16 16 (1048576)
I1024 10:24:29.207072 33691 net.cpp:137] Memory required for data: 651690496
I1024 10:24:29.207077 33691 layer_factory.hpp:77] Creating layer Eltwise16_Eltwise16_0_split
I1024 10:24:29.207084 33691 net.cpp:84] Creating Layer Eltwise16_Eltwise16_0_split
I1024 10:24:29.207089 33691 net.cpp:406] Eltwise16_Eltwise16_0_split <- Eltwise16
I1024 10:24:29.207096 33691 net.cpp:380] Eltwise16_Eltwise16_0_split -> Eltwise16_Eltwise16_0_split_0
I1024 10:24:29.207105 33691 net.cpp:380] Eltwise16_Eltwise16_0_split -> Eltwise16_Eltwise16_0_split_1
I1024 10:24:29.207154 33691 net.cpp:122] Setting up Eltwise16_Eltwise16_0_split
I1024 10:24:29.207162 33691 net.cpp:129] Top shape: 128 32 16 16 (1048576)
I1024 10:24:29.207167 33691 net.cpp:129] Top shape: 128 32 16 16 (1048576)
I1024 10:24:29.207172 33691 net.cpp:137] Memory required for data: 660079104
I1024 10:24:29.207177 33691 layer_factory.hpp:77] Creating layer Convolution13
I1024 10:24:29.207190 33691 net.cpp:84] Creating Layer Convolution13
I1024 10:24:29.207196 33691 net.cpp:406] Convolution13 <- Eltwise16_Eltwise16_0_split_0
I1024 10:24:29.207204 33691 net.cpp:380] Convolution13 -> Convolution13
I1024 10:24:29.210245 33691 net.cpp:122] Setting up Convolution13
I1024 10:24:29.210275 33691 net.cpp:129] Top shape: 128 32 16 16 (1048576)
I1024 10:24:29.210285 33691 net.cpp:137] Memory required for data: 664273408
I1024 10:24:29.210299 33691 layer_factory.hpp:77] Creating layer BatchNorm13
I1024 10:24:29.210314 33691 net.cpp:84] Creating Layer BatchNorm13
I1024 10:24:29.210325 33691 net.cpp:406] BatchNorm13 <- Convolution13
I1024 10:24:29.210335 33691 net.cpp:367] BatchNorm13 -> Convolution13 (in-place)
I1024 10:24:29.210634 33691 net.cpp:122] Setting up BatchNorm13
I1024 10:24:29.210652 33691 net.cpp:129] Top shape: 128 32 16 16 (1048576)
I1024 10:24:29.210660 33691 net.cpp:137] Memory required for data: 668467712
I1024 10:24:29.210674 33691 layer_factory.hpp:77] Creating layer Scale13
I1024 10:24:29.210690 33691 net.cpp:84] Creating Layer Scale13
I1024 10:24:29.210697 33691 net.cpp:406] Scale13 <- Convolution13
I1024 10:24:29.210706 33691 net.cpp:367] Scale13 -> Convolution13 (in-place)
I1024 10:24:29.210760 33691 layer_factory.hpp:77] Creating layer Scale13
I1024 10:24:29.210932 33691 net.cpp:122] Setting up Scale13
I1024 10:24:29.210944 33691 net.cpp:129] Top shape: 128 32 16 16 (1048576)
I1024 10:24:29.210952 33691 net.cpp:137] Memory required for data: 672662016
I1024 10:24:29.210963 33691 layer_factory.hpp:77] Creating layer Convolution13_Scale13_0_split
I1024 10:24:29.210973 33691 net.cpp:84] Creating Layer Convolution13_Scale13_0_split
I1024 10:24:29.210979 33691 net.cpp:406] Convolution13_Scale13_0_split <- Convolution13
I1024 10:24:29.210991 33691 net.cpp:380] Convolution13_Scale13_0_split -> Convolution13_Scale13_0_split_0
I1024 10:24:29.211004 33691 net.cpp:380] Convolution13_Scale13_0_split -> Convolution13_Scale13_0_split_1
I1024 10:24:29.211055 33691 net.cpp:122] Setting up Convolution13_Scale13_0_split
I1024 10:24:29.211066 33691 net.cpp:129] Top shape: 128 32 16 16 (1048576)
I1024 10:24:29.211074 33691 net.cpp:129] Top shape: 128 32 16 16 (1048576)
I1024 10:24:29.211081 33691 net.cpp:137] Memory required for data: 681050624
I1024 10:24:29.211087 33691 layer_factory.hpp:77] Creating layer Sigmoid12
I1024 10:24:29.211097 33691 net.cpp:84] Creating Layer Sigmoid12
I1024 10:24:29.211104 33691 net.cpp:406] Sigmoid12 <- Convolution13_Scale13_0_split_0
I1024 10:24:29.211117 33691 net.cpp:380] Sigmoid12 -> Sigmoid12
I1024 10:24:29.211380 33691 net.cpp:122] Setting up Sigmoid12
I1024 10:24:29.211396 33691 net.cpp:129] Top shape: 128 32 16 16 (1048576)
I1024 10:24:29.211403 33691 net.cpp:137] Memory required for data: 685244928
I1024 10:24:29.211411 33691 layer_factory.hpp:77] Creating layer Eltwise17
I1024 10:24:29.211423 33691 net.cpp:84] Creating Layer Eltwise17
I1024 10:24:29.211431 33691 net.cpp:406] Eltwise17 <- Convolution13_Scale13_0_split_1
I1024 10:24:29.211439 33691 net.cpp:406] Eltwise17 <- Sigmoid12
I1024 10:24:29.211455 33691 net.cpp:380] Eltwise17 -> Eltwise17
I1024 10:24:29.211513 33691 net.cpp:122] Setting up Eltwise17
I1024 10:24:29.211525 33691 net.cpp:129] Top shape: 128 32 16 16 (1048576)
I1024 10:24:29.211532 33691 net.cpp:137] Memory required for data: 689439232
I1024 10:24:29.211539 33691 layer_factory.hpp:77] Creating layer Convolution14
I1024 10:24:29.211555 33691 net.cpp:84] Creating Layer Convolution14
I1024 10:24:29.211563 33691 net.cpp:406] Convolution14 <- Eltwise17
I1024 10:24:29.211576 33691 net.cpp:380] Convolution14 -> Convolution14
I1024 10:24:29.214612 33691 net.cpp:122] Setting up Convolution14
I1024 10:24:29.214637 33691 net.cpp:129] Top shape: 128 32 16 16 (1048576)
I1024 10:24:29.214646 33691 net.cpp:137] Memory required for data: 693633536
I1024 10:24:29.214658 33691 layer_factory.hpp:77] Creating layer BatchNorm14
I1024 10:24:29.214671 33691 net.cpp:84] Creating Layer BatchNorm14
I1024 10:24:29.214680 33691 net.cpp:406] BatchNorm14 <- Convolution14
I1024 10:24:29.214689 33691 net.cpp:367] BatchNorm14 -> Convolution14 (in-place)
I1024 10:24:29.214972 33691 net.cpp:122] Setting up BatchNorm14
I1024 10:24:29.214987 33691 net.cpp:129] Top shape: 128 32 16 16 (1048576)
I1024 10:24:29.214993 33691 net.cpp:137] Memory required for data: 697827840
I1024 10:24:29.215005 33691 layer_factory.hpp:77] Creating layer Scale14
I1024 10:24:29.215018 33691 net.cpp:84] Creating Layer Scale14
I1024 10:24:29.215024 33691 net.cpp:406] Scale14 <- Convolution14
I1024 10:24:29.215032 33691 net.cpp:367] Scale14 -> Convolution14 (in-place)
I1024 10:24:29.215088 33691 layer_factory.hpp:77] Creating layer Scale14
I1024 10:24:29.215260 33691 net.cpp:122] Setting up Scale14
I1024 10:24:29.215272 33691 net.cpp:129] Top shape: 128 32 16 16 (1048576)
I1024 10:24:29.215279 33691 net.cpp:137] Memory required for data: 702022144
I1024 10:24:29.215291 33691 layer_factory.hpp:77] Creating layer Eltwise18
I1024 10:24:29.215301 33691 net.cpp:84] Creating Layer Eltwise18
I1024 10:24:29.215307 33691 net.cpp:406] Eltwise18 <- Convolution14
I1024 10:24:29.215317 33691 net.cpp:406] Eltwise18 <- Eltwise16_Eltwise16_0_split_1
I1024 10:24:29.215327 33691 net.cpp:380] Eltwise18 -> Eltwise18
I1024 10:24:29.215359 33691 net.cpp:122] Setting up Eltwise18
I1024 10:24:29.215373 33691 net.cpp:129] Top shape: 128 32 16 16 (1048576)
I1024 10:24:29.215380 33691 net.cpp:137] Memory required for data: 706216448
I1024 10:24:29.215387 33691 layer_factory.hpp:77] Creating layer Eltwise18_Eltwise18_0_split
I1024 10:24:29.215396 33691 net.cpp:84] Creating Layer Eltwise18_Eltwise18_0_split
I1024 10:24:29.215404 33691 net.cpp:406] Eltwise18_Eltwise18_0_split <- Eltwise18
I1024 10:24:29.215411 33691 net.cpp:380] Eltwise18_Eltwise18_0_split -> Eltwise18_Eltwise18_0_split_0
I1024 10:24:29.215422 33691 net.cpp:380] Eltwise18_Eltwise18_0_split -> Eltwise18_Eltwise18_0_split_1
I1024 10:24:29.215476 33691 net.cpp:122] Setting up Eltwise18_Eltwise18_0_split
I1024 10:24:29.215487 33691 net.cpp:129] Top shape: 128 32 16 16 (1048576)
I1024 10:24:29.215495 33691 net.cpp:129] Top shape: 128 32 16 16 (1048576)
I1024 10:24:29.215502 33691 net.cpp:137] Memory required for data: 714605056
I1024 10:24:29.215508 33691 layer_factory.hpp:77] Creating layer Sigmoid13
I1024 10:24:29.215518 33691 net.cpp:84] Creating Layer Sigmoid13
I1024 10:24:29.215525 33691 net.cpp:406] Sigmoid13 <- Eltwise18_Eltwise18_0_split_0
I1024 10:24:29.215535 33691 net.cpp:380] Sigmoid13 -> Sigmoid13
I1024 10:24:29.216573 33691 net.cpp:122] Setting up Sigmoid13
I1024 10:24:29.216594 33691 net.cpp:129] Top shape: 128 32 16 16 (1048576)
I1024 10:24:29.216603 33691 net.cpp:137] Memory required for data: 718799360
I1024 10:24:29.216609 33691 layer_factory.hpp:77] Creating layer Eltwise19
I1024 10:24:29.216619 33691 net.cpp:84] Creating Layer Eltwise19
I1024 10:24:29.216627 33691 net.cpp:406] Eltwise19 <- Eltwise18_Eltwise18_0_split_1
I1024 10:24:29.216636 33691 net.cpp:406] Eltwise19 <- Sigmoid13
I1024 10:24:29.216647 33691 net.cpp:380] Eltwise19 -> Eltwise19
I1024 10:24:29.216689 33691 net.cpp:122] Setting up Eltwise19
I1024 10:24:29.216707 33691 net.cpp:129] Top shape: 128 32 16 16 (1048576)
I1024 10:24:29.216723 33691 net.cpp:137] Memory required for data: 722993664
I1024 10:24:29.216730 33691 layer_factory.hpp:77] Creating layer Eltwise19_Eltwise19_0_split
I1024 10:24:29.216740 33691 net.cpp:84] Creating Layer Eltwise19_Eltwise19_0_split
I1024 10:24:29.216747 33691 net.cpp:406] Eltwise19_Eltwise19_0_split <- Eltwise19
I1024 10:24:29.216756 33691 net.cpp:380] Eltwise19_Eltwise19_0_split -> Eltwise19_Eltwise19_0_split_0
I1024 10:24:29.216766 33691 net.cpp:380] Eltwise19_Eltwise19_0_split -> Eltwise19_Eltwise19_0_split_1
I1024 10:24:29.216823 33691 net.cpp:122] Setting up Eltwise19_Eltwise19_0_split
I1024 10:24:29.216835 33691 net.cpp:129] Top shape: 128 32 16 16 (1048576)
I1024 10:24:29.216842 33691 net.cpp:129] Top shape: 128 32 16 16 (1048576)
I1024 10:24:29.216848 33691 net.cpp:137] Memory required for data: 731382272
I1024 10:24:29.216856 33691 layer_factory.hpp:77] Creating layer Convolution15
I1024 10:24:29.216871 33691 net.cpp:84] Creating Layer Convolution15
I1024 10:24:29.216881 33691 net.cpp:406] Convolution15 <- Eltwise19_Eltwise19_0_split_0
I1024 10:24:29.216892 33691 net.cpp:380] Convolution15 -> Convolution15
I1024 10:24:29.219549 33691 net.cpp:122] Setting up Convolution15
I1024 10:24:29.219575 33691 net.cpp:129] Top shape: 128 64 8 8 (524288)
I1024 10:24:29.219585 33691 net.cpp:137] Memory required for data: 733479424
I1024 10:24:29.219597 33691 layer_factory.hpp:77] Creating layer BatchNorm15
I1024 10:24:29.219609 33691 net.cpp:84] Creating Layer BatchNorm15
I1024 10:24:29.219617 33691 net.cpp:406] BatchNorm15 <- Convolution15
I1024 10:24:29.219630 33691 net.cpp:367] BatchNorm15 -> Convolution15 (in-place)
I1024 10:24:29.219925 33691 net.cpp:122] Setting up BatchNorm15
I1024 10:24:29.219938 33691 net.cpp:129] Top shape: 128 64 8 8 (524288)
I1024 10:24:29.219945 33691 net.cpp:137] Memory required for data: 735576576
I1024 10:24:29.219957 33691 layer_factory.hpp:77] Creating layer Scale15
I1024 10:24:29.219967 33691 net.cpp:84] Creating Layer Scale15
I1024 10:24:29.219974 33691 net.cpp:406] Scale15 <- Convolution15
I1024 10:24:29.219985 33691 net.cpp:367] Scale15 -> Convolution15 (in-place)
I1024 10:24:29.220039 33691 layer_factory.hpp:77] Creating layer Scale15
I1024 10:24:29.220216 33691 net.cpp:122] Setting up Scale15
I1024 10:24:29.220229 33691 net.cpp:129] Top shape: 128 64 8 8 (524288)
I1024 10:24:29.220237 33691 net.cpp:137] Memory required for data: 737673728
I1024 10:24:29.220247 33691 layer_factory.hpp:77] Creating layer Convolution15_Scale15_0_split
I1024 10:24:29.220257 33691 net.cpp:84] Creating Layer Convolution15_Scale15_0_split
I1024 10:24:29.220263 33691 net.cpp:406] Convolution15_Scale15_0_split <- Convolution15
I1024 10:24:29.220273 33691 net.cpp:380] Convolution15_Scale15_0_split -> Convolution15_Scale15_0_split_0
I1024 10:24:29.220286 33691 net.cpp:380] Convolution15_Scale15_0_split -> Convolution15_Scale15_0_split_1
I1024 10:24:29.220337 33691 net.cpp:122] Setting up Convolution15_Scale15_0_split
I1024 10:24:29.220350 33691 net.cpp:129] Top shape: 128 64 8 8 (524288)
I1024 10:24:29.220357 33691 net.cpp:129] Top shape: 128 64 8 8 (524288)
I1024 10:24:29.220365 33691 net.cpp:137] Memory required for data: 741868032
I1024 10:24:29.220371 33691 layer_factory.hpp:77] Creating layer Sigmoid14
I1024 10:24:29.220381 33691 net.cpp:84] Creating Layer Sigmoid14
I1024 10:24:29.220387 33691 net.cpp:406] Sigmoid14 <- Convolution15_Scale15_0_split_0
I1024 10:24:29.220399 33691 net.cpp:380] Sigmoid14 -> Sigmoid14
I1024 10:24:29.221446 33691 net.cpp:122] Setting up Sigmoid14
I1024 10:24:29.221465 33691 net.cpp:129] Top shape: 128 64 8 8 (524288)
I1024 10:24:29.221473 33691 net.cpp:137] Memory required for data: 743965184
I1024 10:24:29.221482 33691 layer_factory.hpp:77] Creating layer Eltwise20
I1024 10:24:29.221491 33691 net.cpp:84] Creating Layer Eltwise20
I1024 10:24:29.221499 33691 net.cpp:406] Eltwise20 <- Convolution15_Scale15_0_split_1
I1024 10:24:29.221508 33691 net.cpp:406] Eltwise20 <- Sigmoid14
I1024 10:24:29.221525 33691 net.cpp:380] Eltwise20 -> Eltwise20
I1024 10:24:29.221580 33691 net.cpp:122] Setting up Eltwise20
I1024 10:24:29.221591 33691 net.cpp:129] Top shape: 128 64 8 8 (524288)
I1024 10:24:29.221598 33691 net.cpp:137] Memory required for data: 746062336
I1024 10:24:29.221604 33691 layer_factory.hpp:77] Creating layer Convolution16
I1024 10:24:29.221621 33691 net.cpp:84] Creating Layer Convolution16
I1024 10:24:29.221628 33691 net.cpp:406] Convolution16 <- Eltwise20
I1024 10:24:29.221638 33691 net.cpp:380] Convolution16 -> Convolution16
I1024 10:24:29.225883 33691 net.cpp:122] Setting up Convolution16
I1024 10:24:29.225906 33691 net.cpp:129] Top shape: 128 64 8 8 (524288)
I1024 10:24:29.225915 33691 net.cpp:137] Memory required for data: 748159488
I1024 10:24:29.225926 33691 layer_factory.hpp:77] Creating layer BatchNorm16
I1024 10:24:29.225940 33691 net.cpp:84] Creating Layer BatchNorm16
I1024 10:24:29.225950 33691 net.cpp:406] BatchNorm16 <- Convolution16
I1024 10:24:29.225960 33691 net.cpp:367] BatchNorm16 -> Convolution16 (in-place)
I1024 10:24:29.226258 33691 net.cpp:122] Setting up BatchNorm16
I1024 10:24:29.226271 33691 net.cpp:129] Top shape: 128 64 8 8 (524288)
I1024 10:24:29.226279 33691 net.cpp:137] Memory required for data: 750256640
I1024 10:24:29.226292 33691 layer_factory.hpp:77] Creating layer Scale16
I1024 10:24:29.226302 33691 net.cpp:84] Creating Layer Scale16
I1024 10:24:29.226310 33691 net.cpp:406] Scale16 <- Convolution16
I1024 10:24:29.226320 33691 net.cpp:367] Scale16 -> Convolution16 (in-place)
I1024 10:24:29.226377 33691 layer_factory.hpp:77] Creating layer Scale16
I1024 10:24:29.226560 33691 net.cpp:122] Setting up Scale16
I1024 10:24:29.226575 33691 net.cpp:129] Top shape: 128 64 8 8 (524288)
I1024 10:24:29.226583 33691 net.cpp:137] Memory required for data: 752353792
I1024 10:24:29.226593 33691 layer_factory.hpp:77] Creating layer Convolution17
I1024 10:24:29.226610 33691 net.cpp:84] Creating Layer Convolution17
I1024 10:24:29.226619 33691 net.cpp:406] Convolution17 <- Eltwise19_Eltwise19_0_split_1
I1024 10:24:29.226630 33691 net.cpp:380] Convolution17 -> Convolution17
I1024 10:24:29.229590 33691 net.cpp:122] Setting up Convolution17
I1024 10:24:29.229612 33691 net.cpp:129] Top shape: 128 64 8 8 (524288)
I1024 10:24:29.229621 33691 net.cpp:137] Memory required for data: 754450944
I1024 10:24:29.229632 33691 layer_factory.hpp:77] Creating layer BatchNorm17
I1024 10:24:29.229645 33691 net.cpp:84] Creating Layer BatchNorm17
I1024 10:24:29.229652 33691 net.cpp:406] BatchNorm17 <- Convolution17
I1024 10:24:29.229665 33691 net.cpp:367] BatchNorm17 -> Convolution17 (in-place)
I1024 10:24:29.229967 33691 net.cpp:122] Setting up BatchNorm17
I1024 10:24:29.229984 33691 net.cpp:129] Top shape: 128 64 8 8 (524288)
I1024 10:24:29.229990 33691 net.cpp:137] Memory required for data: 756548096
I1024 10:24:29.230002 33691 layer_factory.hpp:77] Creating layer Scale17
I1024 10:24:29.230012 33691 net.cpp:84] Creating Layer Scale17
I1024 10:24:29.230020 33691 net.cpp:406] Scale17 <- Convolution17
I1024 10:24:29.230031 33691 net.cpp:367] Scale17 -> Convolution17 (in-place)
I1024 10:24:29.230087 33691 layer_factory.hpp:77] Creating layer Scale17
I1024 10:24:29.230263 33691 net.cpp:122] Setting up Scale17
I1024 10:24:29.230276 33691 net.cpp:129] Top shape: 128 64 8 8 (524288)
I1024 10:24:29.230283 33691 net.cpp:137] Memory required for data: 758645248
I1024 10:24:29.230293 33691 layer_factory.hpp:77] Creating layer Eltwise21
I1024 10:24:29.230303 33691 net.cpp:84] Creating Layer Eltwise21
I1024 10:24:29.230310 33691 net.cpp:406] Eltwise21 <- Convolution16
I1024 10:24:29.230319 33691 net.cpp:406] Eltwise21 <- Convolution17
I1024 10:24:29.230327 33691 net.cpp:380] Eltwise21 -> Eltwise21
I1024 10:24:29.230362 33691 net.cpp:122] Setting up Eltwise21
I1024 10:24:29.230374 33691 net.cpp:129] Top shape: 128 64 8 8 (524288)
I1024 10:24:29.230381 33691 net.cpp:137] Memory required for data: 760742400
I1024 10:24:29.230387 33691 layer_factory.hpp:77] Creating layer Eltwise21_Eltwise21_0_split
I1024 10:24:29.230406 33691 net.cpp:84] Creating Layer Eltwise21_Eltwise21_0_split
I1024 10:24:29.230422 33691 net.cpp:406] Eltwise21_Eltwise21_0_split <- Eltwise21
I1024 10:24:29.230433 33691 net.cpp:380] Eltwise21_Eltwise21_0_split -> Eltwise21_Eltwise21_0_split_0
I1024 10:24:29.230445 33691 net.cpp:380] Eltwise21_Eltwise21_0_split -> Eltwise21_Eltwise21_0_split_1
I1024 10:24:29.230511 33691 net.cpp:122] Setting up Eltwise21_Eltwise21_0_split
I1024 10:24:29.230526 33691 net.cpp:129] Top shape: 128 64 8 8 (524288)
I1024 10:24:29.230535 33691 net.cpp:129] Top shape: 128 64 8 8 (524288)
I1024 10:24:29.230542 33691 net.cpp:137] Memory required for data: 764936704
I1024 10:24:29.230548 33691 layer_factory.hpp:77] Creating layer Sigmoid15
I1024 10:24:29.230558 33691 net.cpp:84] Creating Layer Sigmoid15
I1024 10:24:29.230566 33691 net.cpp:406] Sigmoid15 <- Eltwise21_Eltwise21_0_split_0
I1024 10:24:29.230576 33691 net.cpp:380] Sigmoid15 -> Sigmoid15
I1024 10:24:29.231616 33691 net.cpp:122] Setting up Sigmoid15
I1024 10:24:29.231638 33691 net.cpp:129] Top shape: 128 64 8 8 (524288)
I1024 10:24:29.231647 33691 net.cpp:137] Memory required for data: 767033856
I1024 10:24:29.231653 33691 layer_factory.hpp:77] Creating layer Eltwise22
I1024 10:24:29.231664 33691 net.cpp:84] Creating Layer Eltwise22
I1024 10:24:29.231672 33691 net.cpp:406] Eltwise22 <- Eltwise21_Eltwise21_0_split_1
I1024 10:24:29.231680 33691 net.cpp:406] Eltwise22 <- Sigmoid15
I1024 10:24:29.231689 33691 net.cpp:380] Eltwise22 -> Eltwise22
I1024 10:24:29.231734 33691 net.cpp:122] Setting up Eltwise22
I1024 10:24:29.231745 33691 net.cpp:129] Top shape: 128 64 8 8 (524288)
I1024 10:24:29.231751 33691 net.cpp:137] Memory required for data: 769131008
I1024 10:24:29.231758 33691 layer_factory.hpp:77] Creating layer Eltwise22_Eltwise22_0_split
I1024 10:24:29.231766 33691 net.cpp:84] Creating Layer Eltwise22_Eltwise22_0_split
I1024 10:24:29.231775 33691 net.cpp:406] Eltwise22_Eltwise22_0_split <- Eltwise22
I1024 10:24:29.231784 33691 net.cpp:380] Eltwise22_Eltwise22_0_split -> Eltwise22_Eltwise22_0_split_0
I1024 10:24:29.231794 33691 net.cpp:380] Eltwise22_Eltwise22_0_split -> Eltwise22_Eltwise22_0_split_1
I1024 10:24:29.231853 33691 net.cpp:122] Setting up Eltwise22_Eltwise22_0_split
I1024 10:24:29.231864 33691 net.cpp:129] Top shape: 128 64 8 8 (524288)
I1024 10:24:29.231871 33691 net.cpp:129] Top shape: 128 64 8 8 (524288)
I1024 10:24:29.231878 33691 net.cpp:137] Memory required for data: 773325312
I1024 10:24:29.231885 33691 layer_factory.hpp:77] Creating layer Convolution18
I1024 10:24:29.231900 33691 net.cpp:84] Creating Layer Convolution18
I1024 10:24:29.231909 33691 net.cpp:406] Convolution18 <- Eltwise22_Eltwise22_0_split_0
I1024 10:24:29.231920 33691 net.cpp:380] Convolution18 -> Convolution18
I1024 10:24:29.246701 33691 net.cpp:122] Setting up Convolution18
I1024 10:24:29.246731 33691 net.cpp:129] Top shape: 128 64 8 8 (524288)
I1024 10:24:29.246740 33691 net.cpp:137] Memory required for data: 775422464
I1024 10:24:29.246752 33691 layer_factory.hpp:77] Creating layer BatchNorm18
I1024 10:24:29.246764 33691 net.cpp:84] Creating Layer BatchNorm18
I1024 10:24:29.246773 33691 net.cpp:406] BatchNorm18 <- Convolution18
I1024 10:24:29.246784 33691 net.cpp:367] BatchNorm18 -> Convolution18 (in-place)
I1024 10:24:29.247087 33691 net.cpp:122] Setting up BatchNorm18
I1024 10:24:29.247100 33691 net.cpp:129] Top shape: 128 64 8 8 (524288)
I1024 10:24:29.247107 33691 net.cpp:137] Memory required for data: 777519616
I1024 10:24:29.247120 33691 layer_factory.hpp:77] Creating layer Scale18
I1024 10:24:29.247133 33691 net.cpp:84] Creating Layer Scale18
I1024 10:24:29.247139 33691 net.cpp:406] Scale18 <- Convolution18
I1024 10:24:29.247150 33691 net.cpp:367] Scale18 -> Convolution18 (in-place)
I1024 10:24:29.247205 33691 layer_factory.hpp:77] Creating layer Scale18
I1024 10:24:29.247382 33691 net.cpp:122] Setting up Scale18
I1024 10:24:29.247397 33691 net.cpp:129] Top shape: 128 64 8 8 (524288)
I1024 10:24:29.247404 33691 net.cpp:137] Memory required for data: 779616768
I1024 10:24:29.247416 33691 layer_factory.hpp:77] Creating layer Convolution18_Scale18_0_split
I1024 10:24:29.247439 33691 net.cpp:84] Creating Layer Convolution18_Scale18_0_split
I1024 10:24:29.247447 33691 net.cpp:406] Convolution18_Scale18_0_split <- Convolution18
I1024 10:24:29.247457 33691 net.cpp:380] Convolution18_Scale18_0_split -> Convolution18_Scale18_0_split_0
I1024 10:24:29.247467 33691 net.cpp:380] Convolution18_Scale18_0_split -> Convolution18_Scale18_0_split_1
I1024 10:24:29.247524 33691 net.cpp:122] Setting up Convolution18_Scale18_0_split
I1024 10:24:29.247535 33691 net.cpp:129] Top shape: 128 64 8 8 (524288)
I1024 10:24:29.247544 33691 net.cpp:129] Top shape: 128 64 8 8 (524288)
I1024 10:24:29.247550 33691 net.cpp:137] Memory required for data: 783811072
I1024 10:24:29.247557 33691 layer_factory.hpp:77] Creating layer Sigmoid16
I1024 10:24:29.247566 33691 net.cpp:84] Creating Layer Sigmoid16
I1024 10:24:29.247573 33691 net.cpp:406] Sigmoid16 <- Convolution18_Scale18_0_split_0
I1024 10:24:29.247583 33691 net.cpp:380] Sigmoid16 -> Sigmoid16
I1024 10:24:29.249132 33691 net.cpp:122] Setting up Sigmoid16
I1024 10:24:29.249148 33691 net.cpp:129] Top shape: 128 64 8 8 (524288)
I1024 10:24:29.249156 33691 net.cpp:137] Memory required for data: 785908224
I1024 10:24:29.249162 33691 layer_factory.hpp:77] Creating layer Eltwise23
I1024 10:24:29.249172 33691 net.cpp:84] Creating Layer Eltwise23
I1024 10:24:29.249181 33691 net.cpp:406] Eltwise23 <- Convolution18_Scale18_0_split_1
I1024 10:24:29.249189 33691 net.cpp:406] Eltwise23 <- Sigmoid16
I1024 10:24:29.249200 33691 net.cpp:380] Eltwise23 -> Eltwise23
I1024 10:24:29.249241 33691 net.cpp:122] Setting up Eltwise23
I1024 10:24:29.249253 33691 net.cpp:129] Top shape: 128 64 8 8 (524288)
I1024 10:24:29.249259 33691 net.cpp:137] Memory required for data: 788005376
I1024 10:24:29.249265 33691 layer_factory.hpp:77] Creating layer Convolution19
I1024 10:24:29.249284 33691 net.cpp:84] Creating Layer Convolution19
I1024 10:24:29.249291 33691 net.cpp:406] Convolution19 <- Eltwise23
I1024 10:24:29.249301 33691 net.cpp:380] Convolution19 -> Convolution19
I1024 10:24:29.253556 33691 net.cpp:122] Setting up Convolution19
I1024 10:24:29.253579 33691 net.cpp:129] Top shape: 128 64 8 8 (524288)
I1024 10:24:29.253588 33691 net.cpp:137] Memory required for data: 790102528
I1024 10:24:29.253600 33691 layer_factory.hpp:77] Creating layer BatchNorm19
I1024 10:24:29.253614 33691 net.cpp:84] Creating Layer BatchNorm19
I1024 10:24:29.253623 33691 net.cpp:406] BatchNorm19 <- Convolution19
I1024 10:24:29.253635 33691 net.cpp:367] BatchNorm19 -> Convolution19 (in-place)
I1024 10:24:29.253940 33691 net.cpp:122] Setting up BatchNorm19
I1024 10:24:29.253953 33691 net.cpp:129] Top shape: 128 64 8 8 (524288)
I1024 10:24:29.253959 33691 net.cpp:137] Memory required for data: 792199680
I1024 10:24:29.253998 33691 layer_factory.hpp:77] Creating layer Scale19
I1024 10:24:29.254011 33691 net.cpp:84] Creating Layer Scale19
I1024 10:24:29.254019 33691 net.cpp:406] Scale19 <- Convolution19
I1024 10:24:29.254029 33691 net.cpp:367] Scale19 -> Convolution19 (in-place)
I1024 10:24:29.254087 33691 layer_factory.hpp:77] Creating layer Scale19
I1024 10:24:29.254268 33691 net.cpp:122] Setting up Scale19
I1024 10:24:29.254281 33691 net.cpp:129] Top shape: 128 64 8 8 (524288)
I1024 10:24:29.254287 33691 net.cpp:137] Memory required for data: 794296832
I1024 10:24:29.254298 33691 layer_factory.hpp:77] Creating layer Eltwise24
I1024 10:24:29.254308 33691 net.cpp:84] Creating Layer Eltwise24
I1024 10:24:29.254315 33691 net.cpp:406] Eltwise24 <- Convolution19
I1024 10:24:29.254324 33691 net.cpp:406] Eltwise24 <- Eltwise22_Eltwise22_0_split_1
I1024 10:24:29.254333 33691 net.cpp:380] Eltwise24 -> Eltwise24
I1024 10:24:29.254366 33691 net.cpp:122] Setting up Eltwise24
I1024 10:24:29.254376 33691 net.cpp:129] Top shape: 128 64 8 8 (524288)
I1024 10:24:29.254384 33691 net.cpp:137] Memory required for data: 796393984
I1024 10:24:29.254390 33691 layer_factory.hpp:77] Creating layer Eltwise24_Eltwise24_0_split
I1024 10:24:29.254398 33691 net.cpp:84] Creating Layer Eltwise24_Eltwise24_0_split
I1024 10:24:29.254420 33691 net.cpp:406] Eltwise24_Eltwise24_0_split <- Eltwise24
I1024 10:24:29.254431 33691 net.cpp:380] Eltwise24_Eltwise24_0_split -> Eltwise24_Eltwise24_0_split_0
I1024 10:24:29.254442 33691 net.cpp:380] Eltwise24_Eltwise24_0_split -> Eltwise24_Eltwise24_0_split_1
I1024 10:24:29.254505 33691 net.cpp:122] Setting up Eltwise24_Eltwise24_0_split
I1024 10:24:29.254523 33691 net.cpp:129] Top shape: 128 64 8 8 (524288)
I1024 10:24:29.254531 33691 net.cpp:129] Top shape: 128 64 8 8 (524288)
I1024 10:24:29.254539 33691 net.cpp:137] Memory required for data: 800588288
I1024 10:24:29.254545 33691 layer_factory.hpp:77] Creating layer Sigmoid17
I1024 10:24:29.254554 33691 net.cpp:84] Creating Layer Sigmoid17
I1024 10:24:29.254561 33691 net.cpp:406] Sigmoid17 <- Eltwise24_Eltwise24_0_split_0
I1024 10:24:29.254571 33691 net.cpp:380] Sigmoid17 -> Sigmoid17
I1024 10:24:29.256513 33691 net.cpp:122] Setting up Sigmoid17
I1024 10:24:29.256536 33691 net.cpp:129] Top shape: 128 64 8 8 (524288)
I1024 10:24:29.256541 33691 net.cpp:137] Memory required for data: 802685440
I1024 10:24:29.256547 33691 layer_factory.hpp:77] Creating layer Eltwise25
I1024 10:24:29.256556 33691 net.cpp:84] Creating Layer Eltwise25
I1024 10:24:29.256562 33691 net.cpp:406] Eltwise25 <- Eltwise24_Eltwise24_0_split_1
I1024 10:24:29.256569 33691 net.cpp:406] Eltwise25 <- Sigmoid17
I1024 10:24:29.256577 33691 net.cpp:380] Eltwise25 -> Eltwise25
I1024 10:24:29.256616 33691 net.cpp:122] Setting up Eltwise25
I1024 10:24:29.256626 33691 net.cpp:129] Top shape: 128 64 8 8 (524288)
I1024 10:24:29.256631 33691 net.cpp:137] Memory required for data: 804782592
I1024 10:24:29.256636 33691 layer_factory.hpp:77] Creating layer Eltwise25_Eltwise25_0_split
I1024 10:24:29.256645 33691 net.cpp:84] Creating Layer Eltwise25_Eltwise25_0_split
I1024 10:24:29.256650 33691 net.cpp:406] Eltwise25_Eltwise25_0_split <- Eltwise25
I1024 10:24:29.256657 33691 net.cpp:380] Eltwise25_Eltwise25_0_split -> Eltwise25_Eltwise25_0_split_0
I1024 10:24:29.256665 33691 net.cpp:380] Eltwise25_Eltwise25_0_split -> Eltwise25_Eltwise25_0_split_1
I1024 10:24:29.256716 33691 net.cpp:122] Setting up Eltwise25_Eltwise25_0_split
I1024 10:24:29.256723 33691 net.cpp:129] Top shape: 128 64 8 8 (524288)
I1024 10:24:29.256729 33691 net.cpp:129] Top shape: 128 64 8 8 (524288)
I1024 10:24:29.256733 33691 net.cpp:137] Memory required for data: 808976896
I1024 10:24:29.256738 33691 layer_factory.hpp:77] Creating layer Convolution20
I1024 10:24:29.256752 33691 net.cpp:84] Creating Layer Convolution20
I1024 10:24:29.256758 33691 net.cpp:406] Convolution20 <- Eltwise25_Eltwise25_0_split_0
I1024 10:24:29.256772 33691 net.cpp:380] Convolution20 -> Convolution20
I1024 10:24:29.259661 33691 net.cpp:122] Setting up Convolution20
I1024 10:24:29.259685 33691 net.cpp:129] Top shape: 128 64 8 8 (524288)
I1024 10:24:29.259692 33691 net.cpp:137] Memory required for data: 811074048
I1024 10:24:29.259701 33691 layer_factory.hpp:77] Creating layer BatchNorm20
I1024 10:24:29.259712 33691 net.cpp:84] Creating Layer BatchNorm20
I1024 10:24:29.259718 33691 net.cpp:406] BatchNorm20 <- Convolution20
I1024 10:24:29.259726 33691 net.cpp:367] BatchNorm20 -> Convolution20 (in-place)
I1024 10:24:29.259980 33691 net.cpp:122] Setting up BatchNorm20
I1024 10:24:29.259990 33691 net.cpp:129] Top shape: 128 64 8 8 (524288)
I1024 10:24:29.259995 33691 net.cpp:137] Memory required for data: 813171200
I1024 10:24:29.260004 33691 layer_factory.hpp:77] Creating layer Scale20
I1024 10:24:29.260031 33691 net.cpp:84] Creating Layer Scale20
I1024 10:24:29.260037 33691 net.cpp:406] Scale20 <- Convolution20
I1024 10:24:29.260046 33691 net.cpp:367] Scale20 -> Convolution20 (in-place)
I1024 10:24:29.260097 33691 layer_factory.hpp:77] Creating layer Scale20
I1024 10:24:29.260242 33691 net.cpp:122] Setting up Scale20
I1024 10:24:29.260252 33691 net.cpp:129] Top shape: 128 64 8 8 (524288)
I1024 10:24:29.260257 33691 net.cpp:137] Memory required for data: 815268352
I1024 10:24:29.260264 33691 layer_factory.hpp:77] Creating layer Convolution20_Scale20_0_split
I1024 10:24:29.260288 33691 net.cpp:84] Creating Layer Convolution20_Scale20_0_split
I1024 10:24:29.260293 33691 net.cpp:406] Convolution20_Scale20_0_split <- Convolution20
I1024 10:24:29.260300 33691 net.cpp:380] Convolution20_Scale20_0_split -> Convolution20_Scale20_0_split_0
I1024 10:24:29.260309 33691 net.cpp:380] Convolution20_Scale20_0_split -> Convolution20_Scale20_0_split_1
I1024 10:24:29.260354 33691 net.cpp:122] Setting up Convolution20_Scale20_0_split
I1024 10:24:29.260365 33691 net.cpp:129] Top shape: 128 64 8 8 (524288)
I1024 10:24:29.260370 33691 net.cpp:129] Top shape: 128 64 8 8 (524288)
I1024 10:24:29.260375 33691 net.cpp:137] Memory required for data: 819462656
I1024 10:24:29.260378 33691 layer_factory.hpp:77] Creating layer Sigmoid18
I1024 10:24:29.260386 33691 net.cpp:84] Creating Layer Sigmoid18
I1024 10:24:29.260391 33691 net.cpp:406] Sigmoid18 <- Convolution20_Scale20_0_split_0
I1024 10:24:29.260398 33691 net.cpp:380] Sigmoid18 -> Sigmoid18
I1024 10:24:29.261545 33691 net.cpp:122] Setting up Sigmoid18
I1024 10:24:29.261564 33691 net.cpp:129] Top shape: 128 64 8 8 (524288)
I1024 10:24:29.261570 33691 net.cpp:137] Memory required for data: 821559808
I1024 10:24:29.261575 33691 layer_factory.hpp:77] Creating layer Eltwise26
I1024 10:24:29.261584 33691 net.cpp:84] Creating Layer Eltwise26
I1024 10:24:29.261590 33691 net.cpp:406] Eltwise26 <- Convolution20_Scale20_0_split_1
I1024 10:24:29.261596 33691 net.cpp:406] Eltwise26 <- Sigmoid18
I1024 10:24:29.261603 33691 net.cpp:380] Eltwise26 -> Eltwise26
I1024 10:24:29.261641 33691 net.cpp:122] Setting up Eltwise26
I1024 10:24:29.261651 33691 net.cpp:129] Top shape: 128 64 8 8 (524288)
I1024 10:24:29.261656 33691 net.cpp:137] Memory required for data: 823656960
I1024 10:24:29.261660 33691 layer_factory.hpp:77] Creating layer Convolution21
I1024 10:24:29.261675 33691 net.cpp:84] Creating Layer Convolution21
I1024 10:24:29.261682 33691 net.cpp:406] Convolution21 <- Eltwise26
I1024 10:24:29.261690 33691 net.cpp:380] Convolution21 -> Convolution21
I1024 10:24:29.272794 33691 net.cpp:122] Setting up Convolution21
I1024 10:24:29.272852 33691 net.cpp:129] Top shape: 128 64 8 8 (524288)
I1024 10:24:29.272867 33691 net.cpp:137] Memory required for data: 825754112
I1024 10:24:29.272886 33691 layer_factory.hpp:77] Creating layer BatchNorm21
I1024 10:24:29.272908 33691 net.cpp:84] Creating Layer BatchNorm21
I1024 10:24:29.272923 33691 net.cpp:406] BatchNorm21 <- Convolution21
I1024 10:24:29.272943 33691 net.cpp:367] BatchNorm21 -> Convolution21 (in-place)
I1024 10:24:29.273471 33691 net.cpp:122] Setting up BatchNorm21
I1024 10:24:29.273492 33691 net.cpp:129] Top shape: 128 64 8 8 (524288)
I1024 10:24:29.273502 33691 net.cpp:137] Memory required for data: 827851264
I1024 10:24:29.273521 33691 layer_factory.hpp:77] Creating layer Scale21
I1024 10:24:29.273540 33691 net.cpp:84] Creating Layer Scale21
I1024 10:24:29.273551 33691 net.cpp:406] Scale21 <- Convolution21
I1024 10:24:29.273566 33691 net.cpp:367] Scale21 -> Convolution21 (in-place)
I1024 10:24:29.273658 33691 layer_factory.hpp:77] Creating layer Scale21
I1024 10:24:29.273959 33691 net.cpp:122] Setting up Scale21
I1024 10:24:29.273978 33691 net.cpp:129] Top shape: 128 64 8 8 (524288)
I1024 10:24:29.273988 33691 net.cpp:137] Memory required for data: 829948416
I1024 10:24:29.274003 33691 layer_factory.hpp:77] Creating layer Eltwise27
I1024 10:24:29.274019 33691 net.cpp:84] Creating Layer Eltwise27
I1024 10:24:29.274029 33691 net.cpp:406] Eltwise27 <- Convolution21
I1024 10:24:29.274046 33691 net.cpp:406] Eltwise27 <- Eltwise25_Eltwise25_0_split_1
I1024 10:24:29.274061 33691 net.cpp:380] Eltwise27 -> Eltwise27
I1024 10:24:29.274114 33691 net.cpp:122] Setting up Eltwise27
I1024 10:24:29.274135 33691 net.cpp:129] Top shape: 128 64 8 8 (524288)
I1024 10:24:29.274145 33691 net.cpp:137] Memory required for data: 832045568
I1024 10:24:29.274155 33691 layer_factory.hpp:77] Creating layer Eltwise27_Eltwise27_0_split
I1024 10:24:29.274169 33691 net.cpp:84] Creating Layer Eltwise27_Eltwise27_0_split
I1024 10:24:29.274191 33691 net.cpp:406] Eltwise27_Eltwise27_0_split <- Eltwise27
I1024 10:24:29.274224 33691 net.cpp:380] Eltwise27_Eltwise27_0_split -> Eltwise27_Eltwise27_0_split_0
I1024 10:24:29.274241 33691 net.cpp:380] Eltwise27_Eltwise27_0_split -> Eltwise27_Eltwise27_0_split_1
I1024 10:24:29.274339 33691 net.cpp:122] Setting up Eltwise27_Eltwise27_0_split
I1024 10:24:29.274358 33691 net.cpp:129] Top shape: 128 64 8 8 (524288)
I1024 10:24:29.274370 33691 net.cpp:129] Top shape: 128 64 8 8 (524288)
I1024 10:24:29.274380 33691 net.cpp:137] Memory required for data: 836239872
I1024 10:24:29.274390 33691 layer_factory.hpp:77] Creating layer Sigmoid19
I1024 10:24:29.274404 33691 net.cpp:84] Creating Layer Sigmoid19
I1024 10:24:29.274415 33691 net.cpp:406] Sigmoid19 <- Eltwise27_Eltwise27_0_split_0
I1024 10:24:29.274432 33691 net.cpp:380] Sigmoid19 -> Sigmoid19
I1024 10:24:29.275997 33691 net.cpp:122] Setting up Sigmoid19
I1024 10:24:29.276026 33691 net.cpp:129] Top shape: 128 64 8 8 (524288)
I1024 10:24:29.276037 33691 net.cpp:137] Memory required for data: 838337024
I1024 10:24:29.276048 33691 layer_factory.hpp:77] Creating layer Eltwise28
I1024 10:24:29.276065 33691 net.cpp:84] Creating Layer Eltwise28
I1024 10:24:29.276077 33691 net.cpp:406] Eltwise28 <- Eltwise27_Eltwise27_0_split_1
I1024 10:24:29.276091 33691 net.cpp:406] Eltwise28 <- Sigmoid19
I1024 10:24:29.276105 33691 net.cpp:380] Eltwise28 -> Eltwise28
I1024 10:24:29.276172 33691 net.cpp:122] Setting up Eltwise28
I1024 10:24:29.276190 33691 net.cpp:129] Top shape: 128 64 8 8 (524288)
I1024 10:24:29.276201 33691 net.cpp:137] Memory required for data: 840434176
I1024 10:24:29.276211 33691 layer_factory.hpp:77] Creating layer Pooling1
I1024 10:24:29.276224 33691 net.cpp:84] Creating Layer Pooling1
I1024 10:24:29.276243 33691 net.cpp:406] Pooling1 <- Eltwise28
I1024 10:24:29.276273 33691 net.cpp:380] Pooling1 -> Pooling1
I1024 10:24:29.278923 33691 net.cpp:122] Setting up Pooling1
I1024 10:24:29.278981 33691 net.cpp:129] Top shape: 128 64 1 1 (8192)
I1024 10:24:29.279006 33691 net.cpp:137] Memory required for data: 840466944
I1024 10:24:29.279027 33691 layer_factory.hpp:77] Creating layer InnerProduct1
I1024 10:24:29.279063 33691 net.cpp:84] Creating Layer InnerProduct1
I1024 10:24:29.279088 33691 net.cpp:406] InnerProduct1 <- Pooling1
I1024 10:24:29.279116 33691 net.cpp:380] InnerProduct1 -> InnerProduct1
I1024 10:24:29.279700 33691 net.cpp:122] Setting up InnerProduct1
I1024 10:24:29.279736 33691 net.cpp:129] Top shape: 128 10 (1280)
I1024 10:24:29.279758 33691 net.cpp:137] Memory required for data: 840472064
I1024 10:24:29.279788 33691 layer_factory.hpp:77] Creating layer Accuracy1
I1024 10:24:29.279814 33691 net.cpp:84] Creating Layer Accuracy1
I1024 10:24:29.279834 33691 net.cpp:406] Accuracy1 <- InnerProduct1
I1024 10:24:29.279857 33691 net.cpp:406] Accuracy1 <- Data2
I1024 10:24:29.279881 33691 net.cpp:380] Accuracy1 -> Accuracy1
…
