…
I1025 10:17:23.876796   441 upgrade_proto.cpp:80] Successfully upgraded batch norm layers using deprecated params.
I1025 10:17:23.877606   441 net.cpp:51] Initializing net from parameters: 
state {
  phase: TEST
  level: 0
  stage: ""
}
layer {
  name: "Data1"
  type: "Data"
  top: "Data1"
  top: "Data2"
  transform_param {
    crop_size: 32
    mean_value: 125.306915
    mean_value: 122.950394
    mean_value: 113.865387
  }
  data_param {
    source: "/data/hjy1312/data/RESNET/cifar-10/cifar10_test_lmdb"
    batch_size: 128
    backend: LMDB
  }
}
layer {
  name: "Convolution1"
  type: "Convolution"
  bottom: "Data1"
  top: "Convolution1"
  param {
    lr_mult: 1
    decay_mult: 1
  }
  param {
    lr_mult: 2
    decay_mult: 0
  }
  convolution_param {
    num_output: 16
    bias_term: true
    pad: 1
    kernel_size: 3
    stride: 1
    weight_filler {
      type: "msra"
    }
    bias_filler {
      type: "constant"
    }
  }
}
layer {
  name: "BatchNorm1"
  type: "BatchNorm"
  bottom: "Convolution1"
  top: "Convolution1"
  param {
    lr_mult: 0
    decay_mult: 0
  }
  param {
    lr_mult: 0
    decay_mult: 0
  }
  param {
    lr_mult: 0
    decay_mult: 0
  }
  batch_norm_param {
    use_global_stats: true
  }
}
layer {
  name: "Scale1"
  type: "Scale"
  bottom: "Convolution1"
  top: "Convolution1"
  scale_param {
    bias_term: true
  }
}
layer {
  name: "Sigmoid1"
  type: "Sigmoid"
  bottom: "Convolution1"
  top: "Sigmoid1"
}
layer {
  name: "Eltwise1"
  type: "Eltwise"
  bottom: "Convolution1"
  bottom: "Sigmoid1"
  top: "Eltwise1"
  eltwise_param {
    operation: PROD
  }
}
layer {
  name: "Convolution2"
  type: "Convolution"
  bottom: "Eltwise1"
  top: "Convolution2"
  param {
    lr_mult: 1
    decay_mult: 1
  }
  param {
    lr_mult: 2
    decay_mult: 0
  }
  convolution_param {
    num_output: 16
    bias_term: true
    pad: 1
    kernel_size: 3
    stride: 1
    weight_filler {
      type: "msra"
    }
    bias_filler {
      type: "constant"
    }
  }
}
layer {
  name: "BatchNorm2"
  type: "BatchNorm"
  bottom: "Convolution2"
  top: "Convolution2"
  param {
    lr_mult: 0
    decay_mult: 0
  }
  param {
    lr_mult: 0
    decay_mult: 0
  }
  param {
    lr_mult: 0
    decay_mult: 0
  }
  batch_norm_param {
    use_global_stats: true
  }
}
layer {
  name: "Scale2"
  type: "Scale"
  bottom: "Convolution2"
  top: "Convolution2"
  scale_param {
    bias_term: true
  }
}
layer {
  name: "Sigmoid2"
  type: "Sigmoid"
  bottom: "Convolution2"
  top: "Sigmoid2"
}
layer {
  name: "Eltwise2"
  type: "Eltwise"
  bottom: "Convolution2"
  bottom: "Sigmoid2"
  top: "Eltwise2"
  eltwise_param {
    operation: PROD
  }
}
layer {
  name: "Convolution3"
  type: "Convolution"
  bottom: "Eltwise2"
  top: "Convolution3"
  param {
    lr_mult: 1
    decay_mult: 1
  }
  param {
    lr_mult: 2
    decay_mult: 0
  }
  convolution_param {
    num_output: 16
    bias_term: true
    pad: 1
    kernel_size: 3
    stride: 1
    weight_filler {
      type: "msra"
    }
    bias_filler {
      type: "constant"
    }
  }
}
layer {
  name: "BatchNorm3"
  type: "BatchNorm"
  bottom: "Convolution3"
  top: "Convolution3"
  param {
    lr_mult: 0
    decay_mult: 0
  }
  param {
    lr_mult: 0
    decay_mult: 0
  }
  param {
    lr_mult: 0
    decay_mult: 0
  }
  batch_norm_param {
    use_global_stats: true
  }
}
layer {
  name: "Scale3"
  type: "Scale"
  bottom: "Convolution3"
  top: "Convolution3"
  scale_param {
    bias_term: true
  }
}
layer {
  name: "Eltwise3"
  type: "Eltwise"
  bottom: "Convolution3"
  bottom: "Eltwise1"
  top: "Eltwise3"
  eltwise_param {
    operation: SUM
  }
}
layer {
  name: "Sigmoid3"
  type: "Sigmoid"
  bottom: "Eltwise3"
  top: "Sigmoid3"
}
layer {
  name: "Eltwise4"
  type: "Eltwise"
  bottom: "Eltwise3"
  bottom: "Sigmoid3"
  top: "Eltwise4"
  eltwise_param {
    operation: PROD
  }
}
layer {
  name: "Convolution4"
  type: "Convolution"
  bottom: "Eltwise4"
  top: "Convolution4"
  param {
    lr_mult: 1
    decay_mult: 1
  }
  param {
    lr_mult: 2
    decay_mult: 0
  }
  convolution_param {
    num_output: 16
    bias_term: true
    pad: 1
    kernel_size: 3
    stride: 1
    weight_filler {
      type: "msra"
    }
    bias_filler {
      type: "constant"
    }
  }
}
layer {
  name: "BatchNorm4"
  type: "BatchNorm"
  bottom: "Convolution4"
  top: "Convolution4"
  param {
    lr_mult: 0
    decay_mult: 0
  }
  param {
    lr_mult: 0
    decay_mult: 0
  }
  param {
    lr_mult: 0
    decay_mult: 0
  }
  batch_norm_param {
    use_global_stats: true
  }
}
layer {
  name: "Scale4"
  type: "Scale"
  bottom: "Convolution4"
  top: "Convolution4"
  scale_param {
    bias_term: true
  }
}
layer {
  name: "Sigmoid4"
  type: "Sigmoid"
  bottom: "Convolution4"
  top: "Sigmoid4"
}
layer {
  name: "Eltwise5"
  type: "Eltwise"
  bottom: "Convolution4"
  bottom: "Sigmoid4"
  top: "Eltwise5"
  eltwise_param {
    operation: PROD
  }
}
layer {
  name: "Convolution5"
  type: "Convolution"
  bottom: "Eltwise5"
  top: "Convolution5"
  param {
    lr_mult: 1
    decay_mult: 1
  }
  param {
    lr_mult: 2
    decay_mult: 0
  }
  convolution_param {
    num_output: 16
    bias_term: true
    pad: 1
    kernel_size: 3
    stride: 1
    weight_filler {
      type: "msra"
    }
    bias_filler {
      type: "constant"
    }
  }
}
layer {
  name: "BatchNorm5"
  type: "BatchNorm"
  bottom: "Convolution5"
  top: "Convolution5"
  param {
    lr_mult: 0
    decay_mult: 0
  }
  param {
    lr_mult: 0
    decay_mult: 0
  }
  param {
    lr_mult: 0
    decay_mult: 0
  }
  batch_norm_param {
    use_global_stats: true
  }
}
layer {
  name: "Scale5"
  type: "Scale"
  bottom: "Convolution5"
  top: "Convolution5"
  scale_param {
    bias_term: true
  }
}
layer {
  name: "Eltwise6"
  type: "Eltwise"
  bottom: "Convolution5"
  bottom: "Eltwise4"
  top: "Eltwise6"
  eltwise_param {
    operation: SUM
  }
}
layer {
  name: "Sigmoid5"
  type: "Sigmoid"
  bottom: "Eltwise6"
  top: "Sigmoid5"
}
layer {
  name: "Eltwise7"
  type: "Eltwise"
  bottom: "Eltwise6"
  bottom: "Sigmoid5"
  top: "Eltwise7"
  eltwise_param {
    operation: PROD
  }
}
layer {
  name: "Convolution6"
  type: "Convolution"
  bottom: "Eltwise7"
  top: "Convolution6"
  param {
    lr_mult: 1
    decay_mult: 1
  }
  param {
    lr_mult: 2
    decay_mult: 0
  }
  convolution_param {
    num_output: 16
    bias_term: true
    pad: 1
    kernel_size: 3
    stride: 1
    weight_filler {
      type: "msra"
    }
    bias_filler {
      type: "constant"
    }
  }
}
layer {
  name: "BatchNorm6"
  type: "BatchNorm"
  bottom: "Convolution6"
  top: "Convolution6"
  param {
    lr_mult: 0
    decay_mult: 0
  }
  param {
    lr_mult: 0
    decay_mult: 0
  }
  param {
    lr_mult: 0
    decay_mult: 0
  }
  batch_norm_param {
    use_global_stats: true
  }
}
layer {
  name: "Scale6"
  type: "Scale"
  bottom: "Convolution6"
  top: "Convolution6"
  scale_param {
    bias_term: true
  }
}
layer {
  name: "Sigmoid6"
  type: "Sigmoid"
  bottom: "Convolution6"
  top: "Sigmoid6"
}
layer {
  name: "Eltwise8"
  type: "Eltwise"
  bottom: "Convolution6"
  bottom: "Sigmoid6"
  top: "Eltwise8"
  eltwise_param {
    operation: PROD
  }
}
layer {
  name: "Convolution7"
  type: "Convolution"
  bottom: "Eltwise8"
  top: "Convolution7"
  param {
    lr_mult: 1
    decay_mult: 1
  }
  param {
    lr_mult: 2
    decay_mult: 0
  }
  convolution_param {
    num_output: 16
    bias_term: true
    pad: 1
    kernel_size: 3
    stride: 1
    weight_filler {
      type: "msra"
    }
    bias_filler {
      type: "constant"
    }
  }
}
layer {
  name: "BatchNorm7"
  type: "BatchNorm"
  bottom: "Convolution7"
  top: "Convolution7"
  param {
    lr_mult: 0
    decay_mult: 0
  }
  param {
    lr_mult: 0
    decay_mult: 0
  }
  param {
    lr_mult: 0
    decay_mult: 0
  }
  batch_norm_param {
    use_global_stats: true
  }
}
layer {
  name: "Scale7"
  type: "Scale"
  bottom: "Convolution7"
  top: "Convolution7"
  scale_param {
    bias_term: true
  }
}
layer {
  name: "Eltwise9"
  type: "Eltwise"
  bottom: "Convolution7"
  bottom: "Eltwise7"
  top: "Eltwise9"
  eltwise_param {
    operation: SUM
  }
}
layer {
  name: "Sigmoid7"
  type: "Sigmoid"
  bottom: "Eltwise9"
  top: "Sigmoid7"
}
layer {
  name: "Eltwise10"
  type: "Eltwise"
  bottom: "Eltwise9"
  bottom: "Sigmoid7"
  top: "Eltwise10"
  eltwise_param {
    operation: PROD
  }
}
layer {
  name: "Convolution8"
  type: "Convolution"
  bottom: "Eltwise10"
  top: "Convolution8"
  param {
    lr_mult: 1
    decay_mult: 1
  }
  param {
    lr_mult: 2
    decay_mult: 0
  }
  convolution_param {
    num_output: 32
    bias_term: true
    pad: 1
    kernel_size: 3
    stride: 2
    weight_filler {
      type: "msra"
    }
    bias_filler {
      type: "constant"
    }
  }
}
layer {
  name: "BatchNorm8"
  type: "BatchNorm"
  bottom: "Convolution8"
  top: "Convolution8"
  param {
    lr_mult: 0
    decay_mult: 0
  }
  param {
    lr_mult: 0
    decay_mult: 0
  }
  param {
    lr_mult: 0
    decay_mult: 0
  }
  batch_norm_param {
    use_global_stats: true
  }
}
layer {
  name: "Scale8"
  type: "Scale"
  bottom: "Convolution8"
  top: "Convolution8"
  scale_param {
    bias_term: true
  }
}
layer {
  name: "Sigmoid8"
  type: "Sigmoid"
  bottom: "Convolution8"
  top: "Sigmoid8"
}
layer {
  name: "Eltwise11"
  type: "Eltwise"
  bottom: "Convolution8"
  bottom: "Sigmoid8"
  top: "Eltwise11"
  eltwise_param {
    operation: PROD
  }
}
layer {
  name: "Convolution9"
  type: "Convolution"
  bottom: "Eltwise11"
  top: "Convolution9"
  param {
    lr_mult: 1
    decay_mult: 1
  }
  param {
    lr_mult: 2
    decay_mult: 0
  }
  convolution_param {
    num_output: 32
    bias_term: true
    pad: 1
    kernel_size: 3
    stride: 1
    weight_filler {
      type: "msra"
    }
    bias_filler {
      type: "constant"
    }
  }
}
layer {
  name: "BatchNorm9"
  type: "BatchNorm"
  bottom: "Convolution9"
  top: "Convolution9"
  param {
    lr_mult: 0
    decay_mult: 0
  }
  param {
    lr_mult: 0
    decay_mult: 0
  }
  param {
    lr_mult: 0
    decay_mult: 0
  }
  batch_norm_param {
    use_global_stats: true
  }
}
layer {
  name: "Scale9"
  type: "Scale"
  bottom: "Convolution9"
  top: "Convolution9"
  scale_param {
    bias_term: true
  }
}
layer {
  name: "Convolution10"
  type: "Convolution"
  bottom: "Eltwise10"
  top: "Convolution10"
  param {
    lr_mult: 1
    decay_mult: 1
  }
  param {
    lr_mult: 2
    decay_mult: 0
  }
  convolution_param {
    num_output: 32
    bias_term: true
    pad: 0
    kernel_size: 1
    stride: 2
    weight_filler {
      type: "msra"
    }
    bias_filler {
      type: "constant"
    }
  }
}
layer {
  name: "BatchNorm10"
  type: "BatchNorm"
  bottom: "Convolution10"
  top: "Convolution10"
  param {
    lr_mult: 0
    decay_mult: 0
  }
  param {
    lr_mult: 0
    decay_mult: 0
  }
  param {
    lr_mult: 0
    decay_mult: 0
  }
  batch_norm_param {
    use_global_stats: true
  }
}
layer {
  name: "Scale10"
  type: "Scale"
  bottom: "Convolution10"
  top: "Convolution10"
  scale_param {
    bias_term: true
  }
}
layer {
  name: "Eltwise12"
  type: "Eltwise"
  bottom: "Convolution9"
  bottom: "Convolution10"
  top: "Eltwise12"
  eltwise_param {
    operation: SUM
  }
}
layer {
  name: "Sigmoid9"
  type: "Sigmoid"
  bottom: "Eltwise12"
  top: "Sigmoid9"
}
layer {
  name: "Eltwise13"
  type: "Eltwise"
  bottom: "Eltwise12"
  bottom: "Sigmoid9"
  top: "Eltwise13"
  eltwise_param {
    operation: PROD
  }
}
layer {
  name: "Convolution11"
  type: "Convolution"
  bottom: "Eltwise13"
  top: "Convolution11"
  param {
    lr_mult: 1
    decay_mult: 1
  }
  param {
    lr_mult: 2
    decay_mult: 0
  }
  convolution_param {
    num_output: 32
    bias_term: true
    pad: 1
    kernel_size: 3
    stride: 1
    weight_filler {
      type: "msra"
    }
    bias_filler {
      type: "constant"
    }
  }
}
layer {
  name: "BatchNorm11"
  type: "BatchNorm"
  bottom: "Convolution11"
  top: "Convolution11"
  param {
    lr_mult: 0
    decay_mult: 0
  }
  param {
    lr_mult: 0
    decay_mult: 0
  }
  param {
    lr_mult: 0
    decay_mult: 0
  }
  batch_norm_param {
    use_global_stats: true
  }
}
layer {
  name: "Scale11"
  type: "Scale"
  bottom: "Convolution11"
  top: "Convolution11"
  scale_param {
    bias_term: true
  }
}
layer {
  name: "Sigmoid10"
  type: "Sigmoid"
  bottom: "Convolution11"
  top: "Sigmoid10"
}
layer {
  name: "Eltwise14"
  type: "Eltwise"
  bottom: "Convolution11"
  bottom: "Sigmoid10"
  top: "Eltwise14"
  eltwise_param {
    operation: PROD
  }
}
layer {
  name: "Convolution12"
  type: "Convolution"
  bottom: "Eltwise14"
  top: "Convolution12"
  param {
    lr_mult: 1
    decay_mult: 1
  }
  param {
    lr_mult: 2
    decay_mult: 0
  }
  convolution_param {
    num_output: 32
    bias_term: true
    pad: 1
    kernel_size: 3
    stride: 1
    weight_filler {
      type: "msra"
    }
    bias_filler {
      type: "constant"
    }
  }
}
layer {
  name: "BatchNorm12"
  type: "BatchNorm"
  bottom: "Convolution12"
  top: "Convolution12"
  param {
    lr_mult: 0
    decay_mult: 0
  }
  param {
    lr_mult: 0
    decay_mult: 0
  }
  param {
    lr_mult: 0
    decay_mult: 0
  }
  batch_norm_param {
    use_global_stats: true
  }
}
layer {
  name: "Scale12"
  type: "Scale"
  bottom: "Convolution12"
  top: "Convolution12"
  scale_param {
    bias_term: true
  }
}
layer {
  name: "Eltwise15"
  type: "Eltwise"
  bottom: "Convolution12"
  bottom: "Eltwise13"
  top: "Eltwise15"
  eltwise_param {
    operation: SUM
  }
}
layer {
  name: "Sigmoid11"
  type: "Sigmoid"
  bottom: "Eltwise15"
  top: "Sigmoid11"
}
layer {
  name: "Eltwise16"
  type: "Eltwise"
  bottom: "Eltwise15"
  bottom: "Sigmoid11"
  top: "Eltwise16"
  eltwise_param {
    operation: PROD
  }
}
layer {
  name: "Convolution13"
  type: "Convolution"
  bottom: "Eltwise16"
  top: "Convolution13"
  param {
    lr_mult: 1
    decay_mult: 1
  }
  param {
    lr_mult: 2
    decay_mult: 0
  }
  convolution_param {
    num_output: 32
    bias_term: true
    pad: 1
    kernel_size: 3
    stride: 1
    weight_filler {
      type: "msra"
    }
    bias_filler {
      type: "constant"
    }
  }
}
layer {
  name: "BatchNorm13"
  type: "BatchNorm"
  bottom: "Convolution13"
  top: "Convolution13"
  param {
    lr_mult: 0
    decay_mult: 0
  }
  param {
    lr_mult: 0
    decay_mult: 0
  }
  param {
    lr_mult: 0
    decay_mult: 0
  }
  batch_norm_param {
    use_global_stats: true
  }
}
layer {
  name: "Scale13"
  type: "Scale"
  bottom: "Convolution13"
  top: "Convolution13"
  scale_param {
    bias_term: true
  }
}
layer {
  name: "Sigmoid12"
  type: "Sigmoid"
  bottom: "Convolution13"
  top: "Sigmoid12"
}
layer {
  name: "Eltwise17"
  type: "Eltwise"
  bottom: "Convolution13"
  bottom: "Sigmoid12"
  top: "Eltwise17"
  eltwise_param {
    operation: PROD
  }
}
layer {
  name: "Convolution14"
  type: "Convolution"
  bottom: "Eltwise17"
  top: "Convolution14"
  param {
    lr_mult: 1
    decay_mult: 1
  }
  param {
    lr_mult: 2
    decay_mult: 0
  }
  convolution_param {
    num_output: 32
    bias_term: true
    pad: 1
    kernel_size: 3
    stride: 1
    weight_filler {
      type: "msra"
    }
    bias_filler {
      type: "constant"
    }
  }
}
layer {
  name: "BatchNorm14"
  type: "BatchNorm"
  bottom: "Convolution14"
  top: "Convolution14"
  param {
    lr_mult: 0
    decay_mult: 0
  }
  param {
    lr_mult: 0
    decay_mult: 0
  }
  param {
    lr_mult: 0
    decay_mult: 0
  }
  batch_norm_param {
    use_global_stats: true
  }
}
layer {
  name: "Scale14"
  type: "Scale"
  bottom: "Convolution14"
  top: "Convolution14"
  scale_param {
    bias_term: true
  }
}
layer {
  name: "Eltwise18"
  type: "Eltwise"
  bottom: "Convolution14"
  bottom: "Eltwise16"
  top: "Eltwise18"
  eltwise_param {
    operation: SUM
  }
}
layer {
  name: "Sigmoid13"
  type: "Sigmoid"
  bottom: "Eltwise18"
  top: "Sigmoid13"
}
layer {
  name: "Eltwise19"
  type: "Eltwise"
  bottom: "Eltwise18"
  bottom: "Sigmoid13"
  top: "Eltwise19"
  eltwise_param {
    operation: PROD
  }
}
layer {
  name: "Convolution15"
  type: "Convolution"
  bottom: "Eltwise19"
  top: "Convolution15"
  param {
    lr_mult: 1
    decay_mult: 1
  }
  param {
    lr_mult: 2
    decay_mult: 0
  }
  convolution_param {
    num_output: 64
    bias_term: true
    pad: 1
    kernel_size: 3
    stride: 2
    weight_filler {
      type: "msra"
    }
    bias_filler {
      type: "constant"
    }
  }
}
layer {
  name: "BatchNorm15"
  type: "BatchNorm"
  bottom: "Convolution15"
  top: "Convolution15"
  param {
    lr_mult: 0
    decay_mult: 0
  }
  param {
    lr_mult: 0
    decay_mult: 0
  }
  param {
    lr_mult: 0
    decay_mult: 0
  }
  batch_norm_param {
    use_global_stats: true
  }
}
layer {
  name: "Scale15"
  type: "Scale"
  bottom: "Convolution15"
  top: "Convolution15"
  scale_param {
    bias_term: true
  }
}
layer {
  name: "Sigmoid14"
  type: "Sigmoid"
  bottom: "Convolution15"
  top: "Sigmoid14"
}
layer {
  name: "Eltwise20"
  type: "Eltwise"
  bottom: "Convolution15"
  bottom: "Sigmoid14"
  top: "Eltwise20"
  eltwise_param {
    operation: PROD
  }
}
layer {
  name: "Convolution16"
  type: "Convolution"
  bottom: "Eltwise20"
  top: "Convolution16"
  param {
    lr_mult: 1
    decay_mult: 1
  }
  param {
    lr_mult: 2
    decay_mult: 0
  }
  convolution_param {
    num_output: 64
    bias_term: true
    pad: 1
    kernel_size: 3
    stride: 1
    weight_filler {
      type: "msra"
    }
    bias_filler {
      type: "constant"
    }
  }
}
layer {
  name: "BatchNorm16"
  type: "BatchNorm"
  bottom: "Convolution16"
  top: "Convolution16"
  param {
    lr_mult: 0
    decay_mult: 0
  }
  param {
    lr_mult: 0
    decay_mult: 0
  }
  param {
    lr_mult: 0
    decay_mult: 0
  }
  batch_norm_param {
    use_global_stats: true
  }
}
layer {
  name: "Scale16"
  type: "Scale"
  bottom: "Convolution16"
  top: "Convolution16"
  scale_param {
    bias_term: true
  }
}
layer {
  name: "Convolution17"
  type: "Convolution"
  bottom: "Eltwise19"
  top: "Convolution17"
  param {
    lr_mult: 1
    decay_mult: 1
  }
  param {
    lr_mult: 2
    decay_mult: 0
  }
  convolution_param {
    num_output: 64
    bias_term: true
    pad: 0
    kernel_size: 1
    stride: 2
    weight_filler {
      type: "msra"
    }
    bias_filler {
      type: "constant"
    }
  }
}
layer {
  name: "BatchNorm17"
  type: "BatchNorm"
  bottom: "Convolution17"
  top: "Convolution17"
  param {
    lr_mult: 0
    decay_mult: 0
  }
  param {
    lr_mult: 0
    decay_mult: 0
  }
  param {
    lr_mult: 0
    decay_mult: 0
  }
  batch_norm_param {
    use_global_stats: true
  }
}
layer {
  name: "Scale17"
  type: "Scale"
  bottom: "Convolution17"
  top: "Convolution17"
  scale_param {
    bias_term: true
  }
}
layer {
  name: "Eltwise21"
  type: "Eltwise"
  bottom: "Convolution16"
  bottom: "Convolution17"
  top: "Eltwise21"
  eltwise_param {
    operation: SUM
  }
}
layer {
  name: "Sigmoid15"
  type: "Sigmoid"
  bottom: "Eltwise21"
  top: "Sigmoid15"
}
layer {
  name: "Eltwise22"
  type: "Eltwise"
  bottom: "Eltwise21"
  bottom: "Sigmoid15"
  top: "Eltwise22"
  eltwise_param {
    operation: PROD
  }
}
layer {
  name: "Convolution18"
  type: "Convolution"
  bottom: "Eltwise22"
  top: "Convolution18"
  param {
    lr_mult: 1
    decay_mult: 1
  }
  param {
    lr_mult: 2
    decay_mult: 0
  }
  convolution_param {
    num_output: 64
    bias_term: true
    pad: 1
    kernel_size: 3
    stride: 1
    weight_filler {
      type: "msra"
    }
    bias_filler {
      type: "constant"
    }
  }
}
layer {
  name: "BatchNorm18"
  type: "BatchNorm"
  bottom: "Convolution18"
  top: "Convolution18"
  param {
    lr_mult: 0
    decay_mult: 0
  }
  param {
    lr_mult: 0
    decay_mult: 0
  }
  param {
    lr_mult: 0
    decay_mult: 0
  }
  batch_norm_param {
    use_global_stats: true
  }
}
layer {
  name: "Scale18"
  type: "Scale"
  bottom: "Convolution18"
  top: "Convolution18"
  scale_param {
    bias_term: true
  }
}
layer {
  name: "Sigmoid16"
  type: "Sigmoid"
  bottom: "Convolution18"
  top: "Sigmoid16"
}
layer {
  name: "Eltwise23"
  type: "Eltwise"
  bottom: "Convolution18"
  bottom: "Sigmoid16"
  top: "Eltwise23"
  eltwise_param {
    operation: PROD
  }
}
layer {
  name: "Convolution19"
  type: "Convolution"
  bottom: "Eltwise23"
  top: "Convolution19"
  param {
    lr_mult: 1
    decay_mult: 1
  }
  param {
    lr_mult: 2
    decay_mult: 0
  }
  convolution_param {
    num_output: 64
    bias_term: true
    pad: 1
    kernel_size: 3
    stride: 1
    weight_filler {
      type: "msra"
    }
    bias_filler {
      type: "constant"
    }
  }
}
layer {
  name: "BatchNorm19"
  type: "BatchNorm"
  bottom: "Convolution19"
  top: "Convolution19"
  param {
    lr_mult: 0
    decay_mult: 0
  }
  param {
    lr_mult: 0
    decay_mult: 0
  }
  param {
    lr_mult: 0
    decay_mult: 0
  }
  batch_norm_param {
    use_global_stats: true
  }
}
layer {
  name: "Scale19"
  type: "Scale"
  bottom: "Convolution19"
  top: "Convolution19"
  scale_param {
    bias_term: true
  }
}
layer {
  name: "Eltwise24"
  type: "Eltwise"
  bottom: "Convolution19"
  bottom: "Eltwise22"
  top: "Eltwise24"
  eltwise_param {
    operation: SUM
  }
}
layer {
  name: "Sigmoid17"
  type: "Sigmoid"
  bottom: "Eltwise24"
  top: "Sigmoid17"
}
layer {
  name: "Eltwise25"
  type: "Eltwise"
  bottom: "Eltwise24"
  bottom: "Sigmoid17"
  top: "Eltwise25"
  eltwise_param {
    operation: PROD
  }
}
layer {
  name: "Convolution20"
  type: "Convolution"
  bottom: "Eltwise25"
  top: "Convolution20"
  param {
    lr_mult: 1
    decay_mult: 1
  }
  param {
    lr_mult: 2
    decay_mult: 0
  }
  convolution_param {
    num_output: 64
    bias_term: true
    pad: 1
    kernel_size: 3
    stride: 1
    weight_filler {
      type: "msra"
    }
    bias_filler {
      type: "constant"
    }
  }
}
layer {
  name: "BatchNorm20"
  type: "BatchNorm"
  bottom: "Convolution20"
  top: "Convolution20"
  param {
    lr_mult: 0
    decay_mult: 0
  }
  param {
    lr_mult: 0
    decay_mult: 0
  }
  param {
    lr_mult: 0
    decay_mult: 0
  }
  batch_norm_param {
    use_global_stats: true
  }
}
layer {
  name: "Scale20"
  type: "Scale"
  bottom: "Convolution20"
  top: "Convolution20"
  scale_param {
    bias_term: true
  }
}
layer {
  name: "Sigmoid18"
  type: "Sigmoid"
  bottom: "Convolution20"
  top: "Sigmoid18"
}
layer {
  name: "Eltwise26"
  type: "Eltwise"
  bottom: "Convolution20"
  bottom: "Sigmoid18"
  top: "Eltwise26"
  eltwise_param {
    operation: PROD
  }
}
layer {
  name: "Convolution21"
  type: "Convolution"
  bottom: "Eltwise26"
  top: "Convolution21"
  param {
    lr_mult: 1
    decay_mult: 1
  }
  param {
    lr_mult: 2
    decay_mult: 0
  }
  convolution_param {
    num_output: 64
    bias_term: true
    pad: 1
    kernel_size: 3
    stride: 1
    weight_filler {
      type: "msra"
    }
    bias_filler {
      type: "constant"
    }
  }
}
layer {
  name: "BatchNorm21"
  type: "BatchNorm"
  bottom: "Convolution21"
  top: "Convolution21"
  param {
    lr_mult: 0
    decay_mult: 0
  }
  param {
    lr_mult: 0
    decay_mult: 0
  }
  param {
    lr_mult: 0
    decay_mult: 0
  }
  batch_norm_param {
    use_global_stats: true
  }
}
layer {
  name: "Scale21"
  type: "Scale"
  bottom: "Convolution21"
  top: "Convolution21"
  scale_param {
    bias_term: true
  }
}
layer {
  name: "Eltwise27"
  type: "Eltwise"
  bottom: "Convolution21"
  bottom: "Eltwise25"
  top: "Eltwise27"
  eltwise_param {
    operation: SUM
  }
}
layer {
  name: "Sigmoid19"
  type: "Sigmoid"
  bottom: "Eltwise27"
  top: "Sigmoid19"
}
layer {
  name: "Eltwise28"
  type: "Eltwise"
  bottom: "Eltwise27"
  bottom: "Sigmoid19"
  top: "Eltwise28"
  eltwise_param {
    operation: PROD
  }
}
layer {
  name: "Pooling1"
  type: "Pooling"
  bottom: "Eltwise28"
  top: "Pooling1"
  pooling_param {
    pool: AVE
    global_pooling: true
  }
}
layer {
  name: "InnerProduct1"
  type: "InnerProduct"
  bottom: "Pooling1"
  top: "InnerProduct1"
  inner_product_param {
    num_output: 10
    weight_filler {
      type: "msra"
    }
    bias_filler {
      type: "constant"
    }
  }
}
layer {
  name: "Accuracy1"
  type: "Accuracy"
  bottom: "InnerProduct1"
  bottom: "Data2"
  top: "Accuracy1"
}
I1025 10:17:23.878239   441 layer_factory.hpp:77] Creating layer Data1
I1025 10:17:23.878368   441 db_lmdb.cpp:35] Opened lmdb /data/hjy1312/data/RESNET/cifar-10/cifar10_test_lmdb
I1025 10:17:23.878407   441 net.cpp:84] Creating Layer Data1
I1025 10:17:23.878417   441 net.cpp:380] Data1 -> Data1
I1025 10:17:23.878444   441 net.cpp:380] Data1 -> Data2
I1025 10:17:23.904141   441 data_layer.cpp:45] output data size: 128,3,32,32
I1025 10:17:23.913439   441 net.cpp:122] Setting up Data1
I1025 10:17:23.913481   441 net.cpp:129] Top shape: 128 3 32 32 (393216)
I1025 10:17:23.913489   441 net.cpp:129] Top shape: 128 (128)
I1025 10:17:23.913494   441 net.cpp:137] Memory required for data: 1573376
I1025 10:17:23.913504   441 layer_factory.hpp:77] Creating layer Convolution1
I1025 10:17:23.913532   441 net.cpp:84] Creating Layer Convolution1
I1025 10:17:23.913540   441 net.cpp:406] Convolution1 <- Data1
I1025 10:17:23.913554   441 net.cpp:380] Convolution1 -> Convolution1
I1025 10:17:24.202571   441 net.cpp:122] Setting up Convolution1
I1025 10:17:24.202635   441 net.cpp:129] Top shape: 128 16 32 32 (2097152)
I1025 10:17:24.202644   441 net.cpp:137] Memory required for data: 9961984
I1025 10:17:24.202670   441 layer_factory.hpp:77] Creating layer BatchNorm1
I1025 10:17:24.202694   441 net.cpp:84] Creating Layer BatchNorm1
I1025 10:17:24.202703   441 net.cpp:406] BatchNorm1 <- Convolution1
I1025 10:17:24.202715   441 net.cpp:367] BatchNorm1 -> Convolution1 (in-place)
I1025 10:17:24.202934   441 net.cpp:122] Setting up BatchNorm1
I1025 10:17:24.202949   441 net.cpp:129] Top shape: 128 16 32 32 (2097152)
I1025 10:17:24.202955   441 net.cpp:137] Memory required for data: 18350592
I1025 10:17:24.202971   441 layer_factory.hpp:77] Creating layer Scale1
I1025 10:17:24.202985   441 net.cpp:84] Creating Layer Scale1
I1025 10:17:24.202991   441 net.cpp:406] Scale1 <- Convolution1
I1025 10:17:24.203001   441 net.cpp:367] Scale1 -> Convolution1 (in-place)
I1025 10:17:24.203050   441 layer_factory.hpp:77] Creating layer Scale1
I1025 10:17:24.203181   441 net.cpp:122] Setting up Scale1
I1025 10:17:24.203193   441 net.cpp:129] Top shape: 128 16 32 32 (2097152)
I1025 10:17:24.203199   441 net.cpp:137] Memory required for data: 26739200
I1025 10:17:24.203210   441 layer_factory.hpp:77] Creating layer Convolution1_Scale1_0_split
I1025 10:17:24.203222   441 net.cpp:84] Creating Layer Convolution1_Scale1_0_split
I1025 10:17:24.203229   441 net.cpp:406] Convolution1_Scale1_0_split <- Convolution1
I1025 10:17:24.203239   441 net.cpp:380] Convolution1_Scale1_0_split -> Convolution1_Scale1_0_split_0
I1025 10:17:24.203251   441 net.cpp:380] Convolution1_Scale1_0_split -> Convolution1_Scale1_0_split_1
I1025 10:17:24.203294   441 net.cpp:122] Setting up Convolution1_Scale1_0_split
I1025 10:17:24.203305   441 net.cpp:129] Top shape: 128 16 32 32 (2097152)
I1025 10:17:24.203315   441 net.cpp:129] Top shape: 128 16 32 32 (2097152)
I1025 10:17:24.203320   441 net.cpp:137] Memory required for data: 43516416
I1025 10:17:24.203326   441 layer_factory.hpp:77] Creating layer Sigmoid1
I1025 10:17:24.203337   441 net.cpp:84] Creating Layer Sigmoid1
I1025 10:17:24.203344   441 net.cpp:406] Sigmoid1 <- Convolution1_Scale1_0_split_0
I1025 10:17:24.203353   441 net.cpp:380] Sigmoid1 -> Sigmoid1
I1025 10:17:24.204324   441 net.cpp:122] Setting up Sigmoid1
I1025 10:17:24.204345   441 net.cpp:129] Top shape: 128 16 32 32 (2097152)
I1025 10:17:24.204354   441 net.cpp:137] Memory required for data: 51905024
I1025 10:17:24.204361   441 layer_factory.hpp:77] Creating layer Eltwise1
I1025 10:17:24.204373   441 net.cpp:84] Creating Layer Eltwise1
I1025 10:17:24.204381   441 net.cpp:406] Eltwise1 <- Convolution1_Scale1_0_split_1
I1025 10:17:24.204390   441 net.cpp:406] Eltwise1 <- Sigmoid1
I1025 10:17:24.204398   441 net.cpp:380] Eltwise1 -> Eltwise1
I1025 10:17:24.204432   441 net.cpp:122] Setting up Eltwise1
I1025 10:17:24.204443   441 net.cpp:129] Top shape: 128 16 32 32 (2097152)
I1025 10:17:24.204449   441 net.cpp:137] Memory required for data: 60293632
I1025 10:17:24.204457   441 layer_factory.hpp:77] Creating layer Eltwise1_Eltwise1_0_split
I1025 10:17:24.204476   441 net.cpp:84] Creating Layer Eltwise1_Eltwise1_0_split
I1025 10:17:24.204504   441 net.cpp:406] Eltwise1_Eltwise1_0_split <- Eltwise1
I1025 10:17:24.204512   441 net.cpp:380] Eltwise1_Eltwise1_0_split -> Eltwise1_Eltwise1_0_split_0
I1025 10:17:24.204522   441 net.cpp:380] Eltwise1_Eltwise1_0_split -> Eltwise1_Eltwise1_0_split_1
I1025 10:17:24.204565   441 net.cpp:122] Setting up Eltwise1_Eltwise1_0_split
I1025 10:17:24.204576   441 net.cpp:129] Top shape: 128 16 32 32 (2097152)
I1025 10:17:24.204583   441 net.cpp:129] Top shape: 128 16 32 32 (2097152)
I1025 10:17:24.204591   441 net.cpp:137] Memory required for data: 77070848
I1025 10:17:24.204596   441 layer_factory.hpp:77] Creating layer Convolution2
I1025 10:17:24.204614   441 net.cpp:84] Creating Layer Convolution2
I1025 10:17:24.204622   441 net.cpp:406] Convolution2 <- Eltwise1_Eltwise1_0_split_0
I1025 10:17:24.204632   441 net.cpp:380] Convolution2 -> Convolution2
I1025 10:17:24.207414   441 net.cpp:122] Setting up Convolution2
I1025 10:17:24.207437   441 net.cpp:129] Top shape: 128 16 32 32 (2097152)
I1025 10:17:24.207445   441 net.cpp:137] Memory required for data: 85459456
I1025 10:17:24.207459   441 layer_factory.hpp:77] Creating layer BatchNorm2
I1025 10:17:24.207476   441 net.cpp:84] Creating Layer BatchNorm2
I1025 10:17:24.207484   441 net.cpp:406] BatchNorm2 <- Convolution2
I1025 10:17:24.207496   441 net.cpp:367] BatchNorm2 -> Convolution2 (in-place)
I1025 10:17:24.207715   441 net.cpp:122] Setting up BatchNorm2
I1025 10:17:24.207728   441 net.cpp:129] Top shape: 128 16 32 32 (2097152)
I1025 10:17:24.207736   441 net.cpp:137] Memory required for data: 93848064
I1025 10:17:24.207748   441 layer_factory.hpp:77] Creating layer Scale2
I1025 10:17:24.207758   441 net.cpp:84] Creating Layer Scale2
I1025 10:17:24.207765   441 net.cpp:406] Scale2 <- Convolution2
I1025 10:17:24.207777   441 net.cpp:367] Scale2 -> Convolution2 (in-place)
I1025 10:17:24.207818   441 layer_factory.hpp:77] Creating layer Scale2
I1025 10:17:24.207949   441 net.cpp:122] Setting up Scale2
I1025 10:17:24.207962   441 net.cpp:129] Top shape: 128 16 32 32 (2097152)
I1025 10:17:24.207967   441 net.cpp:137] Memory required for data: 102236672
I1025 10:17:24.207978   441 layer_factory.hpp:77] Creating layer Convolution2_Scale2_0_split
I1025 10:17:24.207991   441 net.cpp:84] Creating Layer Convolution2_Scale2_0_split
I1025 10:17:24.207998   441 net.cpp:406] Convolution2_Scale2_0_split <- Convolution2
I1025 10:17:24.208008   441 net.cpp:380] Convolution2_Scale2_0_split -> Convolution2_Scale2_0_split_0
I1025 10:17:24.208017   441 net.cpp:380] Convolution2_Scale2_0_split -> Convolution2_Scale2_0_split_1
I1025 10:17:24.208065   441 net.cpp:122] Setting up Convolution2_Scale2_0_split
I1025 10:17:24.208076   441 net.cpp:129] Top shape: 128 16 32 32 (2097152)
I1025 10:17:24.208082   441 net.cpp:129] Top shape: 128 16 32 32 (2097152)
I1025 10:17:24.208089   441 net.cpp:137] Memory required for data: 119013888
I1025 10:17:24.208096   441 layer_factory.hpp:77] Creating layer Sigmoid2
I1025 10:17:24.208104   441 net.cpp:84] Creating Layer Sigmoid2
I1025 10:17:24.208112   441 net.cpp:406] Sigmoid2 <- Convolution2_Scale2_0_split_0
I1025 10:17:24.208122   441 net.cpp:380] Sigmoid2 -> Sigmoid2
I1025 10:17:24.209081   441 net.cpp:122] Setting up Sigmoid2
I1025 10:17:24.209101   441 net.cpp:129] Top shape: 128 16 32 32 (2097152)
I1025 10:17:24.209107   441 net.cpp:137] Memory required for data: 127402496
I1025 10:17:24.209115   441 layer_factory.hpp:77] Creating layer Eltwise2
I1025 10:17:24.209125   441 net.cpp:84] Creating Layer Eltwise2
I1025 10:17:24.209132   441 net.cpp:406] Eltwise2 <- Convolution2_Scale2_0_split_1
I1025 10:17:24.209141   441 net.cpp:406] Eltwise2 <- Sigmoid2
I1025 10:17:24.209152   441 net.cpp:380] Eltwise2 -> Eltwise2
I1025 10:17:24.209185   441 net.cpp:122] Setting up Eltwise2
I1025 10:17:24.209198   441 net.cpp:129] Top shape: 128 16 32 32 (2097152)
I1025 10:17:24.209205   441 net.cpp:137] Memory required for data: 135791104
I1025 10:17:24.209218   441 layer_factory.hpp:77] Creating layer Convolution3
I1025 10:17:24.209244   441 net.cpp:84] Creating Layer Convolution3
I1025 10:17:24.209251   441 net.cpp:406] Convolution3 <- Eltwise2
I1025 10:17:24.209261   441 net.cpp:380] Convolution3 -> Convolution3
I1025 10:17:24.213112   441 net.cpp:122] Setting up Convolution3
I1025 10:17:24.213136   441 net.cpp:129] Top shape: 128 16 32 32 (2097152)
I1025 10:17:24.213145   441 net.cpp:137] Memory required for data: 144179712
I1025 10:17:24.213156   441 layer_factory.hpp:77] Creating layer BatchNorm3
I1025 10:17:24.213168   441 net.cpp:84] Creating Layer BatchNorm3
I1025 10:17:24.213176   441 net.cpp:406] BatchNorm3 <- Convolution3
I1025 10:17:24.213188   441 net.cpp:367] BatchNorm3 -> Convolution3 (in-place)
I1025 10:17:24.213416   441 net.cpp:122] Setting up BatchNorm3
I1025 10:17:24.213429   441 net.cpp:129] Top shape: 128 16 32 32 (2097152)
I1025 10:17:24.213436   441 net.cpp:137] Memory required for data: 152568320
I1025 10:17:24.213454   441 layer_factory.hpp:77] Creating layer Scale3
I1025 10:17:24.213465   441 net.cpp:84] Creating Layer Scale3
I1025 10:17:24.213474   441 net.cpp:406] Scale3 <- Convolution3
I1025 10:17:24.213485   441 net.cpp:367] Scale3 -> Convolution3 (in-place)
I1025 10:17:24.213527   441 layer_factory.hpp:77] Creating layer Scale3
I1025 10:17:24.213659   441 net.cpp:122] Setting up Scale3
I1025 10:17:24.213670   441 net.cpp:129] Top shape: 128 16 32 32 (2097152)
I1025 10:17:24.213676   441 net.cpp:137] Memory required for data: 160956928
I1025 10:17:24.213687   441 layer_factory.hpp:77] Creating layer Eltwise3
I1025 10:17:24.213699   441 net.cpp:84] Creating Layer Eltwise3
I1025 10:17:24.213706   441 net.cpp:406] Eltwise3 <- Convolution3
I1025 10:17:24.213716   441 net.cpp:406] Eltwise3 <- Eltwise1_Eltwise1_0_split_1
I1025 10:17:24.213723   441 net.cpp:380] Eltwise3 -> Eltwise3
I1025 10:17:24.213755   441 net.cpp:122] Setting up Eltwise3
I1025 10:17:24.213766   441 net.cpp:129] Top shape: 128 16 32 32 (2097152)
I1025 10:17:24.213773   441 net.cpp:137] Memory required for data: 169345536
I1025 10:17:24.213778   441 layer_factory.hpp:77] Creating layer Eltwise3_Eltwise3_0_split
I1025 10:17:24.213788   441 net.cpp:84] Creating Layer Eltwise3_Eltwise3_0_split
I1025 10:17:24.213794   441 net.cpp:406] Eltwise3_Eltwise3_0_split <- Eltwise3
I1025 10:17:24.213805   441 net.cpp:380] Eltwise3_Eltwise3_0_split -> Eltwise3_Eltwise3_0_split_0
I1025 10:17:24.213817   441 net.cpp:380] Eltwise3_Eltwise3_0_split -> Eltwise3_Eltwise3_0_split_1
I1025 10:17:24.213860   441 net.cpp:122] Setting up Eltwise3_Eltwise3_0_split
I1025 10:17:24.213871   441 net.cpp:129] Top shape: 128 16 32 32 (2097152)
I1025 10:17:24.213879   441 net.cpp:129] Top shape: 128 16 32 32 (2097152)
I1025 10:17:24.213886   441 net.cpp:137] Memory required for data: 186122752
I1025 10:17:24.213892   441 layer_factory.hpp:77] Creating layer Sigmoid3
I1025 10:17:24.213901   441 net.cpp:84] Creating Layer Sigmoid3
I1025 10:17:24.213908   441 net.cpp:406] Sigmoid3 <- Eltwise3_Eltwise3_0_split_0
I1025 10:17:24.213917   441 net.cpp:380] Sigmoid3 -> Sigmoid3
I1025 10:17:24.214157   441 net.cpp:122] Setting up Sigmoid3
I1025 10:17:24.214172   441 net.cpp:129] Top shape: 128 16 32 32 (2097152)
I1025 10:17:24.214179   441 net.cpp:137] Memory required for data: 194511360
I1025 10:17:24.214186   441 layer_factory.hpp:77] Creating layer Eltwise4
I1025 10:17:24.214195   441 net.cpp:84] Creating Layer Eltwise4
I1025 10:17:24.214202   441 net.cpp:406] Eltwise4 <- Eltwise3_Eltwise3_0_split_1
I1025 10:17:24.214210   441 net.cpp:406] Eltwise4 <- Sigmoid3
I1025 10:17:24.214221   441 net.cpp:380] Eltwise4 -> Eltwise4
I1025 10:17:24.214251   441 net.cpp:122] Setting up Eltwise4
I1025 10:17:24.214262   441 net.cpp:129] Top shape: 128 16 32 32 (2097152)
I1025 10:17:24.214268   441 net.cpp:137] Memory required for data: 202899968
I1025 10:17:24.214274   441 layer_factory.hpp:77] Creating layer Eltwise4_Eltwise4_0_split
I1025 10:17:24.214287   441 net.cpp:84] Creating Layer Eltwise4_Eltwise4_0_split
I1025 10:17:24.214293   441 net.cpp:406] Eltwise4_Eltwise4_0_split <- Eltwise4
I1025 10:17:24.214316   441 net.cpp:380] Eltwise4_Eltwise4_0_split -> Eltwise4_Eltwise4_0_split_0
I1025 10:17:24.214326   441 net.cpp:380] Eltwise4_Eltwise4_0_split -> Eltwise4_Eltwise4_0_split_1
I1025 10:17:24.214377   441 net.cpp:122] Setting up Eltwise4_Eltwise4_0_split
I1025 10:17:24.214388   441 net.cpp:129] Top shape: 128 16 32 32 (2097152)
I1025 10:17:24.214396   441 net.cpp:129] Top shape: 128 16 32 32 (2097152)
I1025 10:17:24.214402   441 net.cpp:137] Memory required for data: 219677184
I1025 10:17:24.214409   441 layer_factory.hpp:77] Creating layer Convolution4
I1025 10:17:24.214426   441 net.cpp:84] Creating Layer Convolution4
I1025 10:17:24.214432   441 net.cpp:406] Convolution4 <- Eltwise4_Eltwise4_0_split_0
I1025 10:17:24.214444   441 net.cpp:380] Convolution4 -> Convolution4
I1025 10:17:24.216953   441 net.cpp:122] Setting up Convolution4
I1025 10:17:24.216974   441 net.cpp:129] Top shape: 128 16 32 32 (2097152)
I1025 10:17:24.216981   441 net.cpp:137] Memory required for data: 228065792
I1025 10:17:24.216994   441 layer_factory.hpp:77] Creating layer BatchNorm4
I1025 10:17:24.217007   441 net.cpp:84] Creating Layer BatchNorm4
I1025 10:17:24.217015   441 net.cpp:406] BatchNorm4 <- Convolution4
I1025 10:17:24.217025   441 net.cpp:367] BatchNorm4 -> Convolution4 (in-place)
I1025 10:17:24.217247   441 net.cpp:122] Setting up BatchNorm4
I1025 10:17:24.217259   441 net.cpp:129] Top shape: 128 16 32 32 (2097152)
I1025 10:17:24.217267   441 net.cpp:137] Memory required for data: 236454400
I1025 10:17:24.217278   441 layer_factory.hpp:77] Creating layer Scale4
I1025 10:17:24.217290   441 net.cpp:84] Creating Layer Scale4
I1025 10:17:24.217298   441 net.cpp:406] Scale4 <- Convolution4
I1025 10:17:24.217306   441 net.cpp:367] Scale4 -> Convolution4 (in-place)
I1025 10:17:24.217350   441 layer_factory.hpp:77] Creating layer Scale4
I1025 10:17:24.217484   441 net.cpp:122] Setting up Scale4
I1025 10:17:24.217496   441 net.cpp:129] Top shape: 128 16 32 32 (2097152)
I1025 10:17:24.217504   441 net.cpp:137] Memory required for data: 244843008
I1025 10:17:24.217514   441 layer_factory.hpp:77] Creating layer Convolution4_Scale4_0_split
I1025 10:17:24.217525   441 net.cpp:84] Creating Layer Convolution4_Scale4_0_split
I1025 10:17:24.217531   441 net.cpp:406] Convolution4_Scale4_0_split <- Convolution4
I1025 10:17:24.217542   441 net.cpp:380] Convolution4_Scale4_0_split -> Convolution4_Scale4_0_split_0
I1025 10:17:24.217553   441 net.cpp:380] Convolution4_Scale4_0_split -> Convolution4_Scale4_0_split_1
I1025 10:17:24.217597   441 net.cpp:122] Setting up Convolution4_Scale4_0_split
I1025 10:17:24.217608   441 net.cpp:129] Top shape: 128 16 32 32 (2097152)
I1025 10:17:24.217617   441 net.cpp:129] Top shape: 128 16 32 32 (2097152)
I1025 10:17:24.217622   441 net.cpp:137] Memory required for data: 261620224
I1025 10:17:24.217628   441 layer_factory.hpp:77] Creating layer Sigmoid4
I1025 10:17:24.217640   441 net.cpp:84] Creating Layer Sigmoid4
I1025 10:17:24.217648   441 net.cpp:406] Sigmoid4 <- Convolution4_Scale4_0_split_0
I1025 10:17:24.217656   441 net.cpp:380] Sigmoid4 -> Sigmoid4
I1025 10:17:24.218628   441 net.cpp:122] Setting up Sigmoid4
I1025 10:17:24.218648   441 net.cpp:129] Top shape: 128 16 32 32 (2097152)
I1025 10:17:24.218655   441 net.cpp:137] Memory required for data: 270008832
I1025 10:17:24.218663   441 layer_factory.hpp:77] Creating layer Eltwise5
I1025 10:17:24.218675   441 net.cpp:84] Creating Layer Eltwise5
I1025 10:17:24.218683   441 net.cpp:406] Eltwise5 <- Convolution4_Scale4_0_split_1
I1025 10:17:24.218691   441 net.cpp:406] Eltwise5 <- Sigmoid4
I1025 10:17:24.218700   441 net.cpp:380] Eltwise5 -> Eltwise5
I1025 10:17:24.218735   441 net.cpp:122] Setting up Eltwise5
I1025 10:17:24.218747   441 net.cpp:129] Top shape: 128 16 32 32 (2097152)
I1025 10:17:24.218753   441 net.cpp:137] Memory required for data: 278397440
I1025 10:17:24.218760   441 layer_factory.hpp:77] Creating layer Convolution5
I1025 10:17:24.218781   441 net.cpp:84] Creating Layer Convolution5
I1025 10:17:24.218796   441 net.cpp:406] Convolution5 <- Eltwise5
I1025 10:17:24.218817   441 net.cpp:380] Convolution5 -> Convolution5
I1025 10:17:24.220587   441 net.cpp:122] Setting up Convolution5
I1025 10:17:24.220612   441 net.cpp:129] Top shape: 128 16 32 32 (2097152)
I1025 10:17:24.220619   441 net.cpp:137] Memory required for data: 286786048
I1025 10:17:24.220630   441 layer_factory.hpp:77] Creating layer BatchNorm5
I1025 10:17:24.220643   441 net.cpp:84] Creating Layer BatchNorm5
I1025 10:17:24.220651   441 net.cpp:406] BatchNorm5 <- Convolution5
I1025 10:17:24.220664   441 net.cpp:367] BatchNorm5 -> Convolution5 (in-place)
I1025 10:17:24.220890   441 net.cpp:122] Setting up BatchNorm5
I1025 10:17:24.220901   441 net.cpp:129] Top shape: 128 16 32 32 (2097152)
I1025 10:17:24.220907   441 net.cpp:137] Memory required for data: 295174656
I1025 10:17:24.220926   441 layer_factory.hpp:77] Creating layer Scale5
I1025 10:17:24.220938   441 net.cpp:84] Creating Layer Scale5
I1025 10:17:24.220945   441 net.cpp:406] Scale5 <- Convolution5
I1025 10:17:24.220954   441 net.cpp:367] Scale5 -> Convolution5 (in-place)
I1025 10:17:24.220996   441 layer_factory.hpp:77] Creating layer Scale5
I1025 10:17:24.221132   441 net.cpp:122] Setting up Scale5
I1025 10:17:24.221148   441 net.cpp:129] Top shape: 128 16 32 32 (2097152)
I1025 10:17:24.221154   441 net.cpp:137] Memory required for data: 303563264
I1025 10:17:24.221164   441 layer_factory.hpp:77] Creating layer Eltwise6
I1025 10:17:24.221174   441 net.cpp:84] Creating Layer Eltwise6
I1025 10:17:24.221180   441 net.cpp:406] Eltwise6 <- Convolution5
I1025 10:17:24.221189   441 net.cpp:406] Eltwise6 <- Eltwise4_Eltwise4_0_split_1
I1025 10:17:24.221197   441 net.cpp:380] Eltwise6 -> Eltwise6
I1025 10:17:24.221230   441 net.cpp:122] Setting up Eltwise6
I1025 10:17:24.221240   441 net.cpp:129] Top shape: 128 16 32 32 (2097152)
I1025 10:17:24.221247   441 net.cpp:137] Memory required for data: 311951872
I1025 10:17:24.221253   441 layer_factory.hpp:77] Creating layer Eltwise6_Eltwise6_0_split
I1025 10:17:24.221269   441 net.cpp:84] Creating Layer Eltwise6_Eltwise6_0_split
I1025 10:17:24.221276   441 net.cpp:406] Eltwise6_Eltwise6_0_split <- Eltwise6
I1025 10:17:24.221285   441 net.cpp:380] Eltwise6_Eltwise6_0_split -> Eltwise6_Eltwise6_0_split_0
I1025 10:17:24.221295   441 net.cpp:380] Eltwise6_Eltwise6_0_split -> Eltwise6_Eltwise6_0_split_1
I1025 10:17:24.221339   441 net.cpp:122] Setting up Eltwise6_Eltwise6_0_split
I1025 10:17:24.221350   441 net.cpp:129] Top shape: 128 16 32 32 (2097152)
I1025 10:17:24.221359   441 net.cpp:129] Top shape: 128 16 32 32 (2097152)
I1025 10:17:24.221365   441 net.cpp:137] Memory required for data: 328729088
I1025 10:17:24.221371   441 layer_factory.hpp:77] Creating layer Sigmoid5
I1025 10:17:24.221380   441 net.cpp:84] Creating Layer Sigmoid5
I1025 10:17:24.221387   441 net.cpp:406] Sigmoid5 <- Eltwise6_Eltwise6_0_split_0
I1025 10:17:24.221398   441 net.cpp:380] Sigmoid5 -> Sigmoid5
I1025 10:17:24.222364   441 net.cpp:122] Setting up Sigmoid5
I1025 10:17:24.222384   441 net.cpp:129] Top shape: 128 16 32 32 (2097152)
I1025 10:17:24.222391   441 net.cpp:137] Memory required for data: 337117696
I1025 10:17:24.222398   441 layer_factory.hpp:77] Creating layer Eltwise7
I1025 10:17:24.222409   441 net.cpp:84] Creating Layer Eltwise7
I1025 10:17:24.222416   441 net.cpp:406] Eltwise7 <- Eltwise6_Eltwise6_0_split_1
I1025 10:17:24.222425   441 net.cpp:406] Eltwise7 <- Sigmoid5
I1025 10:17:24.222442   441 net.cpp:380] Eltwise7 -> Eltwise7
I1025 10:17:24.222481   441 net.cpp:122] Setting up Eltwise7
I1025 10:17:24.222493   441 net.cpp:129] Top shape: 128 16 32 32 (2097152)
I1025 10:17:24.222508   441 net.cpp:137] Memory required for data: 345506304
I1025 10:17:24.222515   441 layer_factory.hpp:77] Creating layer Eltwise7_Eltwise7_0_split
I1025 10:17:24.222524   441 net.cpp:84] Creating Layer Eltwise7_Eltwise7_0_split
I1025 10:17:24.222532   441 net.cpp:406] Eltwise7_Eltwise7_0_split <- Eltwise7
I1025 10:17:24.222543   441 net.cpp:380] Eltwise7_Eltwise7_0_split -> Eltwise7_Eltwise7_0_split_0
I1025 10:17:24.222560   441 net.cpp:380] Eltwise7_Eltwise7_0_split -> Eltwise7_Eltwise7_0_split_1
I1025 10:17:24.222615   441 net.cpp:122] Setting up Eltwise7_Eltwise7_0_split
I1025 10:17:24.222627   441 net.cpp:129] Top shape: 128 16 32 32 (2097152)
I1025 10:17:24.222636   441 net.cpp:129] Top shape: 128 16 32 32 (2097152)
I1025 10:17:24.222643   441 net.cpp:137] Memory required for data: 362283520
I1025 10:17:24.222651   441 layer_factory.hpp:77] Creating layer Convolution6
I1025 10:17:24.222668   441 net.cpp:84] Creating Layer Convolution6
I1025 10:17:24.222676   441 net.cpp:406] Convolution6 <- Eltwise7_Eltwise7_0_split_0
I1025 10:17:24.222685   441 net.cpp:380] Convolution6 -> Convolution6
I1025 10:17:24.225178   441 net.cpp:122] Setting up Convolution6
I1025 10:17:24.225198   441 net.cpp:129] Top shape: 128 16 32 32 (2097152)
I1025 10:17:24.225206   441 net.cpp:137] Memory required for data: 370672128
I1025 10:17:24.225219   441 layer_factory.hpp:77] Creating layer BatchNorm6
I1025 10:17:24.225234   441 net.cpp:84] Creating Layer BatchNorm6
I1025 10:17:24.225241   441 net.cpp:406] BatchNorm6 <- Convolution6
I1025 10:17:24.225252   441 net.cpp:367] BatchNorm6 -> Convolution6 (in-place)
I1025 10:17:24.225477   441 net.cpp:122] Setting up BatchNorm6
I1025 10:17:24.225489   441 net.cpp:129] Top shape: 128 16 32 32 (2097152)
I1025 10:17:24.225497   441 net.cpp:137] Memory required for data: 379060736
I1025 10:17:24.225507   441 layer_factory.hpp:77] Creating layer Scale6
I1025 10:17:24.225520   441 net.cpp:84] Creating Layer Scale6
I1025 10:17:24.225528   441 net.cpp:406] Scale6 <- Convolution6
I1025 10:17:24.225536   441 net.cpp:367] Scale6 -> Convolution6 (in-place)
I1025 10:17:24.225581   441 layer_factory.hpp:77] Creating layer Scale6
I1025 10:17:24.225716   441 net.cpp:122] Setting up Scale6
I1025 10:17:24.225728   441 net.cpp:129] Top shape: 128 16 32 32 (2097152)
I1025 10:17:24.225734   441 net.cpp:137] Memory required for data: 387449344
I1025 10:17:24.225744   441 layer_factory.hpp:77] Creating layer Convolution6_Scale6_0_split
I1025 10:17:24.225754   441 net.cpp:84] Creating Layer Convolution6_Scale6_0_split
I1025 10:17:24.225760   441 net.cpp:406] Convolution6_Scale6_0_split <- Convolution6
I1025 10:17:24.225769   441 net.cpp:380] Convolution6_Scale6_0_split -> Convolution6_Scale6_0_split_0
I1025 10:17:24.225778   441 net.cpp:380] Convolution6_Scale6_0_split -> Convolution6_Scale6_0_split_1
I1025 10:17:24.225826   441 net.cpp:122] Setting up Convolution6_Scale6_0_split
I1025 10:17:24.225837   441 net.cpp:129] Top shape: 128 16 32 32 (2097152)
I1025 10:17:24.225845   441 net.cpp:129] Top shape: 128 16 32 32 (2097152)
I1025 10:17:24.225852   441 net.cpp:137] Memory required for data: 404226560
I1025 10:17:24.225857   441 layer_factory.hpp:77] Creating layer Sigmoid6
I1025 10:17:24.225867   441 net.cpp:84] Creating Layer Sigmoid6
I1025 10:17:24.225874   441 net.cpp:406] Sigmoid6 <- Convolution6_Scale6_0_split_0
I1025 10:17:24.225888   441 net.cpp:380] Sigmoid6 -> Sigmoid6
I1025 10:17:24.226131   441 net.cpp:122] Setting up Sigmoid6
I1025 10:17:24.226147   441 net.cpp:129] Top shape: 128 16 32 32 (2097152)
I1025 10:17:24.226155   441 net.cpp:137] Memory required for data: 412615168
I1025 10:17:24.226161   441 layer_factory.hpp:77] Creating layer Eltwise8
I1025 10:17:24.226174   441 net.cpp:84] Creating Layer Eltwise8
I1025 10:17:24.226181   441 net.cpp:406] Eltwise8 <- Convolution6_Scale6_0_split_1
I1025 10:17:24.226191   441 net.cpp:406] Eltwise8 <- Sigmoid6
I1025 10:17:24.226202   441 net.cpp:380] Eltwise8 -> Eltwise8
I1025 10:17:24.226234   441 net.cpp:122] Setting up Eltwise8
I1025 10:17:24.226245   441 net.cpp:129] Top shape: 128 16 32 32 (2097152)
I1025 10:17:24.226250   441 net.cpp:137] Memory required for data: 421003776
I1025 10:17:24.226258   441 layer_factory.hpp:77] Creating layer Convolution7
I1025 10:17:24.226274   441 net.cpp:84] Creating Layer Convolution7
I1025 10:17:24.226281   441 net.cpp:406] Convolution7 <- Eltwise8
I1025 10:17:24.226294   441 net.cpp:380] Convolution7 -> Convolution7
I1025 10:17:24.229008   441 net.cpp:122] Setting up Convolution7
I1025 10:17:24.229045   441 net.cpp:129] Top shape: 128 16 32 32 (2097152)
I1025 10:17:24.229053   441 net.cpp:137] Memory required for data: 429392384
I1025 10:17:24.229064   441 layer_factory.hpp:77] Creating layer BatchNorm7
I1025 10:17:24.229079   441 net.cpp:84] Creating Layer BatchNorm7
I1025 10:17:24.229087   441 net.cpp:406] BatchNorm7 <- Convolution7
I1025 10:17:24.229097   441 net.cpp:367] BatchNorm7 -> Convolution7 (in-place)
I1025 10:17:24.229333   441 net.cpp:122] Setting up BatchNorm7
I1025 10:17:24.229346   441 net.cpp:129] Top shape: 128 16 32 32 (2097152)
I1025 10:17:24.229352   441 net.cpp:137] Memory required for data: 437780992
I1025 10:17:24.229365   441 layer_factory.hpp:77] Creating layer Scale7
I1025 10:17:24.229375   441 net.cpp:84] Creating Layer Scale7
I1025 10:17:24.229382   441 net.cpp:406] Scale7 <- Convolution7
I1025 10:17:24.229391   441 net.cpp:367] Scale7 -> Convolution7 (in-place)
I1025 10:17:24.229436   441 layer_factory.hpp:77] Creating layer Scale7
I1025 10:17:24.229574   441 net.cpp:122] Setting up Scale7
I1025 10:17:24.229586   441 net.cpp:129] Top shape: 128 16 32 32 (2097152)
I1025 10:17:24.229594   441 net.cpp:137] Memory required for data: 446169600
I1025 10:17:24.229604   441 layer_factory.hpp:77] Creating layer Eltwise9
I1025 10:17:24.229616   441 net.cpp:84] Creating Layer Eltwise9
I1025 10:17:24.229624   441 net.cpp:406] Eltwise9 <- Convolution7
I1025 10:17:24.229634   441 net.cpp:406] Eltwise9 <- Eltwise7_Eltwise7_0_split_1
I1025 10:17:24.229641   441 net.cpp:380] Eltwise9 -> Eltwise9
I1025 10:17:24.229674   441 net.cpp:122] Setting up Eltwise9
I1025 10:17:24.229686   441 net.cpp:129] Top shape: 128 16 32 32 (2097152)
I1025 10:17:24.229691   441 net.cpp:137] Memory required for data: 454558208
I1025 10:17:24.229698   441 layer_factory.hpp:77] Creating layer Eltwise9_Eltwise9_0_split
I1025 10:17:24.229707   441 net.cpp:84] Creating Layer Eltwise9_Eltwise9_0_split
I1025 10:17:24.229713   441 net.cpp:406] Eltwise9_Eltwise9_0_split <- Eltwise9
I1025 10:17:24.229724   441 net.cpp:380] Eltwise9_Eltwise9_0_split -> Eltwise9_Eltwise9_0_split_0
I1025 10:17:24.229734   441 net.cpp:380] Eltwise9_Eltwise9_0_split -> Eltwise9_Eltwise9_0_split_1
I1025 10:17:24.229776   441 net.cpp:122] Setting up Eltwise9_Eltwise9_0_split
I1025 10:17:24.229786   441 net.cpp:129] Top shape: 128 16 32 32 (2097152)
I1025 10:17:24.229794   441 net.cpp:129] Top shape: 128 16 32 32 (2097152)
I1025 10:17:24.229801   441 net.cpp:137] Memory required for data: 471335424
I1025 10:17:24.229807   441 layer_factory.hpp:77] Creating layer Sigmoid7
I1025 10:17:24.229818   441 net.cpp:84] Creating Layer Sigmoid7
I1025 10:17:24.229826   441 net.cpp:406] Sigmoid7 <- Eltwise9_Eltwise9_0_split_0
I1025 10:17:24.229835   441 net.cpp:380] Sigmoid7 -> Sigmoid7
I1025 10:17:24.230842   441 net.cpp:122] Setting up Sigmoid7
I1025 10:17:24.230862   441 net.cpp:129] Top shape: 128 16 32 32 (2097152)
I1025 10:17:24.230871   441 net.cpp:137] Memory required for data: 479724032
I1025 10:17:24.230880   441 layer_factory.hpp:77] Creating layer Eltwise10
I1025 10:17:24.231061   441 net.cpp:84] Creating Layer Eltwise10
I1025 10:17:24.231076   441 net.cpp:406] Eltwise10 <- Eltwise9_Eltwise9_0_split_1
I1025 10:17:24.231084   441 net.cpp:406] Eltwise10 <- Sigmoid7
I1025 10:17:24.231094   441 net.cpp:380] Eltwise10 -> Eltwise10
I1025 10:17:24.231179   441 net.cpp:122] Setting up Eltwise10
I1025 10:17:24.231191   441 net.cpp:129] Top shape: 128 16 32 32 (2097152)
I1025 10:17:24.231197   441 net.cpp:137] Memory required for data: 488112640
I1025 10:17:24.231204   441 layer_factory.hpp:77] Creating layer Eltwise10_Eltwise10_0_split
I1025 10:17:24.231215   441 net.cpp:84] Creating Layer Eltwise10_Eltwise10_0_split
I1025 10:17:24.231221   441 net.cpp:406] Eltwise10_Eltwise10_0_split <- Eltwise10
I1025 10:17:24.231232   441 net.cpp:380] Eltwise10_Eltwise10_0_split -> Eltwise10_Eltwise10_0_split_0
I1025 10:17:24.231243   441 net.cpp:380] Eltwise10_Eltwise10_0_split -> Eltwise10_Eltwise10_0_split_1
I1025 10:17:24.231297   441 net.cpp:122] Setting up Eltwise10_Eltwise10_0_split
I1025 10:17:24.231318   441 net.cpp:129] Top shape: 128 16 32 32 (2097152)
I1025 10:17:24.231328   441 net.cpp:129] Top shape: 128 16 32 32 (2097152)
I1025 10:17:24.231333   441 net.cpp:137] Memory required for data: 504889856
I1025 10:17:24.231341   441 layer_factory.hpp:77] Creating layer Convolution8
I1025 10:17:24.231360   441 net.cpp:84] Creating Layer Convolution8
I1025 10:17:24.231369   441 net.cpp:406] Convolution8 <- Eltwise10_Eltwise10_0_split_0
I1025 10:17:24.231379   441 net.cpp:380] Convolution8 -> Convolution8
I1025 10:17:24.236847   441 net.cpp:122] Setting up Convolution8
I1025 10:17:24.236874   441 net.cpp:129] Top shape: 128 32 16 16 (1048576)
I1025 10:17:24.236881   441 net.cpp:137] Memory required for data: 509084160
I1025 10:17:24.236892   441 layer_factory.hpp:77] Creating layer BatchNorm8
I1025 10:17:24.236908   441 net.cpp:84] Creating Layer BatchNorm8
I1025 10:17:24.236917   441 net.cpp:406] BatchNorm8 <- Convolution8
I1025 10:17:24.236925   441 net.cpp:367] BatchNorm8 -> Convolution8 (in-place)
I1025 10:17:24.237164   441 net.cpp:122] Setting up BatchNorm8
I1025 10:17:24.237176   441 net.cpp:129] Top shape: 128 32 16 16 (1048576)
I1025 10:17:24.237182   441 net.cpp:137] Memory required for data: 513278464
I1025 10:17:24.237195   441 layer_factory.hpp:77] Creating layer Scale8
I1025 10:17:24.237205   441 net.cpp:84] Creating Layer Scale8
I1025 10:17:24.237211   441 net.cpp:406] Scale8 <- Convolution8
I1025 10:17:24.237220   441 net.cpp:367] Scale8 -> Convolution8 (in-place)
I1025 10:17:24.237265   441 layer_factory.hpp:77] Creating layer Scale8
I1025 10:17:24.237402   441 net.cpp:122] Setting up Scale8
I1025 10:17:24.237414   441 net.cpp:129] Top shape: 128 32 16 16 (1048576)
I1025 10:17:24.237421   441 net.cpp:137] Memory required for data: 517472768
I1025 10:17:24.237432   441 layer_factory.hpp:77] Creating layer Convolution8_Scale8_0_split
I1025 10:17:24.237443   441 net.cpp:84] Creating Layer Convolution8_Scale8_0_split
I1025 10:17:24.237450   441 net.cpp:406] Convolution8_Scale8_0_split <- Convolution8
I1025 10:17:24.237458   441 net.cpp:380] Convolution8_Scale8_0_split -> Convolution8_Scale8_0_split_0
I1025 10:17:24.237470   441 net.cpp:380] Convolution8_Scale8_0_split -> Convolution8_Scale8_0_split_1
I1025 10:17:24.237511   441 net.cpp:122] Setting up Convolution8_Scale8_0_split
I1025 10:17:24.237524   441 net.cpp:129] Top shape: 128 32 16 16 (1048576)
I1025 10:17:24.237532   441 net.cpp:129] Top shape: 128 32 16 16 (1048576)
I1025 10:17:24.237540   441 net.cpp:137] Memory required for data: 525861376
I1025 10:17:24.237545   441 layer_factory.hpp:77] Creating layer Sigmoid8
I1025 10:17:24.237555   441 net.cpp:84] Creating Layer Sigmoid8
I1025 10:17:24.237561   441 net.cpp:406] Sigmoid8 <- Convolution8_Scale8_0_split_0
I1025 10:17:24.237571   441 net.cpp:380] Sigmoid8 -> Sigmoid8
I1025 10:17:24.238564   441 net.cpp:122] Setting up Sigmoid8
I1025 10:17:24.238585   441 net.cpp:129] Top shape: 128 32 16 16 (1048576)
I1025 10:17:24.240327   441 net.cpp:137] Memory required for data: 530055680
I1025 10:17:24.240344   441 layer_factory.hpp:77] Creating layer Eltwise11
I1025 10:17:24.240360   441 net.cpp:84] Creating Layer Eltwise11
I1025 10:17:24.240368   441 net.cpp:406] Eltwise11 <- Convolution8_Scale8_0_split_1
I1025 10:17:24.240380   441 net.cpp:406] Eltwise11 <- Sigmoid8
I1025 10:17:24.240389   441 net.cpp:380] Eltwise11 -> Eltwise11
I1025 10:17:24.240443   441 net.cpp:122] Setting up Eltwise11
I1025 10:17:24.240456   441 net.cpp:129] Top shape: 128 32 16 16 (1048576)
I1025 10:17:24.240463   441 net.cpp:137] Memory required for data: 534249984
I1025 10:17:24.240470   441 layer_factory.hpp:77] Creating layer Convolution9
I1025 10:17:24.240487   441 net.cpp:84] Creating Layer Convolution9
I1025 10:17:24.240495   441 net.cpp:406] Convolution9 <- Eltwise11
I1025 10:17:24.240507   441 net.cpp:380] Convolution9 -> Convolution9
I1025 10:17:24.243436   441 net.cpp:122] Setting up Convolution9
I1025 10:17:24.243468   441 net.cpp:129] Top shape: 128 32 16 16 (1048576)
I1025 10:17:24.243489   441 net.cpp:137] Memory required for data: 538444288
I1025 10:17:24.243500   441 layer_factory.hpp:77] Creating layer BatchNorm9
I1025 10:17:24.243515   441 net.cpp:84] Creating Layer BatchNorm9
I1025 10:17:24.243525   441 net.cpp:406] BatchNorm9 <- Convolution9
I1025 10:17:24.243535   441 net.cpp:367] BatchNorm9 -> Convolution9 (in-place)
I1025 10:17:24.243772   441 net.cpp:122] Setting up BatchNorm9
I1025 10:17:24.243784   441 net.cpp:129] Top shape: 128 32 16 16 (1048576)
I1025 10:17:24.243791   441 net.cpp:137] Memory required for data: 542638592
I1025 10:17:24.243803   441 layer_factory.hpp:77] Creating layer Scale9
I1025 10:17:24.243816   441 net.cpp:84] Creating Layer Scale9
I1025 10:17:24.243824   441 net.cpp:406] Scale9 <- Convolution9
I1025 10:17:24.243831   441 net.cpp:367] Scale9 -> Convolution9 (in-place)
I1025 10:17:24.243877   441 layer_factory.hpp:77] Creating layer Scale9
I1025 10:17:24.244019   441 net.cpp:122] Setting up Scale9
I1025 10:17:24.244030   441 net.cpp:129] Top shape: 128 32 16 16 (1048576)
I1025 10:17:24.244037   441 net.cpp:137] Memory required for data: 546832896
I1025 10:17:24.244048   441 layer_factory.hpp:77] Creating layer Convolution10
I1025 10:17:24.244066   441 net.cpp:84] Creating Layer Convolution10
I1025 10:17:24.244074   441 net.cpp:406] Convolution10 <- Eltwise10_Eltwise10_0_split_1
I1025 10:17:24.244086   441 net.cpp:380] Convolution10 -> Convolution10
I1025 10:17:24.246564   441 net.cpp:122] Setting up Convolution10
I1025 10:17:24.246587   441 net.cpp:129] Top shape: 128 32 16 16 (1048576)
I1025 10:17:24.246593   441 net.cpp:137] Memory required for data: 551027200
I1025 10:17:24.246625   441 layer_factory.hpp:77] Creating layer BatchNorm10
I1025 10:17:24.246640   441 net.cpp:84] Creating Layer BatchNorm10
I1025 10:17:24.246649   441 net.cpp:406] BatchNorm10 <- Convolution10
I1025 10:17:24.246659   441 net.cpp:367] BatchNorm10 -> Convolution10 (in-place)
I1025 10:17:24.246891   441 net.cpp:122] Setting up BatchNorm10
I1025 10:17:24.246904   441 net.cpp:129] Top shape: 128 32 16 16 (1048576)
I1025 10:17:24.246911   441 net.cpp:137] Memory required for data: 555221504
I1025 10:17:24.246922   441 layer_factory.hpp:77] Creating layer Scale10
I1025 10:17:24.246932   441 net.cpp:84] Creating Layer Scale10
I1025 10:17:24.246939   441 net.cpp:406] Scale10 <- Convolution10
I1025 10:17:24.246951   441 net.cpp:367] Scale10 -> Convolution10 (in-place)
I1025 10:17:24.246995   441 layer_factory.hpp:77] Creating layer Scale10
I1025 10:17:24.247134   441 net.cpp:122] Setting up Scale10
I1025 10:17:24.247146   441 net.cpp:129] Top shape: 128 32 16 16 (1048576)
I1025 10:17:24.247153   441 net.cpp:137] Memory required for data: 559415808
I1025 10:17:24.247164   441 layer_factory.hpp:77] Creating layer Eltwise12
I1025 10:17:24.247175   441 net.cpp:84] Creating Layer Eltwise12
I1025 10:17:24.247184   441 net.cpp:406] Eltwise12 <- Convolution9
I1025 10:17:24.247190   441 net.cpp:406] Eltwise12 <- Convolution10
I1025 10:17:24.247200   441 net.cpp:380] Eltwise12 -> Eltwise12
I1025 10:17:24.247226   441 net.cpp:122] Setting up Eltwise12
I1025 10:17:24.247237   441 net.cpp:129] Top shape: 128 32 16 16 (1048576)
I1025 10:17:24.247244   441 net.cpp:137] Memory required for data: 563610112
I1025 10:17:24.247251   441 layer_factory.hpp:77] Creating layer Eltwise12_Eltwise12_0_split
I1025 10:17:24.247262   441 net.cpp:84] Creating Layer Eltwise12_Eltwise12_0_split
I1025 10:17:24.247269   441 net.cpp:406] Eltwise12_Eltwise12_0_split <- Eltwise12
I1025 10:17:24.247278   441 net.cpp:380] Eltwise12_Eltwise12_0_split -> Eltwise12_Eltwise12_0_split_0
I1025 10:17:24.247290   441 net.cpp:380] Eltwise12_Eltwise12_0_split -> Eltwise12_Eltwise12_0_split_1
I1025 10:17:24.247336   441 net.cpp:122] Setting up Eltwise12_Eltwise12_0_split
I1025 10:17:24.247349   441 net.cpp:129] Top shape: 128 32 16 16 (1048576)
I1025 10:17:24.247356   441 net.cpp:129] Top shape: 128 32 16 16 (1048576)
I1025 10:17:24.247375   441 net.cpp:137] Memory required for data: 571998720
I1025 10:17:24.247392   441 layer_factory.hpp:77] Creating layer Sigmoid9
I1025 10:17:24.247412   441 net.cpp:84] Creating Layer Sigmoid9
I1025 10:17:24.247421   441 net.cpp:406] Sigmoid9 <- Eltwise12_Eltwise12_0_split_0
I1025 10:17:24.247431   441 net.cpp:380] Sigmoid9 -> Sigmoid9
I1025 10:17:24.247678   441 net.cpp:122] Setting up Sigmoid9
I1025 10:17:24.247694   441 net.cpp:129] Top shape: 128 32 16 16 (1048576)
I1025 10:17:24.247700   441 net.cpp:137] Memory required for data: 576193024
I1025 10:17:24.247707   441 layer_factory.hpp:77] Creating layer Eltwise13
I1025 10:17:24.247720   441 net.cpp:84] Creating Layer Eltwise13
I1025 10:17:24.247728   441 net.cpp:406] Eltwise13 <- Eltwise12_Eltwise12_0_split_1
I1025 10:17:24.247736   441 net.cpp:406] Eltwise13 <- Sigmoid9
I1025 10:17:24.247745   441 net.cpp:380] Eltwise13 -> Eltwise13
I1025 10:17:24.247776   441 net.cpp:122] Setting up Eltwise13
I1025 10:17:24.247787   441 net.cpp:129] Top shape: 128 32 16 16 (1048576)
I1025 10:17:24.247794   441 net.cpp:137] Memory required for data: 580387328
I1025 10:17:24.247800   441 layer_factory.hpp:77] Creating layer Eltwise13_Eltwise13_0_split
I1025 10:17:24.247812   441 net.cpp:84] Creating Layer Eltwise13_Eltwise13_0_split
I1025 10:17:24.247818   441 net.cpp:406] Eltwise13_Eltwise13_0_split <- Eltwise13
I1025 10:17:24.247829   441 net.cpp:380] Eltwise13_Eltwise13_0_split -> Eltwise13_Eltwise13_0_split_0
I1025 10:17:24.247840   441 net.cpp:380] Eltwise13_Eltwise13_0_split -> Eltwise13_Eltwise13_0_split_1
I1025 10:17:24.247885   441 net.cpp:122] Setting up Eltwise13_Eltwise13_0_split
I1025 10:17:24.247896   441 net.cpp:129] Top shape: 128 32 16 16 (1048576)
I1025 10:17:24.247905   441 net.cpp:129] Top shape: 128 32 16 16 (1048576)
I1025 10:17:24.247910   441 net.cpp:137] Memory required for data: 588775936
I1025 10:17:24.247917   441 layer_factory.hpp:77] Creating layer Convolution11
I1025 10:17:24.247932   441 net.cpp:84] Creating Layer Convolution11
I1025 10:17:24.247941   441 net.cpp:406] Convolution11 <- Eltwise13_Eltwise13_0_split_0
I1025 10:17:24.247952   441 net.cpp:380] Convolution11 -> Convolution11
I1025 10:17:24.250795   441 net.cpp:122] Setting up Convolution11
I1025 10:17:24.250818   441 net.cpp:129] Top shape: 128 32 16 16 (1048576)
I1025 10:17:24.250824   441 net.cpp:137] Memory required for data: 592970240
I1025 10:17:24.250835   441 layer_factory.hpp:77] Creating layer BatchNorm11
I1025 10:17:24.250847   441 net.cpp:84] Creating Layer BatchNorm11
I1025 10:17:24.250854   441 net.cpp:406] BatchNorm11 <- Convolution11
I1025 10:17:24.250867   441 net.cpp:367] BatchNorm11 -> Convolution11 (in-place)
I1025 10:17:24.251103   441 net.cpp:122] Setting up BatchNorm11
I1025 10:17:24.251116   441 net.cpp:129] Top shape: 128 32 16 16 (1048576)
I1025 10:17:24.251122   441 net.cpp:137] Memory required for data: 597164544
I1025 10:17:24.251134   441 layer_factory.hpp:77] Creating layer Scale11
I1025 10:17:24.251145   441 net.cpp:84] Creating Layer Scale11
I1025 10:17:24.251152   441 net.cpp:406] Scale11 <- Convolution11
I1025 10:17:24.251160   441 net.cpp:367] Scale11 -> Convolution11 (in-place)
I1025 10:17:24.251207   441 layer_factory.hpp:77] Creating layer Scale11
I1025 10:17:24.251350   441 net.cpp:122] Setting up Scale11
I1025 10:17:24.251363   441 net.cpp:129] Top shape: 128 32 16 16 (1048576)
I1025 10:17:24.251368   441 net.cpp:137] Memory required for data: 601358848
I1025 10:17:24.251379   441 layer_factory.hpp:77] Creating layer Convolution11_Scale11_0_split
I1025 10:17:24.251389   441 net.cpp:84] Creating Layer Convolution11_Scale11_0_split
I1025 10:17:24.251396   441 net.cpp:406] Convolution11_Scale11_0_split <- Convolution11
I1025 10:17:24.251412   441 net.cpp:380] Convolution11_Scale11_0_split -> Convolution11_Scale11_0_split_0
I1025 10:17:24.251425   441 net.cpp:380] Convolution11_Scale11_0_split -> Convolution11_Scale11_0_split_1
I1025 10:17:24.251478   441 net.cpp:122] Setting up Convolution11_Scale11_0_split
I1025 10:17:24.251490   441 net.cpp:129] Top shape: 128 32 16 16 (1048576)
I1025 10:17:24.251505   441 net.cpp:129] Top shape: 128 32 16 16 (1048576)
I1025 10:17:24.251521   441 net.cpp:137] Memory required for data: 609747456
I1025 10:17:24.251528   441 layer_factory.hpp:77] Creating layer Sigmoid10
I1025 10:17:24.251538   441 net.cpp:84] Creating Layer Sigmoid10
I1025 10:17:24.251544   441 net.cpp:406] Sigmoid10 <- Convolution11_Scale11_0_split_0
I1025 10:17:24.251555   441 net.cpp:380] Sigmoid10 -> Sigmoid10
I1025 10:17:24.251797   441 net.cpp:122] Setting up Sigmoid10
I1025 10:17:24.251813   441 net.cpp:129] Top shape: 128 32 16 16 (1048576)
I1025 10:17:24.251821   441 net.cpp:137] Memory required for data: 613941760
I1025 10:17:24.251828   441 layer_factory.hpp:77] Creating layer Eltwise14
I1025 10:17:24.251840   441 net.cpp:84] Creating Layer Eltwise14
I1025 10:17:24.251847   441 net.cpp:406] Eltwise14 <- Convolution11_Scale11_0_split_1
I1025 10:17:24.251857   441 net.cpp:406] Eltwise14 <- Sigmoid10
I1025 10:17:24.251865   441 net.cpp:380] Eltwise14 -> Eltwise14
I1025 10:17:24.251898   441 net.cpp:122] Setting up Eltwise14
I1025 10:17:24.251909   441 net.cpp:129] Top shape: 128 32 16 16 (1048576)
I1025 10:17:24.251914   441 net.cpp:137] Memory required for data: 618136064
I1025 10:17:24.251920   441 layer_factory.hpp:77] Creating layer Convolution12
I1025 10:17:24.251937   441 net.cpp:84] Creating Layer Convolution12
I1025 10:17:24.251946   441 net.cpp:406] Convolution12 <- Eltwise14
I1025 10:17:24.251955   441 net.cpp:380] Convolution12 -> Convolution12
I1025 10:17:24.254778   441 net.cpp:122] Setting up Convolution12
I1025 10:17:24.254798   441 net.cpp:129] Top shape: 128 32 16 16 (1048576)
I1025 10:17:24.254804   441 net.cpp:137] Memory required for data: 622330368
I1025 10:17:24.254813   441 layer_factory.hpp:77] Creating layer BatchNorm12
I1025 10:17:24.254824   441 net.cpp:84] Creating Layer BatchNorm12
I1025 10:17:24.254830   441 net.cpp:406] BatchNorm12 <- Convolution12
I1025 10:17:24.254838   441 net.cpp:367] BatchNorm12 -> Convolution12 (in-place)
I1025 10:17:24.255038   441 net.cpp:122] Setting up BatchNorm12
I1025 10:17:24.255048   441 net.cpp:129] Top shape: 128 32 16 16 (1048576)
I1025 10:17:24.255053   441 net.cpp:137] Memory required for data: 626524672
I1025 10:17:24.255061   441 layer_factory.hpp:77] Creating layer Scale12
I1025 10:17:24.255070   441 net.cpp:84] Creating Layer Scale12
I1025 10:17:24.255076   441 net.cpp:406] Scale12 <- Convolution12
I1025 10:17:24.255082   441 net.cpp:367] Scale12 -> Convolution12 (in-place)
I1025 10:17:24.255122   441 layer_factory.hpp:77] Creating layer Scale12
I1025 10:17:24.255244   441 net.cpp:122] Setting up Scale12
I1025 10:17:24.255254   441 net.cpp:129] Top shape: 128 32 16 16 (1048576)
I1025 10:17:24.255259   441 net.cpp:137] Memory required for data: 630718976
I1025 10:17:24.255265   441 layer_factory.hpp:77] Creating layer Eltwise15
I1025 10:17:24.255272   441 net.cpp:84] Creating Layer Eltwise15
I1025 10:17:24.255278   441 net.cpp:406] Eltwise15 <- Convolution12
I1025 10:17:24.255285   441 net.cpp:406] Eltwise15 <- Eltwise13_Eltwise13_0_split_1
I1025 10:17:24.255292   441 net.cpp:380] Eltwise15 -> Eltwise15
I1025 10:17:24.255316   441 net.cpp:122] Setting up Eltwise15
I1025 10:17:24.255323   441 net.cpp:129] Top shape: 128 32 16 16 (1048576)
I1025 10:17:24.255327   441 net.cpp:137] Memory required for data: 634913280
I1025 10:17:24.255332   441 layer_factory.hpp:77] Creating layer Eltwise15_Eltwise15_0_split
I1025 10:17:24.255342   441 net.cpp:84] Creating Layer Eltwise15_Eltwise15_0_split
I1025 10:17:24.255347   441 net.cpp:406] Eltwise15_Eltwise15_0_split <- Eltwise15
I1025 10:17:24.255354   441 net.cpp:380] Eltwise15_Eltwise15_0_split -> Eltwise15_Eltwise15_0_split_0
I1025 10:17:24.255362   441 net.cpp:380] Eltwise15_Eltwise15_0_split -> Eltwise15_Eltwise15_0_split_1
I1025 10:17:24.255400   441 net.cpp:122] Setting up Eltwise15_Eltwise15_0_split
I1025 10:17:24.255409   441 net.cpp:129] Top shape: 128 32 16 16 (1048576)
I1025 10:17:24.255414   441 net.cpp:129] Top shape: 128 32 16 16 (1048576)
I1025 10:17:24.255424   441 net.cpp:137] Memory required for data: 643301888
I1025 10:17:24.255436   441 layer_factory.hpp:77] Creating layer Sigmoid11
I1025 10:17:24.255445   441 net.cpp:84] Creating Layer Sigmoid11
I1025 10:17:24.255450   441 net.cpp:406] Sigmoid11 <- Eltwise15_Eltwise15_0_split_0
I1025 10:17:24.255458   441 net.cpp:380] Sigmoid11 -> Sigmoid11
I1025 10:17:24.256458   441 net.cpp:122] Setting up Sigmoid11
I1025 10:17:24.256474   441 net.cpp:129] Top shape: 128 32 16 16 (1048576)
I1025 10:17:24.256479   441 net.cpp:137] Memory required for data: 647496192
I1025 10:17:24.256485   441 layer_factory.hpp:77] Creating layer Eltwise16
I1025 10:17:24.256494   441 net.cpp:84] Creating Layer Eltwise16
I1025 10:17:24.256500   441 net.cpp:406] Eltwise16 <- Eltwise15_Eltwise15_0_split_1
I1025 10:17:24.256506   441 net.cpp:406] Eltwise16 <- Sigmoid11
I1025 10:17:24.256515   441 net.cpp:380] Eltwise16 -> Eltwise16
I1025 10:17:24.256544   441 net.cpp:122] Setting up Eltwise16
I1025 10:17:24.256554   441 net.cpp:129] Top shape: 128 32 16 16 (1048576)
I1025 10:17:24.256559   441 net.cpp:137] Memory required for data: 651690496
I1025 10:17:24.256564   441 layer_factory.hpp:77] Creating layer Eltwise16_Eltwise16_0_split
I1025 10:17:24.256572   441 net.cpp:84] Creating Layer Eltwise16_Eltwise16_0_split
I1025 10:17:24.256577   441 net.cpp:406] Eltwise16_Eltwise16_0_split <- Eltwise16
I1025 10:17:24.256583   441 net.cpp:380] Eltwise16_Eltwise16_0_split -> Eltwise16_Eltwise16_0_split_0
I1025 10:17:24.256590   441 net.cpp:380] Eltwise16_Eltwise16_0_split -> Eltwise16_Eltwise16_0_split_1
I1025 10:17:24.256630   441 net.cpp:122] Setting up Eltwise16_Eltwise16_0_split
I1025 10:17:24.256639   441 net.cpp:129] Top shape: 128 32 16 16 (1048576)
I1025 10:17:24.256644   441 net.cpp:129] Top shape: 128 32 16 16 (1048576)
I1025 10:17:24.256649   441 net.cpp:137] Memory required for data: 660079104
I1025 10:17:24.256654   441 layer_factory.hpp:77] Creating layer Convolution13
I1025 10:17:24.256667   441 net.cpp:84] Creating Layer Convolution13
I1025 10:17:24.256673   441 net.cpp:406] Convolution13 <- Eltwise16_Eltwise16_0_split_0
I1025 10:17:24.256683   441 net.cpp:380] Convolution13 -> Convolution13
I1025 10:17:24.259292   441 net.cpp:122] Setting up Convolution13
I1025 10:17:24.259312   441 net.cpp:129] Top shape: 128 32 16 16 (1048576)
I1025 10:17:24.259317   441 net.cpp:137] Memory required for data: 664273408
I1025 10:17:24.259326   441 layer_factory.hpp:77] Creating layer BatchNorm13
I1025 10:17:24.259337   441 net.cpp:84] Creating Layer BatchNorm13
I1025 10:17:24.259344   441 net.cpp:406] BatchNorm13 <- Convolution13
I1025 10:17:24.259353   441 net.cpp:367] BatchNorm13 -> Convolution13 (in-place)
I1025 10:17:24.259551   441 net.cpp:122] Setting up BatchNorm13
I1025 10:17:24.259560   441 net.cpp:129] Top shape: 128 32 16 16 (1048576)
I1025 10:17:24.259564   441 net.cpp:137] Memory required for data: 668467712
I1025 10:17:24.259573   441 layer_factory.hpp:77] Creating layer Scale13
I1025 10:17:24.259582   441 net.cpp:84] Creating Layer Scale13
I1025 10:17:24.259587   441 net.cpp:406] Scale13 <- Convolution13
I1025 10:17:24.259595   441 net.cpp:367] Scale13 -> Convolution13 (in-place)
I1025 10:17:24.259632   441 layer_factory.hpp:77] Creating layer Scale13
I1025 10:17:24.259754   441 net.cpp:122] Setting up Scale13
I1025 10:17:24.259764   441 net.cpp:129] Top shape: 128 32 16 16 (1048576)
I1025 10:17:24.259769   441 net.cpp:137] Memory required for data: 672662016
I1025 10:17:24.259776   441 layer_factory.hpp:77] Creating layer Convolution13_Scale13_0_split
I1025 10:17:24.259784   441 net.cpp:84] Creating Layer Convolution13_Scale13_0_split
I1025 10:17:24.259789   441 net.cpp:406] Convolution13_Scale13_0_split <- Convolution13
I1025 10:17:24.259796   441 net.cpp:380] Convolution13_Scale13_0_split -> Convolution13_Scale13_0_split_0
I1025 10:17:24.259804   441 net.cpp:380] Convolution13_Scale13_0_split -> Convolution13_Scale13_0_split_1
I1025 10:17:24.259841   441 net.cpp:122] Setting up Convolution13_Scale13_0_split
I1025 10:17:24.259856   441 net.cpp:129] Top shape: 128 32 16 16 (1048576)
I1025 10:17:24.259871   441 net.cpp:129] Top shape: 128 32 16 16 (1048576)
I1025 10:17:24.259876   441 net.cpp:137] Memory required for data: 681050624
I1025 10:17:24.259879   441 layer_factory.hpp:77] Creating layer Sigmoid12
I1025 10:17:24.259886   441 net.cpp:84] Creating Layer Sigmoid12
I1025 10:17:24.259891   441 net.cpp:406] Sigmoid12 <- Convolution13_Scale13_0_split_0
I1025 10:17:24.259902   441 net.cpp:380] Sigmoid12 -> Sigmoid12
I1025 10:17:24.260108   441 net.cpp:122] Setting up Sigmoid12
I1025 10:17:24.260121   441 net.cpp:129] Top shape: 128 32 16 16 (1048576)
I1025 10:17:24.260126   441 net.cpp:137] Memory required for data: 685244928
I1025 10:17:24.260131   441 layer_factory.hpp:77] Creating layer Eltwise17
I1025 10:17:24.260139   441 net.cpp:84] Creating Layer Eltwise17
I1025 10:17:24.260144   441 net.cpp:406] Eltwise17 <- Convolution13_Scale13_0_split_1
I1025 10:17:24.260150   441 net.cpp:406] Eltwise17 <- Sigmoid12
I1025 10:17:24.260159   441 net.cpp:380] Eltwise17 -> Eltwise17
I1025 10:17:24.260187   441 net.cpp:122] Setting up Eltwise17
I1025 10:17:24.260195   441 net.cpp:129] Top shape: 128 32 16 16 (1048576)
I1025 10:17:24.260200   441 net.cpp:137] Memory required for data: 689439232
I1025 10:17:24.260205   441 layer_factory.hpp:77] Creating layer Convolution14
I1025 10:17:24.260220   441 net.cpp:84] Creating Layer Convolution14
I1025 10:17:24.260224   441 net.cpp:406] Convolution14 <- Eltwise17
I1025 10:17:24.260232   441 net.cpp:380] Convolution14 -> Convolution14
I1025 10:17:24.262779   441 net.cpp:122] Setting up Convolution14
I1025 10:17:24.262797   441 net.cpp:129] Top shape: 128 32 16 16 (1048576)
I1025 10:17:24.262804   441 net.cpp:137] Memory required for data: 693633536
I1025 10:17:24.262811   441 layer_factory.hpp:77] Creating layer BatchNorm14
I1025 10:17:24.262825   441 net.cpp:84] Creating Layer BatchNorm14
I1025 10:17:24.262831   441 net.cpp:406] BatchNorm14 <- Convolution14
I1025 10:17:24.262840   441 net.cpp:367] BatchNorm14 -> Convolution14 (in-place)
I1025 10:17:24.263041   441 net.cpp:122] Setting up BatchNorm14
I1025 10:17:24.263051   441 net.cpp:129] Top shape: 128 32 16 16 (1048576)
I1025 10:17:24.263056   441 net.cpp:137] Memory required for data: 697827840
I1025 10:17:24.263063   441 layer_factory.hpp:77] Creating layer Scale14
I1025 10:17:24.263073   441 net.cpp:84] Creating Layer Scale14
I1025 10:17:24.263079   441 net.cpp:406] Scale14 <- Convolution14
I1025 10:17:24.263085   441 net.cpp:367] Scale14 -> Convolution14 (in-place)
I1025 10:17:24.263123   441 layer_factory.hpp:77] Creating layer Scale14
I1025 10:17:24.263248   441 net.cpp:122] Setting up Scale14
I1025 10:17:24.263257   441 net.cpp:129] Top shape: 128 32 16 16 (1048576)
I1025 10:17:24.263262   441 net.cpp:137] Memory required for data: 702022144
I1025 10:17:24.263269   441 layer_factory.hpp:77] Creating layer Eltwise18
I1025 10:17:24.263278   441 net.cpp:84] Creating Layer Eltwise18
I1025 10:17:24.263283   441 net.cpp:406] Eltwise18 <- Convolution14
I1025 10:17:24.263289   441 net.cpp:406] Eltwise18 <- Eltwise16_Eltwise16_0_split_1
I1025 10:17:24.263298   441 net.cpp:380] Eltwise18 -> Eltwise18
I1025 10:17:24.263321   441 net.cpp:122] Setting up Eltwise18
I1025 10:17:24.263329   441 net.cpp:129] Top shape: 128 32 16 16 (1048576)
I1025 10:17:24.263334   441 net.cpp:137] Memory required for data: 706216448
I1025 10:17:24.263339   441 layer_factory.hpp:77] Creating layer Eltwise18_Eltwise18_0_split
I1025 10:17:24.263348   441 net.cpp:84] Creating Layer Eltwise18_Eltwise18_0_split
I1025 10:17:24.263353   441 net.cpp:406] Eltwise18_Eltwise18_0_split <- Eltwise18
I1025 10:17:24.263360   441 net.cpp:380] Eltwise18_Eltwise18_0_split -> Eltwise18_Eltwise18_0_split_0
I1025 10:17:24.263368   441 net.cpp:380] Eltwise18_Eltwise18_0_split -> Eltwise18_Eltwise18_0_split_1
I1025 10:17:24.263408   441 net.cpp:122] Setting up Eltwise18_Eltwise18_0_split
I1025 10:17:24.263417   441 net.cpp:129] Top shape: 128 32 16 16 (1048576)
I1025 10:17:24.263423   441 net.cpp:129] Top shape: 128 32 16 16 (1048576)
I1025 10:17:24.263432   441 net.cpp:137] Memory required for data: 714605056
I1025 10:17:24.263445   441 layer_factory.hpp:77] Creating layer Sigmoid13
I1025 10:17:24.263453   441 net.cpp:84] Creating Layer Sigmoid13
I1025 10:17:24.263458   441 net.cpp:406] Sigmoid13 <- Eltwise18_Eltwise18_0_split_0
I1025 10:17:24.263464   441 net.cpp:380] Sigmoid13 -> Sigmoid13
I1025 10:17:24.263684   441 net.cpp:122] Setting up Sigmoid13
I1025 10:17:24.263697   441 net.cpp:129] Top shape: 128 32 16 16 (1048576)
I1025 10:17:24.263702   441 net.cpp:137] Memory required for data: 718799360
I1025 10:17:24.263707   441 layer_factory.hpp:77] Creating layer Eltwise19
I1025 10:17:24.263715   441 net.cpp:84] Creating Layer Eltwise19
I1025 10:17:24.263720   441 net.cpp:406] Eltwise19 <- Eltwise18_Eltwise18_0_split_1
I1025 10:17:24.263726   441 net.cpp:406] Eltwise19 <- Sigmoid13
I1025 10:17:24.263734   441 net.cpp:380] Eltwise19 -> Eltwise19
I1025 10:17:24.263763   441 net.cpp:122] Setting up Eltwise19
I1025 10:17:24.263772   441 net.cpp:129] Top shape: 128 32 16 16 (1048576)
I1025 10:17:24.263777   441 net.cpp:137] Memory required for data: 722993664
I1025 10:17:24.263782   441 layer_factory.hpp:77] Creating layer Eltwise19_Eltwise19_0_split
I1025 10:17:24.263790   441 net.cpp:84] Creating Layer Eltwise19_Eltwise19_0_split
I1025 10:17:24.263797   441 net.cpp:406] Eltwise19_Eltwise19_0_split <- Eltwise19
I1025 10:17:24.263803   441 net.cpp:380] Eltwise19_Eltwise19_0_split -> Eltwise19_Eltwise19_0_split_0
I1025 10:17:24.263810   441 net.cpp:380] Eltwise19_Eltwise19_0_split -> Eltwise19_Eltwise19_0_split_1
I1025 10:17:24.263854   441 net.cpp:122] Setting up Eltwise19_Eltwise19_0_split
I1025 10:17:24.263861   441 net.cpp:129] Top shape: 128 32 16 16 (1048576)
I1025 10:17:24.263867   441 net.cpp:129] Top shape: 128 32 16 16 (1048576)
I1025 10:17:24.263871   441 net.cpp:137] Memory required for data: 731382272
I1025 10:17:24.263876   441 layer_factory.hpp:77] Creating layer Convolution15
I1025 10:17:24.263888   441 net.cpp:84] Creating Layer Convolution15
I1025 10:17:24.263895   441 net.cpp:406] Convolution15 <- Eltwise19_Eltwise19_0_split_0
I1025 10:17:24.263905   441 net.cpp:380] Convolution15 -> Convolution15
I1025 10:17:24.267737   441 net.cpp:122] Setting up Convolution15
I1025 10:17:24.267756   441 net.cpp:129] Top shape: 128 64 8 8 (524288)
I1025 10:17:24.267762   441 net.cpp:137] Memory required for data: 733479424
I1025 10:17:24.267771   441 layer_factory.hpp:77] Creating layer BatchNorm15
I1025 10:17:24.267782   441 net.cpp:84] Creating Layer BatchNorm15
I1025 10:17:24.267788   441 net.cpp:406] BatchNorm15 <- Convolution15
I1025 10:17:24.267797   441 net.cpp:367] BatchNorm15 -> Convolution15 (in-place)
I1025 10:17:24.268007   441 net.cpp:122] Setting up BatchNorm15
I1025 10:17:24.268018   441 net.cpp:129] Top shape: 128 64 8 8 (524288)
I1025 10:17:24.268023   441 net.cpp:137] Memory required for data: 735576576
I1025 10:17:24.268030   441 layer_factory.hpp:77] Creating layer Scale15
I1025 10:17:24.268040   441 net.cpp:84] Creating Layer Scale15
I1025 10:17:24.268046   441 net.cpp:406] Scale15 <- Convolution15
I1025 10:17:24.268052   441 net.cpp:367] Scale15 -> Convolution15 (in-place)
I1025 10:17:24.268095   441 layer_factory.hpp:77] Creating layer Scale15
I1025 10:17:24.268219   441 net.cpp:122] Setting up Scale15
I1025 10:17:24.268229   441 net.cpp:129] Top shape: 128 64 8 8 (524288)
I1025 10:17:24.268234   441 net.cpp:137] Memory required for data: 737673728
I1025 10:17:24.268241   441 layer_factory.hpp:77] Creating layer Convolution15_Scale15_0_split
I1025 10:17:24.268250   441 net.cpp:84] Creating Layer Convolution15_Scale15_0_split
I1025 10:17:24.268256   441 net.cpp:406] Convolution15_Scale15_0_split <- Convolution15
I1025 10:17:24.268262   441 net.cpp:380] Convolution15_Scale15_0_split -> Convolution15_Scale15_0_split_0
I1025 10:17:24.268272   441 net.cpp:380] Convolution15_Scale15_0_split -> Convolution15_Scale15_0_split_1
I1025 10:17:24.268311   441 net.cpp:122] Setting up Convolution15_Scale15_0_split
I1025 10:17:24.268324   441 net.cpp:129] Top shape: 128 64 8 8 (524288)
I1025 10:17:24.268339   441 net.cpp:129] Top shape: 128 64 8 8 (524288)
I1025 10:17:24.268344   441 net.cpp:137] Memory required for data: 741868032
I1025 10:17:24.268349   441 layer_factory.hpp:77] Creating layer Sigmoid14
I1025 10:17:24.268357   441 net.cpp:84] Creating Layer Sigmoid14
I1025 10:17:24.268362   441 net.cpp:406] Sigmoid14 <- Convolution15_Scale15_0_split_0
I1025 10:17:24.268369   441 net.cpp:380] Sigmoid14 -> Sigmoid14
I1025 10:17:24.269282   441 net.cpp:122] Setting up Sigmoid14
I1025 10:17:24.269304   441 net.cpp:129] Top shape: 128 64 8 8 (524288)
I1025 10:17:24.269309   441 net.cpp:137] Memory required for data: 743965184
I1025 10:17:24.269315   441 layer_factory.hpp:77] Creating layer Eltwise20
I1025 10:17:24.269323   441 net.cpp:84] Creating Layer Eltwise20
I1025 10:17:24.269328   441 net.cpp:406] Eltwise20 <- Convolution15_Scale15_0_split_1
I1025 10:17:24.269336   441 net.cpp:406] Eltwise20 <- Sigmoid14
I1025 10:17:24.269345   441 net.cpp:380] Eltwise20 -> Eltwise20
I1025 10:17:24.269376   441 net.cpp:122] Setting up Eltwise20
I1025 10:17:24.269385   441 net.cpp:129] Top shape: 128 64 8 8 (524288)
I1025 10:17:24.269389   441 net.cpp:137] Memory required for data: 746062336
I1025 10:17:24.269394   441 layer_factory.hpp:77] Creating layer Convolution16
I1025 10:17:24.269409   441 net.cpp:84] Creating Layer Convolution16
I1025 10:17:24.269414   441 net.cpp:406] Convolution16 <- Eltwise20
I1025 10:17:24.269423   441 net.cpp:380] Convolution16 -> Convolution16
I1025 10:17:24.273747   441 net.cpp:122] Setting up Convolution16
I1025 10:17:24.273766   441 net.cpp:129] Top shape: 128 64 8 8 (524288)
I1025 10:17:24.273772   441 net.cpp:137] Memory required for data: 748159488
I1025 10:17:24.273782   441 layer_factory.hpp:77] Creating layer BatchNorm16
I1025 10:17:24.273793   441 net.cpp:84] Creating Layer BatchNorm16
I1025 10:17:24.273799   441 net.cpp:406] BatchNorm16 <- Convolution16
I1025 10:17:24.273807   441 net.cpp:367] BatchNorm16 -> Convolution16 (in-place)
I1025 10:17:24.274029   441 net.cpp:122] Setting up BatchNorm16
I1025 10:17:24.274039   441 net.cpp:129] Top shape: 128 64 8 8 (524288)
I1025 10:17:24.274044   441 net.cpp:137] Memory required for data: 750256640
I1025 10:17:24.274052   441 layer_factory.hpp:77] Creating layer Scale16
I1025 10:17:24.274061   441 net.cpp:84] Creating Layer Scale16
I1025 10:17:24.274067   441 net.cpp:406] Scale16 <- Convolution16
I1025 10:17:24.274075   441 net.cpp:367] Scale16 -> Convolution16 (in-place)
I1025 10:17:24.274113   441 layer_factory.hpp:77] Creating layer Scale16
I1025 10:17:24.274241   441 net.cpp:122] Setting up Scale16
I1025 10:17:24.274251   441 net.cpp:129] Top shape: 128 64 8 8 (524288)
I1025 10:17:24.274256   441 net.cpp:137] Memory required for data: 752353792
I1025 10:17:24.274263   441 layer_factory.hpp:77] Creating layer Convolution17
I1025 10:17:24.274276   441 net.cpp:84] Creating Layer Convolution17
I1025 10:17:24.274282   441 net.cpp:406] Convolution17 <- Eltwise19_Eltwise19_0_split_1
I1025 10:17:24.274292   441 net.cpp:380] Convolution17 -> Convolution17
I1025 10:17:24.276708   441 net.cpp:122] Setting up Convolution17
I1025 10:17:24.276727   441 net.cpp:129] Top shape: 128 64 8 8 (524288)
I1025 10:17:24.276733   441 net.cpp:137] Memory required for data: 754450944
I1025 10:17:24.276741   441 layer_factory.hpp:77] Creating layer BatchNorm17
I1025 10:17:24.276753   441 net.cpp:84] Creating Layer BatchNorm17
I1025 10:17:24.276759   441 net.cpp:406] BatchNorm17 <- Convolution17
I1025 10:17:24.276767   441 net.cpp:367] BatchNorm17 -> Convolution17 (in-place)
I1025 10:17:24.276985   441 net.cpp:122] Setting up BatchNorm17
I1025 10:17:24.276995   441 net.cpp:129] Top shape: 128 64 8 8 (524288)
I1025 10:17:24.277000   441 net.cpp:137] Memory required for data: 756548096
I1025 10:17:24.277009   441 layer_factory.hpp:77] Creating layer Scale17
I1025 10:17:24.277019   441 net.cpp:84] Creating Layer Scale17
I1025 10:17:24.277024   441 net.cpp:406] Scale17 <- Convolution17
I1025 10:17:24.277036   441 net.cpp:367] Scale17 -> Convolution17 (in-place)
I1025 10:17:24.277086   441 layer_factory.hpp:77] Creating layer Scale17
I1025 10:17:24.277214   441 net.cpp:122] Setting up Scale17
I1025 10:17:24.277223   441 net.cpp:129] Top shape: 128 64 8 8 (524288)
I1025 10:17:24.277227   441 net.cpp:137] Memory required for data: 758645248
I1025 10:17:24.277235   441 layer_factory.hpp:77] Creating layer Eltwise21
I1025 10:17:24.277243   441 net.cpp:84] Creating Layer Eltwise21
I1025 10:17:24.277248   441 net.cpp:406] Eltwise21 <- Convolution16
I1025 10:17:24.277254   441 net.cpp:406] Eltwise21 <- Convolution17
I1025 10:17:24.277264   441 net.cpp:380] Eltwise21 -> Eltwise21
I1025 10:17:24.277287   441 net.cpp:122] Setting up Eltwise21
I1025 10:17:24.277297   441 net.cpp:129] Top shape: 128 64 8 8 (524288)
I1025 10:17:24.277300   441 net.cpp:137] Memory required for data: 760742400
I1025 10:17:24.277305   441 layer_factory.hpp:77] Creating layer Eltwise21_Eltwise21_0_split
I1025 10:17:24.277314   441 net.cpp:84] Creating Layer Eltwise21_Eltwise21_0_split
I1025 10:17:24.277319   441 net.cpp:406] Eltwise21_Eltwise21_0_split <- Eltwise21
I1025 10:17:24.277326   441 net.cpp:380] Eltwise21_Eltwise21_0_split -> Eltwise21_Eltwise21_0_split_0
I1025 10:17:24.277334   441 net.cpp:380] Eltwise21_Eltwise21_0_split -> Eltwise21_Eltwise21_0_split_1
I1025 10:17:24.277374   441 net.cpp:122] Setting up Eltwise21_Eltwise21_0_split
I1025 10:17:24.277382   441 net.cpp:129] Top shape: 128 64 8 8 (524288)
I1025 10:17:24.277389   441 net.cpp:129] Top shape: 128 64 8 8 (524288)
I1025 10:17:24.277392   441 net.cpp:137] Memory required for data: 764936704
I1025 10:17:24.277397   441 layer_factory.hpp:77] Creating layer Sigmoid15
I1025 10:17:24.277403   441 net.cpp:84] Creating Layer Sigmoid15
I1025 10:17:24.277410   441 net.cpp:406] Sigmoid15 <- Eltwise21_Eltwise21_0_split_0
I1025 10:17:24.277417   441 net.cpp:380] Sigmoid15 -> Sigmoid15
I1025 10:17:24.278329   441 net.cpp:122] Setting up Sigmoid15
I1025 10:17:24.278347   441 net.cpp:129] Top shape: 128 64 8 8 (524288)
I1025 10:17:24.278352   441 net.cpp:137] Memory required for data: 767033856
I1025 10:17:24.278357   441 layer_factory.hpp:77] Creating layer Eltwise22
I1025 10:17:24.278365   441 net.cpp:84] Creating Layer Eltwise22
I1025 10:17:24.278370   441 net.cpp:406] Eltwise22 <- Eltwise21_Eltwise21_0_split_1
I1025 10:17:24.278378   441 net.cpp:406] Eltwise22 <- Sigmoid15
I1025 10:17:24.278386   441 net.cpp:380] Eltwise22 -> Eltwise22
I1025 10:17:24.278417   441 net.cpp:122] Setting up Eltwise22
I1025 10:17:24.278429   441 net.cpp:129] Top shape: 128 64 8 8 (524288)
I1025 10:17:24.278434   441 net.cpp:137] Memory required for data: 769131008
I1025 10:17:24.278437   441 layer_factory.hpp:77] Creating layer Eltwise22_Eltwise22_0_split
I1025 10:17:24.278445   441 net.cpp:84] Creating Layer Eltwise22_Eltwise22_0_split
I1025 10:17:24.278450   441 net.cpp:406] Eltwise22_Eltwise22_0_split <- Eltwise22
I1025 10:17:24.278456   441 net.cpp:380] Eltwise22_Eltwise22_0_split -> Eltwise22_Eltwise22_0_split_0
I1025 10:17:24.278465   441 net.cpp:380] Eltwise22_Eltwise22_0_split -> Eltwise22_Eltwise22_0_split_1
I1025 10:17:24.278513   441 net.cpp:122] Setting up Eltwise22_Eltwise22_0_split
I1025 10:17:24.278524   441 net.cpp:129] Top shape: 128 64 8 8 (524288)
I1025 10:17:24.278529   441 net.cpp:129] Top shape: 128 64 8 8 (524288)
I1025 10:17:24.278534   441 net.cpp:137] Memory required for data: 773325312
I1025 10:17:24.278538   441 layer_factory.hpp:77] Creating layer Convolution18
I1025 10:17:24.278553   441 net.cpp:84] Creating Layer Convolution18
I1025 10:17:24.278559   441 net.cpp:406] Convolution18 <- Eltwise22_Eltwise22_0_split_0
I1025 10:17:24.278568   441 net.cpp:380] Convolution18 -> Convolution18
I1025 10:17:24.282029   441 net.cpp:122] Setting up Convolution18
I1025 10:17:24.282047   441 net.cpp:129] Top shape: 128 64 8 8 (524288)
I1025 10:17:24.282053   441 net.cpp:137] Memory required for data: 775422464
I1025 10:17:24.282061   441 layer_factory.hpp:77] Creating layer BatchNorm18
I1025 10:17:24.282081   441 net.cpp:84] Creating Layer BatchNorm18
I1025 10:17:24.282096   441 net.cpp:406] BatchNorm18 <- Convolution18
I1025 10:17:24.282104   441 net.cpp:367] BatchNorm18 -> Convolution18 (in-place)
I1025 10:17:24.282325   441 net.cpp:122] Setting up BatchNorm18
I1025 10:17:24.282335   441 net.cpp:129] Top shape: 128 64 8 8 (524288)
I1025 10:17:24.282341   441 net.cpp:137] Memory required for data: 777519616
I1025 10:17:24.282348   441 layer_factory.hpp:77] Creating layer Scale18
I1025 10:17:24.282356   441 net.cpp:84] Creating Layer Scale18
I1025 10:17:24.282362   441 net.cpp:406] Scale18 <- Convolution18
I1025 10:17:24.282368   441 net.cpp:367] Scale18 -> Convolution18 (in-place)
I1025 10:17:24.282413   441 layer_factory.hpp:77] Creating layer Scale18
I1025 10:17:24.282546   441 net.cpp:122] Setting up Scale18
I1025 10:17:24.282557   441 net.cpp:129] Top shape: 128 64 8 8 (524288)
I1025 10:17:24.282562   441 net.cpp:137] Memory required for data: 779616768
I1025 10:17:24.282569   441 layer_factory.hpp:77] Creating layer Convolution18_Scale18_0_split
I1025 10:17:24.282577   441 net.cpp:84] Creating Layer Convolution18_Scale18_0_split
I1025 10:17:24.282582   441 net.cpp:406] Convolution18_Scale18_0_split <- Convolution18
I1025 10:17:24.282589   441 net.cpp:380] Convolution18_Scale18_0_split -> Convolution18_Scale18_0_split_0
I1025 10:17:24.282598   441 net.cpp:380] Convolution18_Scale18_0_split -> Convolution18_Scale18_0_split_1
I1025 10:17:24.282636   441 net.cpp:122] Setting up Convolution18_Scale18_0_split
I1025 10:17:24.282645   441 net.cpp:129] Top shape: 128 64 8 8 (524288)
I1025 10:17:24.282650   441 net.cpp:129] Top shape: 128 64 8 8 (524288)
I1025 10:17:24.282655   441 net.cpp:137] Memory required for data: 783811072
I1025 10:17:24.282660   441 layer_factory.hpp:77] Creating layer Sigmoid16
I1025 10:17:24.282668   441 net.cpp:84] Creating Layer Sigmoid16
I1025 10:17:24.282673   441 net.cpp:406] Sigmoid16 <- Convolution18_Scale18_0_split_0
I1025 10:17:24.282680   441 net.cpp:380] Sigmoid16 -> Sigmoid16
I1025 10:17:24.282896   441 net.cpp:122] Setting up Sigmoid16
I1025 10:17:24.282909   441 net.cpp:129] Top shape: 128 64 8 8 (524288)
I1025 10:17:24.282914   441 net.cpp:137] Memory required for data: 785908224
I1025 10:17:24.282919   441 layer_factory.hpp:77] Creating layer Eltwise23
I1025 10:17:24.282929   441 net.cpp:84] Creating Layer Eltwise23
I1025 10:17:24.282935   441 net.cpp:406] Eltwise23 <- Convolution18_Scale18_0_split_1
I1025 10:17:24.282943   441 net.cpp:406] Eltwise23 <- Sigmoid16
I1025 10:17:24.282948   441 net.cpp:380] Eltwise23 -> Eltwise23
I1025 10:17:24.282980   441 net.cpp:122] Setting up Eltwise23
I1025 10:17:24.282989   441 net.cpp:129] Top shape: 128 64 8 8 (524288)
I1025 10:17:24.282994   441 net.cpp:137] Memory required for data: 788005376
I1025 10:17:24.282999   441 layer_factory.hpp:77] Creating layer Convolution19
I1025 10:17:24.283011   441 net.cpp:84] Creating Layer Convolution19
I1025 10:17:24.283017   441 net.cpp:406] Convolution19 <- Eltwise23
I1025 10:17:24.283026   441 net.cpp:380] Convolution19 -> Convolution19
I1025 10:17:24.286487   441 net.cpp:122] Setting up Convolution19
I1025 10:17:24.286510   441 net.cpp:129] Top shape: 128 64 8 8 (524288)
I1025 10:17:24.286516   441 net.cpp:137] Memory required for data: 790102528
I1025 10:17:24.286525   441 layer_factory.hpp:77] Creating layer BatchNorm19
I1025 10:17:24.286541   441 net.cpp:84] Creating Layer BatchNorm19
I1025 10:17:24.286547   441 net.cpp:406] BatchNorm19 <- Convolution19
I1025 10:17:24.286554   441 net.cpp:367] BatchNorm19 -> Convolution19 (in-place)
I1025 10:17:24.286774   441 net.cpp:122] Setting up BatchNorm19
I1025 10:17:24.286783   441 net.cpp:129] Top shape: 128 64 8 8 (524288)
I1025 10:17:24.286788   441 net.cpp:137] Memory required for data: 792199680
I1025 10:17:24.286828   441 layer_factory.hpp:77] Creating layer Scale19
I1025 10:17:24.286836   441 net.cpp:84] Creating Layer Scale19
I1025 10:17:24.286842   441 net.cpp:406] Scale19 <- Convolution19
I1025 10:17:24.286849   441 net.cpp:367] Scale19 -> Convolution19 (in-place)
I1025 10:17:24.286900   441 layer_factory.hpp:77] Creating layer Scale19
I1025 10:17:24.287040   441 net.cpp:122] Setting up Scale19
I1025 10:17:24.287050   441 net.cpp:129] Top shape: 128 64 8 8 (524288)
I1025 10:17:24.287055   441 net.cpp:137] Memory required for data: 794296832
I1025 10:17:24.287062   441 layer_factory.hpp:77] Creating layer Eltwise24
I1025 10:17:24.287072   441 net.cpp:84] Creating Layer Eltwise24
I1025 10:17:24.287077   441 net.cpp:406] Eltwise24 <- Convolution19
I1025 10:17:24.287083   441 net.cpp:406] Eltwise24 <- Eltwise22_Eltwise22_0_split_1
I1025 10:17:24.287091   441 net.cpp:380] Eltwise24 -> Eltwise24
I1025 10:17:24.287113   441 net.cpp:122] Setting up Eltwise24
I1025 10:17:24.287122   441 net.cpp:129] Top shape: 128 64 8 8 (524288)
I1025 10:17:24.287127   441 net.cpp:137] Memory required for data: 796393984
I1025 10:17:24.287132   441 layer_factory.hpp:77] Creating layer Eltwise24_Eltwise24_0_split
I1025 10:17:24.287138   441 net.cpp:84] Creating Layer Eltwise24_Eltwise24_0_split
I1025 10:17:24.287142   441 net.cpp:406] Eltwise24_Eltwise24_0_split <- Eltwise24
I1025 10:17:24.287151   441 net.cpp:380] Eltwise24_Eltwise24_0_split -> Eltwise24_Eltwise24_0_split_0
I1025 10:17:24.287160   441 net.cpp:380] Eltwise24_Eltwise24_0_split -> Eltwise24_Eltwise24_0_split_1
I1025 10:17:24.287201   441 net.cpp:122] Setting up Eltwise24_Eltwise24_0_split
I1025 10:17:24.287209   441 net.cpp:129] Top shape: 128 64 8 8 (524288)
I1025 10:17:24.287214   441 net.cpp:129] Top shape: 128 64 8 8 (524288)
I1025 10:17:24.287220   441 net.cpp:137] Memory required for data: 800588288
I1025 10:17:24.287223   441 layer_factory.hpp:77] Creating layer Sigmoid17
I1025 10:17:24.287232   441 net.cpp:84] Creating Layer Sigmoid17
I1025 10:17:24.287237   441 net.cpp:406] Sigmoid17 <- Eltwise24_Eltwise24_0_split_0
I1025 10:17:24.287245   441 net.cpp:380] Sigmoid17 -> Sigmoid17
I1025 10:17:24.288228   441 net.cpp:122] Setting up Sigmoid17
I1025 10:17:24.288244   441 net.cpp:129] Top shape: 128 64 8 8 (524288)
I1025 10:17:24.288250   441 net.cpp:137] Memory required for data: 802685440
I1025 10:17:24.288255   441 layer_factory.hpp:77] Creating layer Eltwise25
I1025 10:17:24.288266   441 net.cpp:84] Creating Layer Eltwise25
I1025 10:17:24.288274   441 net.cpp:406] Eltwise25 <- Eltwise24_Eltwise24_0_split_1
I1025 10:17:24.288280   441 net.cpp:406] Eltwise25 <- Sigmoid17
I1025 10:17:24.288286   441 net.cpp:380] Eltwise25 -> Eltwise25
I1025 10:17:24.288321   441 net.cpp:122] Setting up Eltwise25
I1025 10:17:24.288329   441 net.cpp:129] Top shape: 128 64 8 8 (524288)
I1025 10:17:24.288333   441 net.cpp:137] Memory required for data: 804782592
I1025 10:17:24.288338   441 layer_factory.hpp:77] Creating layer Eltwise25_Eltwise25_0_split
I1025 10:17:24.288345   441 net.cpp:84] Creating Layer Eltwise25_Eltwise25_0_split
I1025 10:17:24.288350   441 net.cpp:406] Eltwise25_Eltwise25_0_split <- Eltwise25
I1025 10:17:24.288359   441 net.cpp:380] Eltwise25_Eltwise25_0_split -> Eltwise25_Eltwise25_0_split_0
I1025 10:17:24.288367   441 net.cpp:380] Eltwise25_Eltwise25_0_split -> Eltwise25_Eltwise25_0_split_1
I1025 10:17:24.288411   441 net.cpp:122] Setting up Eltwise25_Eltwise25_0_split
I1025 10:17:24.288419   441 net.cpp:129] Top shape: 128 64 8 8 (524288)
I1025 10:17:24.288425   441 net.cpp:129] Top shape: 128 64 8 8 (524288)
I1025 10:17:24.288429   441 net.cpp:137] Memory required for data: 808976896
I1025 10:17:24.288434   441 layer_factory.hpp:77] Creating layer Convolution20
I1025 10:17:24.288449   441 net.cpp:84] Creating Layer Convolution20
I1025 10:17:24.288455   441 net.cpp:406] Convolution20 <- Eltwise25_Eltwise25_0_split_0
I1025 10:17:24.288462   441 net.cpp:380] Convolution20 -> Convolution20
I1025 10:17:24.291280   441 net.cpp:122] Setting up Convolution20
I1025 10:17:24.291298   441 net.cpp:129] Top shape: 128 64 8 8 (524288)
I1025 10:17:24.291304   441 net.cpp:137] Memory required for data: 811074048
I1025 10:17:24.291312   441 layer_factory.hpp:77] Creating layer BatchNorm20
I1025 10:17:24.291326   441 net.cpp:84] Creating Layer BatchNorm20
I1025 10:17:24.291338   441 net.cpp:406] BatchNorm20 <- Convolution20
I1025 10:17:24.291357   441 net.cpp:367] BatchNorm20 -> Convolution20 (in-place)
I1025 10:17:24.291579   441 net.cpp:122] Setting up BatchNorm20
I1025 10:17:24.291589   441 net.cpp:129] Top shape: 128 64 8 8 (524288)
I1025 10:17:24.291592   441 net.cpp:137] Memory required for data: 813171200
I1025 10:17:24.291601   441 layer_factory.hpp:77] Creating layer Scale20
I1025 10:17:24.291631   441 net.cpp:84] Creating Layer Scale20
I1025 10:17:24.291637   441 net.cpp:406] Scale20 <- Convolution20
I1025 10:17:24.291645   441 net.cpp:367] Scale20 -> Convolution20 (in-place)
I1025 10:17:24.291688   441 layer_factory.hpp:77] Creating layer Scale20
I1025 10:17:24.291821   441 net.cpp:122] Setting up Scale20
I1025 10:17:24.291829   441 net.cpp:129] Top shape: 128 64 8 8 (524288)
I1025 10:17:24.291834   441 net.cpp:137] Memory required for data: 815268352
I1025 10:17:24.291842   441 layer_factory.hpp:77] Creating layer Convolution20_Scale20_0_split
I1025 10:17:24.291849   441 net.cpp:84] Creating Layer Convolution20_Scale20_0_split
I1025 10:17:24.291854   441 net.cpp:406] Convolution20_Scale20_0_split <- Convolution20
I1025 10:17:24.291862   441 net.cpp:380] Convolution20_Scale20_0_split -> Convolution20_Scale20_0_split_0
I1025 10:17:24.291872   441 net.cpp:380] Convolution20_Scale20_0_split -> Convolution20_Scale20_0_split_1
I1025 10:17:24.291908   441 net.cpp:122] Setting up Convolution20_Scale20_0_split
I1025 10:17:24.291916   441 net.cpp:129] Top shape: 128 64 8 8 (524288)
I1025 10:17:24.291921   441 net.cpp:129] Top shape: 128 64 8 8 (524288)
I1025 10:17:24.291925   441 net.cpp:137] Memory required for data: 819462656
I1025 10:17:24.291930   441 layer_factory.hpp:77] Creating layer Sigmoid18
I1025 10:17:24.291940   441 net.cpp:84] Creating Layer Sigmoid18
I1025 10:17:24.291945   441 net.cpp:406] Sigmoid18 <- Convolution20_Scale20_0_split_0
I1025 10:17:24.291952   441 net.cpp:380] Sigmoid18 -> Sigmoid18
I1025 10:17:24.292871   441 net.cpp:122] Setting up Sigmoid18
I1025 10:17:24.292888   441 net.cpp:129] Top shape: 128 64 8 8 (524288)
I1025 10:17:24.292893   441 net.cpp:137] Memory required for data: 821559808
I1025 10:17:24.292898   441 layer_factory.hpp:77] Creating layer Eltwise26
I1025 10:17:24.292908   441 net.cpp:84] Creating Layer Eltwise26
I1025 10:17:24.292914   441 net.cpp:406] Eltwise26 <- Convolution20_Scale20_0_split_1
I1025 10:17:24.292922   441 net.cpp:406] Eltwise26 <- Sigmoid18
I1025 10:17:24.292928   441 net.cpp:380] Eltwise26 -> Eltwise26
I1025 10:17:24.292963   441 net.cpp:122] Setting up Eltwise26
I1025 10:17:24.292971   441 net.cpp:129] Top shape: 128 64 8 8 (524288)
I1025 10:17:24.292976   441 net.cpp:137] Memory required for data: 823656960
I1025 10:17:24.292981   441 layer_factory.hpp:77] Creating layer Convolution21
I1025 10:17:24.292994   441 net.cpp:84] Creating Layer Convolution21
I1025 10:17:24.292999   441 net.cpp:406] Convolution21 <- Eltwise26
I1025 10:17:24.293009   441 net.cpp:380] Convolution21 -> Convolution21
I1025 10:17:24.296685   441 net.cpp:122] Setting up Convolution21
I1025 10:17:24.296705   441 net.cpp:129] Top shape: 128 64 8 8 (524288)
I1025 10:17:24.296710   441 net.cpp:137] Memory required for data: 825754112
I1025 10:17:24.296718   441 layer_factory.hpp:77] Creating layer BatchNorm21
I1025 10:17:24.296730   441 net.cpp:84] Creating Layer BatchNorm21
I1025 10:17:24.296736   441 net.cpp:406] BatchNorm21 <- Convolution21
I1025 10:17:24.296743   441 net.cpp:367] BatchNorm21 -> Convolution21 (in-place)
I1025 10:17:24.296965   441 net.cpp:122] Setting up BatchNorm21
I1025 10:17:24.296975   441 net.cpp:129] Top shape: 128 64 8 8 (524288)
I1025 10:17:24.296979   441 net.cpp:137] Memory required for data: 827851264
I1025 10:17:24.296988   441 layer_factory.hpp:77] Creating layer Scale21
I1025 10:17:24.296996   441 net.cpp:84] Creating Layer Scale21
I1025 10:17:24.297001   441 net.cpp:406] Scale21 <- Convolution21
I1025 10:17:24.297008   441 net.cpp:367] Scale21 -> Convolution21 (in-place)
I1025 10:17:24.297058   441 layer_factory.hpp:77] Creating layer Scale21
I1025 10:17:24.297199   441 net.cpp:122] Setting up Scale21
I1025 10:17:24.297209   441 net.cpp:129] Top shape: 128 64 8 8 (524288)
I1025 10:17:24.297214   441 net.cpp:137] Memory required for data: 829948416
I1025 10:17:24.297220   441 layer_factory.hpp:77] Creating layer Eltwise27
I1025 10:17:24.297228   441 net.cpp:84] Creating Layer Eltwise27
I1025 10:17:24.297233   441 net.cpp:406] Eltwise27 <- Convolution21
I1025 10:17:24.297240   441 net.cpp:406] Eltwise27 <- Eltwise25_Eltwise25_0_split_1
I1025 10:17:24.297248   441 net.cpp:380] Eltwise27 -> Eltwise27
I1025 10:17:24.297272   441 net.cpp:122] Setting up Eltwise27
I1025 10:17:24.297281   441 net.cpp:129] Top shape: 128 64 8 8 (524288)
I1025 10:17:24.297286   441 net.cpp:137] Memory required for data: 832045568
I1025 10:17:24.297289   441 layer_factory.hpp:77] Creating layer Eltwise27_Eltwise27_0_split
I1025 10:17:24.297299   441 net.cpp:84] Creating Layer Eltwise27_Eltwise27_0_split
I1025 10:17:24.297304   441 net.cpp:406] Eltwise27_Eltwise27_0_split <- Eltwise27
I1025 10:17:24.297312   441 net.cpp:380] Eltwise27_Eltwise27_0_split -> Eltwise27_Eltwise27_0_split_0
I1025 10:17:24.297319   441 net.cpp:380] Eltwise27_Eltwise27_0_split -> Eltwise27_Eltwise27_0_split_1
I1025 10:17:24.297361   441 net.cpp:122] Setting up Eltwise27_Eltwise27_0_split
I1025 10:17:24.297370   441 net.cpp:129] Top shape: 128 64 8 8 (524288)
I1025 10:17:24.297375   441 net.cpp:129] Top shape: 128 64 8 8 (524288)
I1025 10:17:24.297380   441 net.cpp:137] Memory required for data: 836239872
I1025 10:17:24.297384   441 layer_factory.hpp:77] Creating layer Sigmoid19
I1025 10:17:24.297391   441 net.cpp:84] Creating Layer Sigmoid19
I1025 10:17:24.297396   441 net.cpp:406] Sigmoid19 <- Eltwise27_Eltwise27_0_split_0
I1025 10:17:24.297402   441 net.cpp:380] Sigmoid19 -> Sigmoid19
I1025 10:17:24.297618   441 net.cpp:122] Setting up Sigmoid19
I1025 10:17:24.297631   441 net.cpp:129] Top shape: 128 64 8 8 (524288)
I1025 10:17:24.297636   441 net.cpp:137] Memory required for data: 838337024
I1025 10:17:24.297641   441 layer_factory.hpp:77] Creating layer Eltwise28
I1025 10:17:24.297648   441 net.cpp:84] Creating Layer Eltwise28
I1025 10:17:24.297654   441 net.cpp:406] Eltwise28 <- Eltwise27_Eltwise27_0_split_1
I1025 10:17:24.297660   441 net.cpp:406] Eltwise28 <- Sigmoid19
I1025 10:17:24.297668   441 net.cpp:380] Eltwise28 -> Eltwise28
I1025 10:17:24.297700   441 net.cpp:122] Setting up Eltwise28
I1025 10:17:24.297709   441 net.cpp:129] Top shape: 128 64 8 8 (524288)
I1025 10:17:24.297713   441 net.cpp:137] Memory required for data: 840434176
I1025 10:17:24.297719   441 layer_factory.hpp:77] Creating layer Pooling1
I1025 10:17:24.297729   441 net.cpp:84] Creating Layer Pooling1
I1025 10:17:24.297734   441 net.cpp:406] Pooling1 <- Eltwise28
I1025 10:17:24.297740   441 net.cpp:380] Pooling1 -> Pooling1
I1025 10:17:24.298910   441 net.cpp:122] Setting up Pooling1
I1025 10:17:24.298929   441 net.cpp:129] Top shape: 128 64 1 1 (8192)
I1025 10:17:24.298934   441 net.cpp:137] Memory required for data: 840466944
I1025 10:17:24.298940   441 layer_factory.hpp:77] Creating layer InnerProduct1
I1025 10:17:24.298950   441 net.cpp:84] Creating Layer InnerProduct1
I1025 10:17:24.298956   441 net.cpp:406] InnerProduct1 <- Pooling1
I1025 10:17:24.298966   441 net.cpp:380] InnerProduct1 -> InnerProduct1
I1025 10:17:24.299134   441 net.cpp:122] Setting up InnerProduct1
I1025 10:17:24.299144   441 net.cpp:129] Top shape: 128 10 (1280)
I1025 10:17:24.299149   441 net.cpp:137] Memory required for data: 840472064
I1025 10:17:24.299157   441 layer_factory.hpp:77] Creating layer Accuracy1
I1025 10:17:24.299167   441 net.cpp:84] Creating Layer Accuracy1
I1025 10:17:24.299172   441 net.cpp:406] Accuracy1 <- InnerProduct1
I1025 10:17:24.299180   441 net.cpp:406] Accuracy1 <- Data2
I1025 10:17:24.299187   441 net.cpp:380] Accuracy1 -> Accuracy1
…
