…
I1025 10:12:53.951659 40636 upgrade_proto.cpp:80] Successfully upgraded batch norm layers using deprecated params.
I1025 10:12:53.953086 40636 net.cpp:51] Initializing net from parameters: 
state {
  phase: TEST
  level: 0
  stage: ""
}
layer {
  name: "Data1"
  type: "Data"
  top: "Data1"
  top: "Data2"
  transform_param {
    crop_size: 32
    mean_value: 125.306915
    mean_value: 122.950394
    mean_value: 113.865387
  }
  data_param {
    source: "/data/hjy1312/data/RESNET/cifar-10/cifar10_test_lmdb"
    batch_size: 128
    backend: LMDB
  }
}
layer {
  name: "Convolution1"
  type: "Convolution"
  bottom: "Data1"
  top: "Convolution1"
  param {
    lr_mult: 1
    decay_mult: 1
  }
  param {
    lr_mult: 2
    decay_mult: 0
  }
  convolution_param {
    num_output: 16
    bias_term: true
    pad: 1
    kernel_size: 3
    stride: 1
    weight_filler {
      type: "msra"
    }
    bias_filler {
      type: "constant"
    }
  }
}
layer {
  name: "BatchNorm1"
  type: "BatchNorm"
  bottom: "Convolution1"
  top: "Convolution1"
  param {
    lr_mult: 0
    decay_mult: 0
  }
  param {
    lr_mult: 0
    decay_mult: 0
  }
  param {
    lr_mult: 0
    decay_mult: 0
  }
  batch_norm_param {
    use_global_stats: true
  }
}
layer {
  name: "Scale1"
  type: "Scale"
  bottom: "Convolution1"
  top: "Convolution1"
  scale_param {
    bias_term: true
  }
}
layer {
  name: "Sigmoid1"
  type: "Sigmoid"
  bottom: "Convolution1"
  top: "Sigmoid1"
}
layer {
  name: "Eltwise1"
  type: "Eltwise"
  bottom: "Convolution1"
  bottom: "Sigmoid1"
  top: "Eltwise1"
  eltwise_param {
    operation: PROD
  }
}
layer {
  name: "Convolution2"
  type: "Convolution"
  bottom: "Eltwise1"
  top: "Convolution2"
  param {
    lr_mult: 1
    decay_mult: 1
  }
  param {
    lr_mult: 2
    decay_mult: 0
  }
  convolution_param {
    num_output: 16
    bias_term: true
    pad: 1
    kernel_size: 3
    stride: 1
    weight_filler {
      type: "msra"
    }
    bias_filler {
      type: "constant"
    }
  }
}
layer {
  name: "BatchNorm2"
  type: "BatchNorm"
  bottom: "Convolution2"
  top: "Convolution2"
  param {
    lr_mult: 0
    decay_mult: 0
  }
  param {
    lr_mult: 0
    decay_mult: 0
  }
  param {
    lr_mult: 0
    decay_mult: 0
  }
  batch_norm_param {
    use_global_stats: true
  }
}
layer {
  name: "Scale2"
  type: "Scale"
  bottom: "Convolution2"
  top: "Convolution2"
  scale_param {
    bias_term: true
  }
}
layer {
  name: "Sigmoid2"
  type: "Sigmoid"
  bottom: "Convolution2"
  top: "Sigmoid2"
}
layer {
  name: "Eltwise2"
  type: "Eltwise"
  bottom: "Convolution2"
  bottom: "Sigmoid2"
  top: "Eltwise2"
  eltwise_param {
    operation: PROD
  }
}
layer {
  name: "Convolution3"
  type: "Convolution"
  bottom: "Eltwise2"
  top: "Convolution3"
  param {
    lr_mult: 1
    decay_mult: 1
  }
  param {
    lr_mult: 2
    decay_mult: 0
  }
  convolution_param {
    num_output: 16
    bias_term: true
    pad: 1
    kernel_size: 3
    stride: 1
    weight_filler {
      type: "msra"
    }
    bias_filler {
      type: "constant"
    }
  }
}
layer {
  name: "BatchNorm3"
  type: "BatchNorm"
  bottom: "Convolution3"
  top: "Convolution3"
  param {
    lr_mult: 0
    decay_mult: 0
  }
  param {
    lr_mult: 0
    decay_mult: 0
  }
  param {
    lr_mult: 0
    decay_mult: 0
  }
  batch_norm_param {
    use_global_stats: true
  }
}
layer {
  name: "Scale3"
  type: "Scale"
  bottom: "Convolution3"
  top: "Convolution3"
  scale_param {
    bias_term: true
  }
}
layer {
  name: "Eltwise3"
  type: "Eltwise"
  bottom: "Convolution3"
  bottom: "Eltwise1"
  top: "Eltwise3"
  eltwise_param {
    operation: SUM
  }
}
layer {
  name: "Sigmoid3"
  type: "Sigmoid"
  bottom: "Eltwise3"
  top: "Sigmoid3"
}
layer {
  name: "Eltwise4"
  type: "Eltwise"
  bottom: "Eltwise3"
  bottom: "Sigmoid3"
  top: "Eltwise4"
  eltwise_param {
    operation: PROD
  }
}
layer {
  name: "Convolution4"
  type: "Convolution"
  bottom: "Eltwise4"
  top: "Convolution4"
  param {
    lr_mult: 1
    decay_mult: 1
  }
  param {
    lr_mult: 2
    decay_mult: 0
  }
  convolution_param {
    num_output: 16
    bias_term: true
    pad: 1
    kernel_size: 3
    stride: 1
    weight_filler {
      type: "msra"
    }
    bias_filler {
      type: "constant"
    }
  }
}
layer {
  name: "BatchNorm4"
  type: "BatchNorm"
  bottom: "Convolution4"
  top: "Convolution4"
  param {
    lr_mult: 0
    decay_mult: 0
  }
  param {
    lr_mult: 0
    decay_mult: 0
  }
  param {
    lr_mult: 0
    decay_mult: 0
  }
  batch_norm_param {
    use_global_stats: true
  }
}
layer {
  name: "Scale4"
  type: "Scale"
  bottom: "Convolution4"
  top: "Convolution4"
  scale_param {
    bias_term: true
  }
}
layer {
  name: "Sigmoid4"
  type: "Sigmoid"
  bottom: "Convolution4"
  top: "Sigmoid4"
}
layer {
  name: "Eltwise5"
  type: "Eltwise"
  bottom: "Convolution4"
  bottom: "Sigmoid4"
  top: "Eltwise5"
  eltwise_param {
    operation: PROD
  }
}
layer {
  name: "Convolution5"
  type: "Convolution"
  bottom: "Eltwise5"
  top: "Convolution5"
  param {
    lr_mult: 1
    decay_mult: 1
  }
  param {
    lr_mult: 2
    decay_mult: 0
  }
  convolution_param {
    num_output: 16
    bias_term: true
    pad: 1
    kernel_size: 3
    stride: 1
    weight_filler {
      type: "msra"
    }
    bias_filler {
      type: "constant"
    }
  }
}
layer {
  name: "BatchNorm5"
  type: "BatchNorm"
  bottom: "Convolution5"
  top: "Convolution5"
  param {
    lr_mult: 0
    decay_mult: 0
  }
  param {
    lr_mult: 0
    decay_mult: 0
  }
  param {
    lr_mult: 0
    decay_mult: 0
  }
  batch_norm_param {
    use_global_stats: true
  }
}
layer {
  name: "Scale5"
  type: "Scale"
  bottom: "Convolution5"
  top: "Convolution5"
  scale_param {
    bias_term: true
  }
}
layer {
  name: "Eltwise6"
  type: "Eltwise"
  bottom: "Convolution5"
  bottom: "Eltwise4"
  top: "Eltwise6"
  eltwise_param {
    operation: SUM
  }
}
layer {
  name: "Sigmoid5"
  type: "Sigmoid"
  bottom: "Eltwise6"
  top: "Sigmoid5"
}
layer {
  name: "Eltwise7"
  type: "Eltwise"
  bottom: "Eltwise6"
  bottom: "Sigmoid5"
  top: "Eltwise7"
  eltwise_param {
    operation: PROD
  }
}
layer {
  name: "Convolution6"
  type: "Convolution"
  bottom: "Eltwise7"
  top: "Convolution6"
  param {
    lr_mult: 1
    decay_mult: 1
  }
  param {
    lr_mult: 2
    decay_mult: 0
  }
  convolution_param {
    num_output: 16
    bias_term: true
    pad: 1
    kernel_size: 3
    stride: 1
    weight_filler {
      type: "msra"
    }
    bias_filler {
      type: "constant"
    }
  }
}
layer {
  name: "BatchNorm6"
  type: "BatchNorm"
  bottom: "Convolution6"
  top: "Convolution6"
  param {
    lr_mult: 0
    decay_mult: 0
  }
  param {
    lr_mult: 0
    decay_mult: 0
  }
  param {
    lr_mult: 0
    decay_mult: 0
  }
  batch_norm_param {
    use_global_stats: true
  }
}
layer {
  name: "Scale6"
  type: "Scale"
  bottom: "Convolution6"
  top: "Convolution6"
  scale_param {
    bias_term: true
  }
}
layer {
  name: "Sigmoid6"
  type: "Sigmoid"
  bottom: "Convolution6"
  top: "Sigmoid6"
}
layer {
  name: "Eltwise8"
  type: "Eltwise"
  bottom: "Convolution6"
  bottom: "Sigmoid6"
  top: "Eltwise8"
  eltwise_param {
    operation: PROD
  }
}
layer {
  name: "Convolution7"
  type: "Convolution"
  bottom: "Eltwise8"
  top: "Convolution7"
  param {
    lr_mult: 1
    decay_mult: 1
  }
  param {
    lr_mult: 2
    decay_mult: 0
  }
  convolution_param {
    num_output: 16
    bias_term: true
    pad: 1
    kernel_size: 3
    stride: 1
    weight_filler {
      type: "msra"
    }
    bias_filler {
      type: "constant"
    }
  }
}
layer {
  name: "BatchNorm7"
  type: "BatchNorm"
  bottom: "Convolution7"
  top: "Convolution7"
  param {
    lr_mult: 0
    decay_mult: 0
  }
  param {
    lr_mult: 0
    decay_mult: 0
  }
  param {
    lr_mult: 0
    decay_mult: 0
  }
  batch_norm_param {
    use_global_stats: true
  }
}
layer {
  name: "Scale7"
  type: "Scale"
  bottom: "Convolution7"
  top: "Convolution7"
  scale_param {
    bias_term: true
  }
}
layer {
  name: "Eltwise9"
  type: "Eltwise"
  bottom: "Convolution7"
  bottom: "Eltwise7"
  top: "Eltwise9"
  eltwise_param {
    operation: SUM
  }
}
layer {
  name: "Sigmoid7"
  type: "Sigmoid"
  bottom: "Eltwise9"
  top: "Sigmoid7"
}
layer {
  name: "Eltwise10"
  type: "Eltwise"
  bottom: "Eltwise9"
  bottom: "Sigmoid7"
  top: "Eltwise10"
  eltwise_param {
    operation: PROD
  }
}
layer {
  name: "Convolution8"
  type: "Convolution"
  bottom: "Eltwise10"
  top: "Convolution8"
  param {
    lr_mult: 1
    decay_mult: 1
  }
  param {
    lr_mult: 2
    decay_mult: 0
  }
  convolution_param {
    num_output: 32
    bias_term: true
    pad: 1
    kernel_size: 3
    stride: 2
    weight_filler {
      type: "msra"
    }
    bias_filler {
      type: "constant"
    }
  }
}
layer {
  name: "BatchNorm8"
  type: "BatchNorm"
  bottom: "Convolution8"
  top: "Convolution8"
  param {
    lr_mult: 0
    decay_mult: 0
  }
  param {
    lr_mult: 0
    decay_mult: 0
  }
  param {
    lr_mult: 0
    decay_mult: 0
  }
  batch_norm_param {
    use_global_stats: true
  }
}
layer {
  name: "Scale8"
  type: "Scale"
  bottom: "Convolution8"
  top: "Convolution8"
  scale_param {
    bias_term: true
  }
}
layer {
  name: "Sigmoid8"
  type: "Sigmoid"
  bottom: "Convolution8"
  top: "Sigmoid8"
}
layer {
  name: "Eltwise11"
  type: "Eltwise"
  bottom: "Convolution8"
  bottom: "Sigmoid8"
  top: "Eltwise11"
  eltwise_param {
    operation: PROD
  }
}
layer {
  name: "Convolution9"
  type: "Convolution"
  bottom: "Eltwise11"
  top: "Convolution9"
  param {
    lr_mult: 1
    decay_mult: 1
  }
  param {
    lr_mult: 2
    decay_mult: 0
  }
  convolution_param {
    num_output: 32
    bias_term: true
    pad: 1
    kernel_size: 3
    stride: 1
    weight_filler {
      type: "msra"
    }
    bias_filler {
      type: "constant"
    }
  }
}
layer {
  name: "BatchNorm9"
  type: "BatchNorm"
  bottom: "Convolution9"
  top: "Convolution9"
  param {
    lr_mult: 0
    decay_mult: 0
  }
  param {
    lr_mult: 0
    decay_mult: 0
  }
  param {
    lr_mult: 0
    decay_mult: 0
  }
  batch_norm_param {
    use_global_stats: true
  }
}
layer {
  name: "Scale9"
  type: "Scale"
  bottom: "Convolution9"
  top: "Convolution9"
  scale_param {
    bias_term: true
  }
}
layer {
  name: "Convolution10"
  type: "Convolution"
  bottom: "Eltwise10"
  top: "Convolution10"
  param {
    lr_mult: 1
    decay_mult: 1
  }
  param {
    lr_mult: 2
    decay_mult: 0
  }
  convolution_param {
    num_output: 32
    bias_term: true
    pad: 0
    kernel_size: 1
    stride: 2
    weight_filler {
      type: "msra"
    }
    bias_filler {
      type: "constant"
    }
  }
}
layer {
  name: "BatchNorm10"
  type: "BatchNorm"
  bottom: "Convolution10"
  top: "Convolution10"
  param {
    lr_mult: 0
    decay_mult: 0
  }
  param {
    lr_mult: 0
    decay_mult: 0
  }
  param {
    lr_mult: 0
    decay_mult: 0
  }
  batch_norm_param {
    use_global_stats: true
  }
}
layer {
  name: "Scale10"
  type: "Scale"
  bottom: "Convolution10"
  top: "Convolution10"
  scale_param {
    bias_term: true
  }
}
layer {
  name: "Eltwise12"
  type: "Eltwise"
  bottom: "Convolution9"
  bottom: "Convolution10"
  top: "Eltwise12"
  eltwise_param {
    operation: SUM
  }
}
layer {
  name: "Sigmoid9"
  type: "Sigmoid"
  bottom: "Eltwise12"
  top: "Sigmoid9"
}
layer {
  name: "Eltwise13"
  type: "Eltwise"
  bottom: "Eltwise12"
  bottom: "Sigmoid9"
  top: "Eltwise13"
  eltwise_param {
    operation: PROD
  }
}
layer {
  name: "Convolution11"
  type: "Convolution"
  bottom: "Eltwise13"
  top: "Convolution11"
  param {
    lr_mult: 1
    decay_mult: 1
  }
  param {
    lr_mult: 2
    decay_mult: 0
  }
  convolution_param {
    num_output: 32
    bias_term: true
    pad: 1
    kernel_size: 3
    stride: 1
    weight_filler {
      type: "msra"
    }
    bias_filler {
      type: "constant"
    }
  }
}
layer {
  name: "BatchNorm11"
  type: "BatchNorm"
  bottom: "Convolution11"
  top: "Convolution11"
  param {
    lr_mult: 0
    decay_mult: 0
  }
  param {
    lr_mult: 0
    decay_mult: 0
  }
  param {
    lr_mult: 0
    decay_mult: 0
  }
  batch_norm_param {
    use_global_stats: true
  }
}
layer {
  name: "Scale11"
  type: "Scale"
  bottom: "Convolution11"
  top: "Convolution11"
  scale_param {
    bias_term: true
  }
}
layer {
  name: "Sigmoid10"
  type: "Sigmoid"
  bottom: "Convolution11"
  top: "Sigmoid10"
}
layer {
  name: "Eltwise14"
  type: "Eltwise"
  bottom: "Convolution11"
  bottom: "Sigmoid10"
  top: "Eltwise14"
  eltwise_param {
    operation: PROD
  }
}
layer {
  name: "Convolution12"
  type: "Convolution"
  bottom: "Eltwise14"
  top: "Convolution12"
  param {
    lr_mult: 1
    decay_mult: 1
  }
  param {
    lr_mult: 2
    decay_mult: 0
  }
  convolution_param {
    num_output: 32
    bias_term: true
    pad: 1
    kernel_size: 3
    stride: 1
    weight_filler {
      type: "msra"
    }
    bias_filler {
      type: "constant"
    }
  }
}
layer {
  name: "BatchNorm12"
  type: "BatchNorm"
  bottom: "Convolution12"
  top: "Convolution12"
  param {
    lr_mult: 0
    decay_mult: 0
  }
  param {
    lr_mult: 0
    decay_mult: 0
  }
  param {
    lr_mult: 0
    decay_mult: 0
  }
  batch_norm_param {
    use_global_stats: true
  }
}
layer {
  name: "Scale12"
  type: "Scale"
  bottom: "Convolution12"
  top: "Convolution12"
  scale_param {
    bias_term: true
  }
}
layer {
  name: "Eltwise15"
  type: "Eltwise"
  bottom: "Convolution12"
  bottom: "Eltwise13"
  top: "Eltwise15"
  eltwise_param {
    operation: SUM
  }
}
layer {
  name: "Sigmoid11"
  type: "Sigmoid"
  bottom: "Eltwise15"
  top: "Sigmoid11"
}
layer {
  name: "Eltwise16"
  type: "Eltwise"
  bottom: "Eltwise15"
  bottom: "Sigmoid11"
  top: "Eltwise16"
  eltwise_param {
    operation: PROD
  }
}
layer {
  name: "Convolution13"
  type: "Convolution"
  bottom: "Eltwise16"
  top: "Convolution13"
  param {
    lr_mult: 1
    decay_mult: 1
  }
  param {
    lr_mult: 2
    decay_mult: 0
  }
  convolution_param {
    num_output: 32
    bias_term: true
    pad: 1
    kernel_size: 3
    stride: 1
    weight_filler {
      type: "msra"
    }
    bias_filler {
      type: "constant"
    }
  }
}
layer {
  name: "BatchNorm13"
  type: "BatchNorm"
  bottom: "Convolution13"
  top: "Convolution13"
  param {
    lr_mult: 0
    decay_mult: 0
  }
  param {
    lr_mult: 0
    decay_mult: 0
  }
  param {
    lr_mult: 0
    decay_mult: 0
  }
  batch_norm_param {
    use_global_stats: true
  }
}
layer {
  name: "Scale13"
  type: "Scale"
  bottom: "Convolution13"
  top: "Convolution13"
  scale_param {
    bias_term: true
  }
}
layer {
  name: "Sigmoid12"
  type: "Sigmoid"
  bottom: "Convolution13"
  top: "Sigmoid12"
}
layer {
  name: "Eltwise17"
  type: "Eltwise"
  bottom: "Convolution13"
  bottom: "Sigmoid12"
  top: "Eltwise17"
  eltwise_param {
    operation: PROD
  }
}
layer {
  name: "Convolution14"
  type: "Convolution"
  bottom: "Eltwise17"
  top: "Convolution14"
  param {
    lr_mult: 1
    decay_mult: 1
  }
  param {
    lr_mult: 2
    decay_mult: 0
  }
  convolution_param {
    num_output: 32
    bias_term: true
    pad: 1
    kernel_size: 3
    stride: 1
    weight_filler {
      type: "msra"
    }
    bias_filler {
      type: "constant"
    }
  }
}
layer {
  name: "BatchNorm14"
  type: "BatchNorm"
  bottom: "Convolution14"
  top: "Convolution14"
  param {
    lr_mult: 0
    decay_mult: 0
  }
  param {
    lr_mult: 0
    decay_mult: 0
  }
  param {
    lr_mult: 0
    decay_mult: 0
  }
  batch_norm_param {
    use_global_stats: true
  }
}
layer {
  name: "Scale14"
  type: "Scale"
  bottom: "Convolution14"
  top: "Convolution14"
  scale_param {
    bias_term: true
  }
}
layer {
  name: "Eltwise18"
  type: "Eltwise"
  bottom: "Convolution14"
  bottom: "Eltwise16"
  top: "Eltwise18"
  eltwise_param {
    operation: SUM
  }
}
layer {
  name: "Sigmoid13"
  type: "Sigmoid"
  bottom: "Eltwise18"
  top: "Sigmoid13"
}
layer {
  name: "Eltwise19"
  type: "Eltwise"
  bottom: "Eltwise18"
  bottom: "Sigmoid13"
  top: "Eltwise19"
  eltwise_param {
    operation: PROD
  }
}
layer {
  name: "Convolution15"
  type: "Convolution"
  bottom: "Eltwise19"
  top: "Convolution15"
  param {
    lr_mult: 1
    decay_mult: 1
  }
  param {
    lr_mult: 2
    decay_mult: 0
  }
  convolution_param {
    num_output: 64
    bias_term: true
    pad: 1
    kernel_size: 3
    stride: 2
    weight_filler {
      type: "msra"
    }
    bias_filler {
      type: "constant"
    }
  }
}
layer {
  name: "BatchNorm15"
  type: "BatchNorm"
  bottom: "Convolution15"
  top: "Convolution15"
  param {
    lr_mult: 0
    decay_mult: 0
  }
  param {
    lr_mult: 0
    decay_mult: 0
  }
  param {
    lr_mult: 0
    decay_mult: 0
  }
  batch_norm_param {
    use_global_stats: true
  }
}
layer {
  name: "Scale15"
  type: "Scale"
  bottom: "Convolution15"
  top: "Convolution15"
  scale_param {
    bias_term: true
  }
}
layer {
  name: "Sigmoid14"
  type: "Sigmoid"
  bottom: "Convolution15"
  top: "Sigmoid14"
}
layer {
  name: "Eltwise20"
  type: "Eltwise"
  bottom: "Convolution15"
  bottom: "Sigmoid14"
  top: "Eltwise20"
  eltwise_param {
    operation: PROD
  }
}
layer {
  name: "Convolution16"
  type: "Convolution"
  bottom: "Eltwise20"
  top: "Convolution16"
  param {
    lr_mult: 1
    decay_mult: 1
  }
  param {
    lr_mult: 2
    decay_mult: 0
  }
  convolution_param {
    num_output: 64
    bias_term: true
    pad: 1
    kernel_size: 3
    stride: 1
    weight_filler {
      type: "msra"
    }
    bias_filler {
      type: "constant"
    }
  }
}
layer {
  name: "BatchNorm16"
  type: "BatchNorm"
  bottom: "Convolution16"
  top: "Convolution16"
  param {
    lr_mult: 0
    decay_mult: 0
  }
  param {
    lr_mult: 0
    decay_mult: 0
  }
  param {
    lr_mult: 0
    decay_mult: 0
  }
  batch_norm_param {
    use_global_stats: true
  }
}
layer {
  name: "Scale16"
  type: "Scale"
  bottom: "Convolution16"
  top: "Convolution16"
  scale_param {
    bias_term: true
  }
}
layer {
  name: "Convolution17"
  type: "Convolution"
  bottom: "Eltwise19"
  top: "Convolution17"
  param {
    lr_mult: 1
    decay_mult: 1
  }
  param {
    lr_mult: 2
    decay_mult: 0
  }
  convolution_param {
    num_output: 64
    bias_term: true
    pad: 0
    kernel_size: 1
    stride: 2
    weight_filler {
      type: "msra"
    }
    bias_filler {
      type: "constant"
    }
  }
}
layer {
  name: "BatchNorm17"
  type: "BatchNorm"
  bottom: "Convolution17"
  top: "Convolution17"
  param {
    lr_mult: 0
    decay_mult: 0
  }
  param {
    lr_mult: 0
    decay_mult: 0
  }
  param {
    lr_mult: 0
    decay_mult: 0
  }
  batch_norm_param {
    use_global_stats: true
  }
}
layer {
  name: "Scale17"
  type: "Scale"
  bottom: "Convolution17"
  top: "Convolution17"
  scale_param {
    bias_term: true
  }
}
layer {
  name: "Eltwise21"
  type: "Eltwise"
  bottom: "Convolution16"
  bottom: "Convolution17"
  top: "Eltwise21"
  eltwise_param {
    operation: SUM
  }
}
layer {
  name: "Sigmoid15"
  type: "Sigmoid"
  bottom: "Eltwise21"
  top: "Sigmoid15"
}
layer {
  name: "Eltwise22"
  type: "Eltwise"
  bottom: "Eltwise21"
  bottom: "Sigmoid15"
  top: "Eltwise22"
  eltwise_param {
    operation: PROD
  }
}
layer {
  name: "Convolution18"
  type: "Convolution"
  bottom: "Eltwise22"
  top: "Convolution18"
  param {
    lr_mult: 1
    decay_mult: 1
  }
  param {
    lr_mult: 2
    decay_mult: 0
  }
  convolution_param {
    num_output: 64
    bias_term: true
    pad: 1
    kernel_size: 3
    stride: 1
    weight_filler {
      type: "msra"
    }
    bias_filler {
      type: "constant"
    }
  }
}
layer {
  name: "BatchNorm18"
  type: "BatchNorm"
  bottom: "Convolution18"
  top: "Convolution18"
  param {
    lr_mult: 0
    decay_mult: 0
  }
  param {
    lr_mult: 0
    decay_mult: 0
  }
  param {
    lr_mult: 0
    decay_mult: 0
  }
  batch_norm_param {
    use_global_stats: true
  }
}
layer {
  name: "Scale18"
  type: "Scale"
  bottom: "Convolution18"
  top: "Convolution18"
  scale_param {
    bias_term: true
  }
}
layer {
  name: "Sigmoid16"
  type: "Sigmoid"
  bottom: "Convolution18"
  top: "Sigmoid16"
}
layer {
  name: "Eltwise23"
  type: "Eltwise"
  bottom: "Convolution18"
  bottom: "Sigmoid16"
  top: "Eltwise23"
  eltwise_param {
    operation: PROD
  }
}
layer {
  name: "Convolution19"
  type: "Convolution"
  bottom: "Eltwise23"
  top: "Convolution19"
  param {
    lr_mult: 1
    decay_mult: 1
  }
  param {
    lr_mult: 2
    decay_mult: 0
  }
  convolution_param {
    num_output: 64
    bias_term: true
    pad: 1
    kernel_size: 3
    stride: 1
    weight_filler {
      type: "msra"
    }
    bias_filler {
      type: "constant"
    }
  }
}
layer {
  name: "BatchNorm19"
  type: "BatchNorm"
  bottom: "Convolution19"
  top: "Convolution19"
  param {
    lr_mult: 0
    decay_mult: 0
  }
  param {
    lr_mult: 0
    decay_mult: 0
  }
  param {
    lr_mult: 0
    decay_mult: 0
  }
  batch_norm_param {
    use_global_stats: true
  }
}
layer {
  name: "Scale19"
  type: "Scale"
  bottom: "Convolution19"
  top: "Convolution19"
  scale_param {
    bias_term: true
  }
}
layer {
  name: "Eltwise24"
  type: "Eltwise"
  bottom: "Convolution19"
  bottom: "Eltwise22"
  top: "Eltwise24"
  eltwise_param {
    operation: SUM
  }
}
layer {
  name: "Sigmoid17"
  type: "Sigmoid"
  bottom: "Eltwise24"
  top: "Sigmoid17"
}
layer {
  name: "Eltwise25"
  type: "Eltwise"
  bottom: "Eltwise24"
  bottom: "Sigmoid17"
  top: "Eltwise25"
  eltwise_param {
    operation: PROD
  }
}
layer {
  name: "Convolution20"
  type: "Convolution"
  bottom: "Eltwise25"
  top: "Convolution20"
  param {
    lr_mult: 1
    decay_mult: 1
  }
  param {
    lr_mult: 2
    decay_mult: 0
  }
  convolution_param {
    num_output: 64
    bias_term: true
    pad: 1
    kernel_size: 3
    stride: 1
    weight_filler {
      type: "msra"
    }
    bias_filler {
      type: "constant"
    }
  }
}
layer {
  name: "BatchNorm20"
  type: "BatchNorm"
  bottom: "Convolution20"
  top: "Convolution20"
  param {
    lr_mult: 0
    decay_mult: 0
  }
  param {
    lr_mult: 0
    decay_mult: 0
  }
  param {
    lr_mult: 0
    decay_mult: 0
  }
  batch_norm_param {
    use_global_stats: true
  }
}
layer {
  name: "Scale20"
  type: "Scale"
  bottom: "Convolution20"
  top: "Convolution20"
  scale_param {
    bias_term: true
  }
}
layer {
  name: "Sigmoid18"
  type: "Sigmoid"
  bottom: "Convolution20"
  top: "Sigmoid18"
}
layer {
  name: "Eltwise26"
  type: "Eltwise"
  bottom: "Convolution20"
  bottom: "Sigmoid18"
  top: "Eltwise26"
  eltwise_param {
    operation: PROD
  }
}
layer {
  name: "Convolution21"
  type: "Convolution"
  bottom: "Eltwise26"
  top: "Convolution21"
  param {
    lr_mult: 1
    decay_mult: 1
  }
  param {
    lr_mult: 2
    decay_mult: 0
  }
  convolution_param {
    num_output: 64
    bias_term: true
    pad: 1
    kernel_size: 3
    stride: 1
    weight_filler {
      type: "msra"
    }
    bias_filler {
      type: "constant"
    }
  }
}
layer {
  name: "BatchNorm21"
  type: "BatchNorm"
  bottom: "Convolution21"
  top: "Convolution21"
  param {
    lr_mult: 0
    decay_mult: 0
  }
  param {
    lr_mult: 0
    decay_mult: 0
  }
  param {
    lr_mult: 0
    decay_mult: 0
  }
  batch_norm_param {
    use_global_stats: true
  }
}
layer {
  name: "Scale21"
  type: "Scale"
  bottom: "Convolution21"
  top: "Convolution21"
  scale_param {
    bias_term: true
  }
}
layer {
  name: "Eltwise27"
  type: "Eltwise"
  bottom: "Convolution21"
  bottom: "Eltwise25"
  top: "Eltwise27"
  eltwise_param {
    operation: SUM
  }
}
layer {
  name: "Sigmoid19"
  type: "Sigmoid"
  bottom: "Eltwise27"
  top: "Sigmoid19"
}
layer {
  name: "Eltwise28"
  type: "Eltwise"
  bottom: "Eltwise27"
  bottom: "Sigmoid19"
  top: "Eltwise28"
  eltwise_param {
    operation: PROD
  }
}
layer {
  name: "Pooling1"
  type: "Pooling"
  bottom: "Eltwise28"
  top: "Pooling1"
  pooling_param {
    pool: AVE
    global_pooling: true
  }
}
layer {
  name: "InnerProduct1"
  type: "InnerProduct"
  bottom: "Pooling1"
  top: "InnerProduct1"
  inner_product_param {
    num_output: 10
    weight_filler {
      type: "msra"
    }
    bias_filler {
      type: "constant"
    }
  }
}
layer {
  name: "Accuracy1"
  type: "Accuracy"
  bottom: "InnerProduct1"
  bottom: "Data2"
  top: "Accuracy1"
}
I1025 10:12:53.954108 40636 layer_factory.hpp:77] Creating layer Data1
I1025 10:12:53.954293 40636 db_lmdb.cpp:35] Opened lmdb /data/hjy1312/data/RESNET/cifar-10/cifar10_test_lmdb
I1025 10:12:53.954349 40636 net.cpp:84] Creating Layer Data1
I1025 10:12:53.954363 40636 net.cpp:380] Data1 -> Data1
I1025 10:12:53.954403 40636 net.cpp:380] Data1 -> Data2
I1025 10:12:53.986515 40636 data_layer.cpp:45] output data size: 128,3,32,32
I1025 10:12:53.996142 40636 net.cpp:122] Setting up Data1
I1025 10:12:53.996182 40636 net.cpp:129] Top shape: 128 3 32 32 (393216)
I1025 10:12:53.996196 40636 net.cpp:129] Top shape: 128 (128)
I1025 10:12:53.996204 40636 net.cpp:137] Memory required for data: 1573376
I1025 10:12:53.996222 40636 layer_factory.hpp:77] Creating layer Convolution1
I1025 10:12:53.996265 40636 net.cpp:84] Creating Layer Convolution1
I1025 10:12:53.996279 40636 net.cpp:406] Convolution1 <- Data1
I1025 10:12:53.996305 40636 net.cpp:380] Convolution1 -> Convolution1
I1025 10:12:54.288682 40636 net.cpp:122] Setting up Convolution1
I1025 10:12:54.288746 40636 net.cpp:129] Top shape: 128 16 32 32 (2097152)
I1025 10:12:54.288756 40636 net.cpp:137] Memory required for data: 9961984
I1025 10:12:54.288785 40636 layer_factory.hpp:77] Creating layer BatchNorm1
I1025 10:12:54.288816 40636 net.cpp:84] Creating Layer BatchNorm1
I1025 10:12:54.288827 40636 net.cpp:406] BatchNorm1 <- Convolution1
I1025 10:12:54.288841 40636 net.cpp:367] BatchNorm1 -> Convolution1 (in-place)
I1025 10:12:54.289113 40636 net.cpp:122] Setting up BatchNorm1
I1025 10:12:54.289129 40636 net.cpp:129] Top shape: 128 16 32 32 (2097152)
I1025 10:12:54.289136 40636 net.cpp:137] Memory required for data: 18350592
I1025 10:12:54.289156 40636 layer_factory.hpp:77] Creating layer Scale1
I1025 10:12:54.289172 40636 net.cpp:84] Creating Layer Scale1
I1025 10:12:54.289180 40636 net.cpp:406] Scale1 <- Convolution1
I1025 10:12:54.289191 40636 net.cpp:367] Scale1 -> Convolution1 (in-place)
I1025 10:12:54.289250 40636 layer_factory.hpp:77] Creating layer Scale1
I1025 10:12:54.289408 40636 net.cpp:122] Setting up Scale1
I1025 10:12:54.289423 40636 net.cpp:129] Top shape: 128 16 32 32 (2097152)
I1025 10:12:54.289432 40636 net.cpp:137] Memory required for data: 26739200
I1025 10:12:54.289443 40636 layer_factory.hpp:77] Creating layer Convolution1_Scale1_0_split
I1025 10:12:54.289458 40636 net.cpp:84] Creating Layer Convolution1_Scale1_0_split
I1025 10:12:54.289465 40636 net.cpp:406] Convolution1_Scale1_0_split <- Convolution1
I1025 10:12:54.289475 40636 net.cpp:380] Convolution1_Scale1_0_split -> Convolution1_Scale1_0_split_0
I1025 10:12:54.289489 40636 net.cpp:380] Convolution1_Scale1_0_split -> Convolution1_Scale1_0_split_1
I1025 10:12:54.289538 40636 net.cpp:122] Setting up Convolution1_Scale1_0_split
I1025 10:12:54.289551 40636 net.cpp:129] Top shape: 128 16 32 32 (2097152)
I1025 10:12:54.289561 40636 net.cpp:129] Top shape: 128 16 32 32 (2097152)
I1025 10:12:54.289568 40636 net.cpp:137] Memory required for data: 43516416
I1025 10:12:54.289577 40636 layer_factory.hpp:77] Creating layer Sigmoid1
I1025 10:12:54.289587 40636 net.cpp:84] Creating Layer Sigmoid1
I1025 10:12:54.289595 40636 net.cpp:406] Sigmoid1 <- Convolution1_Scale1_0_split_0
I1025 10:12:54.289607 40636 net.cpp:380] Sigmoid1 -> Sigmoid1
I1025 10:12:54.290685 40636 net.cpp:122] Setting up Sigmoid1
I1025 10:12:54.290709 40636 net.cpp:129] Top shape: 128 16 32 32 (2097152)
I1025 10:12:54.290717 40636 net.cpp:137] Memory required for data: 51905024
I1025 10:12:54.290726 40636 layer_factory.hpp:77] Creating layer Eltwise1
I1025 10:12:54.290741 40636 net.cpp:84] Creating Layer Eltwise1
I1025 10:12:54.290750 40636 net.cpp:406] Eltwise1 <- Convolution1_Scale1_0_split_1
I1025 10:12:54.290760 40636 net.cpp:406] Eltwise1 <- Sigmoid1
I1025 10:12:54.290769 40636 net.cpp:380] Eltwise1 -> Eltwise1
I1025 10:12:54.290809 40636 net.cpp:122] Setting up Eltwise1
I1025 10:12:54.290822 40636 net.cpp:129] Top shape: 128 16 32 32 (2097152)
I1025 10:12:54.290829 40636 net.cpp:137] Memory required for data: 60293632
I1025 10:12:54.290838 40636 layer_factory.hpp:77] Creating layer Eltwise1_Eltwise1_0_split
I1025 10:12:54.290861 40636 net.cpp:84] Creating Layer Eltwise1_Eltwise1_0_split
I1025 10:12:54.290886 40636 net.cpp:406] Eltwise1_Eltwise1_0_split <- Eltwise1
I1025 10:12:54.290897 40636 net.cpp:380] Eltwise1_Eltwise1_0_split -> Eltwise1_Eltwise1_0_split_0
I1025 10:12:54.290910 40636 net.cpp:380] Eltwise1_Eltwise1_0_split -> Eltwise1_Eltwise1_0_split_1
I1025 10:12:54.290961 40636 net.cpp:122] Setting up Eltwise1_Eltwise1_0_split
I1025 10:12:54.290973 40636 net.cpp:129] Top shape: 128 16 32 32 (2097152)
I1025 10:12:54.290982 40636 net.cpp:129] Top shape: 128 16 32 32 (2097152)
I1025 10:12:54.290989 40636 net.cpp:137] Memory required for data: 77070848
I1025 10:12:54.290997 40636 layer_factory.hpp:77] Creating layer Convolution2
I1025 10:12:54.291016 40636 net.cpp:84] Creating Layer Convolution2
I1025 10:12:54.291024 40636 net.cpp:406] Convolution2 <- Eltwise1_Eltwise1_0_split_0
I1025 10:12:54.291035 40636 net.cpp:380] Convolution2 -> Convolution2
I1025 10:12:54.294155 40636 net.cpp:122] Setting up Convolution2
I1025 10:12:54.294178 40636 net.cpp:129] Top shape: 128 16 32 32 (2097152)
I1025 10:12:54.294188 40636 net.cpp:137] Memory required for data: 85459456
I1025 10:12:54.294204 40636 layer_factory.hpp:77] Creating layer BatchNorm2
I1025 10:12:54.294219 40636 net.cpp:84] Creating Layer BatchNorm2
I1025 10:12:54.294226 40636 net.cpp:406] BatchNorm2 <- Convolution2
I1025 10:12:54.294239 40636 net.cpp:367] BatchNorm2 -> Convolution2 (in-place)
I1025 10:12:54.294505 40636 net.cpp:122] Setting up BatchNorm2
I1025 10:12:54.294523 40636 net.cpp:129] Top shape: 128 16 32 32 (2097152)
I1025 10:12:54.294530 40636 net.cpp:137] Memory required for data: 93848064
I1025 10:12:54.294544 40636 layer_factory.hpp:77] Creating layer Scale2
I1025 10:12:54.294556 40636 net.cpp:84] Creating Layer Scale2
I1025 10:12:54.294564 40636 net.cpp:406] Scale2 <- Convolution2
I1025 10:12:54.294574 40636 net.cpp:367] Scale2 -> Convolution2 (in-place)
I1025 10:12:54.294623 40636 layer_factory.hpp:77] Creating layer Scale2
I1025 10:12:54.294772 40636 net.cpp:122] Setting up Scale2
I1025 10:12:54.294785 40636 net.cpp:129] Top shape: 128 16 32 32 (2097152)
I1025 10:12:54.294793 40636 net.cpp:137] Memory required for data: 102236672
I1025 10:12:54.294806 40636 layer_factory.hpp:77] Creating layer Convolution2_Scale2_0_split
I1025 10:12:54.294816 40636 net.cpp:84] Creating Layer Convolution2_Scale2_0_split
I1025 10:12:54.294824 40636 net.cpp:406] Convolution2_Scale2_0_split <- Convolution2
I1025 10:12:54.294836 40636 net.cpp:380] Convolution2_Scale2_0_split -> Convolution2_Scale2_0_split_0
I1025 10:12:54.294847 40636 net.cpp:380] Convolution2_Scale2_0_split -> Convolution2_Scale2_0_split_1
I1025 10:12:54.294896 40636 net.cpp:122] Setting up Convolution2_Scale2_0_split
I1025 10:12:54.294908 40636 net.cpp:129] Top shape: 128 16 32 32 (2097152)
I1025 10:12:54.294917 40636 net.cpp:129] Top shape: 128 16 32 32 (2097152)
I1025 10:12:54.294924 40636 net.cpp:137] Memory required for data: 119013888
I1025 10:12:54.294931 40636 layer_factory.hpp:77] Creating layer Sigmoid2
I1025 10:12:54.294942 40636 net.cpp:84] Creating Layer Sigmoid2
I1025 10:12:54.294950 40636 net.cpp:406] Sigmoid2 <- Convolution2_Scale2_0_split_0
I1025 10:12:54.294960 40636 net.cpp:380] Sigmoid2 -> Sigmoid2
I1025 10:12:54.295879 40636 net.cpp:122] Setting up Sigmoid2
I1025 10:12:54.295897 40636 net.cpp:129] Top shape: 128 16 32 32 (2097152)
I1025 10:12:54.295902 40636 net.cpp:137] Memory required for data: 127402496
I1025 10:12:54.295908 40636 layer_factory.hpp:77] Creating layer Eltwise2
I1025 10:12:54.295917 40636 net.cpp:84] Creating Layer Eltwise2
I1025 10:12:54.295922 40636 net.cpp:406] Eltwise2 <- Convolution2_Scale2_0_split_1
I1025 10:12:54.295928 40636 net.cpp:406] Eltwise2 <- Sigmoid2
I1025 10:12:54.295934 40636 net.cpp:380] Eltwise2 -> Eltwise2
I1025 10:12:54.295960 40636 net.cpp:122] Setting up Eltwise2
I1025 10:12:54.295969 40636 net.cpp:129] Top shape: 128 16 32 32 (2097152)
I1025 10:12:54.295972 40636 net.cpp:137] Memory required for data: 135791104
I1025 10:12:54.295984 40636 layer_factory.hpp:77] Creating layer Convolution3
I1025 10:12:54.296002 40636 net.cpp:84] Creating Layer Convolution3
I1025 10:12:54.296007 40636 net.cpp:406] Convolution3 <- Eltwise2
I1025 10:12:54.296015 40636 net.cpp:380] Convolution3 -> Convolution3
I1025 10:12:54.298413 40636 net.cpp:122] Setting up Convolution3
I1025 10:12:54.298439 40636 net.cpp:129] Top shape: 128 16 32 32 (2097152)
I1025 10:12:54.298446 40636 net.cpp:137] Memory required for data: 144179712
I1025 10:12:54.298460 40636 layer_factory.hpp:77] Creating layer BatchNorm3
I1025 10:12:54.298475 40636 net.cpp:84] Creating Layer BatchNorm3
I1025 10:12:54.298485 40636 net.cpp:406] BatchNorm3 <- Convolution3
I1025 10:12:54.298501 40636 net.cpp:367] BatchNorm3 -> Convolution3 (in-place)
I1025 10:12:54.298786 40636 net.cpp:122] Setting up BatchNorm3
I1025 10:12:54.298801 40636 net.cpp:129] Top shape: 128 16 32 32 (2097152)
I1025 10:12:54.298810 40636 net.cpp:137] Memory required for data: 152568320
I1025 10:12:54.298833 40636 layer_factory.hpp:77] Creating layer Scale3
I1025 10:12:54.298848 40636 net.cpp:84] Creating Layer Scale3
I1025 10:12:54.298856 40636 net.cpp:406] Scale3 <- Convolution3
I1025 10:12:54.298866 40636 net.cpp:367] Scale3 -> Convolution3 (in-place)
I1025 10:12:54.298923 40636 layer_factory.hpp:77] Creating layer Scale3
I1025 10:12:54.299042 40636 net.cpp:122] Setting up Scale3
I1025 10:12:54.299052 40636 net.cpp:129] Top shape: 128 16 32 32 (2097152)
I1025 10:12:54.299057 40636 net.cpp:137] Memory required for data: 160956928
I1025 10:12:54.299063 40636 layer_factory.hpp:77] Creating layer Eltwise3
I1025 10:12:54.299073 40636 net.cpp:84] Creating Layer Eltwise3
I1025 10:12:54.299078 40636 net.cpp:406] Eltwise3 <- Convolution3
I1025 10:12:54.299084 40636 net.cpp:406] Eltwise3 <- Eltwise1_Eltwise1_0_split_1
I1025 10:12:54.299093 40636 net.cpp:380] Eltwise3 -> Eltwise3
I1025 10:12:54.299118 40636 net.cpp:122] Setting up Eltwise3
I1025 10:12:54.299125 40636 net.cpp:129] Top shape: 128 16 32 32 (2097152)
I1025 10:12:54.299129 40636 net.cpp:137] Memory required for data: 169345536
I1025 10:12:54.299134 40636 layer_factory.hpp:77] Creating layer Eltwise3_Eltwise3_0_split
I1025 10:12:54.299140 40636 net.cpp:84] Creating Layer Eltwise3_Eltwise3_0_split
I1025 10:12:54.299144 40636 net.cpp:406] Eltwise3_Eltwise3_0_split <- Eltwise3
I1025 10:12:54.299154 40636 net.cpp:380] Eltwise3_Eltwise3_0_split -> Eltwise3_Eltwise3_0_split_0
I1025 10:12:54.299162 40636 net.cpp:380] Eltwise3_Eltwise3_0_split -> Eltwise3_Eltwise3_0_split_1
I1025 10:12:54.299198 40636 net.cpp:122] Setting up Eltwise3_Eltwise3_0_split
I1025 10:12:54.299206 40636 net.cpp:129] Top shape: 128 16 32 32 (2097152)
I1025 10:12:54.299212 40636 net.cpp:129] Top shape: 128 16 32 32 (2097152)
I1025 10:12:54.299216 40636 net.cpp:137] Memory required for data: 186122752
I1025 10:12:54.299221 40636 layer_factory.hpp:77] Creating layer Sigmoid3
I1025 10:12:54.299227 40636 net.cpp:84] Creating Layer Sigmoid3
I1025 10:12:54.299232 40636 net.cpp:406] Sigmoid3 <- Eltwise3_Eltwise3_0_split_0
I1025 10:12:54.299242 40636 net.cpp:380] Sigmoid3 -> Sigmoid3
I1025 10:12:54.299549 40636 net.cpp:122] Setting up Sigmoid3
I1025 10:12:54.299571 40636 net.cpp:129] Top shape: 128 16 32 32 (2097152)
I1025 10:12:54.299579 40636 net.cpp:137] Memory required for data: 194511360
I1025 10:12:54.299587 40636 layer_factory.hpp:77] Creating layer Eltwise4
I1025 10:12:54.299599 40636 net.cpp:84] Creating Layer Eltwise4
I1025 10:12:54.299607 40636 net.cpp:406] Eltwise4 <- Eltwise3_Eltwise3_0_split_1
I1025 10:12:54.299618 40636 net.cpp:406] Eltwise4 <- Sigmoid3
I1025 10:12:54.299630 40636 net.cpp:380] Eltwise4 -> Eltwise4
I1025 10:12:54.299671 40636 net.cpp:122] Setting up Eltwise4
I1025 10:12:54.299684 40636 net.cpp:129] Top shape: 128 16 32 32 (2097152)
I1025 10:12:54.299691 40636 net.cpp:137] Memory required for data: 202899968
I1025 10:12:54.299698 40636 layer_factory.hpp:77] Creating layer Eltwise4_Eltwise4_0_split
I1025 10:12:54.299710 40636 net.cpp:84] Creating Layer Eltwise4_Eltwise4_0_split
I1025 10:12:54.299716 40636 net.cpp:406] Eltwise4_Eltwise4_0_split <- Eltwise4
I1025 10:12:54.299744 40636 net.cpp:380] Eltwise4_Eltwise4_0_split -> Eltwise4_Eltwise4_0_split_0
I1025 10:12:54.299760 40636 net.cpp:380] Eltwise4_Eltwise4_0_split -> Eltwise4_Eltwise4_0_split_1
I1025 10:12:54.299815 40636 net.cpp:122] Setting up Eltwise4_Eltwise4_0_split
I1025 10:12:54.299829 40636 net.cpp:129] Top shape: 128 16 32 32 (2097152)
I1025 10:12:54.299837 40636 net.cpp:129] Top shape: 128 16 32 32 (2097152)
I1025 10:12:54.299844 40636 net.cpp:137] Memory required for data: 219677184
I1025 10:12:54.299851 40636 layer_factory.hpp:77] Creating layer Convolution4
I1025 10:12:54.299872 40636 net.cpp:84] Creating Layer Convolution4
I1025 10:12:54.299881 40636 net.cpp:406] Convolution4 <- Eltwise4_Eltwise4_0_split_0
I1025 10:12:54.299893 40636 net.cpp:380] Convolution4 -> Convolution4
I1025 10:12:54.302806 40636 net.cpp:122] Setting up Convolution4
I1025 10:12:54.302834 40636 net.cpp:129] Top shape: 128 16 32 32 (2097152)
I1025 10:12:54.302841 40636 net.cpp:137] Memory required for data: 228065792
I1025 10:12:54.302855 40636 layer_factory.hpp:77] Creating layer BatchNorm4
I1025 10:12:54.302870 40636 net.cpp:84] Creating Layer BatchNorm4
I1025 10:12:54.302878 40636 net.cpp:406] BatchNorm4 <- Convolution4
I1025 10:12:54.302892 40636 net.cpp:367] BatchNorm4 -> Convolution4 (in-place)
I1025 10:12:54.303177 40636 net.cpp:122] Setting up BatchNorm4
I1025 10:12:54.303192 40636 net.cpp:129] Top shape: 128 16 32 32 (2097152)
I1025 10:12:54.303200 40636 net.cpp:137] Memory required for data: 236454400
I1025 10:12:54.303213 40636 layer_factory.hpp:77] Creating layer Scale4
I1025 10:12:54.303225 40636 net.cpp:84] Creating Layer Scale4
I1025 10:12:54.303232 40636 net.cpp:406] Scale4 <- Convolution4
I1025 10:12:54.303244 40636 net.cpp:367] Scale4 -> Convolution4 (in-place)
I1025 10:12:54.303295 40636 layer_factory.hpp:77] Creating layer Scale4
I1025 10:12:54.303462 40636 net.cpp:122] Setting up Scale4
I1025 10:12:54.303478 40636 net.cpp:129] Top shape: 128 16 32 32 (2097152)
I1025 10:12:54.303484 40636 net.cpp:137] Memory required for data: 244843008
I1025 10:12:54.303495 40636 layer_factory.hpp:77] Creating layer Convolution4_Scale4_0_split
I1025 10:12:54.303509 40636 net.cpp:84] Creating Layer Convolution4_Scale4_0_split
I1025 10:12:54.303517 40636 net.cpp:406] Convolution4_Scale4_0_split <- Convolution4
I1025 10:12:54.303527 40636 net.cpp:380] Convolution4_Scale4_0_split -> Convolution4_Scale4_0_split_0
I1025 10:12:54.303539 40636 net.cpp:380] Convolution4_Scale4_0_split -> Convolution4_Scale4_0_split_1
I1025 10:12:54.303596 40636 net.cpp:122] Setting up Convolution4_Scale4_0_split
I1025 10:12:54.303608 40636 net.cpp:129] Top shape: 128 16 32 32 (2097152)
I1025 10:12:54.303617 40636 net.cpp:129] Top shape: 128 16 32 32 (2097152)
I1025 10:12:54.303624 40636 net.cpp:137] Memory required for data: 261620224
I1025 10:12:54.303632 40636 layer_factory.hpp:77] Creating layer Sigmoid4
I1025 10:12:54.303642 40636 net.cpp:84] Creating Layer Sigmoid4
I1025 10:12:54.303650 40636 net.cpp:406] Sigmoid4 <- Convolution4_Scale4_0_split_0
I1025 10:12:54.303663 40636 net.cpp:380] Sigmoid4 -> Sigmoid4
I1025 10:12:54.304973 40636 net.cpp:122] Setting up Sigmoid4
I1025 10:12:54.304996 40636 net.cpp:129] Top shape: 128 16 32 32 (2097152)
I1025 10:12:54.305003 40636 net.cpp:137] Memory required for data: 270008832
I1025 10:12:54.305011 40636 layer_factory.hpp:77] Creating layer Eltwise5
I1025 10:12:54.305023 40636 net.cpp:84] Creating Layer Eltwise5
I1025 10:12:54.305032 40636 net.cpp:406] Eltwise5 <- Convolution4_Scale4_0_split_1
I1025 10:12:54.305042 40636 net.cpp:406] Eltwise5 <- Sigmoid4
I1025 10:12:54.305053 40636 net.cpp:380] Eltwise5 -> Eltwise5
I1025 10:12:54.305093 40636 net.cpp:122] Setting up Eltwise5
I1025 10:12:54.305107 40636 net.cpp:129] Top shape: 128 16 32 32 (2097152)
I1025 10:12:54.305115 40636 net.cpp:137] Memory required for data: 278397440
I1025 10:12:54.305122 40636 layer_factory.hpp:77] Creating layer Convolution5
I1025 10:12:54.305140 40636 net.cpp:84] Creating Layer Convolution5
I1025 10:12:54.305155 40636 net.cpp:406] Convolution5 <- Eltwise5
I1025 10:12:54.305177 40636 net.cpp:380] Convolution5 -> Convolution5
I1025 10:12:54.307260 40636 net.cpp:122] Setting up Convolution5
I1025 10:12:54.307282 40636 net.cpp:129] Top shape: 128 16 32 32 (2097152)
I1025 10:12:54.307291 40636 net.cpp:137] Memory required for data: 286786048
I1025 10:12:54.307305 40636 layer_factory.hpp:77] Creating layer BatchNorm5
I1025 10:12:54.307322 40636 net.cpp:84] Creating Layer BatchNorm5
I1025 10:12:54.307329 40636 net.cpp:406] BatchNorm5 <- Convolution5
I1025 10:12:54.307340 40636 net.cpp:367] BatchNorm5 -> Convolution5 (in-place)
I1025 10:12:54.307621 40636 net.cpp:122] Setting up BatchNorm5
I1025 10:12:54.307636 40636 net.cpp:129] Top shape: 128 16 32 32 (2097152)
I1025 10:12:54.307642 40636 net.cpp:137] Memory required for data: 295174656
I1025 10:12:54.307665 40636 layer_factory.hpp:77] Creating layer Scale5
I1025 10:12:54.307677 40636 net.cpp:84] Creating Layer Scale5
I1025 10:12:54.307685 40636 net.cpp:406] Scale5 <- Convolution5
I1025 10:12:54.307695 40636 net.cpp:367] Scale5 -> Convolution5 (in-place)
I1025 10:12:54.307754 40636 layer_factory.hpp:77] Creating layer Scale5
I1025 10:12:54.307921 40636 net.cpp:122] Setting up Scale5
I1025 10:12:54.307935 40636 net.cpp:129] Top shape: 128 16 32 32 (2097152)
I1025 10:12:54.307942 40636 net.cpp:137] Memory required for data: 303563264
I1025 10:12:54.307955 40636 layer_factory.hpp:77] Creating layer Eltwise6
I1025 10:12:54.307965 40636 net.cpp:84] Creating Layer Eltwise6
I1025 10:12:54.307973 40636 net.cpp:406] Eltwise6 <- Convolution5
I1025 10:12:54.307982 40636 net.cpp:406] Eltwise6 <- Eltwise4_Eltwise4_0_split_1
I1025 10:12:54.307994 40636 net.cpp:380] Eltwise6 -> Eltwise6
I1025 10:12:54.308028 40636 net.cpp:122] Setting up Eltwise6
I1025 10:12:54.308042 40636 net.cpp:129] Top shape: 128 16 32 32 (2097152)
I1025 10:12:54.308048 40636 net.cpp:137] Memory required for data: 311951872
I1025 10:12:54.308055 40636 layer_factory.hpp:77] Creating layer Eltwise6_Eltwise6_0_split
I1025 10:12:54.308073 40636 net.cpp:84] Creating Layer Eltwise6_Eltwise6_0_split
I1025 10:12:54.308081 40636 net.cpp:406] Eltwise6_Eltwise6_0_split <- Eltwise6
I1025 10:12:54.308091 40636 net.cpp:380] Eltwise6_Eltwise6_0_split -> Eltwise6_Eltwise6_0_split_0
I1025 10:12:54.308102 40636 net.cpp:380] Eltwise6_Eltwise6_0_split -> Eltwise6_Eltwise6_0_split_1
I1025 10:12:54.308156 40636 net.cpp:122] Setting up Eltwise6_Eltwise6_0_split
I1025 10:12:54.308167 40636 net.cpp:129] Top shape: 128 16 32 32 (2097152)
I1025 10:12:54.308176 40636 net.cpp:129] Top shape: 128 16 32 32 (2097152)
I1025 10:12:54.308183 40636 net.cpp:137] Memory required for data: 328729088
I1025 10:12:54.308192 40636 layer_factory.hpp:77] Creating layer Sigmoid5
I1025 10:12:54.308202 40636 net.cpp:84] Creating Layer Sigmoid5
I1025 10:12:54.308209 40636 net.cpp:406] Sigmoid5 <- Eltwise6_Eltwise6_0_split_0
I1025 10:12:54.308219 40636 net.cpp:380] Sigmoid5 -> Sigmoid5
I1025 10:12:54.309299 40636 net.cpp:122] Setting up Sigmoid5
I1025 10:12:54.309320 40636 net.cpp:129] Top shape: 128 16 32 32 (2097152)
I1025 10:12:54.309329 40636 net.cpp:137] Memory required for data: 337117696
I1025 10:12:54.309336 40636 layer_factory.hpp:77] Creating layer Eltwise7
I1025 10:12:54.309352 40636 net.cpp:84] Creating Layer Eltwise7
I1025 10:12:54.309360 40636 net.cpp:406] Eltwise7 <- Eltwise6_Eltwise6_0_split_1
I1025 10:12:54.309370 40636 net.cpp:406] Eltwise7 <- Sigmoid5
I1025 10:12:54.309381 40636 net.cpp:380] Eltwise7 -> Eltwise7
I1025 10:12:54.309425 40636 net.cpp:122] Setting up Eltwise7
I1025 10:12:54.309442 40636 net.cpp:129] Top shape: 128 16 32 32 (2097152)
I1025 10:12:54.309448 40636 net.cpp:137] Memory required for data: 345506304
I1025 10:12:54.309456 40636 layer_factory.hpp:77] Creating layer Eltwise7_Eltwise7_0_split
I1025 10:12:54.309468 40636 net.cpp:84] Creating Layer Eltwise7_Eltwise7_0_split
I1025 10:12:54.309474 40636 net.cpp:406] Eltwise7_Eltwise7_0_split <- Eltwise7
I1025 10:12:54.309484 40636 net.cpp:380] Eltwise7_Eltwise7_0_split -> Eltwise7_Eltwise7_0_split_0
I1025 10:12:54.309502 40636 net.cpp:380] Eltwise7_Eltwise7_0_split -> Eltwise7_Eltwise7_0_split_1
I1025 10:12:54.309577 40636 net.cpp:122] Setting up Eltwise7_Eltwise7_0_split
I1025 10:12:54.309590 40636 net.cpp:129] Top shape: 128 16 32 32 (2097152)
I1025 10:12:54.309599 40636 net.cpp:129] Top shape: 128 16 32 32 (2097152)
I1025 10:12:54.309607 40636 net.cpp:137] Memory required for data: 362283520
I1025 10:12:54.309613 40636 layer_factory.hpp:77] Creating layer Convolution6
I1025 10:12:54.309631 40636 net.cpp:84] Creating Layer Convolution6
I1025 10:12:54.309639 40636 net.cpp:406] Convolution6 <- Eltwise7_Eltwise7_0_split_0
I1025 10:12:54.309653 40636 net.cpp:380] Convolution6 -> Convolution6
I1025 10:12:54.312510 40636 net.cpp:122] Setting up Convolution6
I1025 10:12:54.312532 40636 net.cpp:129] Top shape: 128 16 32 32 (2097152)
I1025 10:12:54.312541 40636 net.cpp:137] Memory required for data: 370672128
I1025 10:12:54.312553 40636 layer_factory.hpp:77] Creating layer BatchNorm6
I1025 10:12:54.312566 40636 net.cpp:84] Creating Layer BatchNorm6
I1025 10:12:54.312575 40636 net.cpp:406] BatchNorm6 <- Convolution6
I1025 10:12:54.312588 40636 net.cpp:367] BatchNorm6 -> Convolution6 (in-place)
I1025 10:12:54.312872 40636 net.cpp:122] Setting up BatchNorm6
I1025 10:12:54.312887 40636 net.cpp:129] Top shape: 128 16 32 32 (2097152)
I1025 10:12:54.312894 40636 net.cpp:137] Memory required for data: 379060736
I1025 10:12:54.312908 40636 layer_factory.hpp:77] Creating layer Scale6
I1025 10:12:54.312919 40636 net.cpp:84] Creating Layer Scale6
I1025 10:12:54.312927 40636 net.cpp:406] Scale6 <- Convolution6
I1025 10:12:54.312937 40636 net.cpp:367] Scale6 -> Convolution6 (in-place)
I1025 10:12:54.312993 40636 layer_factory.hpp:77] Creating layer Scale6
I1025 10:12:54.313161 40636 net.cpp:122] Setting up Scale6
I1025 10:12:54.313175 40636 net.cpp:129] Top shape: 128 16 32 32 (2097152)
I1025 10:12:54.313182 40636 net.cpp:137] Memory required for data: 387449344
I1025 10:12:54.313194 40636 layer_factory.hpp:77] Creating layer Convolution6_Scale6_0_split
I1025 10:12:54.313205 40636 net.cpp:84] Creating Layer Convolution6_Scale6_0_split
I1025 10:12:54.313212 40636 net.cpp:406] Convolution6_Scale6_0_split <- Convolution6
I1025 10:12:54.313225 40636 net.cpp:380] Convolution6_Scale6_0_split -> Convolution6_Scale6_0_split_0
I1025 10:12:54.313237 40636 net.cpp:380] Convolution6_Scale6_0_split -> Convolution6_Scale6_0_split_1
I1025 10:12:54.313293 40636 net.cpp:122] Setting up Convolution6_Scale6_0_split
I1025 10:12:54.313308 40636 net.cpp:129] Top shape: 128 16 32 32 (2097152)
I1025 10:12:54.313318 40636 net.cpp:129] Top shape: 128 16 32 32 (2097152)
I1025 10:12:54.313324 40636 net.cpp:137] Memory required for data: 404226560
I1025 10:12:54.313333 40636 layer_factory.hpp:77] Creating layer Sigmoid6
I1025 10:12:54.313343 40636 net.cpp:84] Creating Layer Sigmoid6
I1025 10:12:54.313350 40636 net.cpp:406] Sigmoid6 <- Convolution6_Scale6_0_split_0
I1025 10:12:54.313360 40636 net.cpp:380] Sigmoid6 -> Sigmoid6
I1025 10:12:54.313647 40636 net.cpp:122] Setting up Sigmoid6
I1025 10:12:54.313663 40636 net.cpp:129] Top shape: 128 16 32 32 (2097152)
I1025 10:12:54.313671 40636 net.cpp:137] Memory required for data: 412615168
I1025 10:12:54.313679 40636 layer_factory.hpp:77] Creating layer Eltwise8
I1025 10:12:54.313694 40636 net.cpp:84] Creating Layer Eltwise8
I1025 10:12:54.313701 40636 net.cpp:406] Eltwise8 <- Convolution6_Scale6_0_split_1
I1025 10:12:54.313710 40636 net.cpp:406] Eltwise8 <- Sigmoid6
I1025 10:12:54.313729 40636 net.cpp:380] Eltwise8 -> Eltwise8
I1025 10:12:54.313765 40636 net.cpp:122] Setting up Eltwise8
I1025 10:12:54.313776 40636 net.cpp:129] Top shape: 128 16 32 32 (2097152)
I1025 10:12:54.313783 40636 net.cpp:137] Memory required for data: 421003776
I1025 10:12:54.313791 40636 layer_factory.hpp:77] Creating layer Convolution7
I1025 10:12:54.313808 40636 net.cpp:84] Creating Layer Convolution7
I1025 10:12:54.313818 40636 net.cpp:406] Convolution7 <- Eltwise8
I1025 10:12:54.313829 40636 net.cpp:380] Convolution7 -> Convolution7
I1025 10:12:54.316689 40636 net.cpp:122] Setting up Convolution7
I1025 10:12:54.316722 40636 net.cpp:129] Top shape: 128 16 32 32 (2097152)
I1025 10:12:54.316731 40636 net.cpp:137] Memory required for data: 429392384
I1025 10:12:54.316745 40636 layer_factory.hpp:77] Creating layer BatchNorm7
I1025 10:12:54.316759 40636 net.cpp:84] Creating Layer BatchNorm7
I1025 10:12:54.316768 40636 net.cpp:406] BatchNorm7 <- Convolution7
I1025 10:12:54.316781 40636 net.cpp:367] BatchNorm7 -> Convolution7 (in-place)
I1025 10:12:54.317073 40636 net.cpp:122] Setting up BatchNorm7
I1025 10:12:54.317088 40636 net.cpp:129] Top shape: 128 16 32 32 (2097152)
I1025 10:12:54.317095 40636 net.cpp:137] Memory required for data: 437780992
I1025 10:12:54.317109 40636 layer_factory.hpp:77] Creating layer Scale7
I1025 10:12:54.317123 40636 net.cpp:84] Creating Layer Scale7
I1025 10:12:54.317132 40636 net.cpp:406] Scale7 <- Convolution7
I1025 10:12:54.317142 40636 net.cpp:367] Scale7 -> Convolution7 (in-place)
I1025 10:12:54.317193 40636 layer_factory.hpp:77] Creating layer Scale7
I1025 10:12:54.317359 40636 net.cpp:122] Setting up Scale7
I1025 10:12:54.317375 40636 net.cpp:129] Top shape: 128 16 32 32 (2097152)
I1025 10:12:54.317384 40636 net.cpp:137] Memory required for data: 446169600
I1025 10:12:54.317396 40636 layer_factory.hpp:77] Creating layer Eltwise9
I1025 10:12:54.317407 40636 net.cpp:84] Creating Layer Eltwise9
I1025 10:12:54.317415 40636 net.cpp:406] Eltwise9 <- Convolution7
I1025 10:12:54.317425 40636 net.cpp:406] Eltwise9 <- Eltwise7_Eltwise7_0_split_1
I1025 10:12:54.317435 40636 net.cpp:380] Eltwise9 -> Eltwise9
I1025 10:12:54.317473 40636 net.cpp:122] Setting up Eltwise9
I1025 10:12:54.317487 40636 net.cpp:129] Top shape: 128 16 32 32 (2097152)
I1025 10:12:54.317493 40636 net.cpp:137] Memory required for data: 454558208
I1025 10:12:54.317500 40636 layer_factory.hpp:77] Creating layer Eltwise9_Eltwise9_0_split
I1025 10:12:54.317512 40636 net.cpp:84] Creating Layer Eltwise9_Eltwise9_0_split
I1025 10:12:54.317520 40636 net.cpp:406] Eltwise9_Eltwise9_0_split <- Eltwise9
I1025 10:12:54.317530 40636 net.cpp:380] Eltwise9_Eltwise9_0_split -> Eltwise9_Eltwise9_0_split_0
I1025 10:12:54.317543 40636 net.cpp:380] Eltwise9_Eltwise9_0_split -> Eltwise9_Eltwise9_0_split_1
I1025 10:12:54.317595 40636 net.cpp:122] Setting up Eltwise9_Eltwise9_0_split
I1025 10:12:54.317608 40636 net.cpp:129] Top shape: 128 16 32 32 (2097152)
I1025 10:12:54.317617 40636 net.cpp:129] Top shape: 128 16 32 32 (2097152)
I1025 10:12:54.317625 40636 net.cpp:137] Memory required for data: 471335424
I1025 10:12:54.317632 40636 layer_factory.hpp:77] Creating layer Sigmoid7
I1025 10:12:54.317642 40636 net.cpp:84] Creating Layer Sigmoid7
I1025 10:12:54.317651 40636 net.cpp:406] Sigmoid7 <- Eltwise9_Eltwise9_0_split_0
I1025 10:12:54.317659 40636 net.cpp:380] Sigmoid7 -> Sigmoid7
I1025 10:12:54.318747 40636 net.cpp:122] Setting up Sigmoid7
I1025 10:12:54.318778 40636 net.cpp:129] Top shape: 128 16 32 32 (2097152)
I1025 10:12:54.318785 40636 net.cpp:137] Memory required for data: 479724032
I1025 10:12:54.318794 40636 layer_factory.hpp:77] Creating layer Eltwise10
I1025 10:12:54.318804 40636 net.cpp:84] Creating Layer Eltwise10
I1025 10:12:54.318814 40636 net.cpp:406] Eltwise10 <- Eltwise9_Eltwise9_0_split_1
I1025 10:12:54.318822 40636 net.cpp:406] Eltwise10 <- Sigmoid7
I1025 10:12:54.318832 40636 net.cpp:380] Eltwise10 -> Eltwise10
I1025 10:12:54.318873 40636 net.cpp:122] Setting up Eltwise10
I1025 10:12:54.318886 40636 net.cpp:129] Top shape: 128 16 32 32 (2097152)
I1025 10:12:54.318893 40636 net.cpp:137] Memory required for data: 488112640
I1025 10:12:54.318900 40636 layer_factory.hpp:77] Creating layer Eltwise10_Eltwise10_0_split
I1025 10:12:54.318913 40636 net.cpp:84] Creating Layer Eltwise10_Eltwise10_0_split
I1025 10:12:54.318922 40636 net.cpp:406] Eltwise10_Eltwise10_0_split <- Eltwise10
I1025 10:12:54.318930 40636 net.cpp:380] Eltwise10_Eltwise10_0_split -> Eltwise10_Eltwise10_0_split_0
I1025 10:12:54.318943 40636 net.cpp:380] Eltwise10_Eltwise10_0_split -> Eltwise10_Eltwise10_0_split_1
I1025 10:12:54.319005 40636 net.cpp:122] Setting up Eltwise10_Eltwise10_0_split
I1025 10:12:54.319028 40636 net.cpp:129] Top shape: 128 16 32 32 (2097152)
I1025 10:12:54.319038 40636 net.cpp:129] Top shape: 128 16 32 32 (2097152)
I1025 10:12:54.319046 40636 net.cpp:137] Memory required for data: 504889856
I1025 10:12:54.319052 40636 layer_factory.hpp:77] Creating layer Convolution8
I1025 10:12:54.319070 40636 net.cpp:84] Creating Layer Convolution8
I1025 10:12:54.319079 40636 net.cpp:406] Convolution8 <- Eltwise10_Eltwise10_0_split_0
I1025 10:12:54.319092 40636 net.cpp:380] Convolution8 -> Convolution8
I1025 10:12:54.323341 40636 net.cpp:122] Setting up Convolution8
I1025 10:12:54.323365 40636 net.cpp:129] Top shape: 128 32 16 16 (1048576)
I1025 10:12:54.323374 40636 net.cpp:137] Memory required for data: 509084160
I1025 10:12:54.323387 40636 layer_factory.hpp:77] Creating layer BatchNorm8
I1025 10:12:54.323402 40636 net.cpp:84] Creating Layer BatchNorm8
I1025 10:12:54.323411 40636 net.cpp:406] BatchNorm8 <- Convolution8
I1025 10:12:54.323421 40636 net.cpp:367] BatchNorm8 -> Convolution8 (in-place)
I1025 10:12:54.323715 40636 net.cpp:122] Setting up BatchNorm8
I1025 10:12:54.323729 40636 net.cpp:129] Top shape: 128 32 16 16 (1048576)
I1025 10:12:54.323737 40636 net.cpp:137] Memory required for data: 513278464
I1025 10:12:54.323751 40636 layer_factory.hpp:77] Creating layer Scale8
I1025 10:12:54.323762 40636 net.cpp:84] Creating Layer Scale8
I1025 10:12:54.323770 40636 net.cpp:406] Scale8 <- Convolution8
I1025 10:12:54.323781 40636 net.cpp:367] Scale8 -> Convolution8 (in-place)
I1025 10:12:54.323834 40636 layer_factory.hpp:77] Creating layer Scale8
I1025 10:12:54.324009 40636 net.cpp:122] Setting up Scale8
I1025 10:12:54.324023 40636 net.cpp:129] Top shape: 128 32 16 16 (1048576)
I1025 10:12:54.324030 40636 net.cpp:137] Memory required for data: 517472768
I1025 10:12:54.324043 40636 layer_factory.hpp:77] Creating layer Convolution8_Scale8_0_split
I1025 10:12:54.324055 40636 net.cpp:84] Creating Layer Convolution8_Scale8_0_split
I1025 10:12:54.324064 40636 net.cpp:406] Convolution8_Scale8_0_split <- Convolution8
I1025 10:12:54.324074 40636 net.cpp:380] Convolution8_Scale8_0_split -> Convolution8_Scale8_0_split_0
I1025 10:12:54.324085 40636 net.cpp:380] Convolution8_Scale8_0_split -> Convolution8_Scale8_0_split_1
I1025 10:12:54.324134 40636 net.cpp:122] Setting up Convolution8_Scale8_0_split
I1025 10:12:54.324147 40636 net.cpp:129] Top shape: 128 32 16 16 (1048576)
I1025 10:12:54.324156 40636 net.cpp:129] Top shape: 128 32 16 16 (1048576)
I1025 10:12:54.324163 40636 net.cpp:137] Memory required for data: 525861376
I1025 10:12:54.324170 40636 layer_factory.hpp:77] Creating layer Sigmoid8
I1025 10:12:54.324184 40636 net.cpp:84] Creating Layer Sigmoid8
I1025 10:12:54.324193 40636 net.cpp:406] Sigmoid8 <- Convolution8_Scale8_0_split_0
I1025 10:12:54.324203 40636 net.cpp:380] Sigmoid8 -> Sigmoid8
I1025 10:12:54.325266 40636 net.cpp:122] Setting up Sigmoid8
I1025 10:12:54.325287 40636 net.cpp:129] Top shape: 128 32 16 16 (1048576)
I1025 10:12:54.325295 40636 net.cpp:137] Memory required for data: 530055680
I1025 10:12:54.325304 40636 layer_factory.hpp:77] Creating layer Eltwise11
I1025 10:12:54.325318 40636 net.cpp:84] Creating Layer Eltwise11
I1025 10:12:54.325326 40636 net.cpp:406] Eltwise11 <- Convolution8_Scale8_0_split_1
I1025 10:12:54.325336 40636 net.cpp:406] Eltwise11 <- Sigmoid8
I1025 10:12:54.325350 40636 net.cpp:380] Eltwise11 -> Eltwise11
I1025 10:12:54.325387 40636 net.cpp:122] Setting up Eltwise11
I1025 10:12:54.325400 40636 net.cpp:129] Top shape: 128 32 16 16 (1048576)
I1025 10:12:54.325407 40636 net.cpp:137] Memory required for data: 534249984
I1025 10:12:54.325414 40636 layer_factory.hpp:77] Creating layer Convolution9
I1025 10:12:54.325435 40636 net.cpp:84] Creating Layer Convolution9
I1025 10:12:54.325443 40636 net.cpp:406] Convolution9 <- Eltwise11
I1025 10:12:54.325455 40636 net.cpp:380] Convolution9 -> Convolution9
I1025 10:12:54.328640 40636 net.cpp:122] Setting up Convolution9
I1025 10:12:54.328671 40636 net.cpp:129] Top shape: 128 32 16 16 (1048576)
I1025 10:12:54.328691 40636 net.cpp:137] Memory required for data: 538444288
I1025 10:12:54.328702 40636 layer_factory.hpp:77] Creating layer BatchNorm9
I1025 10:12:54.328718 40636 net.cpp:84] Creating Layer BatchNorm9
I1025 10:12:54.328727 40636 net.cpp:406] BatchNorm9 <- Convolution9
I1025 10:12:54.328740 40636 net.cpp:367] BatchNorm9 -> Convolution9 (in-place)
I1025 10:12:54.329030 40636 net.cpp:122] Setting up BatchNorm9
I1025 10:12:54.329046 40636 net.cpp:129] Top shape: 128 32 16 16 (1048576)
I1025 10:12:54.329052 40636 net.cpp:137] Memory required for data: 542638592
I1025 10:12:54.329066 40636 layer_factory.hpp:77] Creating layer Scale9
I1025 10:12:54.329077 40636 net.cpp:84] Creating Layer Scale9
I1025 10:12:54.329085 40636 net.cpp:406] Scale9 <- Convolution9
I1025 10:12:54.329103 40636 net.cpp:367] Scale9 -> Convolution9 (in-place)
I1025 10:12:54.329155 40636 layer_factory.hpp:77] Creating layer Scale9
I1025 10:12:54.329327 40636 net.cpp:122] Setting up Scale9
I1025 10:12:54.329344 40636 net.cpp:129] Top shape: 128 32 16 16 (1048576)
I1025 10:12:54.329351 40636 net.cpp:137] Memory required for data: 546832896
I1025 10:12:54.329363 40636 layer_factory.hpp:77] Creating layer Convolution10
I1025 10:12:54.329380 40636 net.cpp:84] Creating Layer Convolution10
I1025 10:12:54.329390 40636 net.cpp:406] Convolution10 <- Eltwise10_Eltwise10_0_split_1
I1025 10:12:54.329401 40636 net.cpp:380] Convolution10 -> Convolution10
I1025 10:12:54.332190 40636 net.cpp:122] Setting up Convolution10
I1025 10:12:54.332212 40636 net.cpp:129] Top shape: 128 32 16 16 (1048576)
I1025 10:12:54.332221 40636 net.cpp:137] Memory required for data: 551027200
I1025 10:12:54.332248 40636 layer_factory.hpp:77] Creating layer BatchNorm10
I1025 10:12:54.332262 40636 net.cpp:84] Creating Layer BatchNorm10
I1025 10:12:54.332271 40636 net.cpp:406] BatchNorm10 <- Convolution10
I1025 10:12:54.332284 40636 net.cpp:367] BatchNorm10 -> Convolution10 (in-place)
I1025 10:12:54.332579 40636 net.cpp:122] Setting up BatchNorm10
I1025 10:12:54.332594 40636 net.cpp:129] Top shape: 128 32 16 16 (1048576)
I1025 10:12:54.332602 40636 net.cpp:137] Memory required for data: 555221504
I1025 10:12:54.332615 40636 layer_factory.hpp:77] Creating layer Scale10
I1025 10:12:54.332626 40636 net.cpp:84] Creating Layer Scale10
I1025 10:12:54.332634 40636 net.cpp:406] Scale10 <- Convolution10
I1025 10:12:54.332644 40636 net.cpp:367] Scale10 -> Convolution10 (in-place)
I1025 10:12:54.332698 40636 layer_factory.hpp:77] Creating layer Scale10
I1025 10:12:54.332872 40636 net.cpp:122] Setting up Scale10
I1025 10:12:54.332886 40636 net.cpp:129] Top shape: 128 32 16 16 (1048576)
I1025 10:12:54.332893 40636 net.cpp:137] Memory required for data: 559415808
I1025 10:12:54.332904 40636 layer_factory.hpp:77] Creating layer Eltwise12
I1025 10:12:54.332918 40636 net.cpp:84] Creating Layer Eltwise12
I1025 10:12:54.332926 40636 net.cpp:406] Eltwise12 <- Convolution9
I1025 10:12:54.332936 40636 net.cpp:406] Eltwise12 <- Convolution10
I1025 10:12:54.332945 40636 net.cpp:380] Eltwise12 -> Eltwise12
I1025 10:12:54.332978 40636 net.cpp:122] Setting up Eltwise12
I1025 10:12:54.332990 40636 net.cpp:129] Top shape: 128 32 16 16 (1048576)
I1025 10:12:54.332998 40636 net.cpp:137] Memory required for data: 563610112
I1025 10:12:54.333005 40636 layer_factory.hpp:77] Creating layer Eltwise12_Eltwise12_0_split
I1025 10:12:54.333015 40636 net.cpp:84] Creating Layer Eltwise12_Eltwise12_0_split
I1025 10:12:54.333024 40636 net.cpp:406] Eltwise12_Eltwise12_0_split <- Eltwise12
I1025 10:12:54.333035 40636 net.cpp:380] Eltwise12_Eltwise12_0_split -> Eltwise12_Eltwise12_0_split_0
I1025 10:12:54.333047 40636 net.cpp:380] Eltwise12_Eltwise12_0_split -> Eltwise12_Eltwise12_0_split_1
I1025 10:12:54.333099 40636 net.cpp:122] Setting up Eltwise12_Eltwise12_0_split
I1025 10:12:54.333112 40636 net.cpp:129] Top shape: 128 32 16 16 (1048576)
I1025 10:12:54.333120 40636 net.cpp:129] Top shape: 128 32 16 16 (1048576)
I1025 10:12:54.333135 40636 net.cpp:137] Memory required for data: 571998720
I1025 10:12:54.333154 40636 layer_factory.hpp:77] Creating layer Sigmoid9
I1025 10:12:54.333174 40636 net.cpp:84] Creating Layer Sigmoid9
I1025 10:12:54.333184 40636 net.cpp:406] Sigmoid9 <- Eltwise12_Eltwise12_0_split_0
I1025 10:12:54.333194 40636 net.cpp:380] Sigmoid9 -> Sigmoid9
I1025 10:12:54.333490 40636 net.cpp:122] Setting up Sigmoid9
I1025 10:12:54.333508 40636 net.cpp:129] Top shape: 128 32 16 16 (1048576)
I1025 10:12:54.333515 40636 net.cpp:137] Memory required for data: 576193024
I1025 10:12:54.333524 40636 layer_factory.hpp:77] Creating layer Eltwise13
I1025 10:12:54.333539 40636 net.cpp:84] Creating Layer Eltwise13
I1025 10:12:54.333547 40636 net.cpp:406] Eltwise13 <- Eltwise12_Eltwise12_0_split_1
I1025 10:12:54.333556 40636 net.cpp:406] Eltwise13 <- Sigmoid9
I1025 10:12:54.333566 40636 net.cpp:380] Eltwise13 -> Eltwise13
I1025 10:12:54.333607 40636 net.cpp:122] Setting up Eltwise13
I1025 10:12:54.333621 40636 net.cpp:129] Top shape: 128 32 16 16 (1048576)
I1025 10:12:54.333627 40636 net.cpp:137] Memory required for data: 580387328
I1025 10:12:54.333636 40636 layer_factory.hpp:77] Creating layer Eltwise13_Eltwise13_0_split
I1025 10:12:54.333645 40636 net.cpp:84] Creating Layer Eltwise13_Eltwise13_0_split
I1025 10:12:54.333652 40636 net.cpp:406] Eltwise13_Eltwise13_0_split <- Eltwise13
I1025 10:12:54.333665 40636 net.cpp:380] Eltwise13_Eltwise13_0_split -> Eltwise13_Eltwise13_0_split_0
I1025 10:12:54.333676 40636 net.cpp:380] Eltwise13_Eltwise13_0_split -> Eltwise13_Eltwise13_0_split_1
I1025 10:12:54.333732 40636 net.cpp:122] Setting up Eltwise13_Eltwise13_0_split
I1025 10:12:54.333745 40636 net.cpp:129] Top shape: 128 32 16 16 (1048576)
I1025 10:12:54.333755 40636 net.cpp:129] Top shape: 128 32 16 16 (1048576)
I1025 10:12:54.333762 40636 net.cpp:137] Memory required for data: 588775936
I1025 10:12:54.333770 40636 layer_factory.hpp:77] Creating layer Convolution11
I1025 10:12:54.333789 40636 net.cpp:84] Creating Layer Convolution11
I1025 10:12:54.333798 40636 net.cpp:406] Convolution11 <- Eltwise13_Eltwise13_0_split_0
I1025 10:12:54.333809 40636 net.cpp:380] Convolution11 -> Convolution11
I1025 10:12:54.341387 40636 net.cpp:122] Setting up Convolution11
I1025 10:12:54.341410 40636 net.cpp:129] Top shape: 128 32 16 16 (1048576)
I1025 10:12:54.341416 40636 net.cpp:137] Memory required for data: 592970240
I1025 10:12:54.341433 40636 layer_factory.hpp:77] Creating layer BatchNorm11
I1025 10:12:54.341450 40636 net.cpp:84] Creating Layer BatchNorm11
I1025 10:12:54.341462 40636 net.cpp:406] BatchNorm11 <- Convolution11
I1025 10:12:54.341471 40636 net.cpp:367] BatchNorm11 -> Convolution11 (in-place)
I1025 10:12:54.341681 40636 net.cpp:122] Setting up BatchNorm11
I1025 10:12:54.341691 40636 net.cpp:129] Top shape: 128 32 16 16 (1048576)
I1025 10:12:54.341696 40636 net.cpp:137] Memory required for data: 597164544
I1025 10:12:54.341703 40636 layer_factory.hpp:77] Creating layer Scale11
I1025 10:12:54.341717 40636 net.cpp:84] Creating Layer Scale11
I1025 10:12:54.341722 40636 net.cpp:406] Scale11 <- Convolution11
I1025 10:12:54.341728 40636 net.cpp:367] Scale11 -> Convolution11 (in-place)
I1025 10:12:54.341768 40636 layer_factory.hpp:77] Creating layer Scale11
I1025 10:12:54.341891 40636 net.cpp:122] Setting up Scale11
I1025 10:12:54.341900 40636 net.cpp:129] Top shape: 128 32 16 16 (1048576)
I1025 10:12:54.341904 40636 net.cpp:137] Memory required for data: 601358848
I1025 10:12:54.341912 40636 layer_factory.hpp:77] Creating layer Convolution11_Scale11_0_split
I1025 10:12:54.341919 40636 net.cpp:84] Creating Layer Convolution11_Scale11_0_split
I1025 10:12:54.341924 40636 net.cpp:406] Convolution11_Scale11_0_split <- Convolution11
I1025 10:12:54.341933 40636 net.cpp:380] Convolution11_Scale11_0_split -> Convolution11_Scale11_0_split_0
I1025 10:12:54.341943 40636 net.cpp:380] Convolution11_Scale11_0_split -> Convolution11_Scale11_0_split_1
I1025 10:12:54.342016 40636 net.cpp:122] Setting up Convolution11_Scale11_0_split
I1025 10:12:54.342025 40636 net.cpp:129] Top shape: 128 32 16 16 (1048576)
I1025 10:12:54.342039 40636 net.cpp:129] Top shape: 128 32 16 16 (1048576)
I1025 10:12:54.342051 40636 net.cpp:137] Memory required for data: 609747456
I1025 10:12:54.342056 40636 layer_factory.hpp:77] Creating layer Sigmoid10
I1025 10:12:54.342066 40636 net.cpp:84] Creating Layer Sigmoid10
I1025 10:12:54.342070 40636 net.cpp:406] Sigmoid10 <- Convolution11_Scale11_0_split_0
I1025 10:12:54.342078 40636 net.cpp:380] Sigmoid10 -> Sigmoid10
I1025 10:12:54.342284 40636 net.cpp:122] Setting up Sigmoid10
I1025 10:12:54.342298 40636 net.cpp:129] Top shape: 128 32 16 16 (1048576)
I1025 10:12:54.342303 40636 net.cpp:137] Memory required for data: 613941760
I1025 10:12:54.342310 40636 layer_factory.hpp:77] Creating layer Eltwise14
I1025 10:12:54.342320 40636 net.cpp:84] Creating Layer Eltwise14
I1025 10:12:54.342325 40636 net.cpp:406] Eltwise14 <- Convolution11_Scale11_0_split_1
I1025 10:12:54.342332 40636 net.cpp:406] Eltwise14 <- Sigmoid10
I1025 10:12:54.342339 40636 net.cpp:380] Eltwise14 -> Eltwise14
I1025 10:12:54.342368 40636 net.cpp:122] Setting up Eltwise14
I1025 10:12:54.342377 40636 net.cpp:129] Top shape: 128 32 16 16 (1048576)
I1025 10:12:54.342381 40636 net.cpp:137] Memory required for data: 618136064
I1025 10:12:54.342386 40636 layer_factory.hpp:77] Creating layer Convolution12
I1025 10:12:54.342401 40636 net.cpp:84] Creating Layer Convolution12
I1025 10:12:54.342406 40636 net.cpp:406] Convolution12 <- Eltwise14
I1025 10:12:54.342414 40636 net.cpp:380] Convolution12 -> Convolution12
I1025 10:12:54.344959 40636 net.cpp:122] Setting up Convolution12
I1025 10:12:54.344976 40636 net.cpp:129] Top shape: 128 32 16 16 (1048576)
I1025 10:12:54.344981 40636 net.cpp:137] Memory required for data: 622330368
I1025 10:12:54.344990 40636 layer_factory.hpp:77] Creating layer BatchNorm12
I1025 10:12:54.345000 40636 net.cpp:84] Creating Layer BatchNorm12
I1025 10:12:54.345006 40636 net.cpp:406] BatchNorm12 <- Convolution12
I1025 10:12:54.345012 40636 net.cpp:367] BatchNorm12 -> Convolution12 (in-place)
I1025 10:12:54.345221 40636 net.cpp:122] Setting up BatchNorm12
I1025 10:12:54.345232 40636 net.cpp:129] Top shape: 128 32 16 16 (1048576)
I1025 10:12:54.345235 40636 net.cpp:137] Memory required for data: 626524672
I1025 10:12:54.345244 40636 layer_factory.hpp:77] Creating layer Scale12
I1025 10:12:54.345252 40636 net.cpp:84] Creating Layer Scale12
I1025 10:12:54.345257 40636 net.cpp:406] Scale12 <- Convolution12
I1025 10:12:54.345265 40636 net.cpp:367] Scale12 -> Convolution12 (in-place)
I1025 10:12:54.345302 40636 layer_factory.hpp:77] Creating layer Scale12
I1025 10:12:54.345422 40636 net.cpp:122] Setting up Scale12
I1025 10:12:54.345432 40636 net.cpp:129] Top shape: 128 32 16 16 (1048576)
I1025 10:12:54.345435 40636 net.cpp:137] Memory required for data: 630718976
I1025 10:12:54.345444 40636 layer_factory.hpp:77] Creating layer Eltwise15
I1025 10:12:54.345455 40636 net.cpp:84] Creating Layer Eltwise15
I1025 10:12:54.345461 40636 net.cpp:406] Eltwise15 <- Convolution12
I1025 10:12:54.345468 40636 net.cpp:406] Eltwise15 <- Eltwise13_Eltwise13_0_split_1
I1025 10:12:54.345474 40636 net.cpp:380] Eltwise15 -> Eltwise15
I1025 10:12:54.345495 40636 net.cpp:122] Setting up Eltwise15
I1025 10:12:54.345504 40636 net.cpp:129] Top shape: 128 32 16 16 (1048576)
I1025 10:12:54.345507 40636 net.cpp:137] Memory required for data: 634913280
I1025 10:12:54.345512 40636 layer_factory.hpp:77] Creating layer Eltwise15_Eltwise15_0_split
I1025 10:12:54.345520 40636 net.cpp:84] Creating Layer Eltwise15_Eltwise15_0_split
I1025 10:12:54.345525 40636 net.cpp:406] Eltwise15_Eltwise15_0_split <- Eltwise15
I1025 10:12:54.345531 40636 net.cpp:380] Eltwise15_Eltwise15_0_split -> Eltwise15_Eltwise15_0_split_0
I1025 10:12:54.345541 40636 net.cpp:380] Eltwise15_Eltwise15_0_split -> Eltwise15_Eltwise15_0_split_1
I1025 10:12:54.345582 40636 net.cpp:122] Setting up Eltwise15_Eltwise15_0_split
I1025 10:12:54.345589 40636 net.cpp:129] Top shape: 128 32 16 16 (1048576)
I1025 10:12:54.345595 40636 net.cpp:129] Top shape: 128 32 16 16 (1048576)
I1025 10:12:54.345604 40636 net.cpp:137] Memory required for data: 643301888
I1025 10:12:54.345616 40636 layer_factory.hpp:77] Creating layer Sigmoid11
I1025 10:12:54.345623 40636 net.cpp:84] Creating Layer Sigmoid11
I1025 10:12:54.345628 40636 net.cpp:406] Sigmoid11 <- Eltwise15_Eltwise15_0_split_0
I1025 10:12:54.345635 40636 net.cpp:380] Sigmoid11 -> Sigmoid11
I1025 10:12:54.346546 40636 net.cpp:122] Setting up Sigmoid11
I1025 10:12:54.346563 40636 net.cpp:129] Top shape: 128 32 16 16 (1048576)
I1025 10:12:54.346568 40636 net.cpp:137] Memory required for data: 647496192
I1025 10:12:54.346573 40636 layer_factory.hpp:77] Creating layer Eltwise16
I1025 10:12:54.346583 40636 net.cpp:84] Creating Layer Eltwise16
I1025 10:12:54.346590 40636 net.cpp:406] Eltwise16 <- Eltwise15_Eltwise15_0_split_1
I1025 10:12:54.346596 40636 net.cpp:406] Eltwise16 <- Sigmoid11
I1025 10:12:54.346601 40636 net.cpp:380] Eltwise16 -> Eltwise16
I1025 10:12:54.346631 40636 net.cpp:122] Setting up Eltwise16
I1025 10:12:54.346638 40636 net.cpp:129] Top shape: 128 32 16 16 (1048576)
I1025 10:12:54.346642 40636 net.cpp:137] Memory required for data: 651690496
I1025 10:12:54.346649 40636 layer_factory.hpp:77] Creating layer Eltwise16_Eltwise16_0_split
I1025 10:12:54.346658 40636 net.cpp:84] Creating Layer Eltwise16_Eltwise16_0_split
I1025 10:12:54.346663 40636 net.cpp:406] Eltwise16_Eltwise16_0_split <- Eltwise16
I1025 10:12:54.346673 40636 net.cpp:380] Eltwise16_Eltwise16_0_split -> Eltwise16_Eltwise16_0_split_0
I1025 10:12:54.346679 40636 net.cpp:380] Eltwise16_Eltwise16_0_split -> Eltwise16_Eltwise16_0_split_1
I1025 10:12:54.346719 40636 net.cpp:122] Setting up Eltwise16_Eltwise16_0_split
I1025 10:12:54.346726 40636 net.cpp:129] Top shape: 128 32 16 16 (1048576)
I1025 10:12:54.346732 40636 net.cpp:129] Top shape: 128 32 16 16 (1048576)
I1025 10:12:54.346736 40636 net.cpp:137] Memory required for data: 660079104
I1025 10:12:54.346740 40636 layer_factory.hpp:77] Creating layer Convolution13
I1025 10:12:54.346755 40636 net.cpp:84] Creating Layer Convolution13
I1025 10:12:54.346760 40636 net.cpp:406] Convolution13 <- Eltwise16_Eltwise16_0_split_0
I1025 10:12:54.346771 40636 net.cpp:380] Convolution13 -> Convolution13
I1025 10:12:54.349519 40636 net.cpp:122] Setting up Convolution13
I1025 10:12:54.349539 40636 net.cpp:129] Top shape: 128 32 16 16 (1048576)
I1025 10:12:54.349544 40636 net.cpp:137] Memory required for data: 664273408
I1025 10:12:54.349551 40636 layer_factory.hpp:77] Creating layer BatchNorm13
I1025 10:12:54.349560 40636 net.cpp:84] Creating Layer BatchNorm13
I1025 10:12:54.349566 40636 net.cpp:406] BatchNorm13 <- Convolution13
I1025 10:12:54.349575 40636 net.cpp:367] BatchNorm13 -> Convolution13 (in-place)
I1025 10:12:54.349781 40636 net.cpp:122] Setting up BatchNorm13
I1025 10:12:54.349792 40636 net.cpp:129] Top shape: 128 32 16 16 (1048576)
I1025 10:12:54.349795 40636 net.cpp:137] Memory required for data: 668467712
I1025 10:12:54.349803 40636 layer_factory.hpp:77] Creating layer Scale13
I1025 10:12:54.349814 40636 net.cpp:84] Creating Layer Scale13
I1025 10:12:54.349819 40636 net.cpp:406] Scale13 <- Convolution13
I1025 10:12:54.349825 40636 net.cpp:367] Scale13 -> Convolution13 (in-place)
I1025 10:12:54.349866 40636 layer_factory.hpp:77] Creating layer Scale13
I1025 10:12:54.349997 40636 net.cpp:122] Setting up Scale13
I1025 10:12:54.350006 40636 net.cpp:129] Top shape: 128 32 16 16 (1048576)
I1025 10:12:54.350011 40636 net.cpp:137] Memory required for data: 672662016
I1025 10:12:54.350020 40636 layer_factory.hpp:77] Creating layer Convolution13_Scale13_0_split
I1025 10:12:54.350028 40636 net.cpp:84] Creating Layer Convolution13_Scale13_0_split
I1025 10:12:54.350033 40636 net.cpp:406] Convolution13_Scale13_0_split <- Convolution13
I1025 10:12:54.350041 40636 net.cpp:380] Convolution13_Scale13_0_split -> Convolution13_Scale13_0_split_0
I1025 10:12:54.350049 40636 net.cpp:380] Convolution13_Scale13_0_split -> Convolution13_Scale13_0_split_1
I1025 10:12:54.350086 40636 net.cpp:122] Setting up Convolution13_Scale13_0_split
I1025 10:12:54.350100 40636 net.cpp:129] Top shape: 128 32 16 16 (1048576)
I1025 10:12:54.350113 40636 net.cpp:129] Top shape: 128 32 16 16 (1048576)
I1025 10:12:54.350118 40636 net.cpp:137] Memory required for data: 681050624
I1025 10:12:54.350123 40636 layer_factory.hpp:77] Creating layer Sigmoid12
I1025 10:12:54.350132 40636 net.cpp:84] Creating Layer Sigmoid12
I1025 10:12:54.350138 40636 net.cpp:406] Sigmoid12 <- Convolution13_Scale13_0_split_0
I1025 10:12:54.350144 40636 net.cpp:380] Sigmoid12 -> Sigmoid12
I1025 10:12:54.350353 40636 net.cpp:122] Setting up Sigmoid12
I1025 10:12:54.350365 40636 net.cpp:129] Top shape: 128 32 16 16 (1048576)
I1025 10:12:54.350369 40636 net.cpp:137] Memory required for data: 685244928
I1025 10:12:54.350374 40636 layer_factory.hpp:77] Creating layer Eltwise17
I1025 10:12:54.350386 40636 net.cpp:84] Creating Layer Eltwise17
I1025 10:12:54.350392 40636 net.cpp:406] Eltwise17 <- Convolution13_Scale13_0_split_1
I1025 10:12:54.350399 40636 net.cpp:406] Eltwise17 <- Sigmoid12
I1025 10:12:54.350405 40636 net.cpp:380] Eltwise17 -> Eltwise17
I1025 10:12:54.350436 40636 net.cpp:122] Setting up Eltwise17
I1025 10:12:54.350445 40636 net.cpp:129] Top shape: 128 32 16 16 (1048576)
I1025 10:12:54.350448 40636 net.cpp:137] Memory required for data: 689439232
I1025 10:12:54.350453 40636 layer_factory.hpp:77] Creating layer Convolution14
I1025 10:12:54.350468 40636 net.cpp:84] Creating Layer Convolution14
I1025 10:12:54.350473 40636 net.cpp:406] Convolution14 <- Eltwise17
I1025 10:12:54.350483 40636 net.cpp:380] Convolution14 -> Convolution14
I1025 10:12:54.354140 40636 net.cpp:122] Setting up Convolution14
I1025 10:12:54.354159 40636 net.cpp:129] Top shape: 128 32 16 16 (1048576)
I1025 10:12:54.354164 40636 net.cpp:137] Memory required for data: 693633536
I1025 10:12:54.354172 40636 layer_factory.hpp:77] Creating layer BatchNorm14
I1025 10:12:54.354183 40636 net.cpp:84] Creating Layer BatchNorm14
I1025 10:12:54.354189 40636 net.cpp:406] BatchNorm14 <- Convolution14
I1025 10:12:54.354197 40636 net.cpp:367] BatchNorm14 -> Convolution14 (in-place)
I1025 10:12:54.354406 40636 net.cpp:122] Setting up BatchNorm14
I1025 10:12:54.354416 40636 net.cpp:129] Top shape: 128 32 16 16 (1048576)
I1025 10:12:54.354420 40636 net.cpp:137] Memory required for data: 697827840
I1025 10:12:54.354429 40636 layer_factory.hpp:77] Creating layer Scale14
I1025 10:12:54.354440 40636 net.cpp:84] Creating Layer Scale14
I1025 10:12:54.354445 40636 net.cpp:406] Scale14 <- Convolution14
I1025 10:12:54.354454 40636 net.cpp:367] Scale14 -> Convolution14 (in-place)
I1025 10:12:54.354502 40636 layer_factory.hpp:77] Creating layer Scale14
I1025 10:12:54.354635 40636 net.cpp:122] Setting up Scale14
I1025 10:12:54.354645 40636 net.cpp:129] Top shape: 128 32 16 16 (1048576)
I1025 10:12:54.354650 40636 net.cpp:137] Memory required for data: 702022144
I1025 10:12:54.354656 40636 layer_factory.hpp:77] Creating layer Eltwise18
I1025 10:12:54.354665 40636 net.cpp:84] Creating Layer Eltwise18
I1025 10:12:54.354671 40636 net.cpp:406] Eltwise18 <- Convolution14
I1025 10:12:54.354677 40636 net.cpp:406] Eltwise18 <- Eltwise16_Eltwise16_0_split_1
I1025 10:12:54.354683 40636 net.cpp:380] Eltwise18 -> Eltwise18
I1025 10:12:54.354706 40636 net.cpp:122] Setting up Eltwise18
I1025 10:12:54.354713 40636 net.cpp:129] Top shape: 128 32 16 16 (1048576)
I1025 10:12:54.354717 40636 net.cpp:137] Memory required for data: 706216448
I1025 10:12:54.354724 40636 layer_factory.hpp:77] Creating layer Eltwise18_Eltwise18_0_split
I1025 10:12:54.354733 40636 net.cpp:84] Creating Layer Eltwise18_Eltwise18_0_split
I1025 10:12:54.354738 40636 net.cpp:406] Eltwise18_Eltwise18_0_split <- Eltwise18
I1025 10:12:54.354744 40636 net.cpp:380] Eltwise18_Eltwise18_0_split -> Eltwise18_Eltwise18_0_split_0
I1025 10:12:54.354751 40636 net.cpp:380] Eltwise18_Eltwise18_0_split -> Eltwise18_Eltwise18_0_split_1
I1025 10:12:54.354794 40636 net.cpp:122] Setting up Eltwise18_Eltwise18_0_split
I1025 10:12:54.354801 40636 net.cpp:129] Top shape: 128 32 16 16 (1048576)
I1025 10:12:54.354807 40636 net.cpp:129] Top shape: 128 32 16 16 (1048576)
I1025 10:12:54.354816 40636 net.cpp:137] Memory required for data: 714605056
I1025 10:12:54.354830 40636 layer_factory.hpp:77] Creating layer Sigmoid13
I1025 10:12:54.354836 40636 net.cpp:84] Creating Layer Sigmoid13
I1025 10:12:54.354841 40636 net.cpp:406] Sigmoid13 <- Eltwise18_Eltwise18_0_split_0
I1025 10:12:54.354847 40636 net.cpp:380] Sigmoid13 -> Sigmoid13
I1025 10:12:54.355059 40636 net.cpp:122] Setting up Sigmoid13
I1025 10:12:54.355072 40636 net.cpp:129] Top shape: 128 32 16 16 (1048576)
I1025 10:12:54.355077 40636 net.cpp:137] Memory required for data: 718799360
I1025 10:12:54.355082 40636 layer_factory.hpp:77] Creating layer Eltwise19
I1025 10:12:54.355089 40636 net.cpp:84] Creating Layer Eltwise19
I1025 10:12:54.355094 40636 net.cpp:406] Eltwise19 <- Eltwise18_Eltwise18_0_split_1
I1025 10:12:54.355100 40636 net.cpp:406] Eltwise19 <- Sigmoid13
I1025 10:12:54.355108 40636 net.cpp:380] Eltwise19 -> Eltwise19
I1025 10:12:54.355139 40636 net.cpp:122] Setting up Eltwise19
I1025 10:12:54.355147 40636 net.cpp:129] Top shape: 128 32 16 16 (1048576)
I1025 10:12:54.355151 40636 net.cpp:137] Memory required for data: 722993664
I1025 10:12:54.355156 40636 layer_factory.hpp:77] Creating layer Eltwise19_Eltwise19_0_split
I1025 10:12:54.355162 40636 net.cpp:84] Creating Layer Eltwise19_Eltwise19_0_split
I1025 10:12:54.355167 40636 net.cpp:406] Eltwise19_Eltwise19_0_split <- Eltwise19
I1025 10:12:54.355173 40636 net.cpp:380] Eltwise19_Eltwise19_0_split -> Eltwise19_Eltwise19_0_split_0
I1025 10:12:54.355182 40636 net.cpp:380] Eltwise19_Eltwise19_0_split -> Eltwise19_Eltwise19_0_split_1
I1025 10:12:54.355221 40636 net.cpp:122] Setting up Eltwise19_Eltwise19_0_split
I1025 10:12:54.355229 40636 net.cpp:129] Top shape: 128 32 16 16 (1048576)
I1025 10:12:54.355234 40636 net.cpp:129] Top shape: 128 32 16 16 (1048576)
I1025 10:12:54.355238 40636 net.cpp:137] Memory required for data: 731382272
I1025 10:12:54.355245 40636 layer_factory.hpp:77] Creating layer Convolution15
I1025 10:12:54.355262 40636 net.cpp:84] Creating Layer Convolution15
I1025 10:12:54.355268 40636 net.cpp:406] Convolution15 <- Eltwise19_Eltwise19_0_split_0
I1025 10:12:54.355278 40636 net.cpp:380] Convolution15 -> Convolution15
I1025 10:12:54.359086 40636 net.cpp:122] Setting up Convolution15
I1025 10:12:54.359105 40636 net.cpp:129] Top shape: 128 64 8 8 (524288)
I1025 10:12:54.359112 40636 net.cpp:137] Memory required for data: 733479424
I1025 10:12:54.359119 40636 layer_factory.hpp:77] Creating layer BatchNorm15
I1025 10:12:54.359130 40636 net.cpp:84] Creating Layer BatchNorm15
I1025 10:12:54.359136 40636 net.cpp:406] BatchNorm15 <- Convolution15
I1025 10:12:54.359143 40636 net.cpp:367] BatchNorm15 -> Convolution15 (in-place)
I1025 10:12:54.359359 40636 net.cpp:122] Setting up BatchNorm15
I1025 10:12:54.359369 40636 net.cpp:129] Top shape: 128 64 8 8 (524288)
I1025 10:12:54.359375 40636 net.cpp:137] Memory required for data: 735576576
I1025 10:12:54.359382 40636 layer_factory.hpp:77] Creating layer Scale15
I1025 10:12:54.359393 40636 net.cpp:84] Creating Layer Scale15
I1025 10:12:54.359400 40636 net.cpp:406] Scale15 <- Convolution15
I1025 10:12:54.359407 40636 net.cpp:367] Scale15 -> Convolution15 (in-place)
I1025 10:12:54.359448 40636 layer_factory.hpp:77] Creating layer Scale15
I1025 10:12:54.359576 40636 net.cpp:122] Setting up Scale15
I1025 10:12:54.359586 40636 net.cpp:129] Top shape: 128 64 8 8 (524288)
I1025 10:12:54.359589 40636 net.cpp:137] Memory required for data: 737673728
I1025 10:12:54.359597 40636 layer_factory.hpp:77] Creating layer Convolution15_Scale15_0_split
I1025 10:12:54.359604 40636 net.cpp:84] Creating Layer Convolution15_Scale15_0_split
I1025 10:12:54.359608 40636 net.cpp:406] Convolution15_Scale15_0_split <- Convolution15
I1025 10:12:54.359617 40636 net.cpp:380] Convolution15_Scale15_0_split -> Convolution15_Scale15_0_split_0
I1025 10:12:54.359625 40636 net.cpp:380] Convolution15_Scale15_0_split -> Convolution15_Scale15_0_split_1
I1025 10:12:54.359663 40636 net.cpp:122] Setting up Convolution15_Scale15_0_split
I1025 10:12:54.359676 40636 net.cpp:129] Top shape: 128 64 8 8 (524288)
I1025 10:12:54.359689 40636 net.cpp:129] Top shape: 128 64 8 8 (524288)
I1025 10:12:54.359694 40636 net.cpp:137] Memory required for data: 741868032
I1025 10:12:54.359700 40636 layer_factory.hpp:77] Creating layer Sigmoid14
I1025 10:12:54.359709 40636 net.cpp:84] Creating Layer Sigmoid14
I1025 10:12:54.359714 40636 net.cpp:406] Sigmoid14 <- Convolution15_Scale15_0_split_0
I1025 10:12:54.359721 40636 net.cpp:380] Sigmoid14 -> Sigmoid14
I1025 10:12:54.360630 40636 net.cpp:122] Setting up Sigmoid14
I1025 10:12:54.360646 40636 net.cpp:129] Top shape: 128 64 8 8 (524288)
I1025 10:12:54.360651 40636 net.cpp:137] Memory required for data: 743965184
I1025 10:12:54.360656 40636 layer_factory.hpp:77] Creating layer Eltwise20
I1025 10:12:54.360664 40636 net.cpp:84] Creating Layer Eltwise20
I1025 10:12:54.360669 40636 net.cpp:406] Eltwise20 <- Convolution15_Scale15_0_split_1
I1025 10:12:54.360677 40636 net.cpp:406] Eltwise20 <- Sigmoid14
I1025 10:12:54.360685 40636 net.cpp:380] Eltwise20 -> Eltwise20
I1025 10:12:54.360719 40636 net.cpp:122] Setting up Eltwise20
I1025 10:12:54.360728 40636 net.cpp:129] Top shape: 128 64 8 8 (524288)
I1025 10:12:54.360733 40636 net.cpp:137] Memory required for data: 746062336
I1025 10:12:54.360736 40636 layer_factory.hpp:77] Creating layer Convolution16
I1025 10:12:54.360749 40636 net.cpp:84] Creating Layer Convolution16
I1025 10:12:54.360754 40636 net.cpp:406] Convolution16 <- Eltwise20
I1025 10:12:54.360766 40636 net.cpp:380] Convolution16 -> Convolution16
I1025 10:12:54.365059 40636 net.cpp:122] Setting up Convolution16
I1025 10:12:54.365077 40636 net.cpp:129] Top shape: 128 64 8 8 (524288)
I1025 10:12:54.365083 40636 net.cpp:137] Memory required for data: 748159488
I1025 10:12:54.365093 40636 layer_factory.hpp:77] Creating layer BatchNorm16
I1025 10:12:54.365104 40636 net.cpp:84] Creating Layer BatchNorm16
I1025 10:12:54.365110 40636 net.cpp:406] BatchNorm16 <- Convolution16
I1025 10:12:54.365118 40636 net.cpp:367] BatchNorm16 -> Convolution16 (in-place)
I1025 10:12:54.365342 40636 net.cpp:122] Setting up BatchNorm16
I1025 10:12:54.365352 40636 net.cpp:129] Top shape: 128 64 8 8 (524288)
I1025 10:12:54.365356 40636 net.cpp:137] Memory required for data: 750256640
I1025 10:12:54.365367 40636 layer_factory.hpp:77] Creating layer Scale16
I1025 10:12:54.365375 40636 net.cpp:84] Creating Layer Scale16
I1025 10:12:54.365381 40636 net.cpp:406] Scale16 <- Convolution16
I1025 10:12:54.365386 40636 net.cpp:367] Scale16 -> Convolution16 (in-place)
I1025 10:12:54.365432 40636 layer_factory.hpp:77] Creating layer Scale16
I1025 10:12:54.365561 40636 net.cpp:122] Setting up Scale16
I1025 10:12:54.365571 40636 net.cpp:129] Top shape: 128 64 8 8 (524288)
I1025 10:12:54.365576 40636 net.cpp:137] Memory required for data: 752353792
I1025 10:12:54.365582 40636 layer_factory.hpp:77] Creating layer Convolution17
I1025 10:12:54.365594 40636 net.cpp:84] Creating Layer Convolution17
I1025 10:12:54.365600 40636 net.cpp:406] Convolution17 <- Eltwise19_Eltwise19_0_split_1
I1025 10:12:54.365609 40636 net.cpp:380] Convolution17 -> Convolution17
I1025 10:12:54.368043 40636 net.cpp:122] Setting up Convolution17
I1025 10:12:54.368062 40636 net.cpp:129] Top shape: 128 64 8 8 (524288)
I1025 10:12:54.368067 40636 net.cpp:137] Memory required for data: 754450944
I1025 10:12:54.368075 40636 layer_factory.hpp:77] Creating layer BatchNorm17
I1025 10:12:54.368090 40636 net.cpp:84] Creating Layer BatchNorm17
I1025 10:12:54.368096 40636 net.cpp:406] BatchNorm17 <- Convolution17
I1025 10:12:54.368104 40636 net.cpp:367] BatchNorm17 -> Convolution17 (in-place)
I1025 10:12:54.368324 40636 net.cpp:122] Setting up BatchNorm17
I1025 10:12:54.368335 40636 net.cpp:129] Top shape: 128 64 8 8 (524288)
I1025 10:12:54.368338 40636 net.cpp:137] Memory required for data: 756548096
I1025 10:12:54.368347 40636 layer_factory.hpp:77] Creating layer Scale17
I1025 10:12:54.368357 40636 net.cpp:84] Creating Layer Scale17
I1025 10:12:54.368362 40636 net.cpp:406] Scale17 <- Convolution17
I1025 10:12:54.368376 40636 net.cpp:367] Scale17 -> Convolution17 (in-place)
I1025 10:12:54.368432 40636 layer_factory.hpp:77] Creating layer Scale17
I1025 10:12:54.368561 40636 net.cpp:122] Setting up Scale17
I1025 10:12:54.368571 40636 net.cpp:129] Top shape: 128 64 8 8 (524288)
I1025 10:12:54.368574 40636 net.cpp:137] Memory required for data: 758645248
I1025 10:12:54.368582 40636 layer_factory.hpp:77] Creating layer Eltwise21
I1025 10:12:54.368592 40636 net.cpp:84] Creating Layer Eltwise21
I1025 10:12:54.368597 40636 net.cpp:406] Eltwise21 <- Convolution16
I1025 10:12:54.368602 40636 net.cpp:406] Eltwise21 <- Convolution17
I1025 10:12:54.368608 40636 net.cpp:380] Eltwise21 -> Eltwise21
I1025 10:12:54.368631 40636 net.cpp:122] Setting up Eltwise21
I1025 10:12:54.368638 40636 net.cpp:129] Top shape: 128 64 8 8 (524288)
I1025 10:12:54.368643 40636 net.cpp:137] Memory required for data: 760742400
I1025 10:12:54.368647 40636 layer_factory.hpp:77] Creating layer Eltwise21_Eltwise21_0_split
I1025 10:12:54.368656 40636 net.cpp:84] Creating Layer Eltwise21_Eltwise21_0_split
I1025 10:12:54.368661 40636 net.cpp:406] Eltwise21_Eltwise21_0_split <- Eltwise21
I1025 10:12:54.368667 40636 net.cpp:380] Eltwise21_Eltwise21_0_split -> Eltwise21_Eltwise21_0_split_0
I1025 10:12:54.368676 40636 net.cpp:380] Eltwise21_Eltwise21_0_split -> Eltwise21_Eltwise21_0_split_1
I1025 10:12:54.368716 40636 net.cpp:122] Setting up Eltwise21_Eltwise21_0_split
I1025 10:12:54.368726 40636 net.cpp:129] Top shape: 128 64 8 8 (524288)
I1025 10:12:54.368731 40636 net.cpp:129] Top shape: 128 64 8 8 (524288)
I1025 10:12:54.368734 40636 net.cpp:137] Memory required for data: 764936704
I1025 10:12:54.368739 40636 layer_factory.hpp:77] Creating layer Sigmoid15
I1025 10:12:54.368746 40636 net.cpp:84] Creating Layer Sigmoid15
I1025 10:12:54.368752 40636 net.cpp:406] Sigmoid15 <- Eltwise21_Eltwise21_0_split_0
I1025 10:12:54.368757 40636 net.cpp:380] Sigmoid15 -> Sigmoid15
I1025 10:12:54.369669 40636 net.cpp:122] Setting up Sigmoid15
I1025 10:12:54.369685 40636 net.cpp:129] Top shape: 128 64 8 8 (524288)
I1025 10:12:54.369690 40636 net.cpp:137] Memory required for data: 767033856
I1025 10:12:54.369695 40636 layer_factory.hpp:77] Creating layer Eltwise22
I1025 10:12:54.369707 40636 net.cpp:84] Creating Layer Eltwise22
I1025 10:12:54.369714 40636 net.cpp:406] Eltwise22 <- Eltwise21_Eltwise21_0_split_1
I1025 10:12:54.369719 40636 net.cpp:406] Eltwise22 <- Sigmoid15
I1025 10:12:54.369726 40636 net.cpp:380] Eltwise22 -> Eltwise22
I1025 10:12:54.369757 40636 net.cpp:122] Setting up Eltwise22
I1025 10:12:54.369765 40636 net.cpp:129] Top shape: 128 64 8 8 (524288)
I1025 10:12:54.369770 40636 net.cpp:137] Memory required for data: 769131008
I1025 10:12:54.369776 40636 layer_factory.hpp:77] Creating layer Eltwise22_Eltwise22_0_split
I1025 10:12:54.369786 40636 net.cpp:84] Creating Layer Eltwise22_Eltwise22_0_split
I1025 10:12:54.369791 40636 net.cpp:406] Eltwise22_Eltwise22_0_split <- Eltwise22
I1025 10:12:54.369801 40636 net.cpp:380] Eltwise22_Eltwise22_0_split -> Eltwise22_Eltwise22_0_split_0
I1025 10:12:54.369807 40636 net.cpp:380] Eltwise22_Eltwise22_0_split -> Eltwise22_Eltwise22_0_split_1
I1025 10:12:54.369848 40636 net.cpp:122] Setting up Eltwise22_Eltwise22_0_split
I1025 10:12:54.369856 40636 net.cpp:129] Top shape: 128 64 8 8 (524288)
I1025 10:12:54.369863 40636 net.cpp:129] Top shape: 128 64 8 8 (524288)
I1025 10:12:54.369866 40636 net.cpp:137] Memory required for data: 773325312
I1025 10:12:54.369870 40636 layer_factory.hpp:77] Creating layer Convolution18
I1025 10:12:54.369882 40636 net.cpp:84] Creating Layer Convolution18
I1025 10:12:54.369887 40636 net.cpp:406] Convolution18 <- Eltwise22_Eltwise22_0_split_0
I1025 10:12:54.369897 40636 net.cpp:380] Convolution18 -> Convolution18
I1025 10:12:54.373360 40636 net.cpp:122] Setting up Convolution18
I1025 10:12:54.373378 40636 net.cpp:129] Top shape: 128 64 8 8 (524288)
I1025 10:12:54.373383 40636 net.cpp:137] Memory required for data: 775422464
I1025 10:12:54.373391 40636 layer_factory.hpp:77] Creating layer BatchNorm18
I1025 10:12:54.373409 40636 net.cpp:84] Creating Layer BatchNorm18
I1025 10:12:54.373421 40636 net.cpp:406] BatchNorm18 <- Convolution18
I1025 10:12:54.373431 40636 net.cpp:367] BatchNorm18 -> Convolution18 (in-place)
I1025 10:12:54.373657 40636 net.cpp:122] Setting up BatchNorm18
I1025 10:12:54.373667 40636 net.cpp:129] Top shape: 128 64 8 8 (524288)
I1025 10:12:54.373672 40636 net.cpp:137] Memory required for data: 777519616
I1025 10:12:54.373680 40636 layer_factory.hpp:77] Creating layer Scale18
I1025 10:12:54.373692 40636 net.cpp:84] Creating Layer Scale18
I1025 10:12:54.373697 40636 net.cpp:406] Scale18 <- Convolution18
I1025 10:12:54.373703 40636 net.cpp:367] Scale18 -> Convolution18 (in-place)
I1025 10:12:54.373749 40636 layer_factory.hpp:77] Creating layer Scale18
I1025 10:12:54.373879 40636 net.cpp:122] Setting up Scale18
I1025 10:12:54.373889 40636 net.cpp:129] Top shape: 128 64 8 8 (524288)
I1025 10:12:54.373893 40636 net.cpp:137] Memory required for data: 779616768
I1025 10:12:54.373900 40636 layer_factory.hpp:77] Creating layer Convolution18_Scale18_0_split
I1025 10:12:54.373909 40636 net.cpp:84] Creating Layer Convolution18_Scale18_0_split
I1025 10:12:54.373914 40636 net.cpp:406] Convolution18_Scale18_0_split <- Convolution18
I1025 10:12:54.373921 40636 net.cpp:380] Convolution18_Scale18_0_split -> Convolution18_Scale18_0_split_0
I1025 10:12:54.373929 40636 net.cpp:380] Convolution18_Scale18_0_split -> Convolution18_Scale18_0_split_1
I1025 10:12:54.373967 40636 net.cpp:122] Setting up Convolution18_Scale18_0_split
I1025 10:12:54.373975 40636 net.cpp:129] Top shape: 128 64 8 8 (524288)
I1025 10:12:54.373981 40636 net.cpp:129] Top shape: 128 64 8 8 (524288)
I1025 10:12:54.373986 40636 net.cpp:137] Memory required for data: 783811072
I1025 10:12:54.373992 40636 layer_factory.hpp:77] Creating layer Sigmoid16
I1025 10:12:54.374001 40636 net.cpp:84] Creating Layer Sigmoid16
I1025 10:12:54.374006 40636 net.cpp:406] Sigmoid16 <- Convolution18_Scale18_0_split_0
I1025 10:12:54.374012 40636 net.cpp:380] Sigmoid16 -> Sigmoid16
I1025 10:12:54.374224 40636 net.cpp:122] Setting up Sigmoid16
I1025 10:12:54.374238 40636 net.cpp:129] Top shape: 128 64 8 8 (524288)
I1025 10:12:54.374241 40636 net.cpp:137] Memory required for data: 785908224
I1025 10:12:54.374246 40636 layer_factory.hpp:77] Creating layer Eltwise23
I1025 10:12:54.374256 40636 net.cpp:84] Creating Layer Eltwise23
I1025 10:12:54.374263 40636 net.cpp:406] Eltwise23 <- Convolution18_Scale18_0_split_1
I1025 10:12:54.374269 40636 net.cpp:406] Eltwise23 <- Sigmoid16
I1025 10:12:54.374275 40636 net.cpp:380] Eltwise23 -> Eltwise23
I1025 10:12:54.374307 40636 net.cpp:122] Setting up Eltwise23
I1025 10:12:54.374316 40636 net.cpp:129] Top shape: 128 64 8 8 (524288)
I1025 10:12:54.374320 40636 net.cpp:137] Memory required for data: 788005376
I1025 10:12:54.374326 40636 layer_factory.hpp:77] Creating layer Convolution19
I1025 10:12:54.374339 40636 net.cpp:84] Creating Layer Convolution19
I1025 10:12:54.374344 40636 net.cpp:406] Convolution19 <- Eltwise23
I1025 10:12:54.374353 40636 net.cpp:380] Convolution19 -> Convolution19
I1025 10:12:54.377816 40636 net.cpp:122] Setting up Convolution19
I1025 10:12:54.377835 40636 net.cpp:129] Top shape: 128 64 8 8 (524288)
I1025 10:12:54.377840 40636 net.cpp:137] Memory required for data: 790102528
I1025 10:12:54.377847 40636 layer_factory.hpp:77] Creating layer BatchNorm19
I1025 10:12:54.377858 40636 net.cpp:84] Creating Layer BatchNorm19
I1025 10:12:54.377864 40636 net.cpp:406] BatchNorm19 <- Convolution19
I1025 10:12:54.377873 40636 net.cpp:367] BatchNorm19 -> Convolution19 (in-place)
I1025 10:12:54.378098 40636 net.cpp:122] Setting up BatchNorm19
I1025 10:12:54.378108 40636 net.cpp:129] Top shape: 128 64 8 8 (524288)
I1025 10:12:54.378113 40636 net.cpp:137] Memory required for data: 792199680
I1025 10:12:54.378181 40636 layer_factory.hpp:77] Creating layer Scale19
I1025 10:12:54.378195 40636 net.cpp:84] Creating Layer Scale19
I1025 10:12:54.378201 40636 net.cpp:406] Scale19 <- Convolution19
I1025 10:12:54.378206 40636 net.cpp:367] Scale19 -> Convolution19 (in-place)
I1025 10:12:54.378255 40636 layer_factory.hpp:77] Creating layer Scale19
I1025 10:12:54.378397 40636 net.cpp:122] Setting up Scale19
I1025 10:12:54.378407 40636 net.cpp:129] Top shape: 128 64 8 8 (524288)
I1025 10:12:54.378412 40636 net.cpp:137] Memory required for data: 794296832
I1025 10:12:54.378418 40636 layer_factory.hpp:77] Creating layer Eltwise24
I1025 10:12:54.378427 40636 net.cpp:84] Creating Layer Eltwise24
I1025 10:12:54.378432 40636 net.cpp:406] Eltwise24 <- Convolution19
I1025 10:12:54.378437 40636 net.cpp:406] Eltwise24 <- Eltwise22_Eltwise22_0_split_1
I1025 10:12:54.378446 40636 net.cpp:380] Eltwise24 -> Eltwise24
I1025 10:12:54.378470 40636 net.cpp:122] Setting up Eltwise24
I1025 10:12:54.378479 40636 net.cpp:129] Top shape: 128 64 8 8 (524288)
I1025 10:12:54.378482 40636 net.cpp:137] Memory required for data: 796393984
I1025 10:12:54.378486 40636 layer_factory.hpp:77] Creating layer Eltwise24_Eltwise24_0_split
I1025 10:12:54.378501 40636 net.cpp:84] Creating Layer Eltwise24_Eltwise24_0_split
I1025 10:12:54.378509 40636 net.cpp:406] Eltwise24_Eltwise24_0_split <- Eltwise24
I1025 10:12:54.378515 40636 net.cpp:380] Eltwise24_Eltwise24_0_split -> Eltwise24_Eltwise24_0_split_0
I1025 10:12:54.378522 40636 net.cpp:380] Eltwise24_Eltwise24_0_split -> Eltwise24_Eltwise24_0_split_1
I1025 10:12:54.378566 40636 net.cpp:122] Setting up Eltwise24_Eltwise24_0_split
I1025 10:12:54.378574 40636 net.cpp:129] Top shape: 128 64 8 8 (524288)
I1025 10:12:54.378581 40636 net.cpp:129] Top shape: 128 64 8 8 (524288)
I1025 10:12:54.378584 40636 net.cpp:137] Memory required for data: 800588288
I1025 10:12:54.378588 40636 layer_factory.hpp:77] Creating layer Sigmoid17
I1025 10:12:54.378595 40636 net.cpp:84] Creating Layer Sigmoid17
I1025 10:12:54.378600 40636 net.cpp:406] Sigmoid17 <- Eltwise24_Eltwise24_0_split_0
I1025 10:12:54.378607 40636 net.cpp:380] Sigmoid17 -> Sigmoid17
I1025 10:12:54.379518 40636 net.cpp:122] Setting up Sigmoid17
I1025 10:12:54.379534 40636 net.cpp:129] Top shape: 128 64 8 8 (524288)
I1025 10:12:54.379539 40636 net.cpp:137] Memory required for data: 802685440
I1025 10:12:54.379546 40636 layer_factory.hpp:77] Creating layer Eltwise25
I1025 10:12:54.379555 40636 net.cpp:84] Creating Layer Eltwise25
I1025 10:12:54.379560 40636 net.cpp:406] Eltwise25 <- Eltwise24_Eltwise24_0_split_1
I1025 10:12:54.379566 40636 net.cpp:406] Eltwise25 <- Sigmoid17
I1025 10:12:54.379575 40636 net.cpp:380] Eltwise25 -> Eltwise25
I1025 10:12:54.379606 40636 net.cpp:122] Setting up Eltwise25
I1025 10:12:54.379614 40636 net.cpp:129] Top shape: 128 64 8 8 (524288)
I1025 10:12:54.379618 40636 net.cpp:137] Memory required for data: 804782592
I1025 10:12:54.379623 40636 layer_factory.hpp:77] Creating layer Eltwise25_Eltwise25_0_split
I1025 10:12:54.379632 40636 net.cpp:84] Creating Layer Eltwise25_Eltwise25_0_split
I1025 10:12:54.379637 40636 net.cpp:406] Eltwise25_Eltwise25_0_split <- Eltwise25
I1025 10:12:54.379643 40636 net.cpp:380] Eltwise25_Eltwise25_0_split -> Eltwise25_Eltwise25_0_split_0
I1025 10:12:54.379650 40636 net.cpp:380] Eltwise25_Eltwise25_0_split -> Eltwise25_Eltwise25_0_split_1
I1025 10:12:54.379694 40636 net.cpp:122] Setting up Eltwise25_Eltwise25_0_split
I1025 10:12:54.379703 40636 net.cpp:129] Top shape: 128 64 8 8 (524288)
I1025 10:12:54.379709 40636 net.cpp:129] Top shape: 128 64 8 8 (524288)
I1025 10:12:54.379712 40636 net.cpp:137] Memory required for data: 808976896
I1025 10:12:54.379717 40636 layer_factory.hpp:77] Creating layer Convolution20
I1025 10:12:54.379731 40636 net.cpp:84] Creating Layer Convolution20
I1025 10:12:54.379736 40636 net.cpp:406] Convolution20 <- Eltwise25_Eltwise25_0_split_0
I1025 10:12:54.379745 40636 net.cpp:380] Convolution20 -> Convolution20
I1025 10:12:54.384634 40636 net.cpp:122] Setting up Convolution20
I1025 10:12:54.384686 40636 net.cpp:129] Top shape: 128 64 8 8 (524288)
I1025 10:12:54.384696 40636 net.cpp:137] Memory required for data: 811074048
I1025 10:12:54.384711 40636 layer_factory.hpp:77] Creating layer BatchNorm20
I1025 10:12:54.384732 40636 net.cpp:84] Creating Layer BatchNorm20
I1025 10:12:54.384752 40636 net.cpp:406] BatchNorm20 <- Convolution20
I1025 10:12:54.384780 40636 net.cpp:367] BatchNorm20 -> Convolution20 (in-place)
I1025 10:12:54.385066 40636 net.cpp:122] Setting up BatchNorm20
I1025 10:12:54.385082 40636 net.cpp:129] Top shape: 128 64 8 8 (524288)
I1025 10:12:54.385088 40636 net.cpp:137] Memory required for data: 813171200
I1025 10:12:54.385102 40636 layer_factory.hpp:77] Creating layer Scale20
I1025 10:12:54.385143 40636 net.cpp:84] Creating Layer Scale20
I1025 10:12:54.385152 40636 net.cpp:406] Scale20 <- Convolution20
I1025 10:12:54.385164 40636 net.cpp:367] Scale20 -> Convolution20 (in-place)
I1025 10:12:54.385226 40636 layer_factory.hpp:77] Creating layer Scale20
I1025 10:12:54.385393 40636 net.cpp:122] Setting up Scale20
I1025 10:12:54.385407 40636 net.cpp:129] Top shape: 128 64 8 8 (524288)
I1025 10:12:54.385416 40636 net.cpp:137] Memory required for data: 815268352
I1025 10:12:54.385427 40636 layer_factory.hpp:77] Creating layer Convolution20_Scale20_0_split
I1025 10:12:54.385439 40636 net.cpp:84] Creating Layer Convolution20_Scale20_0_split
I1025 10:12:54.385447 40636 net.cpp:406] Convolution20_Scale20_0_split <- Convolution20
I1025 10:12:54.385457 40636 net.cpp:380] Convolution20_Scale20_0_split -> Convolution20_Scale20_0_split_0
I1025 10:12:54.385470 40636 net.cpp:380] Convolution20_Scale20_0_split -> Convolution20_Scale20_0_split_1
I1025 10:12:54.385519 40636 net.cpp:122] Setting up Convolution20_Scale20_0_split
I1025 10:12:54.385532 40636 net.cpp:129] Top shape: 128 64 8 8 (524288)
I1025 10:12:54.385541 40636 net.cpp:129] Top shape: 128 64 8 8 (524288)
I1025 10:12:54.385548 40636 net.cpp:137] Memory required for data: 819462656
I1025 10:12:54.385555 40636 layer_factory.hpp:77] Creating layer Sigmoid18
I1025 10:12:54.385566 40636 net.cpp:84] Creating Layer Sigmoid18
I1025 10:12:54.385573 40636 net.cpp:406] Sigmoid18 <- Convolution20_Scale20_0_split_0
I1025 10:12:54.385584 40636 net.cpp:380] Sigmoid18 -> Sigmoid18
I1025 10:12:54.386656 40636 net.cpp:122] Setting up Sigmoid18
I1025 10:12:54.386682 40636 net.cpp:129] Top shape: 128 64 8 8 (524288)
I1025 10:12:54.386689 40636 net.cpp:137] Memory required for data: 821559808
I1025 10:12:54.386699 40636 layer_factory.hpp:77] Creating layer Eltwise26
I1025 10:12:54.386713 40636 net.cpp:84] Creating Layer Eltwise26
I1025 10:12:54.386720 40636 net.cpp:406] Eltwise26 <- Convolution20_Scale20_0_split_1
I1025 10:12:54.386729 40636 net.cpp:406] Eltwise26 <- Sigmoid18
I1025 10:12:54.386740 40636 net.cpp:380] Eltwise26 -> Eltwise26
I1025 10:12:54.386783 40636 net.cpp:122] Setting up Eltwise26
I1025 10:12:54.386796 40636 net.cpp:129] Top shape: 128 64 8 8 (524288)
I1025 10:12:54.386803 40636 net.cpp:137] Memory required for data: 823656960
I1025 10:12:54.386811 40636 layer_factory.hpp:77] Creating layer Convolution21
I1025 10:12:54.386828 40636 net.cpp:84] Creating Layer Convolution21
I1025 10:12:54.386837 40636 net.cpp:406] Convolution21 <- Eltwise26
I1025 10:12:54.386850 40636 net.cpp:380] Convolution21 -> Convolution21
I1025 10:12:54.390981 40636 net.cpp:122] Setting up Convolution21
I1025 10:12:54.391005 40636 net.cpp:129] Top shape: 128 64 8 8 (524288)
I1025 10:12:54.391013 40636 net.cpp:137] Memory required for data: 825754112
I1025 10:12:54.391026 40636 layer_factory.hpp:77] Creating layer BatchNorm21
I1025 10:12:54.391039 40636 net.cpp:84] Creating Layer BatchNorm21
I1025 10:12:54.391048 40636 net.cpp:406] BatchNorm21 <- Convolution21
I1025 10:12:54.391062 40636 net.cpp:367] BatchNorm21 -> Convolution21 (in-place)
I1025 10:12:54.391337 40636 net.cpp:122] Setting up BatchNorm21
I1025 10:12:54.391352 40636 net.cpp:129] Top shape: 128 64 8 8 (524288)
I1025 10:12:54.391360 40636 net.cpp:137] Memory required for data: 827851264
I1025 10:12:54.391372 40636 layer_factory.hpp:77] Creating layer Scale21
I1025 10:12:54.391386 40636 net.cpp:84] Creating Layer Scale21
I1025 10:12:54.391396 40636 net.cpp:406] Scale21 <- Convolution21
I1025 10:12:54.391404 40636 net.cpp:367] Scale21 -> Convolution21 (in-place)
I1025 10:12:54.391469 40636 layer_factory.hpp:77] Creating layer Scale21
I1025 10:12:54.391644 40636 net.cpp:122] Setting up Scale21
I1025 10:12:54.391657 40636 net.cpp:129] Top shape: 128 64 8 8 (524288)
I1025 10:12:54.391664 40636 net.cpp:137] Memory required for data: 829948416
I1025 10:12:54.391675 40636 layer_factory.hpp:77] Creating layer Eltwise27
I1025 10:12:54.391688 40636 net.cpp:84] Creating Layer Eltwise27
I1025 10:12:54.391697 40636 net.cpp:406] Eltwise27 <- Convolution21
I1025 10:12:54.391707 40636 net.cpp:406] Eltwise27 <- Eltwise25_Eltwise25_0_split_1
I1025 10:12:54.391716 40636 net.cpp:380] Eltwise27 -> Eltwise27
I1025 10:12:54.391752 40636 net.cpp:122] Setting up Eltwise27
I1025 10:12:54.391764 40636 net.cpp:129] Top shape: 128 64 8 8 (524288)
I1025 10:12:54.391772 40636 net.cpp:137] Memory required for data: 832045568
I1025 10:12:54.391779 40636 layer_factory.hpp:77] Creating layer Eltwise27_Eltwise27_0_split
I1025 10:12:54.391788 40636 net.cpp:84] Creating Layer Eltwise27_Eltwise27_0_split
I1025 10:12:54.391796 40636 net.cpp:406] Eltwise27_Eltwise27_0_split <- Eltwise27
I1025 10:12:54.391806 40636 net.cpp:380] Eltwise27_Eltwise27_0_split -> Eltwise27_Eltwise27_0_split_0
I1025 10:12:54.391818 40636 net.cpp:380] Eltwise27_Eltwise27_0_split -> Eltwise27_Eltwise27_0_split_1
I1025 10:12:54.391868 40636 net.cpp:122] Setting up Eltwise27_Eltwise27_0_split
I1025 10:12:54.391881 40636 net.cpp:129] Top shape: 128 64 8 8 (524288)
I1025 10:12:54.391891 40636 net.cpp:129] Top shape: 128 64 8 8 (524288)
I1025 10:12:54.391897 40636 net.cpp:137] Memory required for data: 836239872
I1025 10:12:54.391904 40636 layer_factory.hpp:77] Creating layer Sigmoid19
I1025 10:12:54.391913 40636 net.cpp:84] Creating Layer Sigmoid19
I1025 10:12:54.391922 40636 net.cpp:406] Sigmoid19 <- Eltwise27_Eltwise27_0_split_0
I1025 10:12:54.391935 40636 net.cpp:380] Sigmoid19 -> Sigmoid19
I1025 10:12:54.392189 40636 net.cpp:122] Setting up Sigmoid19
I1025 10:12:54.392207 40636 net.cpp:129] Top shape: 128 64 8 8 (524288)
I1025 10:12:54.392215 40636 net.cpp:137] Memory required for data: 838337024
I1025 10:12:54.392222 40636 layer_factory.hpp:77] Creating layer Eltwise28
I1025 10:12:54.392235 40636 net.cpp:84] Creating Layer Eltwise28
I1025 10:12:54.392246 40636 net.cpp:406] Eltwise28 <- Eltwise27_Eltwise27_0_split_1
I1025 10:12:54.392254 40636 net.cpp:406] Eltwise28 <- Sigmoid19
I1025 10:12:54.392263 40636 net.cpp:380] Eltwise28 -> Eltwise28
I1025 10:12:54.392303 40636 net.cpp:122] Setting up Eltwise28
I1025 10:12:54.392316 40636 net.cpp:129] Top shape: 128 64 8 8 (524288)
I1025 10:12:54.392323 40636 net.cpp:137] Memory required for data: 840434176
I1025 10:12:54.392329 40636 layer_factory.hpp:77] Creating layer Pooling1
I1025 10:12:54.392343 40636 net.cpp:84] Creating Layer Pooling1
I1025 10:12:54.392351 40636 net.cpp:406] Pooling1 <- Eltwise28
I1025 10:12:54.392364 40636 net.cpp:380] Pooling1 -> Pooling1
I1025 10:12:54.393417 40636 net.cpp:122] Setting up Pooling1
I1025 10:12:54.393438 40636 net.cpp:129] Top shape: 128 64 1 1 (8192)
I1025 10:12:54.393445 40636 net.cpp:137] Memory required for data: 840466944
I1025 10:12:54.393453 40636 layer_factory.hpp:77] Creating layer InnerProduct1
I1025 10:12:54.393472 40636 net.cpp:84] Creating Layer InnerProduct1
I1025 10:12:54.393481 40636 net.cpp:406] InnerProduct1 <- Pooling1
I1025 10:12:54.393491 40636 net.cpp:380] InnerProduct1 -> InnerProduct1
I1025 10:12:54.393703 40636 net.cpp:122] Setting up InnerProduct1
I1025 10:12:54.393719 40636 net.cpp:129] Top shape: 128 10 (1280)
I1025 10:12:54.393726 40636 net.cpp:137] Memory required for data: 840472064
I1025 10:12:54.393738 40636 layer_factory.hpp:77] Creating layer Accuracy1
I1025 10:12:54.393750 40636 net.cpp:84] Creating Layer Accuracy1
I1025 10:12:54.393759 40636 net.cpp:406] Accuracy1 <- InnerProduct1
I1025 10:12:54.393769 40636 net.cpp:406] Accuracy1 <- Data2
I1025 10:12:54.393779 40636 net.cpp:380] Accuracy1 -> Accuracy1
…
