…
I1025 10:16:53.956027   384 upgrade_proto.cpp:80] Successfully upgraded batch norm layers using deprecated params.
I1025 10:16:53.956893   384 net.cpp:51] Initializing net from parameters: 
state {
  phase: TEST
  level: 0
  stage: ""
}
layer {
  name: "Data1"
  type: "Data"
  top: "Data1"
  top: "Data2"
  transform_param {
    crop_size: 32
    mean_value: 125.306915
    mean_value: 122.950394
    mean_value: 113.865387
  }
  data_param {
    source: "/data/hjy1312/data/RESNET/cifar-10/cifar10_test_lmdb"
    batch_size: 128
    backend: LMDB
  }
}
layer {
  name: "Convolution1"
  type: "Convolution"
  bottom: "Data1"
  top: "Convolution1"
  param {
    lr_mult: 1
    decay_mult: 1
  }
  param {
    lr_mult: 2
    decay_mult: 0
  }
  convolution_param {
    num_output: 16
    bias_term: true
    pad: 1
    kernel_size: 3
    stride: 1
    weight_filler {
      type: "msra"
    }
    bias_filler {
      type: "constant"
    }
  }
}
layer {
  name: "BatchNorm1"
  type: "BatchNorm"
  bottom: "Convolution1"
  top: "Convolution1"
  param {
    lr_mult: 0
    decay_mult: 0
  }
  param {
    lr_mult: 0
    decay_mult: 0
  }
  param {
    lr_mult: 0
    decay_mult: 0
  }
  batch_norm_param {
    use_global_stats: true
  }
}
layer {
  name: "Scale1"
  type: "Scale"
  bottom: "Convolution1"
  top: "Convolution1"
  scale_param {
    bias_term: true
  }
}
layer {
  name: "Sigmoid1"
  type: "Sigmoid"
  bottom: "Convolution1"
  top: "Sigmoid1"
}
layer {
  name: "Eltwise1"
  type: "Eltwise"
  bottom: "Convolution1"
  bottom: "Sigmoid1"
  top: "Eltwise1"
  eltwise_param {
    operation: PROD
  }
}
layer {
  name: "Convolution2"
  type: "Convolution"
  bottom: "Eltwise1"
  top: "Convolution2"
  param {
    lr_mult: 1
    decay_mult: 1
  }
  param {
    lr_mult: 2
    decay_mult: 0
  }
  convolution_param {
    num_output: 16
    bias_term: true
    pad: 1
    kernel_size: 3
    stride: 1
    weight_filler {
      type: "msra"
    }
    bias_filler {
      type: "constant"
    }
  }
}
layer {
  name: "BatchNorm2"
  type: "BatchNorm"
  bottom: "Convolution2"
  top: "Convolution2"
  param {
    lr_mult: 0
    decay_mult: 0
  }
  param {
    lr_mult: 0
    decay_mult: 0
  }
  param {
    lr_mult: 0
    decay_mult: 0
  }
  batch_norm_param {
    use_global_stats: true
  }
}
layer {
  name: "Scale2"
  type: "Scale"
  bottom: "Convolution2"
  top: "Convolution2"
  scale_param {
    bias_term: true
  }
}
layer {
  name: "Sigmoid2"
  type: "Sigmoid"
  bottom: "Convolution2"
  top: "Sigmoid2"
}
layer {
  name: "Eltwise2"
  type: "Eltwise"
  bottom: "Convolution2"
  bottom: "Sigmoid2"
  top: "Eltwise2"
  eltwise_param {
    operation: PROD
  }
}
layer {
  name: "Convolution3"
  type: "Convolution"
  bottom: "Eltwise2"
  top: "Convolution3"
  param {
    lr_mult: 1
    decay_mult: 1
  }
  param {
    lr_mult: 2
    decay_mult: 0
  }
  convolution_param {
    num_output: 16
    bias_term: true
    pad: 1
    kernel_size: 3
    stride: 1
    weight_filler {
      type: "msra"
    }
    bias_filler {
      type: "constant"
    }
  }
}
layer {
  name: "BatchNorm3"
  type: "BatchNorm"
  bottom: "Convolution3"
  top: "Convolution3"
  param {
    lr_mult: 0
    decay_mult: 0
  }
  param {
    lr_mult: 0
    decay_mult: 0
  }
  param {
    lr_mult: 0
    decay_mult: 0
  }
  batch_norm_param {
    use_global_stats: true
  }
}
layer {
  name: "Scale3"
  type: "Scale"
  bottom: "Convolution3"
  top: "Convolution3"
  scale_param {
    bias_term: true
  }
}
layer {
  name: "Eltwise3"
  type: "Eltwise"
  bottom: "Convolution3"
  bottom: "Eltwise1"
  top: "Eltwise3"
  eltwise_param {
    operation: SUM
  }
}
layer {
  name: "Sigmoid3"
  type: "Sigmoid"
  bottom: "Eltwise3"
  top: "Sigmoid3"
}
layer {
  name: "Eltwise4"
  type: "Eltwise"
  bottom: "Eltwise3"
  bottom: "Sigmoid3"
  top: "Eltwise4"
  eltwise_param {
    operation: PROD
  }
}
layer {
  name: "Convolution4"
  type: "Convolution"
  bottom: "Eltwise4"
  top: "Convolution4"
  param {
    lr_mult: 1
    decay_mult: 1
  }
  param {
    lr_mult: 2
    decay_mult: 0
  }
  convolution_param {
    num_output: 16
    bias_term: true
    pad: 1
    kernel_size: 3
    stride: 1
    weight_filler {
      type: "msra"
    }
    bias_filler {
      type: "constant"
    }
  }
}
layer {
  name: "BatchNorm4"
  type: "BatchNorm"
  bottom: "Convolution4"
  top: "Convolution4"
  param {
    lr_mult: 0
    decay_mult: 0
  }
  param {
    lr_mult: 0
    decay_mult: 0
  }
  param {
    lr_mult: 0
    decay_mult: 0
  }
  batch_norm_param {
    use_global_stats: true
  }
}
layer {
  name: "Scale4"
  type: "Scale"
  bottom: "Convolution4"
  top: "Convolution4"
  scale_param {
    bias_term: true
  }
}
layer {
  name: "Sigmoid4"
  type: "Sigmoid"
  bottom: "Convolution4"
  top: "Sigmoid4"
}
layer {
  name: "Eltwise5"
  type: "Eltwise"
  bottom: "Convolution4"
  bottom: "Sigmoid4"
  top: "Eltwise5"
  eltwise_param {
    operation: PROD
  }
}
layer {
  name: "Convolution5"
  type: "Convolution"
  bottom: "Eltwise5"
  top: "Convolution5"
  param {
    lr_mult: 1
    decay_mult: 1
  }
  param {
    lr_mult: 2
    decay_mult: 0
  }
  convolution_param {
    num_output: 16
    bias_term: true
    pad: 1
    kernel_size: 3
    stride: 1
    weight_filler {
      type: "msra"
    }
    bias_filler {
      type: "constant"
    }
  }
}
layer {
  name: "BatchNorm5"
  type: "BatchNorm"
  bottom: "Convolution5"
  top: "Convolution5"
  param {
    lr_mult: 0
    decay_mult: 0
  }
  param {
    lr_mult: 0
    decay_mult: 0
  }
  param {
    lr_mult: 0
    decay_mult: 0
  }
  batch_norm_param {
    use_global_stats: true
  }
}
layer {
  name: "Scale5"
  type: "Scale"
  bottom: "Convolution5"
  top: "Convolution5"
  scale_param {
    bias_term: true
  }
}
layer {
  name: "Eltwise6"
  type: "Eltwise"
  bottom: "Convolution5"
  bottom: "Eltwise4"
  top: "Eltwise6"
  eltwise_param {
    operation: SUM
  }
}
layer {
  name: "Sigmoid5"
  type: "Sigmoid"
  bottom: "Eltwise6"
  top: "Sigmoid5"
}
layer {
  name: "Eltwise7"
  type: "Eltwise"
  bottom: "Eltwise6"
  bottom: "Sigmoid5"
  top: "Eltwise7"
  eltwise_param {
    operation: PROD
  }
}
layer {
  name: "Convolution6"
  type: "Convolution"
  bottom: "Eltwise7"
  top: "Convolution6"
  param {
    lr_mult: 1
    decay_mult: 1
  }
  param {
    lr_mult: 2
    decay_mult: 0
  }
  convolution_param {
    num_output: 16
    bias_term: true
    pad: 1
    kernel_size: 3
    stride: 1
    weight_filler {
      type: "msra"
    }
    bias_filler {
      type: "constant"
    }
  }
}
layer {
  name: "BatchNorm6"
  type: "BatchNorm"
  bottom: "Convolution6"
  top: "Convolution6"
  param {
    lr_mult: 0
    decay_mult: 0
  }
  param {
    lr_mult: 0
    decay_mult: 0
  }
  param {
    lr_mult: 0
    decay_mult: 0
  }
  batch_norm_param {
    use_global_stats: true
  }
}
layer {
  name: "Scale6"
  type: "Scale"
  bottom: "Convolution6"
  top: "Convolution6"
  scale_param {
    bias_term: true
  }
}
layer {
  name: "Sigmoid6"
  type: "Sigmoid"
  bottom: "Convolution6"
  top: "Sigmoid6"
}
layer {
  name: "Eltwise8"
  type: "Eltwise"
  bottom: "Convolution6"
  bottom: "Sigmoid6"
  top: "Eltwise8"
  eltwise_param {
    operation: PROD
  }
}
layer {
  name: "Convolution7"
  type: "Convolution"
  bottom: "Eltwise8"
  top: "Convolution7"
  param {
    lr_mult: 1
    decay_mult: 1
  }
  param {
    lr_mult: 2
    decay_mult: 0
  }
  convolution_param {
    num_output: 16
    bias_term: true
    pad: 1
    kernel_size: 3
    stride: 1
    weight_filler {
      type: "msra"
    }
    bias_filler {
      type: "constant"
    }
  }
}
layer {
  name: "BatchNorm7"
  type: "BatchNorm"
  bottom: "Convolution7"
  top: "Convolution7"
  param {
    lr_mult: 0
    decay_mult: 0
  }
  param {
    lr_mult: 0
    decay_mult: 0
  }
  param {
    lr_mult: 0
    decay_mult: 0
  }
  batch_norm_param {
    use_global_stats: true
  }
}
layer {
  name: "Scale7"
  type: "Scale"
  bottom: "Convolution7"
  top: "Convolution7"
  scale_param {
    bias_term: true
  }
}
layer {
  name: "Eltwise9"
  type: "Eltwise"
  bottom: "Convolution7"
  bottom: "Eltwise7"
  top: "Eltwise9"
  eltwise_param {
    operation: SUM
  }
}
layer {
  name: "Sigmoid7"
  type: "Sigmoid"
  bottom: "Eltwise9"
  top: "Sigmoid7"
}
layer {
  name: "Eltwise10"
  type: "Eltwise"
  bottom: "Eltwise9"
  bottom: "Sigmoid7"
  top: "Eltwise10"
  eltwise_param {
    operation: PROD
  }
}
layer {
  name: "Convolution8"
  type: "Convolution"
  bottom: "Eltwise10"
  top: "Convolution8"
  param {
    lr_mult: 1
    decay_mult: 1
  }
  param {
    lr_mult: 2
    decay_mult: 0
  }
  convolution_param {
    num_output: 32
    bias_term: true
    pad: 1
    kernel_size: 3
    stride: 2
    weight_filler {
      type: "msra"
    }
    bias_filler {
      type: "constant"
    }
  }
}
layer {
  name: "BatchNorm8"
  type: "BatchNorm"
  bottom: "Convolution8"
  top: "Convolution8"
  param {
    lr_mult: 0
    decay_mult: 0
  }
  param {
    lr_mult: 0
    decay_mult: 0
  }
  param {
    lr_mult: 0
    decay_mult: 0
  }
  batch_norm_param {
    use_global_stats: true
  }
}
layer {
  name: "Scale8"
  type: "Scale"
  bottom: "Convolution8"
  top: "Convolution8"
  scale_param {
    bias_term: true
  }
}
layer {
  name: "Sigmoid8"
  type: "Sigmoid"
  bottom: "Convolution8"
  top: "Sigmoid8"
}
layer {
  name: "Eltwise11"
  type: "Eltwise"
  bottom: "Convolution8"
  bottom: "Sigmoid8"
  top: "Eltwise11"
  eltwise_param {
    operation: PROD
  }
}
layer {
  name: "Convolution9"
  type: "Convolution"
  bottom: "Eltwise11"
  top: "Convolution9"
  param {
    lr_mult: 1
    decay_mult: 1
  }
  param {
    lr_mult: 2
    decay_mult: 0
  }
  convolution_param {
    num_output: 32
    bias_term: true
    pad: 1
    kernel_size: 3
    stride: 1
    weight_filler {
      type: "msra"
    }
    bias_filler {
      type: "constant"
    }
  }
}
layer {
  name: "BatchNorm9"
  type: "BatchNorm"
  bottom: "Convolution9"
  top: "Convolution9"
  param {
    lr_mult: 0
    decay_mult: 0
  }
  param {
    lr_mult: 0
    decay_mult: 0
  }
  param {
    lr_mult: 0
    decay_mult: 0
  }
  batch_norm_param {
    use_global_stats: true
  }
}
layer {
  name: "Scale9"
  type: "Scale"
  bottom: "Convolution9"
  top: "Convolution9"
  scale_param {
    bias_term: true
  }
}
layer {
  name: "Convolution10"
  type: "Convolution"
  bottom: "Eltwise10"
  top: "Convolution10"
  param {
    lr_mult: 1
    decay_mult: 1
  }
  param {
    lr_mult: 2
    decay_mult: 0
  }
  convolution_param {
    num_output: 32
    bias_term: true
    pad: 0
    kernel_size: 1
    stride: 2
    weight_filler {
      type: "msra"
    }
    bias_filler {
      type: "constant"
    }
  }
}
layer {
  name: "BatchNorm10"
  type: "BatchNorm"
  bottom: "Convolution10"
  top: "Convolution10"
  param {
    lr_mult: 0
    decay_mult: 0
  }
  param {
    lr_mult: 0
    decay_mult: 0
  }
  param {
    lr_mult: 0
    decay_mult: 0
  }
  batch_norm_param {
    use_global_stats: true
  }
}
layer {
  name: "Scale10"
  type: "Scale"
  bottom: "Convolution10"
  top: "Convolution10"
  scale_param {
    bias_term: true
  }
}
layer {
  name: "Eltwise12"
  type: "Eltwise"
  bottom: "Convolution9"
  bottom: "Convolution10"
  top: "Eltwise12"
  eltwise_param {
    operation: SUM
  }
}
layer {
  name: "Sigmoid9"
  type: "Sigmoid"
  bottom: "Eltwise12"
  top: "Sigmoid9"
}
layer {
  name: "Eltwise13"
  type: "Eltwise"
  bottom: "Eltwise12"
  bottom: "Sigmoid9"
  top: "Eltwise13"
  eltwise_param {
    operation: PROD
  }
}
layer {
  name: "Convolution11"
  type: "Convolution"
  bottom: "Eltwise13"
  top: "Convolution11"
  param {
    lr_mult: 1
    decay_mult: 1
  }
  param {
    lr_mult: 2
    decay_mult: 0
  }
  convolution_param {
    num_output: 32
    bias_term: true
    pad: 1
    kernel_size: 3
    stride: 1
    weight_filler {
      type: "msra"
    }
    bias_filler {
      type: "constant"
    }
  }
}
layer {
  name: "BatchNorm11"
  type: "BatchNorm"
  bottom: "Convolution11"
  top: "Convolution11"
  param {
    lr_mult: 0
    decay_mult: 0
  }
  param {
    lr_mult: 0
    decay_mult: 0
  }
  param {
    lr_mult: 0
    decay_mult: 0
  }
  batch_norm_param {
    use_global_stats: true
  }
}
layer {
  name: "Scale11"
  type: "Scale"
  bottom: "Convolution11"
  top: "Convolution11"
  scale_param {
    bias_term: true
  }
}
layer {
  name: "Sigmoid10"
  type: "Sigmoid"
  bottom: "Convolution11"
  top: "Sigmoid10"
}
layer {
  name: "Eltwise14"
  type: "Eltwise"
  bottom: "Convolution11"
  bottom: "Sigmoid10"
  top: "Eltwise14"
  eltwise_param {
    operation: PROD
  }
}
layer {
  name: "Convolution12"
  type: "Convolution"
  bottom: "Eltwise14"
  top: "Convolution12"
  param {
    lr_mult: 1
    decay_mult: 1
  }
  param {
    lr_mult: 2
    decay_mult: 0
  }
  convolution_param {
    num_output: 32
    bias_term: true
    pad: 1
    kernel_size: 3
    stride: 1
    weight_filler {
      type: "msra"
    }
    bias_filler {
      type: "constant"
    }
  }
}
layer {
  name: "BatchNorm12"
  type: "BatchNorm"
  bottom: "Convolution12"
  top: "Convolution12"
  param {
    lr_mult: 0
    decay_mult: 0
  }
  param {
    lr_mult: 0
    decay_mult: 0
  }
  param {
    lr_mult: 0
    decay_mult: 0
  }
  batch_norm_param {
    use_global_stats: true
  }
}
layer {
  name: "Scale12"
  type: "Scale"
  bottom: "Convolution12"
  top: "Convolution12"
  scale_param {
    bias_term: true
  }
}
layer {
  name: "Eltwise15"
  type: "Eltwise"
  bottom: "Convolution12"
  bottom: "Eltwise13"
  top: "Eltwise15"
  eltwise_param {
    operation: SUM
  }
}
layer {
  name: "Sigmoid11"
  type: "Sigmoid"
  bottom: "Eltwise15"
  top: "Sigmoid11"
}
layer {
  name: "Eltwise16"
  type: "Eltwise"
  bottom: "Eltwise15"
  bottom: "Sigmoid11"
  top: "Eltwise16"
  eltwise_param {
    operation: PROD
  }
}
layer {
  name: "Convolution13"
  type: "Convolution"
  bottom: "Eltwise16"
  top: "Convolution13"
  param {
    lr_mult: 1
    decay_mult: 1
  }
  param {
    lr_mult: 2
    decay_mult: 0
  }
  convolution_param {
    num_output: 32
    bias_term: true
    pad: 1
    kernel_size: 3
    stride: 1
    weight_filler {
      type: "msra"
    }
    bias_filler {
      type: "constant"
    }
  }
}
layer {
  name: "BatchNorm13"
  type: "BatchNorm"
  bottom: "Convolution13"
  top: "Convolution13"
  param {
    lr_mult: 0
    decay_mult: 0
  }
  param {
    lr_mult: 0
    decay_mult: 0
  }
  param {
    lr_mult: 0
    decay_mult: 0
  }
  batch_norm_param {
    use_global_stats: true
  }
}
layer {
  name: "Scale13"
  type: "Scale"
  bottom: "Convolution13"
  top: "Convolution13"
  scale_param {
    bias_term: true
  }
}
layer {
  name: "Sigmoid12"
  type: "Sigmoid"
  bottom: "Convolution13"
  top: "Sigmoid12"
}
layer {
  name: "Eltwise17"
  type: "Eltwise"
  bottom: "Convolution13"
  bottom: "Sigmoid12"
  top: "Eltwise17"
  eltwise_param {
    operation: PROD
  }
}
layer {
  name: "Convolution14"
  type: "Convolution"
  bottom: "Eltwise17"
  top: "Convolution14"
  param {
    lr_mult: 1
    decay_mult: 1
  }
  param {
    lr_mult: 2
    decay_mult: 0
  }
  convolution_param {
    num_output: 32
    bias_term: true
    pad: 1
    kernel_size: 3
    stride: 1
    weight_filler {
      type: "msra"
    }
    bias_filler {
      type: "constant"
    }
  }
}
layer {
  name: "BatchNorm14"
  type: "BatchNorm"
  bottom: "Convolution14"
  top: "Convolution14"
  param {
    lr_mult: 0
    decay_mult: 0
  }
  param {
    lr_mult: 0
    decay_mult: 0
  }
  param {
    lr_mult: 0
    decay_mult: 0
  }
  batch_norm_param {
    use_global_stats: true
  }
}
layer {
  name: "Scale14"
  type: "Scale"
  bottom: "Convolution14"
  top: "Convolution14"
  scale_param {
    bias_term: true
  }
}
layer {
  name: "Eltwise18"
  type: "Eltwise"
  bottom: "Convolution14"
  bottom: "Eltwise16"
  top: "Eltwise18"
  eltwise_param {
    operation: SUM
  }
}
layer {
  name: "Sigmoid13"
  type: "Sigmoid"
  bottom: "Eltwise18"
  top: "Sigmoid13"
}
layer {
  name: "Eltwise19"
  type: "Eltwise"
  bottom: "Eltwise18"
  bottom: "Sigmoid13"
  top: "Eltwise19"
  eltwise_param {
    operation: PROD
  }
}
layer {
  name: "Convolution15"
  type: "Convolution"
  bottom: "Eltwise19"
  top: "Convolution15"
  param {
    lr_mult: 1
    decay_mult: 1
  }
  param {
    lr_mult: 2
    decay_mult: 0
  }
  convolution_param {
    num_output: 64
    bias_term: true
    pad: 1
    kernel_size: 3
    stride: 2
    weight_filler {
      type: "msra"
    }
    bias_filler {
      type: "constant"
    }
  }
}
layer {
  name: "BatchNorm15"
  type: "BatchNorm"
  bottom: "Convolution15"
  top: "Convolution15"
  param {
    lr_mult: 0
    decay_mult: 0
  }
  param {
    lr_mult: 0
    decay_mult: 0
  }
  param {
    lr_mult: 0
    decay_mult: 0
  }
  batch_norm_param {
    use_global_stats: true
  }
}
layer {
  name: "Scale15"
  type: "Scale"
  bottom: "Convolution15"
  top: "Convolution15"
  scale_param {
    bias_term: true
  }
}
layer {
  name: "Sigmoid14"
  type: "Sigmoid"
  bottom: "Convolution15"
  top: "Sigmoid14"
}
layer {
  name: "Eltwise20"
  type: "Eltwise"
  bottom: "Convolution15"
  bottom: "Sigmoid14"
  top: "Eltwise20"
  eltwise_param {
    operation: PROD
  }
}
layer {
  name: "Convolution16"
  type: "Convolution"
  bottom: "Eltwise20"
  top: "Convolution16"
  param {
    lr_mult: 1
    decay_mult: 1
  }
  param {
    lr_mult: 2
    decay_mult: 0
  }
  convolution_param {
    num_output: 64
    bias_term: true
    pad: 1
    kernel_size: 3
    stride: 1
    weight_filler {
      type: "msra"
    }
    bias_filler {
      type: "constant"
    }
  }
}
layer {
  name: "BatchNorm16"
  type: "BatchNorm"
  bottom: "Convolution16"
  top: "Convolution16"
  param {
    lr_mult: 0
    decay_mult: 0
  }
  param {
    lr_mult: 0
    decay_mult: 0
  }
  param {
    lr_mult: 0
    decay_mult: 0
  }
  batch_norm_param {
    use_global_stats: true
  }
}
layer {
  name: "Scale16"
  type: "Scale"
  bottom: "Convolution16"
  top: "Convolution16"
  scale_param {
    bias_term: true
  }
}
layer {
  name: "Convolution17"
  type: "Convolution"
  bottom: "Eltwise19"
  top: "Convolution17"
  param {
    lr_mult: 1
    decay_mult: 1
  }
  param {
    lr_mult: 2
    decay_mult: 0
  }
  convolution_param {
    num_output: 64
    bias_term: true
    pad: 0
    kernel_size: 1
    stride: 2
    weight_filler {
      type: "msra"
    }
    bias_filler {
      type: "constant"
    }
  }
}
layer {
  name: "BatchNorm17"
  type: "BatchNorm"
  bottom: "Convolution17"
  top: "Convolution17"
  param {
    lr_mult: 0
    decay_mult: 0
  }
  param {
    lr_mult: 0
    decay_mult: 0
  }
  param {
    lr_mult: 0
    decay_mult: 0
  }
  batch_norm_param {
    use_global_stats: true
  }
}
layer {
  name: "Scale17"
  type: "Scale"
  bottom: "Convolution17"
  top: "Convolution17"
  scale_param {
    bias_term: true
  }
}
layer {
  name: "Eltwise21"
  type: "Eltwise"
  bottom: "Convolution16"
  bottom: "Convolution17"
  top: "Eltwise21"
  eltwise_param {
    operation: SUM
  }
}
layer {
  name: "Sigmoid15"
  type: "Sigmoid"
  bottom: "Eltwise21"
  top: "Sigmoid15"
}
layer {
  name: "Eltwise22"
  type: "Eltwise"
  bottom: "Eltwise21"
  bottom: "Sigmoid15"
  top: "Eltwise22"
  eltwise_param {
    operation: PROD
  }
}
layer {
  name: "Convolution18"
  type: "Convolution"
  bottom: "Eltwise22"
  top: "Convolution18"
  param {
    lr_mult: 1
    decay_mult: 1
  }
  param {
    lr_mult: 2
    decay_mult: 0
  }
  convolution_param {
    num_output: 64
    bias_term: true
    pad: 1
    kernel_size: 3
    stride: 1
    weight_filler {
      type: "msra"
    }
    bias_filler {
      type: "constant"
    }
  }
}
layer {
  name: "BatchNorm18"
  type: "BatchNorm"
  bottom: "Convolution18"
  top: "Convolution18"
  param {
    lr_mult: 0
    decay_mult: 0
  }
  param {
    lr_mult: 0
    decay_mult: 0
  }
  param {
    lr_mult: 0
    decay_mult: 0
  }
  batch_norm_param {
    use_global_stats: true
  }
}
layer {
  name: "Scale18"
  type: "Scale"
  bottom: "Convolution18"
  top: "Convolution18"
  scale_param {
    bias_term: true
  }
}
layer {
  name: "Sigmoid16"
  type: "Sigmoid"
  bottom: "Convolution18"
  top: "Sigmoid16"
}
layer {
  name: "Eltwise23"
  type: "Eltwise"
  bottom: "Convolution18"
  bottom: "Sigmoid16"
  top: "Eltwise23"
  eltwise_param {
    operation: PROD
  }
}
layer {
  name: "Convolution19"
  type: "Convolution"
  bottom: "Eltwise23"
  top: "Convolution19"
  param {
    lr_mult: 1
    decay_mult: 1
  }
  param {
    lr_mult: 2
    decay_mult: 0
  }
  convolution_param {
    num_output: 64
    bias_term: true
    pad: 1
    kernel_size: 3
    stride: 1
    weight_filler {
      type: "msra"
    }
    bias_filler {
      type: "constant"
    }
  }
}
layer {
  name: "BatchNorm19"
  type: "BatchNorm"
  bottom: "Convolution19"
  top: "Convolution19"
  param {
    lr_mult: 0
    decay_mult: 0
  }
  param {
    lr_mult: 0
    decay_mult: 0
  }
  param {
    lr_mult: 0
    decay_mult: 0
  }
  batch_norm_param {
    use_global_stats: true
  }
}
layer {
  name: "Scale19"
  type: "Scale"
  bottom: "Convolution19"
  top: "Convolution19"
  scale_param {
    bias_term: true
  }
}
layer {
  name: "Eltwise24"
  type: "Eltwise"
  bottom: "Convolution19"
  bottom: "Eltwise22"
  top: "Eltwise24"
  eltwise_param {
    operation: SUM
  }
}
layer {
  name: "Sigmoid17"
  type: "Sigmoid"
  bottom: "Eltwise24"
  top: "Sigmoid17"
}
layer {
  name: "Eltwise25"
  type: "Eltwise"
  bottom: "Eltwise24"
  bottom: "Sigmoid17"
  top: "Eltwise25"
  eltwise_param {
    operation: PROD
  }
}
layer {
  name: "Convolution20"
  type: "Convolution"
  bottom: "Eltwise25"
  top: "Convolution20"
  param {
    lr_mult: 1
    decay_mult: 1
  }
  param {
    lr_mult: 2
    decay_mult: 0
  }
  convolution_param {
    num_output: 64
    bias_term: true
    pad: 1
    kernel_size: 3
    stride: 1
    weight_filler {
      type: "msra"
    }
    bias_filler {
      type: "constant"
    }
  }
}
layer {
  name: "BatchNorm20"
  type: "BatchNorm"
  bottom: "Convolution20"
  top: "Convolution20"
  param {
    lr_mult: 0
    decay_mult: 0
  }
  param {
    lr_mult: 0
    decay_mult: 0
  }
  param {
    lr_mult: 0
    decay_mult: 0
  }
  batch_norm_param {
    use_global_stats: true
  }
}
layer {
  name: "Scale20"
  type: "Scale"
  bottom: "Convolution20"
  top: "Convolution20"
  scale_param {
    bias_term: true
  }
}
layer {
  name: "Sigmoid18"
  type: "Sigmoid"
  bottom: "Convolution20"
  top: "Sigmoid18"
}
layer {
  name: "Eltwise26"
  type: "Eltwise"
  bottom: "Convolution20"
  bottom: "Sigmoid18"
  top: "Eltwise26"
  eltwise_param {
    operation: PROD
  }
}
layer {
  name: "Convolution21"
  type: "Convolution"
  bottom: "Eltwise26"
  top: "Convolution21"
  param {
    lr_mult: 1
    decay_mult: 1
  }
  param {
    lr_mult: 2
    decay_mult: 0
  }
  convolution_param {
    num_output: 64
    bias_term: true
    pad: 1
    kernel_size: 3
    stride: 1
    weight_filler {
      type: "msra"
    }
    bias_filler {
      type: "constant"
    }
  }
}
layer {
  name: "BatchNorm21"
  type: "BatchNorm"
  bottom: "Convolution21"
  top: "Convolution21"
  param {
    lr_mult: 0
    decay_mult: 0
  }
  param {
    lr_mult: 0
    decay_mult: 0
  }
  param {
    lr_mult: 0
    decay_mult: 0
  }
  batch_norm_param {
    use_global_stats: true
  }
}
layer {
  name: "Scale21"
  type: "Scale"
  bottom: "Convolution21"
  top: "Convolution21"
  scale_param {
    bias_term: true
  }
}
layer {
  name: "Eltwise27"
  type: "Eltwise"
  bottom: "Convolution21"
  bottom: "Eltwise25"
  top: "Eltwise27"
  eltwise_param {
    operation: SUM
  }
}
layer {
  name: "Sigmoid19"
  type: "Sigmoid"
  bottom: "Eltwise27"
  top: "Sigmoid19"
}
layer {
  name: "Eltwise28"
  type: "Eltwise"
  bottom: "Eltwise27"
  bottom: "Sigmoid19"
  top: "Eltwise28"
  eltwise_param {
    operation: PROD
  }
}
layer {
  name: "Pooling1"
  type: "Pooling"
  bottom: "Eltwise28"
  top: "Pooling1"
  pooling_param {
    pool: AVE
    global_pooling: true
  }
}
layer {
  name: "InnerProduct1"
  type: "InnerProduct"
  bottom: "Pooling1"
  top: "InnerProduct1"
  inner_product_param {
    num_output: 10
    weight_filler {
      type: "msra"
    }
    bias_filler {
      type: "constant"
    }
  }
}
layer {
  name: "Accuracy1"
  type: "Accuracy"
  bottom: "InnerProduct1"
  bottom: "Data2"
  top: "Accuracy1"
}
I1025 10:16:53.957561   384 layer_factory.hpp:77] Creating layer Data1
I1025 10:16:53.957705   384 db_lmdb.cpp:35] Opened lmdb /data/hjy1312/data/RESNET/cifar-10/cifar10_test_lmdb
I1025 10:16:53.957752   384 net.cpp:84] Creating Layer Data1
I1025 10:16:53.957763   384 net.cpp:380] Data1 -> Data1
I1025 10:16:53.957797   384 net.cpp:380] Data1 -> Data2
I1025 10:16:53.982138   384 data_layer.cpp:45] output data size: 128,3,32,32
I1025 10:16:53.991974   384 net.cpp:122] Setting up Data1
I1025 10:16:53.992027   384 net.cpp:129] Top shape: 128 3 32 32 (393216)
I1025 10:16:53.992036   384 net.cpp:129] Top shape: 128 (128)
I1025 10:16:53.992041   384 net.cpp:137] Memory required for data: 1573376
I1025 10:16:53.992053   384 layer_factory.hpp:77] Creating layer Convolution1
I1025 10:16:53.992085   384 net.cpp:84] Creating Layer Convolution1
I1025 10:16:53.992094   384 net.cpp:406] Convolution1 <- Data1
I1025 10:16:53.992111   384 net.cpp:380] Convolution1 -> Convolution1
I1025 10:16:54.257341   384 net.cpp:122] Setting up Convolution1
I1025 10:16:54.257402   384 net.cpp:129] Top shape: 128 16 32 32 (2097152)
I1025 10:16:54.257457   384 net.cpp:137] Memory required for data: 9961984
I1025 10:16:54.257495   384 layer_factory.hpp:77] Creating layer BatchNorm1
I1025 10:16:54.257529   384 net.cpp:84] Creating Layer BatchNorm1
I1025 10:16:54.257545   384 net.cpp:406] BatchNorm1 <- Convolution1
I1025 10:16:54.257563   384 net.cpp:367] BatchNorm1 -> Convolution1 (in-place)
I1025 10:16:54.257920   384 net.cpp:122] Setting up BatchNorm1
I1025 10:16:54.257941   384 net.cpp:129] Top shape: 128 16 32 32 (2097152)
I1025 10:16:54.257953   384 net.cpp:137] Memory required for data: 18350592
I1025 10:16:54.257977   384 layer_factory.hpp:77] Creating layer Scale1
I1025 10:16:54.257998   384 net.cpp:84] Creating Layer Scale1
I1025 10:16:54.258013   384 net.cpp:406] Scale1 <- Convolution1
I1025 10:16:54.258028   384 net.cpp:367] Scale1 -> Convolution1 (in-place)
I1025 10:16:54.258111   384 layer_factory.hpp:77] Creating layer Scale1
I1025 10:16:54.258327   384 net.cpp:122] Setting up Scale1
I1025 10:16:54.258348   384 net.cpp:129] Top shape: 128 16 32 32 (2097152)
I1025 10:16:54.258359   384 net.cpp:137] Memory required for data: 26739200
I1025 10:16:54.258376   384 layer_factory.hpp:77] Creating layer Convolution1_Scale1_0_split
I1025 10:16:54.258394   384 net.cpp:84] Creating Layer Convolution1_Scale1_0_split
I1025 10:16:54.258407   384 net.cpp:406] Convolution1_Scale1_0_split <- Convolution1
I1025 10:16:54.258422   384 net.cpp:380] Convolution1_Scale1_0_split -> Convolution1_Scale1_0_split_0
I1025 10:16:54.258440   384 net.cpp:380] Convolution1_Scale1_0_split -> Convolution1_Scale1_0_split_1
I1025 10:16:54.258523   384 net.cpp:122] Setting up Convolution1_Scale1_0_split
I1025 10:16:54.258545   384 net.cpp:129] Top shape: 128 16 32 32 (2097152)
I1025 10:16:54.258560   384 net.cpp:129] Top shape: 128 16 32 32 (2097152)
I1025 10:16:54.258570   384 net.cpp:137] Memory required for data: 43516416
I1025 10:16:54.258581   384 layer_factory.hpp:77] Creating layer Sigmoid1
I1025 10:16:54.258596   384 net.cpp:84] Creating Layer Sigmoid1
I1025 10:16:54.258610   384 net.cpp:406] Sigmoid1 <- Convolution1_Scale1_0_split_0
I1025 10:16:54.258623   384 net.cpp:380] Sigmoid1 -> Sigmoid1
I1025 10:16:54.259804   384 net.cpp:122] Setting up Sigmoid1
I1025 10:16:54.259831   384 net.cpp:129] Top shape: 128 16 32 32 (2097152)
I1025 10:16:54.259845   384 net.cpp:137] Memory required for data: 51905024
I1025 10:16:54.259857   384 layer_factory.hpp:77] Creating layer Eltwise1
I1025 10:16:54.259876   384 net.cpp:84] Creating Layer Eltwise1
I1025 10:16:54.259891   384 net.cpp:406] Eltwise1 <- Convolution1_Scale1_0_split_1
I1025 10:16:54.259904   384 net.cpp:406] Eltwise1 <- Sigmoid1
I1025 10:16:54.259919   384 net.cpp:380] Eltwise1 -> Eltwise1
I1025 10:16:54.259973   384 net.cpp:122] Setting up Eltwise1
I1025 10:16:54.259991   384 net.cpp:129] Top shape: 128 16 32 32 (2097152)
I1025 10:16:54.260002   384 net.cpp:137] Memory required for data: 60293632
I1025 10:16:54.260013   384 layer_factory.hpp:77] Creating layer Eltwise1_Eltwise1_0_split
I1025 10:16:54.260042   384 net.cpp:84] Creating Layer Eltwise1_Eltwise1_0_split
I1025 10:16:54.260072   384 net.cpp:406] Eltwise1_Eltwise1_0_split <- Eltwise1
I1025 10:16:54.260088   384 net.cpp:380] Eltwise1_Eltwise1_0_split -> Eltwise1_Eltwise1_0_split_0
I1025 10:16:54.260107   384 net.cpp:380] Eltwise1_Eltwise1_0_split -> Eltwise1_Eltwise1_0_split_1
I1025 10:16:54.260176   384 net.cpp:122] Setting up Eltwise1_Eltwise1_0_split
I1025 10:16:54.260195   384 net.cpp:129] Top shape: 128 16 32 32 (2097152)
I1025 10:16:54.260210   384 net.cpp:129] Top shape: 128 16 32 32 (2097152)
I1025 10:16:54.260221   384 net.cpp:137] Memory required for data: 77070848
I1025 10:16:54.260232   384 layer_factory.hpp:77] Creating layer Convolution2
I1025 10:16:54.260254   384 net.cpp:84] Creating Layer Convolution2
I1025 10:16:54.260268   384 net.cpp:406] Convolution2 <- Eltwise1_Eltwise1_0_split_0
I1025 10:16:54.260285   384 net.cpp:380] Convolution2 -> Convolution2
I1025 10:16:54.263692   384 net.cpp:122] Setting up Convolution2
I1025 10:16:54.263721   384 net.cpp:129] Top shape: 128 16 32 32 (2097152)
I1025 10:16:54.263733   384 net.cpp:137] Memory required for data: 85459456
I1025 10:16:54.263754   384 layer_factory.hpp:77] Creating layer BatchNorm2
I1025 10:16:54.263772   384 net.cpp:84] Creating Layer BatchNorm2
I1025 10:16:54.263782   384 net.cpp:406] BatchNorm2 <- Convolution2
I1025 10:16:54.263795   384 net.cpp:367] BatchNorm2 -> Convolution2 (in-place)
I1025 10:16:54.264068   384 net.cpp:122] Setting up BatchNorm2
I1025 10:16:54.264088   384 net.cpp:129] Top shape: 128 16 32 32 (2097152)
I1025 10:16:54.264098   384 net.cpp:137] Memory required for data: 93848064
I1025 10:16:54.264116   384 layer_factory.hpp:77] Creating layer Scale2
I1025 10:16:54.264130   384 net.cpp:84] Creating Layer Scale2
I1025 10:16:54.264140   384 net.cpp:406] Scale2 <- Convolution2
I1025 10:16:54.264153   384 net.cpp:367] Scale2 -> Convolution2 (in-place)
I1025 10:16:54.264210   384 layer_factory.hpp:77] Creating layer Scale2
I1025 10:16:54.264385   384 net.cpp:122] Setting up Scale2
I1025 10:16:54.264407   384 net.cpp:129] Top shape: 128 16 32 32 (2097152)
I1025 10:16:54.264418   384 net.cpp:137] Memory required for data: 102236672
I1025 10:16:54.264436   384 layer_factory.hpp:77] Creating layer Convolution2_Scale2_0_split
I1025 10:16:54.264451   384 net.cpp:84] Creating Layer Convolution2_Scale2_0_split
I1025 10:16:54.264461   384 net.cpp:406] Convolution2_Scale2_0_split <- Convolution2
I1025 10:16:54.264477   384 net.cpp:380] Convolution2_Scale2_0_split -> Convolution2_Scale2_0_split_0
I1025 10:16:54.264493   384 net.cpp:380] Convolution2_Scale2_0_split -> Convolution2_Scale2_0_split_1
I1025 10:16:54.264557   384 net.cpp:122] Setting up Convolution2_Scale2_0_split
I1025 10:16:54.264575   384 net.cpp:129] Top shape: 128 16 32 32 (2097152)
I1025 10:16:54.264586   384 net.cpp:129] Top shape: 128 16 32 32 (2097152)
I1025 10:16:54.264596   384 net.cpp:137] Memory required for data: 119013888
I1025 10:16:54.264606   384 layer_factory.hpp:77] Creating layer Sigmoid2
I1025 10:16:54.264621   384 net.cpp:84] Creating Layer Sigmoid2
I1025 10:16:54.264631   384 net.cpp:406] Sigmoid2 <- Convolution2_Scale2_0_split_0
I1025 10:16:54.264645   384 net.cpp:380] Sigmoid2 -> Sigmoid2
I1025 10:16:54.265790   384 net.cpp:122] Setting up Sigmoid2
I1025 10:16:54.265818   384 net.cpp:129] Top shape: 128 16 32 32 (2097152)
I1025 10:16:54.265831   384 net.cpp:137] Memory required for data: 127402496
I1025 10:16:54.265842   384 layer_factory.hpp:77] Creating layer Eltwise2
I1025 10:16:54.265858   384 net.cpp:84] Creating Layer Eltwise2
I1025 10:16:54.265872   384 net.cpp:406] Eltwise2 <- Convolution2_Scale2_0_split_1
I1025 10:16:54.265885   384 net.cpp:406] Eltwise2 <- Sigmoid2
I1025 10:16:54.265900   384 net.cpp:380] Eltwise2 -> Eltwise2
I1025 10:16:54.265951   384 net.cpp:122] Setting up Eltwise2
I1025 10:16:54.265970   384 net.cpp:129] Top shape: 128 16 32 32 (2097152)
I1025 10:16:54.265982   384 net.cpp:137] Memory required for data: 135791104
I1025 10:16:54.266000   384 layer_factory.hpp:77] Creating layer Convolution3
I1025 10:16:54.266036   384 net.cpp:84] Creating Layer Convolution3
I1025 10:16:54.266050   384 net.cpp:406] Convolution3 <- Eltwise2
I1025 10:16:54.266068   384 net.cpp:380] Convolution3 -> Convolution3
I1025 10:16:54.269297   384 net.cpp:122] Setting up Convolution3
I1025 10:16:54.269325   384 net.cpp:129] Top shape: 128 16 32 32 (2097152)
I1025 10:16:54.269338   384 net.cpp:137] Memory required for data: 144179712
I1025 10:16:54.269356   384 layer_factory.hpp:77] Creating layer BatchNorm3
I1025 10:16:54.269376   384 net.cpp:84] Creating Layer BatchNorm3
I1025 10:16:54.269393   384 net.cpp:406] BatchNorm3 <- Convolution3
I1025 10:16:54.269408   384 net.cpp:367] BatchNorm3 -> Convolution3 (in-place)
I1025 10:16:54.269786   384 net.cpp:122] Setting up BatchNorm3
I1025 10:16:54.269807   384 net.cpp:129] Top shape: 128 16 32 32 (2097152)
I1025 10:16:54.269819   384 net.cpp:137] Memory required for data: 152568320
I1025 10:16:54.269845   384 layer_factory.hpp:77] Creating layer Scale3
I1025 10:16:54.269865   384 net.cpp:84] Creating Layer Scale3
I1025 10:16:54.269879   384 net.cpp:406] Scale3 <- Convolution3
I1025 10:16:54.269893   384 net.cpp:367] Scale3 -> Convolution3 (in-place)
I1025 10:16:54.269969   384 layer_factory.hpp:77] Creating layer Scale3
I1025 10:16:54.270174   384 net.cpp:122] Setting up Scale3
I1025 10:16:54.270193   384 net.cpp:129] Top shape: 128 16 32 32 (2097152)
I1025 10:16:54.270200   384 net.cpp:137] Memory required for data: 160956928
I1025 10:16:54.270213   384 layer_factory.hpp:77] Creating layer Eltwise3
I1025 10:16:54.270229   384 net.cpp:84] Creating Layer Eltwise3
I1025 10:16:54.270241   384 net.cpp:406] Eltwise3 <- Convolution3
I1025 10:16:54.270251   384 net.cpp:406] Eltwise3 <- Eltwise1_Eltwise1_0_split_1
I1025 10:16:54.270263   384 net.cpp:380] Eltwise3 -> Eltwise3
I1025 10:16:54.270310   384 net.cpp:122] Setting up Eltwise3
I1025 10:16:54.270328   384 net.cpp:129] Top shape: 128 16 32 32 (2097152)
I1025 10:16:54.270336   384 net.cpp:137] Memory required for data: 169345536
I1025 10:16:54.270345   384 layer_factory.hpp:77] Creating layer Eltwise3_Eltwise3_0_split
I1025 10:16:54.270357   384 net.cpp:84] Creating Layer Eltwise3_Eltwise3_0_split
I1025 10:16:54.270367   384 net.cpp:406] Eltwise3_Eltwise3_0_split <- Eltwise3
I1025 10:16:54.270382   384 net.cpp:380] Eltwise3_Eltwise3_0_split -> Eltwise3_Eltwise3_0_split_0
I1025 10:16:54.270400   384 net.cpp:380] Eltwise3_Eltwise3_0_split -> Eltwise3_Eltwise3_0_split_1
I1025 10:16:54.270462   384 net.cpp:122] Setting up Eltwise3_Eltwise3_0_split
I1025 10:16:54.270479   384 net.cpp:129] Top shape: 128 16 32 32 (2097152)
I1025 10:16:54.270491   384 net.cpp:129] Top shape: 128 16 32 32 (2097152)
I1025 10:16:54.270511   384 net.cpp:137] Memory required for data: 186122752
I1025 10:16:54.270521   384 layer_factory.hpp:77] Creating layer Sigmoid3
I1025 10:16:54.270534   384 net.cpp:84] Creating Layer Sigmoid3
I1025 10:16:54.270545   384 net.cpp:406] Sigmoid3 <- Eltwise3_Eltwise3_0_split_0
I1025 10:16:54.270556   384 net.cpp:380] Sigmoid3 -> Sigmoid3
I1025 10:16:54.270866   384 net.cpp:122] Setting up Sigmoid3
I1025 10:16:54.270890   384 net.cpp:129] Top shape: 128 16 32 32 (2097152)
I1025 10:16:54.270903   384 net.cpp:137] Memory required for data: 194511360
I1025 10:16:54.270915   384 layer_factory.hpp:77] Creating layer Eltwise4
I1025 10:16:54.270928   384 net.cpp:84] Creating Layer Eltwise4
I1025 10:16:54.270939   384 net.cpp:406] Eltwise4 <- Eltwise3_Eltwise3_0_split_1
I1025 10:16:54.270952   384 net.cpp:406] Eltwise4 <- Sigmoid3
I1025 10:16:54.270969   384 net.cpp:380] Eltwise4 -> Eltwise4
I1025 10:16:54.271026   384 net.cpp:122] Setting up Eltwise4
I1025 10:16:54.271045   384 net.cpp:129] Top shape: 128 16 32 32 (2097152)
I1025 10:16:54.271056   384 net.cpp:137] Memory required for data: 202899968
I1025 10:16:54.271066   384 layer_factory.hpp:77] Creating layer Eltwise4_Eltwise4_0_split
I1025 10:16:54.271080   384 net.cpp:84] Creating Layer Eltwise4_Eltwise4_0_split
I1025 10:16:54.271091   384 net.cpp:406] Eltwise4_Eltwise4_0_split <- Eltwise4
I1025 10:16:54.271121   384 net.cpp:380] Eltwise4_Eltwise4_0_split -> Eltwise4_Eltwise4_0_split_0
I1025 10:16:54.271139   384 net.cpp:380] Eltwise4_Eltwise4_0_split -> Eltwise4_Eltwise4_0_split_1
I1025 10:16:54.271222   384 net.cpp:122] Setting up Eltwise4_Eltwise4_0_split
I1025 10:16:54.271241   384 net.cpp:129] Top shape: 128 16 32 32 (2097152)
I1025 10:16:54.271255   384 net.cpp:129] Top shape: 128 16 32 32 (2097152)
I1025 10:16:54.271265   384 net.cpp:137] Memory required for data: 219677184
I1025 10:16:54.271275   384 layer_factory.hpp:77] Creating layer Convolution4
I1025 10:16:54.271296   384 net.cpp:84] Creating Layer Convolution4
I1025 10:16:54.271311   384 net.cpp:406] Convolution4 <- Eltwise4_Eltwise4_0_split_0
I1025 10:16:54.271332   384 net.cpp:380] Convolution4 -> Convolution4
I1025 10:16:54.274610   384 net.cpp:122] Setting up Convolution4
I1025 10:16:54.274631   384 net.cpp:129] Top shape: 128 16 32 32 (2097152)
I1025 10:16:54.274637   384 net.cpp:137] Memory required for data: 228065792
I1025 10:16:54.274646   384 layer_factory.hpp:77] Creating layer BatchNorm4
I1025 10:16:54.274658   384 net.cpp:84] Creating Layer BatchNorm4
I1025 10:16:54.274664   384 net.cpp:406] BatchNorm4 <- Convolution4
I1025 10:16:54.274672   384 net.cpp:367] BatchNorm4 -> Convolution4 (in-place)
I1025 10:16:54.274863   384 net.cpp:122] Setting up BatchNorm4
I1025 10:16:54.274873   384 net.cpp:129] Top shape: 128 16 32 32 (2097152)
I1025 10:16:54.274878   384 net.cpp:137] Memory required for data: 236454400
I1025 10:16:54.274888   384 layer_factory.hpp:77] Creating layer Scale4
I1025 10:16:54.274895   384 net.cpp:84] Creating Layer Scale4
I1025 10:16:54.274901   384 net.cpp:406] Scale4 <- Convolution4
I1025 10:16:54.274910   384 net.cpp:367] Scale4 -> Convolution4 (in-place)
I1025 10:16:54.274947   384 layer_factory.hpp:77] Creating layer Scale4
I1025 10:16:54.275060   384 net.cpp:122] Setting up Scale4
I1025 10:16:54.275071   384 net.cpp:129] Top shape: 128 16 32 32 (2097152)
I1025 10:16:54.275075   384 net.cpp:137] Memory required for data: 244843008
I1025 10:16:54.275084   384 layer_factory.hpp:77] Creating layer Convolution4_Scale4_0_split
I1025 10:16:54.275091   384 net.cpp:84] Creating Layer Convolution4_Scale4_0_split
I1025 10:16:54.275099   384 net.cpp:406] Convolution4_Scale4_0_split <- Convolution4
I1025 10:16:54.275105   384 net.cpp:380] Convolution4_Scale4_0_split -> Convolution4_Scale4_0_split_0
I1025 10:16:54.275113   384 net.cpp:380] Convolution4_Scale4_0_split -> Convolution4_Scale4_0_split_1
I1025 10:16:54.275153   384 net.cpp:122] Setting up Convolution4_Scale4_0_split
I1025 10:16:54.275162   384 net.cpp:129] Top shape: 128 16 32 32 (2097152)
I1025 10:16:54.275168   384 net.cpp:129] Top shape: 128 16 32 32 (2097152)
I1025 10:16:54.275172   384 net.cpp:137] Memory required for data: 261620224
I1025 10:16:54.275177   384 layer_factory.hpp:77] Creating layer Sigmoid4
I1025 10:16:54.275184   384 net.cpp:84] Creating Layer Sigmoid4
I1025 10:16:54.275190   384 net.cpp:406] Sigmoid4 <- Convolution4_Scale4_0_split_0
I1025 10:16:54.275197   384 net.cpp:380] Sigmoid4 -> Sigmoid4
I1025 10:16:54.276166   384 net.cpp:122] Setting up Sigmoid4
I1025 10:16:54.276188   384 net.cpp:129] Top shape: 128 16 32 32 (2097152)
I1025 10:16:54.276195   384 net.cpp:137] Memory required for data: 270008832
I1025 10:16:54.276201   384 layer_factory.hpp:77] Creating layer Eltwise5
I1025 10:16:54.276208   384 net.cpp:84] Creating Layer Eltwise5
I1025 10:16:54.276214   384 net.cpp:406] Eltwise5 <- Convolution4_Scale4_0_split_1
I1025 10:16:54.276221   384 net.cpp:406] Eltwise5 <- Sigmoid4
I1025 10:16:54.276228   384 net.cpp:380] Eltwise5 -> Eltwise5
I1025 10:16:54.276263   384 net.cpp:122] Setting up Eltwise5
I1025 10:16:54.276274   384 net.cpp:129] Top shape: 128 16 32 32 (2097152)
I1025 10:16:54.276278   384 net.cpp:137] Memory required for data: 278397440
I1025 10:16:54.276283   384 layer_factory.hpp:77] Creating layer Convolution5
I1025 10:16:54.276296   384 net.cpp:84] Creating Layer Convolution5
I1025 10:16:54.276307   384 net.cpp:406] Convolution5 <- Eltwise5
I1025 10:16:54.276327   384 net.cpp:380] Convolution5 -> Convolution5
I1025 10:16:54.277909   384 net.cpp:122] Setting up Convolution5
I1025 10:16:54.277935   384 net.cpp:129] Top shape: 128 16 32 32 (2097152)
I1025 10:16:54.277943   384 net.cpp:137] Memory required for data: 286786048
I1025 10:16:54.277951   384 layer_factory.hpp:77] Creating layer BatchNorm5
I1025 10:16:54.277963   384 net.cpp:84] Creating Layer BatchNorm5
I1025 10:16:54.277971   384 net.cpp:406] BatchNorm5 <- Convolution5
I1025 10:16:54.277979   384 net.cpp:367] BatchNorm5 -> Convolution5 (in-place)
I1025 10:16:54.278172   384 net.cpp:122] Setting up BatchNorm5
I1025 10:16:54.278183   384 net.cpp:129] Top shape: 128 16 32 32 (2097152)
I1025 10:16:54.278187   384 net.cpp:137] Memory required for data: 295174656
I1025 10:16:54.278203   384 layer_factory.hpp:77] Creating layer Scale5
I1025 10:16:54.278211   384 net.cpp:84] Creating Layer Scale5
I1025 10:16:54.278218   384 net.cpp:406] Scale5 <- Convolution5
I1025 10:16:54.278224   384 net.cpp:367] Scale5 -> Convolution5 (in-place)
I1025 10:16:54.278265   384 layer_factory.hpp:77] Creating layer Scale5
I1025 10:16:54.278379   384 net.cpp:122] Setting up Scale5
I1025 10:16:54.278390   384 net.cpp:129] Top shape: 128 16 32 32 (2097152)
I1025 10:16:54.278394   384 net.cpp:137] Memory required for data: 303563264
I1025 10:16:54.278403   384 layer_factory.hpp:77] Creating layer Eltwise6
I1025 10:16:54.278412   384 net.cpp:84] Creating Layer Eltwise6
I1025 10:16:54.278417   384 net.cpp:406] Eltwise6 <- Convolution5
I1025 10:16:54.278424   384 net.cpp:406] Eltwise6 <- Eltwise4_Eltwise4_0_split_1
I1025 10:16:54.278432   384 net.cpp:380] Eltwise6 -> Eltwise6
I1025 10:16:54.278458   384 net.cpp:122] Setting up Eltwise6
I1025 10:16:54.278467   384 net.cpp:129] Top shape: 128 16 32 32 (2097152)
I1025 10:16:54.278471   384 net.cpp:137] Memory required for data: 311951872
I1025 10:16:54.278476   384 layer_factory.hpp:77] Creating layer Eltwise6_Eltwise6_0_split
I1025 10:16:54.278489   384 net.cpp:84] Creating Layer Eltwise6_Eltwise6_0_split
I1025 10:16:54.278501   384 net.cpp:406] Eltwise6_Eltwise6_0_split <- Eltwise6
I1025 10:16:54.278509   384 net.cpp:380] Eltwise6_Eltwise6_0_split -> Eltwise6_Eltwise6_0_split_0
I1025 10:16:54.278518   384 net.cpp:380] Eltwise6_Eltwise6_0_split -> Eltwise6_Eltwise6_0_split_1
I1025 10:16:54.278558   384 net.cpp:122] Setting up Eltwise6_Eltwise6_0_split
I1025 10:16:54.278566   384 net.cpp:129] Top shape: 128 16 32 32 (2097152)
I1025 10:16:54.278573   384 net.cpp:129] Top shape: 128 16 32 32 (2097152)
I1025 10:16:54.278576   384 net.cpp:137] Memory required for data: 328729088
I1025 10:16:54.278581   384 layer_factory.hpp:77] Creating layer Sigmoid5
I1025 10:16:54.278589   384 net.cpp:84] Creating Layer Sigmoid5
I1025 10:16:54.278597   384 net.cpp:406] Sigmoid5 <- Eltwise6_Eltwise6_0_split_0
I1025 10:16:54.278609   384 net.cpp:380] Sigmoid5 -> Sigmoid5
I1025 10:16:54.279517   384 net.cpp:122] Setting up Sigmoid5
I1025 10:16:54.279536   384 net.cpp:129] Top shape: 128 16 32 32 (2097152)
I1025 10:16:54.279541   384 net.cpp:137] Memory required for data: 337117696
I1025 10:16:54.279546   384 layer_factory.hpp:77] Creating layer Eltwise7
I1025 10:16:54.279556   384 net.cpp:84] Creating Layer Eltwise7
I1025 10:16:54.279562   384 net.cpp:406] Eltwise7 <- Eltwise6_Eltwise6_0_split_1
I1025 10:16:54.279568   384 net.cpp:406] Eltwise7 <- Sigmoid5
I1025 10:16:54.279575   384 net.cpp:380] Eltwise7 -> Eltwise7
I1025 10:16:54.279609   384 net.cpp:122] Setting up Eltwise7
I1025 10:16:54.279619   384 net.cpp:129] Top shape: 128 16 32 32 (2097152)
I1025 10:16:54.279624   384 net.cpp:137] Memory required for data: 345506304
I1025 10:16:54.279629   384 layer_factory.hpp:77] Creating layer Eltwise7_Eltwise7_0_split
I1025 10:16:54.279637   384 net.cpp:84] Creating Layer Eltwise7_Eltwise7_0_split
I1025 10:16:54.279644   384 net.cpp:406] Eltwise7_Eltwise7_0_split <- Eltwise7
I1025 10:16:54.279650   384 net.cpp:380] Eltwise7_Eltwise7_0_split -> Eltwise7_Eltwise7_0_split_0
I1025 10:16:54.279664   384 net.cpp:380] Eltwise7_Eltwise7_0_split -> Eltwise7_Eltwise7_0_split_1
I1025 10:16:54.279711   384 net.cpp:122] Setting up Eltwise7_Eltwise7_0_split
I1025 10:16:54.279721   384 net.cpp:129] Top shape: 128 16 32 32 (2097152)
I1025 10:16:54.279726   384 net.cpp:129] Top shape: 128 16 32 32 (2097152)
I1025 10:16:54.279731   384 net.cpp:137] Memory required for data: 362283520
I1025 10:16:54.279736   384 layer_factory.hpp:77] Creating layer Convolution6
I1025 10:16:54.279749   384 net.cpp:84] Creating Layer Convolution6
I1025 10:16:54.279755   384 net.cpp:406] Convolution6 <- Eltwise7_Eltwise7_0_split_0
I1025 10:16:54.279764   384 net.cpp:380] Convolution6 -> Convolution6
I1025 10:16:54.282045   384 net.cpp:122] Setting up Convolution6
I1025 10:16:54.282066   384 net.cpp:129] Top shape: 128 16 32 32 (2097152)
I1025 10:16:54.282071   384 net.cpp:137] Memory required for data: 370672128
I1025 10:16:54.282080   384 layer_factory.hpp:77] Creating layer BatchNorm6
I1025 10:16:54.282090   384 net.cpp:84] Creating Layer BatchNorm6
I1025 10:16:54.282096   384 net.cpp:406] BatchNorm6 <- Convolution6
I1025 10:16:54.282107   384 net.cpp:367] BatchNorm6 -> Convolution6 (in-place)
I1025 10:16:54.282310   384 net.cpp:122] Setting up BatchNorm6
I1025 10:16:54.282328   384 net.cpp:129] Top shape: 128 16 32 32 (2097152)
I1025 10:16:54.282337   384 net.cpp:137] Memory required for data: 379060736
I1025 10:16:54.282353   384 layer_factory.hpp:77] Creating layer Scale6
I1025 10:16:54.282366   384 net.cpp:84] Creating Layer Scale6
I1025 10:16:54.282375   384 net.cpp:406] Scale6 <- Convolution6
I1025 10:16:54.282385   384 net.cpp:367] Scale6 -> Convolution6 (in-place)
I1025 10:16:54.282450   384 layer_factory.hpp:77] Creating layer Scale6
I1025 10:16:54.282642   384 net.cpp:122] Setting up Scale6
I1025 10:16:54.282666   384 net.cpp:129] Top shape: 128 16 32 32 (2097152)
I1025 10:16:54.282678   384 net.cpp:137] Memory required for data: 387449344
I1025 10:16:54.282691   384 layer_factory.hpp:77] Creating layer Convolution6_Scale6_0_split
I1025 10:16:54.282706   384 net.cpp:84] Creating Layer Convolution6_Scale6_0_split
I1025 10:16:54.282717   384 net.cpp:406] Convolution6_Scale6_0_split <- Convolution6
I1025 10:16:54.282732   384 net.cpp:380] Convolution6_Scale6_0_split -> Convolution6_Scale6_0_split_0
I1025 10:16:54.282748   384 net.cpp:380] Convolution6_Scale6_0_split -> Convolution6_Scale6_0_split_1
I1025 10:16:54.282799   384 net.cpp:122] Setting up Convolution6_Scale6_0_split
I1025 10:16:54.282809   384 net.cpp:129] Top shape: 128 16 32 32 (2097152)
I1025 10:16:54.282815   384 net.cpp:129] Top shape: 128 16 32 32 (2097152)
I1025 10:16:54.282820   384 net.cpp:137] Memory required for data: 404226560
I1025 10:16:54.282825   384 layer_factory.hpp:77] Creating layer Sigmoid6
I1025 10:16:54.282835   384 net.cpp:84] Creating Layer Sigmoid6
I1025 10:16:54.282840   384 net.cpp:406] Sigmoid6 <- Convolution6_Scale6_0_split_0
I1025 10:16:54.282847   384 net.cpp:380] Sigmoid6 -> Sigmoid6
I1025 10:16:54.283056   384 net.cpp:122] Setting up Sigmoid6
I1025 10:16:54.283071   384 net.cpp:129] Top shape: 128 16 32 32 (2097152)
I1025 10:16:54.283076   384 net.cpp:137] Memory required for data: 412615168
I1025 10:16:54.283080   384 layer_factory.hpp:77] Creating layer Eltwise8
I1025 10:16:54.283090   384 net.cpp:84] Creating Layer Eltwise8
I1025 10:16:54.283095   384 net.cpp:406] Eltwise8 <- Convolution6_Scale6_0_split_1
I1025 10:16:54.283102   384 net.cpp:406] Eltwise8 <- Sigmoid6
I1025 10:16:54.283109   384 net.cpp:380] Eltwise8 -> Eltwise8
I1025 10:16:54.283139   384 net.cpp:122] Setting up Eltwise8
I1025 10:16:54.283149   384 net.cpp:129] Top shape: 128 16 32 32 (2097152)
I1025 10:16:54.283154   384 net.cpp:137] Memory required for data: 421003776
I1025 10:16:54.283159   384 layer_factory.hpp:77] Creating layer Convolution7
I1025 10:16:54.283170   384 net.cpp:84] Creating Layer Convolution7
I1025 10:16:54.283176   384 net.cpp:406] Convolution7 <- Eltwise8
I1025 10:16:54.283186   384 net.cpp:380] Convolution7 -> Convolution7
I1025 10:16:54.285490   384 net.cpp:122] Setting up Convolution7
I1025 10:16:54.285518   384 net.cpp:129] Top shape: 128 16 32 32 (2097152)
I1025 10:16:54.285524   384 net.cpp:137] Memory required for data: 429392384
I1025 10:16:54.285533   384 layer_factory.hpp:77] Creating layer BatchNorm7
I1025 10:16:54.285545   384 net.cpp:84] Creating Layer BatchNorm7
I1025 10:16:54.285552   384 net.cpp:406] BatchNorm7 <- Convolution7
I1025 10:16:54.285562   384 net.cpp:367] BatchNorm7 -> Convolution7 (in-place)
I1025 10:16:54.285784   384 net.cpp:122] Setting up BatchNorm7
I1025 10:16:54.285799   384 net.cpp:129] Top shape: 128 16 32 32 (2097152)
I1025 10:16:54.285805   384 net.cpp:137] Memory required for data: 437780992
I1025 10:16:54.285815   384 layer_factory.hpp:77] Creating layer Scale7
I1025 10:16:54.285823   384 net.cpp:84] Creating Layer Scale7
I1025 10:16:54.285828   384 net.cpp:406] Scale7 <- Convolution7
I1025 10:16:54.285838   384 net.cpp:367] Scale7 -> Convolution7 (in-place)
I1025 10:16:54.285877   384 layer_factory.hpp:77] Creating layer Scale7
I1025 10:16:54.285995   384 net.cpp:122] Setting up Scale7
I1025 10:16:54.286005   384 net.cpp:129] Top shape: 128 16 32 32 (2097152)
I1025 10:16:54.286010   384 net.cpp:137] Memory required for data: 446169600
I1025 10:16:54.286018   384 layer_factory.hpp:77] Creating layer Eltwise9
I1025 10:16:54.286028   384 net.cpp:84] Creating Layer Eltwise9
I1025 10:16:54.286034   384 net.cpp:406] Eltwise9 <- Convolution7
I1025 10:16:54.286041   384 net.cpp:406] Eltwise9 <- Eltwise7_Eltwise7_0_split_1
I1025 10:16:54.286047   384 net.cpp:380] Eltwise9 -> Eltwise9
I1025 10:16:54.286077   384 net.cpp:122] Setting up Eltwise9
I1025 10:16:54.286087   384 net.cpp:129] Top shape: 128 16 32 32 (2097152)
I1025 10:16:54.286092   384 net.cpp:137] Memory required for data: 454558208
I1025 10:16:54.286097   384 layer_factory.hpp:77] Creating layer Eltwise9_Eltwise9_0_split
I1025 10:16:54.286103   384 net.cpp:84] Creating Layer Eltwise9_Eltwise9_0_split
I1025 10:16:54.286108   384 net.cpp:406] Eltwise9_Eltwise9_0_split <- Eltwise9
I1025 10:16:54.286118   384 net.cpp:380] Eltwise9_Eltwise9_0_split -> Eltwise9_Eltwise9_0_split_0
I1025 10:16:54.286125   384 net.cpp:380] Eltwise9_Eltwise9_0_split -> Eltwise9_Eltwise9_0_split_1
I1025 10:16:54.286164   384 net.cpp:122] Setting up Eltwise9_Eltwise9_0_split
I1025 10:16:54.286173   384 net.cpp:129] Top shape: 128 16 32 32 (2097152)
I1025 10:16:54.286180   384 net.cpp:129] Top shape: 128 16 32 32 (2097152)
I1025 10:16:54.286185   384 net.cpp:137] Memory required for data: 471335424
I1025 10:16:54.286190   384 layer_factory.hpp:77] Creating layer Sigmoid7
I1025 10:16:54.286196   384 net.cpp:84] Creating Layer Sigmoid7
I1025 10:16:54.286201   384 net.cpp:406] Sigmoid7 <- Eltwise9_Eltwise9_0_split_0
I1025 10:16:54.286208   384 net.cpp:380] Sigmoid7 -> Sigmoid7
I1025 10:16:54.287425   384 net.cpp:122] Setting up Sigmoid7
I1025 10:16:54.287446   384 net.cpp:129] Top shape: 128 16 32 32 (2097152)
I1025 10:16:54.287452   384 net.cpp:137] Memory required for data: 479724032
I1025 10:16:54.287457   384 layer_factory.hpp:77] Creating layer Eltwise10
I1025 10:16:54.287466   384 net.cpp:84] Creating Layer Eltwise10
I1025 10:16:54.287472   384 net.cpp:406] Eltwise10 <- Eltwise9_Eltwise9_0_split_1
I1025 10:16:54.287478   384 net.cpp:406] Eltwise10 <- Sigmoid7
I1025 10:16:54.287485   384 net.cpp:380] Eltwise10 -> Eltwise10
I1025 10:16:54.287518   384 net.cpp:122] Setting up Eltwise10
I1025 10:16:54.287528   384 net.cpp:129] Top shape: 128 16 32 32 (2097152)
I1025 10:16:54.287531   384 net.cpp:137] Memory required for data: 488112640
I1025 10:16:54.287536   384 layer_factory.hpp:77] Creating layer Eltwise10_Eltwise10_0_split
I1025 10:16:54.287544   384 net.cpp:84] Creating Layer Eltwise10_Eltwise10_0_split
I1025 10:16:54.287549   384 net.cpp:406] Eltwise10_Eltwise10_0_split <- Eltwise10
I1025 10:16:54.287556   384 net.cpp:380] Eltwise10_Eltwise10_0_split -> Eltwise10_Eltwise10_0_split_0
I1025 10:16:54.287565   384 net.cpp:380] Eltwise10_Eltwise10_0_split -> Eltwise10_Eltwise10_0_split_1
I1025 10:16:54.287612   384 net.cpp:122] Setting up Eltwise10_Eltwise10_0_split
I1025 10:16:54.287629   384 net.cpp:129] Top shape: 128 16 32 32 (2097152)
I1025 10:16:54.287636   384 net.cpp:129] Top shape: 128 16 32 32 (2097152)
I1025 10:16:54.287641   384 net.cpp:137] Memory required for data: 504889856
I1025 10:16:54.287645   384 layer_factory.hpp:77] Creating layer Convolution8
I1025 10:16:54.287657   384 net.cpp:84] Creating Layer Convolution8
I1025 10:16:54.287663   384 net.cpp:406] Convolution8 <- Eltwise10_Eltwise10_0_split_0
I1025 10:16:54.287673   384 net.cpp:380] Convolution8 -> Convolution8
I1025 10:16:54.291057   384 net.cpp:122] Setting up Convolution8
I1025 10:16:54.291082   384 net.cpp:129] Top shape: 128 32 16 16 (1048576)
I1025 10:16:54.291088   384 net.cpp:137] Memory required for data: 509084160
I1025 10:16:54.291097   384 layer_factory.hpp:77] Creating layer BatchNorm8
I1025 10:16:54.291110   384 net.cpp:84] Creating Layer BatchNorm8
I1025 10:16:54.291115   384 net.cpp:406] BatchNorm8 <- Convolution8
I1025 10:16:54.291123   384 net.cpp:367] BatchNorm8 -> Convolution8 (in-place)
I1025 10:16:54.291350   384 net.cpp:122] Setting up BatchNorm8
I1025 10:16:54.291365   384 net.cpp:129] Top shape: 128 32 16 16 (1048576)
I1025 10:16:54.291370   384 net.cpp:137] Memory required for data: 513278464
I1025 10:16:54.291380   384 layer_factory.hpp:77] Creating layer Scale8
I1025 10:16:54.291393   384 net.cpp:84] Creating Layer Scale8
I1025 10:16:54.291400   384 net.cpp:406] Scale8 <- Convolution8
I1025 10:16:54.291407   384 net.cpp:367] Scale8 -> Convolution8 (in-place)
I1025 10:16:54.291450   384 layer_factory.hpp:77] Creating layer Scale8
I1025 10:16:54.291568   384 net.cpp:122] Setting up Scale8
I1025 10:16:54.291579   384 net.cpp:129] Top shape: 128 32 16 16 (1048576)
I1025 10:16:54.291584   384 net.cpp:137] Memory required for data: 517472768
I1025 10:16:54.291591   384 layer_factory.hpp:77] Creating layer Convolution8_Scale8_0_split
I1025 10:16:54.291599   384 net.cpp:84] Creating Layer Convolution8_Scale8_0_split
I1025 10:16:54.291604   384 net.cpp:406] Convolution8_Scale8_0_split <- Convolution8
I1025 10:16:54.291613   384 net.cpp:380] Convolution8_Scale8_0_split -> Convolution8_Scale8_0_split_0
I1025 10:16:54.291622   384 net.cpp:380] Convolution8_Scale8_0_split -> Convolution8_Scale8_0_split_1
I1025 10:16:54.291659   384 net.cpp:122] Setting up Convolution8_Scale8_0_split
I1025 10:16:54.291668   384 net.cpp:129] Top shape: 128 32 16 16 (1048576)
I1025 10:16:54.291674   384 net.cpp:129] Top shape: 128 32 16 16 (1048576)
I1025 10:16:54.291679   384 net.cpp:137] Memory required for data: 525861376
I1025 10:16:54.291684   384 layer_factory.hpp:77] Creating layer Sigmoid8
I1025 10:16:54.291693   384 net.cpp:84] Creating Layer Sigmoid8
I1025 10:16:54.291698   384 net.cpp:406] Sigmoid8 <- Convolution8_Scale8_0_split_0
I1025 10:16:54.291705   384 net.cpp:380] Sigmoid8 -> Sigmoid8
I1025 10:16:54.292603   384 net.cpp:122] Setting up Sigmoid8
I1025 10:16:54.292621   384 net.cpp:129] Top shape: 128 32 16 16 (1048576)
I1025 10:16:54.292626   384 net.cpp:137] Memory required for data: 530055680
I1025 10:16:54.292632   384 layer_factory.hpp:77] Creating layer Eltwise11
I1025 10:16:54.292642   384 net.cpp:84] Creating Layer Eltwise11
I1025 10:16:54.292649   384 net.cpp:406] Eltwise11 <- Convolution8_Scale8_0_split_1
I1025 10:16:54.292655   384 net.cpp:406] Eltwise11 <- Sigmoid8
I1025 10:16:54.292662   384 net.cpp:380] Eltwise11 -> Eltwise11
I1025 10:16:54.292695   384 net.cpp:122] Setting up Eltwise11
I1025 10:16:54.292703   384 net.cpp:129] Top shape: 128 32 16 16 (1048576)
I1025 10:16:54.292708   384 net.cpp:137] Memory required for data: 534249984
I1025 10:16:54.292713   384 layer_factory.hpp:77] Creating layer Convolution9
I1025 10:16:54.292726   384 net.cpp:84] Creating Layer Convolution9
I1025 10:16:54.292732   384 net.cpp:406] Convolution9 <- Eltwise11
I1025 10:16:54.292742   384 net.cpp:380] Convolution9 -> Convolution9
I1025 10:16:54.295246   384 net.cpp:122] Setting up Convolution9
I1025 10:16:54.295274   384 net.cpp:129] Top shape: 128 32 16 16 (1048576)
I1025 10:16:54.295287   384 net.cpp:137] Memory required for data: 538444288
I1025 10:16:54.295296   384 layer_factory.hpp:77] Creating layer BatchNorm9
I1025 10:16:54.295308   384 net.cpp:84] Creating Layer BatchNorm9
I1025 10:16:54.295315   384 net.cpp:406] BatchNorm9 <- Convolution9
I1025 10:16:54.295323   384 net.cpp:367] BatchNorm9 -> Convolution9 (in-place)
I1025 10:16:54.295521   384 net.cpp:122] Setting up BatchNorm9
I1025 10:16:54.295531   384 net.cpp:129] Top shape: 128 32 16 16 (1048576)
I1025 10:16:54.295536   384 net.cpp:137] Memory required for data: 542638592
I1025 10:16:54.295545   384 layer_factory.hpp:77] Creating layer Scale9
I1025 10:16:54.295553   384 net.cpp:84] Creating Layer Scale9
I1025 10:16:54.295559   384 net.cpp:406] Scale9 <- Convolution9
I1025 10:16:54.295568   384 net.cpp:367] Scale9 -> Convolution9 (in-place)
I1025 10:16:54.295608   384 layer_factory.hpp:77] Creating layer Scale9
I1025 10:16:54.295727   384 net.cpp:122] Setting up Scale9
I1025 10:16:54.295739   384 net.cpp:129] Top shape: 128 32 16 16 (1048576)
I1025 10:16:54.295743   384 net.cpp:137] Memory required for data: 546832896
I1025 10:16:54.295752   384 layer_factory.hpp:77] Creating layer Convolution10
I1025 10:16:54.295764   384 net.cpp:84] Creating Layer Convolution10
I1025 10:16:54.295770   384 net.cpp:406] Convolution10 <- Eltwise10_Eltwise10_0_split_1
I1025 10:16:54.295779   384 net.cpp:380] Convolution10 -> Convolution10
I1025 10:16:54.300077   384 net.cpp:122] Setting up Convolution10
I1025 10:16:54.300107   384 net.cpp:129] Top shape: 128 32 16 16 (1048576)
I1025 10:16:54.300117   384 net.cpp:137] Memory required for data: 551027200
I1025 10:16:54.300148   384 layer_factory.hpp:77] Creating layer BatchNorm10
I1025 10:16:54.300166   384 net.cpp:84] Creating Layer BatchNorm10
I1025 10:16:54.300177   384 net.cpp:406] BatchNorm10 <- Convolution10
I1025 10:16:54.300190   384 net.cpp:367] BatchNorm10 -> Convolution10 (in-place)
I1025 10:16:54.300483   384 net.cpp:122] Setting up BatchNorm10
I1025 10:16:54.300503   384 net.cpp:129] Top shape: 128 32 16 16 (1048576)
I1025 10:16:54.300511   384 net.cpp:137] Memory required for data: 555221504
I1025 10:16:54.300524   384 layer_factory.hpp:77] Creating layer Scale10
I1025 10:16:54.300535   384 net.cpp:84] Creating Layer Scale10
I1025 10:16:54.300541   384 net.cpp:406] Scale10 <- Convolution10
I1025 10:16:54.300549   384 net.cpp:367] Scale10 -> Convolution10 (in-place)
I1025 10:16:54.300591   384 layer_factory.hpp:77] Creating layer Scale10
I1025 10:16:54.300712   384 net.cpp:122] Setting up Scale10
I1025 10:16:54.300722   384 net.cpp:129] Top shape: 128 32 16 16 (1048576)
I1025 10:16:54.300727   384 net.cpp:137] Memory required for data: 559415808
I1025 10:16:54.300735   384 layer_factory.hpp:77] Creating layer Eltwise12
I1025 10:16:54.300745   384 net.cpp:84] Creating Layer Eltwise12
I1025 10:16:54.300751   384 net.cpp:406] Eltwise12 <- Convolution9
I1025 10:16:54.300757   384 net.cpp:406] Eltwise12 <- Convolution10
I1025 10:16:54.300765   384 net.cpp:380] Eltwise12 -> Eltwise12
I1025 10:16:54.300792   384 net.cpp:122] Setting up Eltwise12
I1025 10:16:54.300801   384 net.cpp:129] Top shape: 128 32 16 16 (1048576)
I1025 10:16:54.300806   384 net.cpp:137] Memory required for data: 563610112
I1025 10:16:54.300812   384 layer_factory.hpp:77] Creating layer Eltwise12_Eltwise12_0_split
I1025 10:16:54.300818   384 net.cpp:84] Creating Layer Eltwise12_Eltwise12_0_split
I1025 10:16:54.300823   384 net.cpp:406] Eltwise12_Eltwise12_0_split <- Eltwise12
I1025 10:16:54.300830   384 net.cpp:380] Eltwise12_Eltwise12_0_split -> Eltwise12_Eltwise12_0_split_0
I1025 10:16:54.300840   384 net.cpp:380] Eltwise12_Eltwise12_0_split -> Eltwise12_Eltwise12_0_split_1
I1025 10:16:54.300879   384 net.cpp:122] Setting up Eltwise12_Eltwise12_0_split
I1025 10:16:54.300886   384 net.cpp:129] Top shape: 128 32 16 16 (1048576)
I1025 10:16:54.300892   384 net.cpp:129] Top shape: 128 32 16 16 (1048576)
I1025 10:16:54.300902   384 net.cpp:137] Memory required for data: 571998720
I1025 10:16:54.300916   384 layer_factory.hpp:77] Creating layer Sigmoid9
I1025 10:16:54.300933   384 net.cpp:84] Creating Layer Sigmoid9
I1025 10:16:54.300940   384 net.cpp:406] Sigmoid9 <- Eltwise12_Eltwise12_0_split_0
I1025 10:16:54.300947   384 net.cpp:380] Sigmoid9 -> Sigmoid9
I1025 10:16:54.301156   384 net.cpp:122] Setting up Sigmoid9
I1025 10:16:54.301170   384 net.cpp:129] Top shape: 128 32 16 16 (1048576)
I1025 10:16:54.301175   384 net.cpp:137] Memory required for data: 576193024
I1025 10:16:54.301182   384 layer_factory.hpp:77] Creating layer Eltwise13
I1025 10:16:54.301188   384 net.cpp:84] Creating Layer Eltwise13
I1025 10:16:54.301194   384 net.cpp:406] Eltwise13 <- Eltwise12_Eltwise12_0_split_1
I1025 10:16:54.301200   384 net.cpp:406] Eltwise13 <- Sigmoid9
I1025 10:16:54.301209   384 net.cpp:380] Eltwise13 -> Eltwise13
I1025 10:16:54.301240   384 net.cpp:122] Setting up Eltwise13
I1025 10:16:54.301249   384 net.cpp:129] Top shape: 128 32 16 16 (1048576)
I1025 10:16:54.301254   384 net.cpp:137] Memory required for data: 580387328
I1025 10:16:54.301259   384 layer_factory.hpp:77] Creating layer Eltwise13_Eltwise13_0_split
I1025 10:16:54.301266   384 net.cpp:84] Creating Layer Eltwise13_Eltwise13_0_split
I1025 10:16:54.301271   384 net.cpp:406] Eltwise13_Eltwise13_0_split <- Eltwise13
I1025 10:16:54.301278   384 net.cpp:380] Eltwise13_Eltwise13_0_split -> Eltwise13_Eltwise13_0_split_0
I1025 10:16:54.301288   384 net.cpp:380] Eltwise13_Eltwise13_0_split -> Eltwise13_Eltwise13_0_split_1
I1025 10:16:54.301327   384 net.cpp:122] Setting up Eltwise13_Eltwise13_0_split
I1025 10:16:54.301337   384 net.cpp:129] Top shape: 128 32 16 16 (1048576)
I1025 10:16:54.301342   384 net.cpp:129] Top shape: 128 32 16 16 (1048576)
I1025 10:16:54.301347   384 net.cpp:137] Memory required for data: 588775936
I1025 10:16:54.301352   384 layer_factory.hpp:77] Creating layer Convolution11
I1025 10:16:54.301365   384 net.cpp:84] Creating Layer Convolution11
I1025 10:16:54.301371   384 net.cpp:406] Convolution11 <- Eltwise13_Eltwise13_0_split_0
I1025 10:16:54.301379   384 net.cpp:380] Convolution11 -> Convolution11
I1025 10:16:54.303966   384 net.cpp:122] Setting up Convolution11
I1025 10:16:54.303987   384 net.cpp:129] Top shape: 128 32 16 16 (1048576)
I1025 10:16:54.303993   384 net.cpp:137] Memory required for data: 592970240
I1025 10:16:54.304003   384 layer_factory.hpp:77] Creating layer BatchNorm11
I1025 10:16:54.304013   384 net.cpp:84] Creating Layer BatchNorm11
I1025 10:16:54.304020   384 net.cpp:406] BatchNorm11 <- Convolution11
I1025 10:16:54.304028   384 net.cpp:367] BatchNorm11 -> Convolution11 (in-place)
I1025 10:16:54.304227   384 net.cpp:122] Setting up BatchNorm11
I1025 10:16:54.304239   384 net.cpp:129] Top shape: 128 32 16 16 (1048576)
I1025 10:16:54.304244   384 net.cpp:137] Memory required for data: 597164544
I1025 10:16:54.304252   384 layer_factory.hpp:77] Creating layer Scale11
I1025 10:16:54.304262   384 net.cpp:84] Creating Layer Scale11
I1025 10:16:54.304268   384 net.cpp:406] Scale11 <- Convolution11
I1025 10:16:54.304275   384 net.cpp:367] Scale11 -> Convolution11 (in-place)
I1025 10:16:54.304314   384 layer_factory.hpp:77] Creating layer Scale11
I1025 10:16:54.304438   384 net.cpp:122] Setting up Scale11
I1025 10:16:54.304450   384 net.cpp:129] Top shape: 128 32 16 16 (1048576)
I1025 10:16:54.304455   384 net.cpp:137] Memory required for data: 601358848
I1025 10:16:54.304462   384 layer_factory.hpp:77] Creating layer Convolution11_Scale11_0_split
I1025 10:16:54.304469   384 net.cpp:84] Creating Layer Convolution11_Scale11_0_split
I1025 10:16:54.304476   384 net.cpp:406] Convolution11_Scale11_0_split <- Convolution11
I1025 10:16:54.304489   384 net.cpp:380] Convolution11_Scale11_0_split -> Convolution11_Scale11_0_split_0
I1025 10:16:54.304505   384 net.cpp:380] Convolution11_Scale11_0_split -> Convolution11_Scale11_0_split_1
I1025 10:16:54.304564   384 net.cpp:122] Setting up Convolution11_Scale11_0_split
I1025 10:16:54.304577   384 net.cpp:129] Top shape: 128 32 16 16 (1048576)
I1025 10:16:54.304589   384 net.cpp:129] Top shape: 128 32 16 16 (1048576)
I1025 10:16:54.304600   384 net.cpp:137] Memory required for data: 609747456
I1025 10:16:54.304606   384 layer_factory.hpp:77] Creating layer Sigmoid10
I1025 10:16:54.304615   384 net.cpp:84] Creating Layer Sigmoid10
I1025 10:16:54.304620   384 net.cpp:406] Sigmoid10 <- Convolution11_Scale11_0_split_0
I1025 10:16:54.304627   384 net.cpp:380] Sigmoid10 -> Sigmoid10
I1025 10:16:54.304836   384 net.cpp:122] Setting up Sigmoid10
I1025 10:16:54.304850   384 net.cpp:129] Top shape: 128 32 16 16 (1048576)
I1025 10:16:54.304855   384 net.cpp:137] Memory required for data: 613941760
I1025 10:16:54.304862   384 layer_factory.hpp:77] Creating layer Eltwise14
I1025 10:16:54.304868   384 net.cpp:84] Creating Layer Eltwise14
I1025 10:16:54.304874   384 net.cpp:406] Eltwise14 <- Convolution11_Scale11_0_split_1
I1025 10:16:54.304883   384 net.cpp:406] Eltwise14 <- Sigmoid10
I1025 10:16:54.304890   384 net.cpp:380] Eltwise14 -> Eltwise14
I1025 10:16:54.304922   384 net.cpp:122] Setting up Eltwise14
I1025 10:16:54.304931   384 net.cpp:129] Top shape: 128 32 16 16 (1048576)
I1025 10:16:54.304936   384 net.cpp:137] Memory required for data: 618136064
I1025 10:16:54.304941   384 layer_factory.hpp:77] Creating layer Convolution12
I1025 10:16:54.304953   384 net.cpp:84] Creating Layer Convolution12
I1025 10:16:54.304960   384 net.cpp:406] Convolution12 <- Eltwise14
I1025 10:16:54.304968   384 net.cpp:380] Convolution12 -> Convolution12
I1025 10:16:54.307478   384 net.cpp:122] Setting up Convolution12
I1025 10:16:54.307507   384 net.cpp:129] Top shape: 128 32 16 16 (1048576)
I1025 10:16:54.307518   384 net.cpp:137] Memory required for data: 622330368
I1025 10:16:54.307533   384 layer_factory.hpp:77] Creating layer BatchNorm12
I1025 10:16:54.307546   384 net.cpp:84] Creating Layer BatchNorm12
I1025 10:16:54.307554   384 net.cpp:406] BatchNorm12 <- Convolution12
I1025 10:16:54.307560   384 net.cpp:367] BatchNorm12 -> Convolution12 (in-place)
I1025 10:16:54.307766   384 net.cpp:122] Setting up BatchNorm12
I1025 10:16:54.307777   384 net.cpp:129] Top shape: 128 32 16 16 (1048576)
I1025 10:16:54.307782   384 net.cpp:137] Memory required for data: 626524672
I1025 10:16:54.307791   384 layer_factory.hpp:77] Creating layer Scale12
I1025 10:16:54.307799   384 net.cpp:84] Creating Layer Scale12
I1025 10:16:54.307806   384 net.cpp:406] Scale12 <- Convolution12
I1025 10:16:54.307811   384 net.cpp:367] Scale12 -> Convolution12 (in-place)
I1025 10:16:54.307852   384 layer_factory.hpp:77] Creating layer Scale12
I1025 10:16:54.307978   384 net.cpp:122] Setting up Scale12
I1025 10:16:54.307991   384 net.cpp:129] Top shape: 128 32 16 16 (1048576)
I1025 10:16:54.307996   384 net.cpp:137] Memory required for data: 630718976
I1025 10:16:54.308002   384 layer_factory.hpp:77] Creating layer Eltwise15
I1025 10:16:54.308012   384 net.cpp:84] Creating Layer Eltwise15
I1025 10:16:54.308018   384 net.cpp:406] Eltwise15 <- Convolution12
I1025 10:16:54.308024   384 net.cpp:406] Eltwise15 <- Eltwise13_Eltwise13_0_split_1
I1025 10:16:54.308032   384 net.cpp:380] Eltwise15 -> Eltwise15
I1025 10:16:54.308055   384 net.cpp:122] Setting up Eltwise15
I1025 10:16:54.308064   384 net.cpp:129] Top shape: 128 32 16 16 (1048576)
I1025 10:16:54.308068   384 net.cpp:137] Memory required for data: 634913280
I1025 10:16:54.308073   384 layer_factory.hpp:77] Creating layer Eltwise15_Eltwise15_0_split
I1025 10:16:54.308082   384 net.cpp:84] Creating Layer Eltwise15_Eltwise15_0_split
I1025 10:16:54.308089   384 net.cpp:406] Eltwise15_Eltwise15_0_split <- Eltwise15
I1025 10:16:54.308094   384 net.cpp:380] Eltwise15_Eltwise15_0_split -> Eltwise15_Eltwise15_0_split_0
I1025 10:16:54.308102   384 net.cpp:380] Eltwise15_Eltwise15_0_split -> Eltwise15_Eltwise15_0_split_1
I1025 10:16:54.308145   384 net.cpp:122] Setting up Eltwise15_Eltwise15_0_split
I1025 10:16:54.308154   384 net.cpp:129] Top shape: 128 32 16 16 (1048576)
I1025 10:16:54.308159   384 net.cpp:129] Top shape: 128 32 16 16 (1048576)
I1025 10:16:54.308169   384 net.cpp:137] Memory required for data: 643301888
I1025 10:16:54.308182   384 layer_factory.hpp:77] Creating layer Sigmoid11
I1025 10:16:54.308189   384 net.cpp:84] Creating Layer Sigmoid11
I1025 10:16:54.308207   384 net.cpp:406] Sigmoid11 <- Eltwise15_Eltwise15_0_split_0
I1025 10:16:54.308219   384 net.cpp:380] Sigmoid11 -> Sigmoid11
I1025 10:16:54.309319   384 net.cpp:122] Setting up Sigmoid11
I1025 10:16:54.309340   384 net.cpp:129] Top shape: 128 32 16 16 (1048576)
I1025 10:16:54.309345   384 net.cpp:137] Memory required for data: 647496192
I1025 10:16:54.309350   384 layer_factory.hpp:77] Creating layer Eltwise16
I1025 10:16:54.309358   384 net.cpp:84] Creating Layer Eltwise16
I1025 10:16:54.309365   384 net.cpp:406] Eltwise16 <- Eltwise15_Eltwise15_0_split_1
I1025 10:16:54.309371   384 net.cpp:406] Eltwise16 <- Sigmoid11
I1025 10:16:54.309381   384 net.cpp:380] Eltwise16 -> Eltwise16
I1025 10:16:54.309412   384 net.cpp:122] Setting up Eltwise16
I1025 10:16:54.309422   384 net.cpp:129] Top shape: 128 32 16 16 (1048576)
I1025 10:16:54.309427   384 net.cpp:137] Memory required for data: 651690496
I1025 10:16:54.309430   384 layer_factory.hpp:77] Creating layer Eltwise16_Eltwise16_0_split
I1025 10:16:54.309440   384 net.cpp:84] Creating Layer Eltwise16_Eltwise16_0_split
I1025 10:16:54.309445   384 net.cpp:406] Eltwise16_Eltwise16_0_split <- Eltwise16
I1025 10:16:54.309453   384 net.cpp:380] Eltwise16_Eltwise16_0_split -> Eltwise16_Eltwise16_0_split_0
I1025 10:16:54.309463   384 net.cpp:380] Eltwise16_Eltwise16_0_split -> Eltwise16_Eltwise16_0_split_1
I1025 10:16:54.309504   384 net.cpp:122] Setting up Eltwise16_Eltwise16_0_split
I1025 10:16:54.309512   384 net.cpp:129] Top shape: 128 32 16 16 (1048576)
I1025 10:16:54.309518   384 net.cpp:129] Top shape: 128 32 16 16 (1048576)
I1025 10:16:54.309522   384 net.cpp:137] Memory required for data: 660079104
I1025 10:16:54.309527   384 layer_factory.hpp:77] Creating layer Convolution13
I1025 10:16:54.309541   384 net.cpp:84] Creating Layer Convolution13
I1025 10:16:54.309547   384 net.cpp:406] Convolution13 <- Eltwise16_Eltwise16_0_split_0
I1025 10:16:54.309557   384 net.cpp:380] Convolution13 -> Convolution13
I1025 10:16:54.312790   384 net.cpp:122] Setting up Convolution13
I1025 10:16:54.312813   384 net.cpp:129] Top shape: 128 32 16 16 (1048576)
I1025 10:16:54.312819   384 net.cpp:137] Memory required for data: 664273408
I1025 10:16:54.312827   384 layer_factory.hpp:77] Creating layer BatchNorm13
I1025 10:16:54.312836   384 net.cpp:84] Creating Layer BatchNorm13
I1025 10:16:54.312844   384 net.cpp:406] BatchNorm13 <- Convolution13
I1025 10:16:54.312852   384 net.cpp:367] BatchNorm13 -> Convolution13 (in-place)
I1025 10:16:54.313055   384 net.cpp:122] Setting up BatchNorm13
I1025 10:16:54.313066   384 net.cpp:129] Top shape: 128 32 16 16 (1048576)
I1025 10:16:54.313071   384 net.cpp:137] Memory required for data: 668467712
I1025 10:16:54.313086   384 layer_factory.hpp:77] Creating layer Scale13
I1025 10:16:54.313094   384 net.cpp:84] Creating Layer Scale13
I1025 10:16:54.313099   384 net.cpp:406] Scale13 <- Convolution13
I1025 10:16:54.313107   384 net.cpp:367] Scale13 -> Convolution13 (in-place)
I1025 10:16:54.313149   384 layer_factory.hpp:77] Creating layer Scale13
I1025 10:16:54.313271   384 net.cpp:122] Setting up Scale13
I1025 10:16:54.313282   384 net.cpp:129] Top shape: 128 32 16 16 (1048576)
I1025 10:16:54.313287   384 net.cpp:137] Memory required for data: 672662016
I1025 10:16:54.313293   384 layer_factory.hpp:77] Creating layer Convolution13_Scale13_0_split
I1025 10:16:54.313302   384 net.cpp:84] Creating Layer Convolution13_Scale13_0_split
I1025 10:16:54.313308   384 net.cpp:406] Convolution13_Scale13_0_split <- Convolution13
I1025 10:16:54.313315   384 net.cpp:380] Convolution13_Scale13_0_split -> Convolution13_Scale13_0_split_0
I1025 10:16:54.313325   384 net.cpp:380] Convolution13_Scale13_0_split -> Convolution13_Scale13_0_split_1
I1025 10:16:54.313364   384 net.cpp:122] Setting up Convolution13_Scale13_0_split
I1025 10:16:54.313379   384 net.cpp:129] Top shape: 128 32 16 16 (1048576)
I1025 10:16:54.313391   384 net.cpp:129] Top shape: 128 32 16 16 (1048576)
I1025 10:16:54.313396   384 net.cpp:137] Memory required for data: 681050624
I1025 10:16:54.313400   384 layer_factory.hpp:77] Creating layer Sigmoid12
I1025 10:16:54.313408   384 net.cpp:84] Creating Layer Sigmoid12
I1025 10:16:54.313413   384 net.cpp:406] Sigmoid12 <- Convolution13_Scale13_0_split_0
I1025 10:16:54.313422   384 net.cpp:380] Sigmoid12 -> Sigmoid12
I1025 10:16:54.313633   384 net.cpp:122] Setting up Sigmoid12
I1025 10:16:54.313647   384 net.cpp:129] Top shape: 128 32 16 16 (1048576)
I1025 10:16:54.313653   384 net.cpp:137] Memory required for data: 685244928
I1025 10:16:54.313658   384 layer_factory.hpp:77] Creating layer Eltwise17
I1025 10:16:54.313666   384 net.cpp:84] Creating Layer Eltwise17
I1025 10:16:54.313673   384 net.cpp:406] Eltwise17 <- Convolution13_Scale13_0_split_1
I1025 10:16:54.313678   384 net.cpp:406] Eltwise17 <- Sigmoid12
I1025 10:16:54.313688   384 net.cpp:380] Eltwise17 -> Eltwise17
I1025 10:16:54.313719   384 net.cpp:122] Setting up Eltwise17
I1025 10:16:54.313730   384 net.cpp:129] Top shape: 128 32 16 16 (1048576)
I1025 10:16:54.313733   384 net.cpp:137] Memory required for data: 689439232
I1025 10:16:54.313738   384 layer_factory.hpp:77] Creating layer Convolution14
I1025 10:16:54.313750   384 net.cpp:84] Creating Layer Convolution14
I1025 10:16:54.313756   384 net.cpp:406] Convolution14 <- Eltwise17
I1025 10:16:54.313766   384 net.cpp:380] Convolution14 -> Convolution14
I1025 10:16:54.316328   384 net.cpp:122] Setting up Convolution14
I1025 10:16:54.316347   384 net.cpp:129] Top shape: 128 32 16 16 (1048576)
I1025 10:16:54.316354   384 net.cpp:137] Memory required for data: 693633536
I1025 10:16:54.316361   384 layer_factory.hpp:77] Creating layer BatchNorm14
I1025 10:16:54.316370   384 net.cpp:84] Creating Layer BatchNorm14
I1025 10:16:54.316377   384 net.cpp:406] BatchNorm14 <- Convolution14
I1025 10:16:54.316387   384 net.cpp:367] BatchNorm14 -> Convolution14 (in-place)
I1025 10:16:54.316594   384 net.cpp:122] Setting up BatchNorm14
I1025 10:16:54.316604   384 net.cpp:129] Top shape: 128 32 16 16 (1048576)
I1025 10:16:54.316609   384 net.cpp:137] Memory required for data: 697827840
I1025 10:16:54.316618   384 layer_factory.hpp:77] Creating layer Scale14
I1025 10:16:54.316627   384 net.cpp:84] Creating Layer Scale14
I1025 10:16:54.316632   384 net.cpp:406] Scale14 <- Convolution14
I1025 10:16:54.316639   384 net.cpp:367] Scale14 -> Convolution14 (in-place)
I1025 10:16:54.316681   384 layer_factory.hpp:77] Creating layer Scale14
I1025 10:16:54.316804   384 net.cpp:122] Setting up Scale14
I1025 10:16:54.316815   384 net.cpp:129] Top shape: 128 32 16 16 (1048576)
I1025 10:16:54.316819   384 net.cpp:137] Memory required for data: 702022144
I1025 10:16:54.316828   384 layer_factory.hpp:77] Creating layer Eltwise18
I1025 10:16:54.316835   384 net.cpp:84] Creating Layer Eltwise18
I1025 10:16:54.316840   384 net.cpp:406] Eltwise18 <- Convolution14
I1025 10:16:54.316848   384 net.cpp:406] Eltwise18 <- Eltwise16_Eltwise16_0_split_1
I1025 10:16:54.316855   384 net.cpp:380] Eltwise18 -> Eltwise18
I1025 10:16:54.316880   384 net.cpp:122] Setting up Eltwise18
I1025 10:16:54.316890   384 net.cpp:129] Top shape: 128 32 16 16 (1048576)
I1025 10:16:54.316893   384 net.cpp:137] Memory required for data: 706216448
I1025 10:16:54.316898   384 layer_factory.hpp:77] Creating layer Eltwise18_Eltwise18_0_split
I1025 10:16:54.316908   384 net.cpp:84] Creating Layer Eltwise18_Eltwise18_0_split
I1025 10:16:54.316913   384 net.cpp:406] Eltwise18_Eltwise18_0_split <- Eltwise18
I1025 10:16:54.316920   384 net.cpp:380] Eltwise18_Eltwise18_0_split -> Eltwise18_Eltwise18_0_split_0
I1025 10:16:54.316928   384 net.cpp:380] Eltwise18_Eltwise18_0_split -> Eltwise18_Eltwise18_0_split_1
I1025 10:16:54.316972   384 net.cpp:122] Setting up Eltwise18_Eltwise18_0_split
I1025 10:16:54.316980   384 net.cpp:129] Top shape: 128 32 16 16 (1048576)
I1025 10:16:54.316987   384 net.cpp:129] Top shape: 128 32 16 16 (1048576)
I1025 10:16:54.316996   384 net.cpp:137] Memory required for data: 714605056
I1025 10:16:54.317008   384 layer_factory.hpp:77] Creating layer Sigmoid13
I1025 10:16:54.317015   384 net.cpp:84] Creating Layer Sigmoid13
I1025 10:16:54.317021   384 net.cpp:406] Sigmoid13 <- Eltwise18_Eltwise18_0_split_0
I1025 10:16:54.317028   384 net.cpp:380] Sigmoid13 -> Sigmoid13
I1025 10:16:54.317240   384 net.cpp:122] Setting up Sigmoid13
I1025 10:16:54.317255   384 net.cpp:129] Top shape: 128 32 16 16 (1048576)
I1025 10:16:54.317260   384 net.cpp:137] Memory required for data: 718799360
I1025 10:16:54.317265   384 layer_factory.hpp:77] Creating layer Eltwise19
I1025 10:16:54.317273   384 net.cpp:84] Creating Layer Eltwise19
I1025 10:16:54.317278   384 net.cpp:406] Eltwise19 <- Eltwise18_Eltwise18_0_split_1
I1025 10:16:54.317286   384 net.cpp:406] Eltwise19 <- Sigmoid13
I1025 10:16:54.317294   384 net.cpp:380] Eltwise19 -> Eltwise19
I1025 10:16:54.317327   384 net.cpp:122] Setting up Eltwise19
I1025 10:16:54.317337   384 net.cpp:129] Top shape: 128 32 16 16 (1048576)
I1025 10:16:54.317340   384 net.cpp:137] Memory required for data: 722993664
I1025 10:16:54.317345   384 layer_factory.hpp:77] Creating layer Eltwise19_Eltwise19_0_split
I1025 10:16:54.317353   384 net.cpp:84] Creating Layer Eltwise19_Eltwise19_0_split
I1025 10:16:54.317358   384 net.cpp:406] Eltwise19_Eltwise19_0_split <- Eltwise19
I1025 10:16:54.317364   384 net.cpp:380] Eltwise19_Eltwise19_0_split -> Eltwise19_Eltwise19_0_split_0
I1025 10:16:54.317373   384 net.cpp:380] Eltwise19_Eltwise19_0_split -> Eltwise19_Eltwise19_0_split_1
I1025 10:16:54.317415   384 net.cpp:122] Setting up Eltwise19_Eltwise19_0_split
I1025 10:16:54.317425   384 net.cpp:129] Top shape: 128 32 16 16 (1048576)
I1025 10:16:54.317431   384 net.cpp:129] Top shape: 128 32 16 16 (1048576)
I1025 10:16:54.317435   384 net.cpp:137] Memory required for data: 731382272
I1025 10:16:54.317440   384 layer_factory.hpp:77] Creating layer Convolution15
I1025 10:16:54.317452   384 net.cpp:84] Creating Layer Convolution15
I1025 10:16:54.317458   384 net.cpp:406] Convolution15 <- Eltwise19_Eltwise19_0_split_0
I1025 10:16:54.317468   384 net.cpp:380] Convolution15 -> Convolution15
I1025 10:16:54.321336   384 net.cpp:122] Setting up Convolution15
I1025 10:16:54.321357   384 net.cpp:129] Top shape: 128 64 8 8 (524288)
I1025 10:16:54.321362   384 net.cpp:137] Memory required for data: 733479424
I1025 10:16:54.321372   384 layer_factory.hpp:77] Creating layer BatchNorm15
I1025 10:16:54.321382   384 net.cpp:84] Creating Layer BatchNorm15
I1025 10:16:54.321388   384 net.cpp:406] BatchNorm15 <- Convolution15
I1025 10:16:54.321398   384 net.cpp:367] BatchNorm15 -> Convolution15 (in-place)
I1025 10:16:54.321610   384 net.cpp:122] Setting up BatchNorm15
I1025 10:16:54.321621   384 net.cpp:129] Top shape: 128 64 8 8 (524288)
I1025 10:16:54.321627   384 net.cpp:137] Memory required for data: 735576576
I1025 10:16:54.321643   384 layer_factory.hpp:77] Creating layer Scale15
I1025 10:16:54.321658   384 net.cpp:84] Creating Layer Scale15
I1025 10:16:54.321671   384 net.cpp:406] Scale15 <- Convolution15
I1025 10:16:54.321686   384 net.cpp:367] Scale15 -> Convolution15 (in-place)
I1025 10:16:54.321735   384 layer_factory.hpp:77] Creating layer Scale15
I1025 10:16:54.321863   384 net.cpp:122] Setting up Scale15
I1025 10:16:54.321874   384 net.cpp:129] Top shape: 128 64 8 8 (524288)
I1025 10:16:54.321879   384 net.cpp:137] Memory required for data: 737673728
I1025 10:16:54.321887   384 layer_factory.hpp:77] Creating layer Convolution15_Scale15_0_split
I1025 10:16:54.321894   384 net.cpp:84] Creating Layer Convolution15_Scale15_0_split
I1025 10:16:54.321900   384 net.cpp:406] Convolution15_Scale15_0_split <- Convolution15
I1025 10:16:54.321908   384 net.cpp:380] Convolution15_Scale15_0_split -> Convolution15_Scale15_0_split_0
I1025 10:16:54.321916   384 net.cpp:380] Convolution15_Scale15_0_split -> Convolution15_Scale15_0_split_1
I1025 10:16:54.321957   384 net.cpp:122] Setting up Convolution15_Scale15_0_split
I1025 10:16:54.321971   384 net.cpp:129] Top shape: 128 64 8 8 (524288)
I1025 10:16:54.321987   384 net.cpp:129] Top shape: 128 64 8 8 (524288)
I1025 10:16:54.321996   384 net.cpp:137] Memory required for data: 741868032
I1025 10:16:54.322006   384 layer_factory.hpp:77] Creating layer Sigmoid14
I1025 10:16:54.322018   384 net.cpp:84] Creating Layer Sigmoid14
I1025 10:16:54.322029   384 net.cpp:406] Sigmoid14 <- Convolution15_Scale15_0_split_0
I1025 10:16:54.322044   384 net.cpp:380] Sigmoid14 -> Sigmoid14
I1025 10:16:54.322973   384 net.cpp:122] Setting up Sigmoid14
I1025 10:16:54.322993   384 net.cpp:129] Top shape: 128 64 8 8 (524288)
I1025 10:16:54.322999   384 net.cpp:137] Memory required for data: 743965184
I1025 10:16:54.323009   384 layer_factory.hpp:77] Creating layer Eltwise20
I1025 10:16:54.323022   384 net.cpp:84] Creating Layer Eltwise20
I1025 10:16:54.323034   384 net.cpp:406] Eltwise20 <- Convolution15_Scale15_0_split_1
I1025 10:16:54.323046   384 net.cpp:406] Eltwise20 <- Sigmoid14
I1025 10:16:54.323062   384 net.cpp:380] Eltwise20 -> Eltwise20
I1025 10:16:54.323102   384 net.cpp:122] Setting up Eltwise20
I1025 10:16:54.323114   384 net.cpp:129] Top shape: 128 64 8 8 (524288)
I1025 10:16:54.323119   384 net.cpp:137] Memory required for data: 746062336
I1025 10:16:54.323125   384 layer_factory.hpp:77] Creating layer Convolution16
I1025 10:16:54.323137   384 net.cpp:84] Creating Layer Convolution16
I1025 10:16:54.323143   384 net.cpp:406] Convolution16 <- Eltwise20
I1025 10:16:54.323153   384 net.cpp:380] Convolution16 -> Convolution16
I1025 10:16:54.327527   384 net.cpp:122] Setting up Convolution16
I1025 10:16:54.327550   384 net.cpp:129] Top shape: 128 64 8 8 (524288)
I1025 10:16:54.327556   384 net.cpp:137] Memory required for data: 748159488
I1025 10:16:54.327567   384 layer_factory.hpp:77] Creating layer BatchNorm16
I1025 10:16:54.327579   384 net.cpp:84] Creating Layer BatchNorm16
I1025 10:16:54.327585   384 net.cpp:406] BatchNorm16 <- Convolution16
I1025 10:16:54.327594   384 net.cpp:367] BatchNorm16 -> Convolution16 (in-place)
I1025 10:16:54.327853   384 net.cpp:122] Setting up BatchNorm16
I1025 10:16:54.327869   384 net.cpp:129] Top shape: 128 64 8 8 (524288)
I1025 10:16:54.327874   384 net.cpp:137] Memory required for data: 750256640
I1025 10:16:54.327884   384 layer_factory.hpp:77] Creating layer Scale16
I1025 10:16:54.327893   384 net.cpp:84] Creating Layer Scale16
I1025 10:16:54.327899   384 net.cpp:406] Scale16 <- Convolution16
I1025 10:16:54.327906   384 net.cpp:367] Scale16 -> Convolution16 (in-place)
I1025 10:16:54.327955   384 layer_factory.hpp:77] Creating layer Scale16
I1025 10:16:54.328084   384 net.cpp:122] Setting up Scale16
I1025 10:16:54.328095   384 net.cpp:129] Top shape: 128 64 8 8 (524288)
I1025 10:16:54.328099   384 net.cpp:137] Memory required for data: 752353792
I1025 10:16:54.328109   384 layer_factory.hpp:77] Creating layer Convolution17
I1025 10:16:54.328120   384 net.cpp:84] Creating Layer Convolution17
I1025 10:16:54.328127   384 net.cpp:406] Convolution17 <- Eltwise19_Eltwise19_0_split_1
I1025 10:16:54.328137   384 net.cpp:380] Convolution17 -> Convolution17
I1025 10:16:54.330580   384 net.cpp:122] Setting up Convolution17
I1025 10:16:54.330600   384 net.cpp:129] Top shape: 128 64 8 8 (524288)
I1025 10:16:54.330606   384 net.cpp:137] Memory required for data: 754450944
I1025 10:16:54.330615   384 layer_factory.hpp:77] Creating layer BatchNorm17
I1025 10:16:54.330627   384 net.cpp:84] Creating Layer BatchNorm17
I1025 10:16:54.330634   384 net.cpp:406] BatchNorm17 <- Convolution17
I1025 10:16:54.330641   384 net.cpp:367] BatchNorm17 -> Convolution17 (in-place)
I1025 10:16:54.330859   384 net.cpp:122] Setting up BatchNorm17
I1025 10:16:54.330871   384 net.cpp:129] Top shape: 128 64 8 8 (524288)
I1025 10:16:54.330875   384 net.cpp:137] Memory required for data: 756548096
I1025 10:16:54.330884   384 layer_factory.hpp:77] Creating layer Scale17
I1025 10:16:54.330893   384 net.cpp:84] Creating Layer Scale17
I1025 10:16:54.330899   384 net.cpp:406] Scale17 <- Convolution17
I1025 10:16:54.330911   384 net.cpp:367] Scale17 -> Convolution17 (in-place)
I1025 10:16:54.330966   384 layer_factory.hpp:77] Creating layer Scale17
I1025 10:16:54.331095   384 net.cpp:122] Setting up Scale17
I1025 10:16:54.332940   384 net.cpp:129] Top shape: 128 64 8 8 (524288)
I1025 10:16:54.332947   384 net.cpp:137] Memory required for data: 758645248
I1025 10:16:54.332955   384 layer_factory.hpp:77] Creating layer Eltwise21
I1025 10:16:54.332968   384 net.cpp:84] Creating Layer Eltwise21
I1025 10:16:54.332975   384 net.cpp:406] Eltwise21 <- Convolution16
I1025 10:16:54.332981   384 net.cpp:406] Eltwise21 <- Convolution17
I1025 10:16:54.332988   384 net.cpp:380] Eltwise21 -> Eltwise21
I1025 10:16:54.333024   384 net.cpp:122] Setting up Eltwise21
I1025 10:16:54.333035   384 net.cpp:129] Top shape: 128 64 8 8 (524288)
I1025 10:16:54.333039   384 net.cpp:137] Memory required for data: 760742400
I1025 10:16:54.333045   384 layer_factory.hpp:77] Creating layer Eltwise21_Eltwise21_0_split
I1025 10:16:54.333055   384 net.cpp:84] Creating Layer Eltwise21_Eltwise21_0_split
I1025 10:16:54.333060   384 net.cpp:406] Eltwise21_Eltwise21_0_split <- Eltwise21
I1025 10:16:54.333066   384 net.cpp:380] Eltwise21_Eltwise21_0_split -> Eltwise21_Eltwise21_0_split_0
I1025 10:16:54.333075   384 net.cpp:380] Eltwise21_Eltwise21_0_split -> Eltwise21_Eltwise21_0_split_1
I1025 10:16:54.333122   384 net.cpp:122] Setting up Eltwise21_Eltwise21_0_split
I1025 10:16:54.333132   384 net.cpp:129] Top shape: 128 64 8 8 (524288)
I1025 10:16:54.333138   384 net.cpp:129] Top shape: 128 64 8 8 (524288)
I1025 10:16:54.333142   384 net.cpp:137] Memory required for data: 764936704
I1025 10:16:54.333148   384 layer_factory.hpp:77] Creating layer Sigmoid15
I1025 10:16:54.333154   384 net.cpp:84] Creating Layer Sigmoid15
I1025 10:16:54.333159   384 net.cpp:406] Sigmoid15 <- Eltwise21_Eltwise21_0_split_0
I1025 10:16:54.333166   384 net.cpp:380] Sigmoid15 -> Sigmoid15
I1025 10:16:54.337663   384 net.cpp:122] Setting up Sigmoid15
I1025 10:16:54.337689   384 net.cpp:129] Top shape: 128 64 8 8 (524288)
I1025 10:16:54.337695   384 net.cpp:137] Memory required for data: 767033856
I1025 10:16:54.337702   384 layer_factory.hpp:77] Creating layer Eltwise22
I1025 10:16:54.337709   384 net.cpp:84] Creating Layer Eltwise22
I1025 10:16:54.337716   384 net.cpp:406] Eltwise22 <- Eltwise21_Eltwise21_0_split_1
I1025 10:16:54.337723   384 net.cpp:406] Eltwise22 <- Sigmoid15
I1025 10:16:54.337733   384 net.cpp:380] Eltwise22 -> Eltwise22
I1025 10:16:54.337766   384 net.cpp:122] Setting up Eltwise22
I1025 10:16:54.337775   384 net.cpp:129] Top shape: 128 64 8 8 (524288)
I1025 10:16:54.337780   384 net.cpp:137] Memory required for data: 769131008
I1025 10:16:54.337785   384 layer_factory.hpp:77] Creating layer Eltwise22_Eltwise22_0_split
I1025 10:16:54.337795   384 net.cpp:84] Creating Layer Eltwise22_Eltwise22_0_split
I1025 10:16:54.337800   384 net.cpp:406] Eltwise22_Eltwise22_0_split <- Eltwise22
I1025 10:16:54.337806   384 net.cpp:380] Eltwise22_Eltwise22_0_split -> Eltwise22_Eltwise22_0_split_0
I1025 10:16:54.337815   384 net.cpp:380] Eltwise22_Eltwise22_0_split -> Eltwise22_Eltwise22_0_split_1
I1025 10:16:54.337857   384 net.cpp:122] Setting up Eltwise22_Eltwise22_0_split
I1025 10:16:54.337865   384 net.cpp:129] Top shape: 128 64 8 8 (524288)
I1025 10:16:54.337872   384 net.cpp:129] Top shape: 128 64 8 8 (524288)
I1025 10:16:54.337877   384 net.cpp:137] Memory required for data: 773325312
I1025 10:16:54.337880   384 layer_factory.hpp:77] Creating layer Convolution18
I1025 10:16:54.337893   384 net.cpp:84] Creating Layer Convolution18
I1025 10:16:54.337899   384 net.cpp:406] Convolution18 <- Eltwise22_Eltwise22_0_split_0
I1025 10:16:54.337909   384 net.cpp:380] Convolution18 -> Convolution18
I1025 10:16:54.341399   384 net.cpp:122] Setting up Convolution18
I1025 10:16:54.341419   384 net.cpp:129] Top shape: 128 64 8 8 (524288)
I1025 10:16:54.341424   384 net.cpp:137] Memory required for data: 775422464
I1025 10:16:54.341434   384 layer_factory.hpp:77] Creating layer BatchNorm18
I1025 10:16:54.341451   384 net.cpp:84] Creating Layer BatchNorm18
I1025 10:16:54.341470   384 net.cpp:406] BatchNorm18 <- Convolution18
I1025 10:16:54.341480   384 net.cpp:367] BatchNorm18 -> Convolution18 (in-place)
I1025 10:16:54.341697   384 net.cpp:122] Setting up BatchNorm18
I1025 10:16:54.341707   384 net.cpp:129] Top shape: 128 64 8 8 (524288)
I1025 10:16:54.341712   384 net.cpp:137] Memory required for data: 777519616
I1025 10:16:54.341720   384 layer_factory.hpp:77] Creating layer Scale18
I1025 10:16:54.341730   384 net.cpp:84] Creating Layer Scale18
I1025 10:16:54.341737   384 net.cpp:406] Scale18 <- Convolution18
I1025 10:16:54.341743   384 net.cpp:367] Scale18 -> Convolution18 (in-place)
I1025 10:16:54.341784   384 layer_factory.hpp:77] Creating layer Scale18
I1025 10:16:54.341912   384 net.cpp:122] Setting up Scale18
I1025 10:16:54.341922   384 net.cpp:129] Top shape: 128 64 8 8 (524288)
I1025 10:16:54.341926   384 net.cpp:137] Memory required for data: 779616768
I1025 10:16:54.341933   384 layer_factory.hpp:77] Creating layer Convolution18_Scale18_0_split
I1025 10:16:54.341941   384 net.cpp:84] Creating Layer Convolution18_Scale18_0_split
I1025 10:16:54.341946   384 net.cpp:406] Convolution18_Scale18_0_split <- Convolution18
I1025 10:16:54.341954   384 net.cpp:380] Convolution18_Scale18_0_split -> Convolution18_Scale18_0_split_0
I1025 10:16:54.341964   384 net.cpp:380] Convolution18_Scale18_0_split -> Convolution18_Scale18_0_split_1
I1025 10:16:54.342000   384 net.cpp:122] Setting up Convolution18_Scale18_0_split
I1025 10:16:54.342008   384 net.cpp:129] Top shape: 128 64 8 8 (524288)
I1025 10:16:54.342015   384 net.cpp:129] Top shape: 128 64 8 8 (524288)
I1025 10:16:54.342018   384 net.cpp:137] Memory required for data: 783811072
I1025 10:16:54.342023   384 layer_factory.hpp:77] Creating layer Sigmoid16
I1025 10:16:54.342031   384 net.cpp:84] Creating Layer Sigmoid16
I1025 10:16:54.342037   384 net.cpp:406] Sigmoid16 <- Convolution18_Scale18_0_split_0
I1025 10:16:54.342044   384 net.cpp:380] Sigmoid16 -> Sigmoid16
I1025 10:16:54.342255   384 net.cpp:122] Setting up Sigmoid16
I1025 10:16:54.342269   384 net.cpp:129] Top shape: 128 64 8 8 (524288)
I1025 10:16:54.342274   384 net.cpp:137] Memory required for data: 785908224
I1025 10:16:54.342279   384 layer_factory.hpp:77] Creating layer Eltwise23
I1025 10:16:54.342288   384 net.cpp:84] Creating Layer Eltwise23
I1025 10:16:54.342293   384 net.cpp:406] Eltwise23 <- Convolution18_Scale18_0_split_1
I1025 10:16:54.342299   384 net.cpp:406] Eltwise23 <- Sigmoid16
I1025 10:16:54.342305   384 net.cpp:380] Eltwise23 -> Eltwise23
I1025 10:16:54.342337   384 net.cpp:122] Setting up Eltwise23
I1025 10:16:54.342346   384 net.cpp:129] Top shape: 128 64 8 8 (524288)
I1025 10:16:54.342350   384 net.cpp:137] Memory required for data: 788005376
I1025 10:16:54.342355   384 layer_factory.hpp:77] Creating layer Convolution19
I1025 10:16:54.342367   384 net.cpp:84] Creating Layer Convolution19
I1025 10:16:54.342373   384 net.cpp:406] Convolution19 <- Eltwise23
I1025 10:16:54.342383   384 net.cpp:380] Convolution19 -> Convolution19
I1025 10:16:54.347211   384 net.cpp:122] Setting up Convolution19
I1025 10:16:54.347230   384 net.cpp:129] Top shape: 128 64 8 8 (524288)
I1025 10:16:54.347236   384 net.cpp:137] Memory required for data: 790102528
I1025 10:16:54.347244   384 layer_factory.hpp:77] Creating layer BatchNorm19
I1025 10:16:54.347255   384 net.cpp:84] Creating Layer BatchNorm19
I1025 10:16:54.347262   384 net.cpp:406] BatchNorm19 <- Convolution19
I1025 10:16:54.347271   384 net.cpp:367] BatchNorm19 -> Convolution19 (in-place)
I1025 10:16:54.347489   384 net.cpp:122] Setting up BatchNorm19
I1025 10:16:54.347499   384 net.cpp:129] Top shape: 128 64 8 8 (524288)
I1025 10:16:54.347504   384 net.cpp:137] Memory required for data: 792199680
I1025 10:16:54.347538   384 layer_factory.hpp:77] Creating layer Scale19
I1025 10:16:54.347548   384 net.cpp:84] Creating Layer Scale19
I1025 10:16:54.347553   384 net.cpp:406] Scale19 <- Convolution19
I1025 10:16:54.347561   384 net.cpp:367] Scale19 -> Convolution19 (in-place)
I1025 10:16:54.347610   384 layer_factory.hpp:77] Creating layer Scale19
I1025 10:16:54.347746   384 net.cpp:122] Setting up Scale19
I1025 10:16:54.347756   384 net.cpp:129] Top shape: 128 64 8 8 (524288)
I1025 10:16:54.347761   384 net.cpp:137] Memory required for data: 794296832
I1025 10:16:54.347769   384 layer_factory.hpp:77] Creating layer Eltwise24
I1025 10:16:54.347775   384 net.cpp:84] Creating Layer Eltwise24
I1025 10:16:54.347780   384 net.cpp:406] Eltwise24 <- Convolution19
I1025 10:16:54.347787   384 net.cpp:406] Eltwise24 <- Eltwise22_Eltwise22_0_split_1
I1025 10:16:54.347793   384 net.cpp:380] Eltwise24 -> Eltwise24
I1025 10:16:54.347818   384 net.cpp:122] Setting up Eltwise24
I1025 10:16:54.347827   384 net.cpp:129] Top shape: 128 64 8 8 (524288)
I1025 10:16:54.347831   384 net.cpp:137] Memory required for data: 796393984
I1025 10:16:54.347836   384 layer_factory.hpp:77] Creating layer Eltwise24_Eltwise24_0_split
I1025 10:16:54.347842   384 net.cpp:84] Creating Layer Eltwise24_Eltwise24_0_split
I1025 10:16:54.347849   384 net.cpp:406] Eltwise24_Eltwise24_0_split <- Eltwise24
I1025 10:16:54.347856   384 net.cpp:380] Eltwise24_Eltwise24_0_split -> Eltwise24_Eltwise24_0_split_0
I1025 10:16:54.347863   384 net.cpp:380] Eltwise24_Eltwise24_0_split -> Eltwise24_Eltwise24_0_split_1
I1025 10:16:54.347906   384 net.cpp:122] Setting up Eltwise24_Eltwise24_0_split
I1025 10:16:54.347914   384 net.cpp:129] Top shape: 128 64 8 8 (524288)
I1025 10:16:54.347919   384 net.cpp:129] Top shape: 128 64 8 8 (524288)
I1025 10:16:54.347924   384 net.cpp:137] Memory required for data: 800588288
I1025 10:16:54.347929   384 layer_factory.hpp:77] Creating layer Sigmoid17
I1025 10:16:54.347935   384 net.cpp:84] Creating Layer Sigmoid17
I1025 10:16:54.347940   384 net.cpp:406] Sigmoid17 <- Eltwise24_Eltwise24_0_split_0
I1025 10:16:54.347947   384 net.cpp:380] Sigmoid17 -> Sigmoid17
I1025 10:16:54.348870   384 net.cpp:122] Setting up Sigmoid17
I1025 10:16:54.348889   384 net.cpp:129] Top shape: 128 64 8 8 (524288)
I1025 10:16:54.348896   384 net.cpp:137] Memory required for data: 802685440
I1025 10:16:54.348901   384 layer_factory.hpp:77] Creating layer Eltwise25
I1025 10:16:54.348907   384 net.cpp:84] Creating Layer Eltwise25
I1025 10:16:54.348913   384 net.cpp:406] Eltwise25 <- Eltwise24_Eltwise24_0_split_1
I1025 10:16:54.348920   384 net.cpp:406] Eltwise25 <- Sigmoid17
I1025 10:16:54.348927   384 net.cpp:380] Eltwise25 -> Eltwise25
I1025 10:16:54.348959   384 net.cpp:122] Setting up Eltwise25
I1025 10:16:54.348968   384 net.cpp:129] Top shape: 128 64 8 8 (524288)
I1025 10:16:54.348973   384 net.cpp:137] Memory required for data: 804782592
I1025 10:16:54.348978   384 layer_factory.hpp:77] Creating layer Eltwise25_Eltwise25_0_split
I1025 10:16:54.348986   384 net.cpp:84] Creating Layer Eltwise25_Eltwise25_0_split
I1025 10:16:54.348991   384 net.cpp:406] Eltwise25_Eltwise25_0_split <- Eltwise25
I1025 10:16:54.348999   384 net.cpp:380] Eltwise25_Eltwise25_0_split -> Eltwise25_Eltwise25_0_split_0
I1025 10:16:54.349005   384 net.cpp:380] Eltwise25_Eltwise25_0_split -> Eltwise25_Eltwise25_0_split_1
I1025 10:16:54.349048   384 net.cpp:122] Setting up Eltwise25_Eltwise25_0_split
I1025 10:16:54.349056   384 net.cpp:129] Top shape: 128 64 8 8 (524288)
I1025 10:16:54.349062   384 net.cpp:129] Top shape: 128 64 8 8 (524288)
I1025 10:16:54.349066   384 net.cpp:137] Memory required for data: 808976896
I1025 10:16:54.349071   384 layer_factory.hpp:77] Creating layer Convolution20
I1025 10:16:54.349083   384 net.cpp:84] Creating Layer Convolution20
I1025 10:16:54.349089   384 net.cpp:406] Convolution20 <- Eltwise25_Eltwise25_0_split_0
I1025 10:16:54.349099   384 net.cpp:380] Convolution20 -> Convolution20
I1025 10:16:54.351878   384 net.cpp:122] Setting up Convolution20
I1025 10:16:54.351897   384 net.cpp:129] Top shape: 128 64 8 8 (524288)
I1025 10:16:54.351902   384 net.cpp:137] Memory required for data: 811074048
I1025 10:16:54.351910   384 layer_factory.hpp:77] Creating layer BatchNorm20
I1025 10:16:54.351919   384 net.cpp:84] Creating Layer BatchNorm20
I1025 10:16:54.351930   384 net.cpp:406] BatchNorm20 <- Convolution20
I1025 10:16:54.351948   384 net.cpp:367] BatchNorm20 -> Convolution20 (in-place)
I1025 10:16:54.352170   384 net.cpp:122] Setting up BatchNorm20
I1025 10:16:54.352180   384 net.cpp:129] Top shape: 128 64 8 8 (524288)
I1025 10:16:54.352185   384 net.cpp:137] Memory required for data: 813171200
I1025 10:16:54.352192   384 layer_factory.hpp:77] Creating layer Scale20
I1025 10:16:54.352216   384 net.cpp:84] Creating Layer Scale20
I1025 10:16:54.352222   384 net.cpp:406] Scale20 <- Convolution20
I1025 10:16:54.352229   384 net.cpp:367] Scale20 -> Convolution20 (in-place)
I1025 10:16:54.352274   384 layer_factory.hpp:77] Creating layer Scale20
I1025 10:16:54.352402   384 net.cpp:122] Setting up Scale20
I1025 10:16:54.352411   384 net.cpp:129] Top shape: 128 64 8 8 (524288)
I1025 10:16:54.352416   384 net.cpp:137] Memory required for data: 815268352
I1025 10:16:54.352423   384 layer_factory.hpp:77] Creating layer Convolution20_Scale20_0_split
I1025 10:16:54.352432   384 net.cpp:84] Creating Layer Convolution20_Scale20_0_split
I1025 10:16:54.352437   384 net.cpp:406] Convolution20_Scale20_0_split <- Convolution20
I1025 10:16:54.352444   384 net.cpp:380] Convolution20_Scale20_0_split -> Convolution20_Scale20_0_split_0
I1025 10:16:54.352452   384 net.cpp:380] Convolution20_Scale20_0_split -> Convolution20_Scale20_0_split_1
I1025 10:16:54.352489   384 net.cpp:122] Setting up Convolution20_Scale20_0_split
I1025 10:16:54.352499   384 net.cpp:129] Top shape: 128 64 8 8 (524288)
I1025 10:16:54.352504   384 net.cpp:129] Top shape: 128 64 8 8 (524288)
I1025 10:16:54.352509   384 net.cpp:137] Memory required for data: 819462656
I1025 10:16:54.352512   384 layer_factory.hpp:77] Creating layer Sigmoid18
I1025 10:16:54.352519   384 net.cpp:84] Creating Layer Sigmoid18
I1025 10:16:54.352524   384 net.cpp:406] Sigmoid18 <- Convolution20_Scale20_0_split_0
I1025 10:16:54.352531   384 net.cpp:380] Sigmoid18 -> Sigmoid18
I1025 10:16:54.353565   384 net.cpp:122] Setting up Sigmoid18
I1025 10:16:54.353590   384 net.cpp:129] Top shape: 128 64 8 8 (524288)
I1025 10:16:54.353598   384 net.cpp:137] Memory required for data: 821559808
I1025 10:16:54.353605   384 layer_factory.hpp:77] Creating layer Eltwise26
I1025 10:16:54.353617   384 net.cpp:84] Creating Layer Eltwise26
I1025 10:16:54.353626   384 net.cpp:406] Eltwise26 <- Convolution20_Scale20_0_split_1
I1025 10:16:54.353636   384 net.cpp:406] Eltwise26 <- Sigmoid18
I1025 10:16:54.353646   384 net.cpp:380] Eltwise26 -> Eltwise26
I1025 10:16:54.353689   384 net.cpp:122] Setting up Eltwise26
I1025 10:16:54.353703   384 net.cpp:129] Top shape: 128 64 8 8 (524288)
I1025 10:16:54.353709   384 net.cpp:137] Memory required for data: 823656960
I1025 10:16:54.353718   384 layer_factory.hpp:77] Creating layer Convolution21
I1025 10:16:54.353734   384 net.cpp:84] Creating Layer Convolution21
I1025 10:16:54.353742   384 net.cpp:406] Convolution21 <- Eltwise26
I1025 10:16:54.353756   384 net.cpp:380] Convolution21 -> Convolution21
I1025 10:16:54.358000   384 net.cpp:122] Setting up Convolution21
I1025 10:16:54.358018   384 net.cpp:129] Top shape: 128 64 8 8 (524288)
I1025 10:16:54.358024   384 net.cpp:137] Memory required for data: 825754112
I1025 10:16:54.358032   384 layer_factory.hpp:77] Creating layer BatchNorm21
I1025 10:16:54.358045   384 net.cpp:84] Creating Layer BatchNorm21
I1025 10:16:54.358052   384 net.cpp:406] BatchNorm21 <- Convolution21
I1025 10:16:54.358058   384 net.cpp:367] BatchNorm21 -> Convolution21 (in-place)
I1025 10:16:54.358279   384 net.cpp:122] Setting up BatchNorm21
I1025 10:16:54.358289   384 net.cpp:129] Top shape: 128 64 8 8 (524288)
I1025 10:16:54.358294   384 net.cpp:137] Memory required for data: 827851264
I1025 10:16:54.358301   384 layer_factory.hpp:77] Creating layer Scale21
I1025 10:16:54.358310   384 net.cpp:84] Creating Layer Scale21
I1025 10:16:54.358316   384 net.cpp:406] Scale21 <- Convolution21
I1025 10:16:54.358324   384 net.cpp:367] Scale21 -> Convolution21 (in-place)
I1025 10:16:54.358371   384 layer_factory.hpp:77] Creating layer Scale21
I1025 10:16:54.358515   384 net.cpp:122] Setting up Scale21
I1025 10:16:54.358527   384 net.cpp:129] Top shape: 128 64 8 8 (524288)
I1025 10:16:54.358532   384 net.cpp:137] Memory required for data: 829948416
I1025 10:16:54.358539   384 layer_factory.hpp:77] Creating layer Eltwise27
I1025 10:16:54.358547   384 net.cpp:84] Creating Layer Eltwise27
I1025 10:16:54.358552   384 net.cpp:406] Eltwise27 <- Convolution21
I1025 10:16:54.358559   384 net.cpp:406] Eltwise27 <- Eltwise25_Eltwise25_0_split_1
I1025 10:16:54.358567   384 net.cpp:380] Eltwise27 -> Eltwise27
I1025 10:16:54.358592   384 net.cpp:122] Setting up Eltwise27
I1025 10:16:54.358602   384 net.cpp:129] Top shape: 128 64 8 8 (524288)
I1025 10:16:54.358606   384 net.cpp:137] Memory required for data: 832045568
I1025 10:16:54.358610   384 layer_factory.hpp:77] Creating layer Eltwise27_Eltwise27_0_split
I1025 10:16:54.358618   384 net.cpp:84] Creating Layer Eltwise27_Eltwise27_0_split
I1025 10:16:54.358623   384 net.cpp:406] Eltwise27_Eltwise27_0_split <- Eltwise27
I1025 10:16:54.358629   384 net.cpp:380] Eltwise27_Eltwise27_0_split -> Eltwise27_Eltwise27_0_split_0
I1025 10:16:54.358636   384 net.cpp:380] Eltwise27_Eltwise27_0_split -> Eltwise27_Eltwise27_0_split_1
I1025 10:16:54.358678   384 net.cpp:122] Setting up Eltwise27_Eltwise27_0_split
I1025 10:16:54.358687   384 net.cpp:129] Top shape: 128 64 8 8 (524288)
I1025 10:16:54.358692   384 net.cpp:129] Top shape: 128 64 8 8 (524288)
I1025 10:16:54.358696   384 net.cpp:137] Memory required for data: 836239872
I1025 10:16:54.358701   384 layer_factory.hpp:77] Creating layer Sigmoid19
I1025 10:16:54.358708   384 net.cpp:84] Creating Layer Sigmoid19
I1025 10:16:54.358713   384 net.cpp:406] Sigmoid19 <- Eltwise27_Eltwise27_0_split_0
I1025 10:16:54.358722   384 net.cpp:380] Sigmoid19 -> Sigmoid19
I1025 10:16:54.358933   384 net.cpp:122] Setting up Sigmoid19
I1025 10:16:54.358945   384 net.cpp:129] Top shape: 128 64 8 8 (524288)
I1025 10:16:54.358950   384 net.cpp:137] Memory required for data: 838337024
I1025 10:16:54.358955   384 layer_factory.hpp:77] Creating layer Eltwise28
I1025 10:16:54.358964   384 net.cpp:84] Creating Layer Eltwise28
I1025 10:16:54.358970   384 net.cpp:406] Eltwise28 <- Eltwise27_Eltwise27_0_split_1
I1025 10:16:54.358978   384 net.cpp:406] Eltwise28 <- Sigmoid19
I1025 10:16:54.358983   384 net.cpp:380] Eltwise28 -> Eltwise28
I1025 10:16:54.359014   384 net.cpp:122] Setting up Eltwise28
I1025 10:16:54.359022   384 net.cpp:129] Top shape: 128 64 8 8 (524288)
I1025 10:16:54.359027   384 net.cpp:137] Memory required for data: 840434176
I1025 10:16:54.359031   384 layer_factory.hpp:77] Creating layer Pooling1
I1025 10:16:54.359040   384 net.cpp:84] Creating Layer Pooling1
I1025 10:16:54.359045   384 net.cpp:406] Pooling1 <- Eltwise28
I1025 10:16:54.359055   384 net.cpp:380] Pooling1 -> Pooling1
I1025 10:16:54.359993   384 net.cpp:122] Setting up Pooling1
I1025 10:16:54.360010   384 net.cpp:129] Top shape: 128 64 1 1 (8192)
I1025 10:16:54.360015   384 net.cpp:137] Memory required for data: 840466944
I1025 10:16:54.360020   384 layer_factory.hpp:77] Creating layer InnerProduct1
I1025 10:16:54.360034   384 net.cpp:84] Creating Layer InnerProduct1
I1025 10:16:54.360040   384 net.cpp:406] InnerProduct1 <- Pooling1
I1025 10:16:54.360049   384 net.cpp:380] InnerProduct1 -> InnerProduct1
I1025 10:16:54.360200   384 net.cpp:122] Setting up InnerProduct1
I1025 10:16:54.360213   384 net.cpp:129] Top shape: 128 10 (1280)
I1025 10:16:54.360219   384 net.cpp:137] Memory required for data: 840472064
I1025 10:16:54.360225   384 layer_factory.hpp:77] Creating layer Accuracy1
I1025 10:16:54.360232   384 net.cpp:84] Creating Layer Accuracy1
I1025 10:16:54.360239   384 net.cpp:406] Accuracy1 <- InnerProduct1
I1025 10:16:54.360244   384 net.cpp:406] Accuracy1 <- Data2
I1025 10:16:54.360251   384 net.cpp:380] Accuracy1 -> Accuracy1
…
