…
I1025 10:04:53.822338 39807 upgrade_proto.cpp:80] Successfully upgraded batch norm layers using deprecated params.
I1025 10:04:53.823189 39807 net.cpp:51] Initializing net from parameters: 
state {
  phase: TEST
  level: 0
  stage: ""
}
layer {
  name: "Data1"
  type: "Data"
  top: "Data1"
  top: "Data2"
  transform_param {
    crop_size: 32
    mean_value: 125.306915
    mean_value: 122.950394
    mean_value: 113.865387
  }
  data_param {
    source: "/data/hjy1312/data/RESNET/cifar-10/cifar10_test_lmdb"
    batch_size: 128
    backend: LMDB
  }
}
layer {
  name: "Convolution1"
  type: "Convolution"
  bottom: "Data1"
  top: "Convolution1"
  param {
    lr_mult: 1
    decay_mult: 1
  }
  param {
    lr_mult: 2
    decay_mult: 0
  }
  convolution_param {
    num_output: 16
    bias_term: true
    pad: 1
    kernel_size: 3
    stride: 1
    weight_filler {
      type: "msra"
    }
    bias_filler {
      type: "constant"
    }
  }
}
layer {
  name: "BatchNorm1"
  type: "BatchNorm"
  bottom: "Convolution1"
  top: "Convolution1"
  param {
    lr_mult: 0
    decay_mult: 0
  }
  param {
    lr_mult: 0
    decay_mult: 0
  }
  param {
    lr_mult: 0
    decay_mult: 0
  }
  batch_norm_param {
    use_global_stats: true
  }
}
layer {
  name: "Scale1"
  type: "Scale"
  bottom: "Convolution1"
  top: "Convolution1"
  scale_param {
    bias_term: true
  }
}
layer {
  name: "Sigmoid1"
  type: "Sigmoid"
  bottom: "Convolution1"
  top: "Sigmoid1"
}
layer {
  name: "Eltwise1"
  type: "Eltwise"
  bottom: "Convolution1"
  bottom: "Sigmoid1"
  top: "Eltwise1"
  eltwise_param {
    operation: PROD
  }
}
layer {
  name: "Convolution2"
  type: "Convolution"
  bottom: "Eltwise1"
  top: "Convolution2"
  param {
    lr_mult: 1
    decay_mult: 1
  }
  param {
    lr_mult: 2
    decay_mult: 0
  }
  convolution_param {
    num_output: 16
    bias_term: true
    pad: 1
    kernel_size: 3
    stride: 1
    weight_filler {
      type: "msra"
    }
    bias_filler {
      type: "constant"
    }
  }
}
layer {
  name: "BatchNorm2"
  type: "BatchNorm"
  bottom: "Convolution2"
  top: "Convolution2"
  param {
    lr_mult: 0
    decay_mult: 0
  }
  param {
    lr_mult: 0
    decay_mult: 0
  }
  param {
    lr_mult: 0
    decay_mult: 0
  }
  batch_norm_param {
    use_global_stats: true
  }
}
layer {
  name: "Scale2"
  type: "Scale"
  bottom: "Convolution2"
  top: "Convolution2"
  scale_param {
    bias_term: true
  }
}
layer {
  name: "Sigmoid2"
  type: "Sigmoid"
  bottom: "Convolution2"
  top: "Sigmoid2"
}
layer {
  name: "Eltwise2"
  type: "Eltwise"
  bottom: "Convolution2"
  bottom: "Sigmoid2"
  top: "Eltwise2"
  eltwise_param {
    operation: PROD
  }
}
layer {
  name: "Convolution3"
  type: "Convolution"
  bottom: "Eltwise2"
  top: "Convolution3"
  param {
    lr_mult: 1
    decay_mult: 1
  }
  param {
    lr_mult: 2
    decay_mult: 0
  }
  convolution_param {
    num_output: 16
    bias_term: true
    pad: 1
    kernel_size: 3
    stride: 1
    weight_filler {
      type: "msra"
    }
    bias_filler {
      type: "constant"
    }
  }
}
layer {
  name: "BatchNorm3"
  type: "BatchNorm"
  bottom: "Convolution3"
  top: "Convolution3"
  param {
    lr_mult: 0
    decay_mult: 0
  }
  param {
    lr_mult: 0
    decay_mult: 0
  }
  param {
    lr_mult: 0
    decay_mult: 0
  }
  batch_norm_param {
    use_global_stats: true
  }
}
layer {
  name: "Scale3"
  type: "Scale"
  bottom: "Convolution3"
  top: "Convolution3"
  scale_param {
    bias_term: true
  }
}
layer {
  name: "Eltwise3"
  type: "Eltwise"
  bottom: "Convolution3"
  bottom: "Eltwise1"
  top: "Eltwise3"
  eltwise_param {
    operation: SUM
  }
}
layer {
  name: "Sigmoid3"
  type: "Sigmoid"
  bottom: "Eltwise3"
  top: "Sigmoid3"
}
layer {
  name: "Eltwise4"
  type: "Eltwise"
  bottom: "Eltwise3"
  bottom: "Sigmoid3"
  top: "Eltwise4"
  eltwise_param {
    operation: PROD
  }
}
layer {
  name: "Convolution4"
  type: "Convolution"
  bottom: "Eltwise4"
  top: "Convolution4"
  param {
    lr_mult: 1
    decay_mult: 1
  }
  param {
    lr_mult: 2
    decay_mult: 0
  }
  convolution_param {
    num_output: 16
    bias_term: true
    pad: 1
    kernel_size: 3
    stride: 1
    weight_filler {
      type: "msra"
    }
    bias_filler {
      type: "constant"
    }
  }
}
layer {
  name: "BatchNorm4"
  type: "BatchNorm"
  bottom: "Convolution4"
  top: "Convolution4"
  param {
    lr_mult: 0
    decay_mult: 0
  }
  param {
    lr_mult: 0
    decay_mult: 0
  }
  param {
    lr_mult: 0
    decay_mult: 0
  }
  batch_norm_param {
    use_global_stats: true
  }
}
layer {
  name: "Scale4"
  type: "Scale"
  bottom: "Convolution4"
  top: "Convolution4"
  scale_param {
    bias_term: true
  }
}
layer {
  name: "Sigmoid4"
  type: "Sigmoid"
  bottom: "Convolution4"
  top: "Sigmoid4"
}
layer {
  name: "Eltwise5"
  type: "Eltwise"
  bottom: "Convolution4"
  bottom: "Sigmoid4"
  top: "Eltwise5"
  eltwise_param {
    operation: PROD
  }
}
layer {
  name: "Convolution5"
  type: "Convolution"
  bottom: "Eltwise5"
  top: "Convolution5"
  param {
    lr_mult: 1
    decay_mult: 1
  }
  param {
    lr_mult: 2
    decay_mult: 0
  }
  convolution_param {
    num_output: 16
    bias_term: true
    pad: 1
    kernel_size: 3
    stride: 1
    weight_filler {
      type: "msra"
    }
    bias_filler {
      type: "constant"
    }
  }
}
layer {
  name: "BatchNorm5"
  type: "BatchNorm"
  bottom: "Convolution5"
  top: "Convolution5"
  param {
    lr_mult: 0
    decay_mult: 0
  }
  param {
    lr_mult: 0
    decay_mult: 0
  }
  param {
    lr_mult: 0
    decay_mult: 0
  }
  batch_norm_param {
    use_global_stats: true
  }
}
layer {
  name: "Scale5"
  type: "Scale"
  bottom: "Convolution5"
  top: "Convolution5"
  scale_param {
    bias_term: true
  }
}
layer {
  name: "Eltwise6"
  type: "Eltwise"
  bottom: "Convolution5"
  bottom: "Eltwise4"
  top: "Eltwise6"
  eltwise_param {
    operation: SUM
  }
}
layer {
  name: "Sigmoid5"
  type: "Sigmoid"
  bottom: "Eltwise6"
  top: "Sigmoid5"
}
layer {
  name: "Eltwise7"
  type: "Eltwise"
  bottom: "Eltwise6"
  bottom: "Sigmoid5"
  top: "Eltwise7"
  eltwise_param {
    operation: PROD
  }
}
layer {
  name: "Convolution6"
  type: "Convolution"
  bottom: "Eltwise7"
  top: "Convolution6"
  param {
    lr_mult: 1
    decay_mult: 1
  }
  param {
    lr_mult: 2
    decay_mult: 0
  }
  convolution_param {
    num_output: 16
    bias_term: true
    pad: 1
    kernel_size: 3
    stride: 1
    weight_filler {
      type: "msra"
    }
    bias_filler {
      type: "constant"
    }
  }
}
layer {
  name: "BatchNorm6"
  type: "BatchNorm"
  bottom: "Convolution6"
  top: "Convolution6"
  param {
    lr_mult: 0
    decay_mult: 0
  }
  param {
    lr_mult: 0
    decay_mult: 0
  }
  param {
    lr_mult: 0
    decay_mult: 0
  }
  batch_norm_param {
    use_global_stats: true
  }
}
layer {
  name: "Scale6"
  type: "Scale"
  bottom: "Convolution6"
  top: "Convolution6"
  scale_param {
    bias_term: true
  }
}
layer {
  name: "Sigmoid6"
  type: "Sigmoid"
  bottom: "Convolution6"
  top: "Sigmoid6"
}
layer {
  name: "Eltwise8"
  type: "Eltwise"
  bottom: "Convolution6"
  bottom: "Sigmoid6"
  top: "Eltwise8"
  eltwise_param {
    operation: PROD
  }
}
layer {
  name: "Convolution7"
  type: "Convolution"
  bottom: "Eltwise8"
  top: "Convolution7"
  param {
    lr_mult: 1
    decay_mult: 1
  }
  param {
    lr_mult: 2
    decay_mult: 0
  }
  convolution_param {
    num_output: 16
    bias_term: true
    pad: 1
    kernel_size: 3
    stride: 1
    weight_filler {
      type: "msra"
    }
    bias_filler {
      type: "constant"
    }
  }
}
layer {
  name: "BatchNorm7"
  type: "BatchNorm"
  bottom: "Convolution7"
  top: "Convolution7"
  param {
    lr_mult: 0
    decay_mult: 0
  }
  param {
    lr_mult: 0
    decay_mult: 0
  }
  param {
    lr_mult: 0
    decay_mult: 0
  }
  batch_norm_param {
    use_global_stats: true
  }
}
layer {
  name: "Scale7"
  type: "Scale"
  bottom: "Convolution7"
  top: "Convolution7"
  scale_param {
    bias_term: true
  }
}
layer {
  name: "Eltwise9"
  type: "Eltwise"
  bottom: "Convolution7"
  bottom: "Eltwise7"
  top: "Eltwise9"
  eltwise_param {
    operation: SUM
  }
}
layer {
  name: "Sigmoid7"
  type: "Sigmoid"
  bottom: "Eltwise9"
  top: "Sigmoid7"
}
layer {
  name: "Eltwise10"
  type: "Eltwise"
  bottom: "Eltwise9"
  bottom: "Sigmoid7"
  top: "Eltwise10"
  eltwise_param {
    operation: PROD
  }
}
layer {
  name: "Convolution8"
  type: "Convolution"
  bottom: "Eltwise10"
  top: "Convolution8"
  param {
    lr_mult: 1
    decay_mult: 1
  }
  param {
    lr_mult: 2
    decay_mult: 0
  }
  convolution_param {
    num_output: 32
    bias_term: true
    pad: 1
    kernel_size: 3
    stride: 2
    weight_filler {
      type: "msra"
    }
    bias_filler {
      type: "constant"
    }
  }
}
layer {
  name: "BatchNorm8"
  type: "BatchNorm"
  bottom: "Convolution8"
  top: "Convolution8"
  param {
    lr_mult: 0
    decay_mult: 0
  }
  param {
    lr_mult: 0
    decay_mult: 0
  }
  param {
    lr_mult: 0
    decay_mult: 0
  }
  batch_norm_param {
    use_global_stats: true
  }
}
layer {
  name: "Scale8"
  type: "Scale"
  bottom: "Convolution8"
  top: "Convolution8"
  scale_param {
    bias_term: true
  }
}
layer {
  name: "Sigmoid8"
  type: "Sigmoid"
  bottom: "Convolution8"
  top: "Sigmoid8"
}
layer {
  name: "Eltwise11"
  type: "Eltwise"
  bottom: "Convolution8"
  bottom: "Sigmoid8"
  top: "Eltwise11"
  eltwise_param {
    operation: PROD
  }
}
layer {
  name: "Convolution9"
  type: "Convolution"
  bottom: "Eltwise11"
  top: "Convolution9"
  param {
    lr_mult: 1
    decay_mult: 1
  }
  param {
    lr_mult: 2
    decay_mult: 0
  }
  convolution_param {
    num_output: 32
    bias_term: true
    pad: 1
    kernel_size: 3
    stride: 1
    weight_filler {
      type: "msra"
    }
    bias_filler {
      type: "constant"
    }
  }
}
layer {
  name: "BatchNorm9"
  type: "BatchNorm"
  bottom: "Convolution9"
  top: "Convolution9"
  param {
    lr_mult: 0
    decay_mult: 0
  }
  param {
    lr_mult: 0
    decay_mult: 0
  }
  param {
    lr_mult: 0
    decay_mult: 0
  }
  batch_norm_param {
    use_global_stats: true
  }
}
layer {
  name: "Scale9"
  type: "Scale"
  bottom: "Convolution9"
  top: "Convolution9"
  scale_param {
    bias_term: true
  }
}
layer {
  name: "Convolution10"
  type: "Convolution"
  bottom: "Eltwise10"
  top: "Convolution10"
  param {
    lr_mult: 1
    decay_mult: 1
  }
  param {
    lr_mult: 2
    decay_mult: 0
  }
  convolution_param {
    num_output: 32
    bias_term: true
    pad: 0
    kernel_size: 1
    stride: 2
    weight_filler {
      type: "msra"
    }
    bias_filler {
      type: "constant"
    }
  }
}
layer {
  name: "BatchNorm10"
  type: "BatchNorm"
  bottom: "Convolution10"
  top: "Convolution10"
  param {
    lr_mult: 0
    decay_mult: 0
  }
  param {
    lr_mult: 0
    decay_mult: 0
  }
  param {
    lr_mult: 0
    decay_mult: 0
  }
  batch_norm_param {
    use_global_stats: true
  }
}
layer {
  name: "Scale10"
  type: "Scale"
  bottom: "Convolution10"
  top: "Convolution10"
  scale_param {
    bias_term: true
  }
}
layer {
  name: "Eltwise12"
  type: "Eltwise"
  bottom: "Convolution9"
  bottom: "Convolution10"
  top: "Eltwise12"
  eltwise_param {
    operation: SUM
  }
}
layer {
  name: "Sigmoid9"
  type: "Sigmoid"
  bottom: "Eltwise12"
  top: "Sigmoid9"
}
layer {
  name: "Eltwise13"
  type: "Eltwise"
  bottom: "Eltwise12"
  bottom: "Sigmoid9"
  top: "Eltwise13"
  eltwise_param {
    operation: PROD
  }
}
layer {
  name: "Convolution11"
  type: "Convolution"
  bottom: "Eltwise13"
  top: "Convolution11"
  param {
    lr_mult: 1
    decay_mult: 1
  }
  param {
    lr_mult: 2
    decay_mult: 0
  }
  convolution_param {
    num_output: 32
    bias_term: true
    pad: 1
    kernel_size: 3
    stride: 1
    weight_filler {
      type: "msra"
    }
    bias_filler {
      type: "constant"
    }
  }
}
layer {
  name: "BatchNorm11"
  type: "BatchNorm"
  bottom: "Convolution11"
  top: "Convolution11"
  param {
    lr_mult: 0
    decay_mult: 0
  }
  param {
    lr_mult: 0
    decay_mult: 0
  }
  param {
    lr_mult: 0
    decay_mult: 0
  }
  batch_norm_param {
    use_global_stats: true
  }
}
layer {
  name: "Scale11"
  type: "Scale"
  bottom: "Convolution11"
  top: "Convolution11"
  scale_param {
    bias_term: true
  }
}
layer {
  name: "Sigmoid10"
  type: "Sigmoid"
  bottom: "Convolution11"
  top: "Sigmoid10"
}
layer {
  name: "Eltwise14"
  type: "Eltwise"
  bottom: "Convolution11"
  bottom: "Sigmoid10"
  top: "Eltwise14"
  eltwise_param {
    operation: PROD
  }
}
layer {
  name: "Convolution12"
  type: "Convolution"
  bottom: "Eltwise14"
  top: "Convolution12"
  param {
    lr_mult: 1
    decay_mult: 1
  }
  param {
    lr_mult: 2
    decay_mult: 0
  }
  convolution_param {
    num_output: 32
    bias_term: true
    pad: 1
    kernel_size: 3
    stride: 1
    weight_filler {
      type: "msra"
    }
    bias_filler {
      type: "constant"
    }
  }
}
layer {
  name: "BatchNorm12"
  type: "BatchNorm"
  bottom: "Convolution12"
  top: "Convolution12"
  param {
    lr_mult: 0
    decay_mult: 0
  }
  param {
    lr_mult: 0
    decay_mult: 0
  }
  param {
    lr_mult: 0
    decay_mult: 0
  }
  batch_norm_param {
    use_global_stats: true
  }
}
layer {
  name: "Scale12"
  type: "Scale"
  bottom: "Convolution12"
  top: "Convolution12"
  scale_param {
    bias_term: true
  }
}
layer {
  name: "Eltwise15"
  type: "Eltwise"
  bottom: "Convolution12"
  bottom: "Eltwise13"
  top: "Eltwise15"
  eltwise_param {
    operation: SUM
  }
}
layer {
  name: "Sigmoid11"
  type: "Sigmoid"
  bottom: "Eltwise15"
  top: "Sigmoid11"
}
layer {
  name: "Eltwise16"
  type: "Eltwise"
  bottom: "Eltwise15"
  bottom: "Sigmoid11"
  top: "Eltwise16"
  eltwise_param {
    operation: PROD
  }
}
layer {
  name: "Convolution13"
  type: "Convolution"
  bottom: "Eltwise16"
  top: "Convolution13"
  param {
    lr_mult: 1
    decay_mult: 1
  }
  param {
    lr_mult: 2
    decay_mult: 0
  }
  convolution_param {
    num_output: 32
    bias_term: true
    pad: 1
    kernel_size: 3
    stride: 1
    weight_filler {
      type: "msra"
    }
    bias_filler {
      type: "constant"
    }
  }
}
layer {
  name: "BatchNorm13"
  type: "BatchNorm"
  bottom: "Convolution13"
  top: "Convolution13"
  param {
    lr_mult: 0
    decay_mult: 0
  }
  param {
    lr_mult: 0
    decay_mult: 0
  }
  param {
    lr_mult: 0
    decay_mult: 0
  }
  batch_norm_param {
    use_global_stats: true
  }
}
layer {
  name: "Scale13"
  type: "Scale"
  bottom: "Convolution13"
  top: "Convolution13"
  scale_param {
    bias_term: true
  }
}
layer {
  name: "Sigmoid12"
  type: "Sigmoid"
  bottom: "Convolution13"
  top: "Sigmoid12"
}
layer {
  name: "Eltwise17"
  type: "Eltwise"
  bottom: "Convolution13"
  bottom: "Sigmoid12"
  top: "Eltwise17"
  eltwise_param {
    operation: PROD
  }
}
layer {
  name: "Convolution14"
  type: "Convolution"
  bottom: "Eltwise17"
  top: "Convolution14"
  param {
    lr_mult: 1
    decay_mult: 1
  }
  param {
    lr_mult: 2
    decay_mult: 0
  }
  convolution_param {
    num_output: 32
    bias_term: true
    pad: 1
    kernel_size: 3
    stride: 1
    weight_filler {
      type: "msra"
    }
    bias_filler {
      type: "constant"
    }
  }
}
layer {
  name: "BatchNorm14"
  type: "BatchNorm"
  bottom: "Convolution14"
  top: "Convolution14"
  param {
    lr_mult: 0
    decay_mult: 0
  }
  param {
    lr_mult: 0
    decay_mult: 0
  }
  param {
    lr_mult: 0
    decay_mult: 0
  }
  batch_norm_param {
    use_global_stats: true
  }
}
layer {
  name: "Scale14"
  type: "Scale"
  bottom: "Convolution14"
  top: "Convolution14"
  scale_param {
    bias_term: true
  }
}
layer {
  name: "Eltwise18"
  type: "Eltwise"
  bottom: "Convolution14"
  bottom: "Eltwise16"
  top: "Eltwise18"
  eltwise_param {
    operation: SUM
  }
}
layer {
  name: "Sigmoid13"
  type: "Sigmoid"
  bottom: "Eltwise18"
  top: "Sigmoid13"
}
layer {
  name: "Eltwise19"
  type: "Eltwise"
  bottom: "Eltwise18"
  bottom: "Sigmoid13"
  top: "Eltwise19"
  eltwise_param {
    operation: PROD
  }
}
layer {
  name: "Convolution15"
  type: "Convolution"
  bottom: "Eltwise19"
  top: "Convolution15"
  param {
    lr_mult: 1
    decay_mult: 1
  }
  param {
    lr_mult: 2
    decay_mult: 0
  }
  convolution_param {
    num_output: 64
    bias_term: true
    pad: 1
    kernel_size: 3
    stride: 2
    weight_filler {
      type: "msra"
    }
    bias_filler {
      type: "constant"
    }
  }
}
layer {
  name: "BatchNorm15"
  type: "BatchNorm"
  bottom: "Convolution15"
  top: "Convolution15"
  param {
    lr_mult: 0
    decay_mult: 0
  }
  param {
    lr_mult: 0
    decay_mult: 0
  }
  param {
    lr_mult: 0
    decay_mult: 0
  }
  batch_norm_param {
    use_global_stats: true
  }
}
layer {
  name: "Scale15"
  type: "Scale"
  bottom: "Convolution15"
  top: "Convolution15"
  scale_param {
    bias_term: true
  }
}
layer {
  name: "Sigmoid14"
  type: "Sigmoid"
  bottom: "Convolution15"
  top: "Sigmoid14"
}
layer {
  name: "Eltwise20"
  type: "Eltwise"
  bottom: "Convolution15"
  bottom: "Sigmoid14"
  top: "Eltwise20"
  eltwise_param {
    operation: PROD
  }
}
layer {
  name: "Convolution16"
  type: "Convolution"
  bottom: "Eltwise20"
  top: "Convolution16"
  param {
    lr_mult: 1
    decay_mult: 1
  }
  param {
    lr_mult: 2
    decay_mult: 0
  }
  convolution_param {
    num_output: 64
    bias_term: true
    pad: 1
    kernel_size: 3
    stride: 1
    weight_filler {
      type: "msra"
    }
    bias_filler {
      type: "constant"
    }
  }
}
layer {
  name: "BatchNorm16"
  type: "BatchNorm"
  bottom: "Convolution16"
  top: "Convolution16"
  param {
    lr_mult: 0
    decay_mult: 0
  }
  param {
    lr_mult: 0
    decay_mult: 0
  }
  param {
    lr_mult: 0
    decay_mult: 0
  }
  batch_norm_param {
    use_global_stats: true
  }
}
layer {
  name: "Scale16"
  type: "Scale"
  bottom: "Convolution16"
  top: "Convolution16"
  scale_param {
    bias_term: true
  }
}
layer {
  name: "Convolution17"
  type: "Convolution"
  bottom: "Eltwise19"
  top: "Convolution17"
  param {
    lr_mult: 1
    decay_mult: 1
  }
  param {
    lr_mult: 2
    decay_mult: 0
  }
  convolution_param {
    num_output: 64
    bias_term: true
    pad: 0
    kernel_size: 1
    stride: 2
    weight_filler {
      type: "msra"
    }
    bias_filler {
      type: "constant"
    }
  }
}
layer {
  name: "BatchNorm17"
  type: "BatchNorm"
  bottom: "Convolution17"
  top: "Convolution17"
  param {
    lr_mult: 0
    decay_mult: 0
  }
  param {
    lr_mult: 0
    decay_mult: 0
  }
  param {
    lr_mult: 0
    decay_mult: 0
  }
  batch_norm_param {
    use_global_stats: true
  }
}
layer {
  name: "Scale17"
  type: "Scale"
  bottom: "Convolution17"
  top: "Convolution17"
  scale_param {
    bias_term: true
  }
}
layer {
  name: "Eltwise21"
  type: "Eltwise"
  bottom: "Convolution16"
  bottom: "Convolution17"
  top: "Eltwise21"
  eltwise_param {
    operation: SUM
  }
}
layer {
  name: "Sigmoid15"
  type: "Sigmoid"
  bottom: "Eltwise21"
  top: "Sigmoid15"
}
layer {
  name: "Eltwise22"
  type: "Eltwise"
  bottom: "Eltwise21"
  bottom: "Sigmoid15"
  top: "Eltwise22"
  eltwise_param {
    operation: PROD
  }
}
layer {
  name: "Convolution18"
  type: "Convolution"
  bottom: "Eltwise22"
  top: "Convolution18"
  param {
    lr_mult: 1
    decay_mult: 1
  }
  param {
    lr_mult: 2
    decay_mult: 0
  }
  convolution_param {
    num_output: 64
    bias_term: true
    pad: 1
    kernel_size: 3
    stride: 1
    weight_filler {
      type: "msra"
    }
    bias_filler {
      type: "constant"
    }
  }
}
layer {
  name: "BatchNorm18"
  type: "BatchNorm"
  bottom: "Convolution18"
  top: "Convolution18"
  param {
    lr_mult: 0
    decay_mult: 0
  }
  param {
    lr_mult: 0
    decay_mult: 0
  }
  param {
    lr_mult: 0
    decay_mult: 0
  }
  batch_norm_param {
    use_global_stats: true
  }
}
layer {
  name: "Scale18"
  type: "Scale"
  bottom: "Convolution18"
  top: "Convolution18"
  scale_param {
    bias_term: true
  }
}
layer {
  name: "Sigmoid16"
  type: "Sigmoid"
  bottom: "Convolution18"
  top: "Sigmoid16"
}
layer {
  name: "Eltwise23"
  type: "Eltwise"
  bottom: "Convolution18"
  bottom: "Sigmoid16"
  top: "Eltwise23"
  eltwise_param {
    operation: PROD
  }
}
layer {
  name: "Convolution19"
  type: "Convolution"
  bottom: "Eltwise23"
  top: "Convolution19"
  param {
    lr_mult: 1
    decay_mult: 1
  }
  param {
    lr_mult: 2
    decay_mult: 0
  }
  convolution_param {
    num_output: 64
    bias_term: true
    pad: 1
    kernel_size: 3
    stride: 1
    weight_filler {
      type: "msra"
    }
    bias_filler {
      type: "constant"
    }
  }
}
layer {
  name: "BatchNorm19"
  type: "BatchNorm"
  bottom: "Convolution19"
  top: "Convolution19"
  param {
    lr_mult: 0
    decay_mult: 0
  }
  param {
    lr_mult: 0
    decay_mult: 0
  }
  param {
    lr_mult: 0
    decay_mult: 0
  }
  batch_norm_param {
    use_global_stats: true
  }
}
layer {
  name: "Scale19"
  type: "Scale"
  bottom: "Convolution19"
  top: "Convolution19"
  scale_param {
    bias_term: true
  }
}
layer {
  name: "Eltwise24"
  type: "Eltwise"
  bottom: "Convolution19"
  bottom: "Eltwise22"
  top: "Eltwise24"
  eltwise_param {
    operation: SUM
  }
}
layer {
  name: "Sigmoid17"
  type: "Sigmoid"
  bottom: "Eltwise24"
  top: "Sigmoid17"
}
layer {
  name: "Eltwise25"
  type: "Eltwise"
  bottom: "Eltwise24"
  bottom: "Sigmoid17"
  top: "Eltwise25"
  eltwise_param {
    operation: PROD
  }
}
layer {
  name: "Convolution20"
  type: "Convolution"
  bottom: "Eltwise25"
  top: "Convolution20"
  param {
    lr_mult: 1
    decay_mult: 1
  }
  param {
    lr_mult: 2
    decay_mult: 0
  }
  convolution_param {
    num_output: 64
    bias_term: true
    pad: 1
    kernel_size: 3
    stride: 1
    weight_filler {
      type: "msra"
    }
    bias_filler {
      type: "constant"
    }
  }
}
layer {
  name: "BatchNorm20"
  type: "BatchNorm"
  bottom: "Convolution20"
  top: "Convolution20"
  param {
    lr_mult: 0
    decay_mult: 0
  }
  param {
    lr_mult: 0
    decay_mult: 0
  }
  param {
    lr_mult: 0
    decay_mult: 0
  }
  batch_norm_param {
    use_global_stats: true
  }
}
layer {
  name: "Scale20"
  type: "Scale"
  bottom: "Convolution20"
  top: "Convolution20"
  scale_param {
    bias_term: true
  }
}
layer {
  name: "Sigmoid18"
  type: "Sigmoid"
  bottom: "Convolution20"
  top: "Sigmoid18"
}
layer {
  name: "Eltwise26"
  type: "Eltwise"
  bottom: "Convolution20"
  bottom: "Sigmoid18"
  top: "Eltwise26"
  eltwise_param {
    operation: PROD
  }
}
layer {
  name: "Convolution21"
  type: "Convolution"
  bottom: "Eltwise26"
  top: "Convolution21"
  param {
    lr_mult: 1
    decay_mult: 1
  }
  param {
    lr_mult: 2
    decay_mult: 0
  }
  convolution_param {
    num_output: 64
    bias_term: true
    pad: 1
    kernel_size: 3
    stride: 1
    weight_filler {
      type: "msra"
    }
    bias_filler {
      type: "constant"
    }
  }
}
layer {
  name: "BatchNorm21"
  type: "BatchNorm"
  bottom: "Convolution21"
  top: "Convolution21"
  param {
    lr_mult: 0
    decay_mult: 0
  }
  param {
    lr_mult: 0
    decay_mult: 0
  }
  param {
    lr_mult: 0
    decay_mult: 0
  }
  batch_norm_param {
    use_global_stats: true
  }
}
layer {
  name: "Scale21"
  type: "Scale"
  bottom: "Convolution21"
  top: "Convolution21"
  scale_param {
    bias_term: true
  }
}
layer {
  name: "Eltwise27"
  type: "Eltwise"
  bottom: "Convolution21"
  bottom: "Eltwise25"
  top: "Eltwise27"
  eltwise_param {
    operation: SUM
  }
}
layer {
  name: "Sigmoid19"
  type: "Sigmoid"
  bottom: "Eltwise27"
  top: "Sigmoid19"
}
layer {
  name: "Eltwise28"
  type: "Eltwise"
  bottom: "Eltwise27"
  bottom: "Sigmoid19"
  top: "Eltwise28"
  eltwise_param {
    operation: PROD
  }
}
layer {
  name: "Pooling1"
  type: "Pooling"
  bottom: "Eltwise28"
  top: "Pooling1"
  pooling_param {
    pool: AVE
    global_pooling: true
  }
}
layer {
  name: "InnerProduct1"
  type: "InnerProduct"
  bottom: "Pooling1"
  top: "InnerProduct1"
  inner_product_param {
    num_output: 10
    weight_filler {
      type: "msra"
    }
    bias_filler {
      type: "constant"
    }
  }
}
layer {
  name: "Accuracy1"
  type: "Accuracy"
  bottom: "InnerProduct1"
  bottom: "Data2"
  top: "Accuracy1"
}
I1025 10:04:53.823828 39807 layer_factory.hpp:77] Creating layer Data1
I1025 10:04:53.823973 39807 db_lmdb.cpp:35] Opened lmdb /data/hjy1312/data/RESNET/cifar-10/cifar10_test_lmdb
I1025 10:04:53.824017 39807 net.cpp:84] Creating Layer Data1
I1025 10:04:53.824026 39807 net.cpp:380] Data1 -> Data1
I1025 10:04:53.824056 39807 net.cpp:380] Data1 -> Data2
I1025 10:04:53.849335 39807 data_layer.cpp:45] output data size: 128,3,32,32
I1025 10:04:53.858541 39807 net.cpp:122] Setting up Data1
I1025 10:04:53.858573 39807 net.cpp:129] Top shape: 128 3 32 32 (393216)
I1025 10:04:53.858584 39807 net.cpp:129] Top shape: 128 (128)
I1025 10:04:53.858589 39807 net.cpp:137] Memory required for data: 1573376
I1025 10:04:53.858602 39807 layer_factory.hpp:77] Creating layer Convolution1
I1025 10:04:53.858633 39807 net.cpp:84] Creating Layer Convolution1
I1025 10:04:53.858641 39807 net.cpp:406] Convolution1 <- Data1
I1025 10:04:53.858659 39807 net.cpp:380] Convolution1 -> Convolution1
I1025 10:04:54.112721 39807 net.cpp:122] Setting up Convolution1
I1025 10:04:54.112771 39807 net.cpp:129] Top shape: 128 16 32 32 (2097152)
I1025 10:04:54.112777 39807 net.cpp:137] Memory required for data: 9961984
I1025 10:04:54.112795 39807 layer_factory.hpp:77] Creating layer BatchNorm1
I1025 10:04:54.112812 39807 net.cpp:84] Creating Layer BatchNorm1
I1025 10:04:54.112819 39807 net.cpp:406] BatchNorm1 <- Convolution1
I1025 10:04:54.112828 39807 net.cpp:367] BatchNorm1 -> Convolution1 (in-place)
I1025 10:04:54.113011 39807 net.cpp:122] Setting up BatchNorm1
I1025 10:04:54.113021 39807 net.cpp:129] Top shape: 128 16 32 32 (2097152)
I1025 10:04:54.113026 39807 net.cpp:137] Memory required for data: 18350592
I1025 10:04:54.113039 39807 layer_factory.hpp:77] Creating layer Scale1
I1025 10:04:54.113049 39807 net.cpp:84] Creating Layer Scale1
I1025 10:04:54.113054 39807 net.cpp:406] Scale1 <- Convolution1
I1025 10:04:54.113060 39807 net.cpp:367] Scale1 -> Convolution1 (in-place)
I1025 10:04:54.113101 39807 layer_factory.hpp:77] Creating layer Scale1
I1025 10:04:54.113204 39807 net.cpp:122] Setting up Scale1
I1025 10:04:54.113214 39807 net.cpp:129] Top shape: 128 16 32 32 (2097152)
I1025 10:04:54.113219 39807 net.cpp:137] Memory required for data: 26739200
I1025 10:04:54.113226 39807 layer_factory.hpp:77] Creating layer Convolution1_Scale1_0_split
I1025 10:04:54.113234 39807 net.cpp:84] Creating Layer Convolution1_Scale1_0_split
I1025 10:04:54.113240 39807 net.cpp:406] Convolution1_Scale1_0_split <- Convolution1
I1025 10:04:54.113246 39807 net.cpp:380] Convolution1_Scale1_0_split -> Convolution1_Scale1_0_split_0
I1025 10:04:54.113255 39807 net.cpp:380] Convolution1_Scale1_0_split -> Convolution1_Scale1_0_split_1
I1025 10:04:54.113289 39807 net.cpp:122] Setting up Convolution1_Scale1_0_split
I1025 10:04:54.113297 39807 net.cpp:129] Top shape: 128 16 32 32 (2097152)
I1025 10:04:54.113303 39807 net.cpp:129] Top shape: 128 16 32 32 (2097152)
I1025 10:04:54.113308 39807 net.cpp:137] Memory required for data: 43516416
I1025 10:04:54.113313 39807 layer_factory.hpp:77] Creating layer Sigmoid1
I1025 10:04:54.113320 39807 net.cpp:84] Creating Layer Sigmoid1
I1025 10:04:54.113325 39807 net.cpp:406] Sigmoid1 <- Convolution1_Scale1_0_split_0
I1025 10:04:54.113332 39807 net.cpp:380] Sigmoid1 -> Sigmoid1
I1025 10:04:54.115936 39807 net.cpp:122] Setting up Sigmoid1
I1025 10:04:54.115957 39807 net.cpp:129] Top shape: 128 16 32 32 (2097152)
I1025 10:04:54.115963 39807 net.cpp:137] Memory required for data: 51905024
I1025 10:04:54.115969 39807 layer_factory.hpp:77] Creating layer Eltwise1
I1025 10:04:54.115979 39807 net.cpp:84] Creating Layer Eltwise1
I1025 10:04:54.115985 39807 net.cpp:406] Eltwise1 <- Convolution1_Scale1_0_split_1
I1025 10:04:54.115993 39807 net.cpp:406] Eltwise1 <- Sigmoid1
I1025 10:04:54.115999 39807 net.cpp:380] Eltwise1 -> Eltwise1
I1025 10:04:54.116029 39807 net.cpp:122] Setting up Eltwise1
I1025 10:04:54.116037 39807 net.cpp:129] Top shape: 128 16 32 32 (2097152)
I1025 10:04:54.116042 39807 net.cpp:137] Memory required for data: 60293632
I1025 10:04:54.116047 39807 layer_factory.hpp:77] Creating layer Eltwise1_Eltwise1_0_split
I1025 10:04:54.116063 39807 net.cpp:84] Creating Layer Eltwise1_Eltwise1_0_split
I1025 10:04:54.116081 39807 net.cpp:406] Eltwise1_Eltwise1_0_split <- Eltwise1
I1025 10:04:54.116088 39807 net.cpp:380] Eltwise1_Eltwise1_0_split -> Eltwise1_Eltwise1_0_split_0
I1025 10:04:54.116096 39807 net.cpp:380] Eltwise1_Eltwise1_0_split -> Eltwise1_Eltwise1_0_split_1
I1025 10:04:54.116132 39807 net.cpp:122] Setting up Eltwise1_Eltwise1_0_split
I1025 10:04:54.116139 39807 net.cpp:129] Top shape: 128 16 32 32 (2097152)
I1025 10:04:54.116145 39807 net.cpp:129] Top shape: 128 16 32 32 (2097152)
I1025 10:04:54.116149 39807 net.cpp:137] Memory required for data: 77070848
I1025 10:04:54.116154 39807 layer_factory.hpp:77] Creating layer Convolution2
I1025 10:04:54.116171 39807 net.cpp:84] Creating Layer Convolution2
I1025 10:04:54.116178 39807 net.cpp:406] Convolution2 <- Eltwise1_Eltwise1_0_split_0
I1025 10:04:54.116185 39807 net.cpp:380] Convolution2 -> Convolution2
I1025 10:04:54.118976 39807 net.cpp:122] Setting up Convolution2
I1025 10:04:54.119004 39807 net.cpp:129] Top shape: 128 16 32 32 (2097152)
I1025 10:04:54.119014 39807 net.cpp:137] Memory required for data: 85459456
I1025 10:04:54.119030 39807 layer_factory.hpp:77] Creating layer BatchNorm2
I1025 10:04:54.119043 39807 net.cpp:84] Creating Layer BatchNorm2
I1025 10:04:54.119052 39807 net.cpp:406] BatchNorm2 <- Convolution2
I1025 10:04:54.119066 39807 net.cpp:367] BatchNorm2 -> Convolution2 (in-place)
I1025 10:04:54.119345 39807 net.cpp:122] Setting up BatchNorm2
I1025 10:04:54.119360 39807 net.cpp:129] Top shape: 128 16 32 32 (2097152)
I1025 10:04:54.119369 39807 net.cpp:137] Memory required for data: 93848064
I1025 10:04:54.119382 39807 layer_factory.hpp:77] Creating layer Scale2
I1025 10:04:54.119393 39807 net.cpp:84] Creating Layer Scale2
I1025 10:04:54.119401 39807 net.cpp:406] Scale2 <- Convolution2
I1025 10:04:54.119413 39807 net.cpp:367] Scale2 -> Convolution2 (in-place)
I1025 10:04:54.119463 39807 layer_factory.hpp:77] Creating layer Scale2
I1025 10:04:54.119630 39807 net.cpp:122] Setting up Scale2
I1025 10:04:54.119650 39807 net.cpp:129] Top shape: 128 16 32 32 (2097152)
I1025 10:04:54.119662 39807 net.cpp:137] Memory required for data: 102236672
I1025 10:04:54.119675 39807 layer_factory.hpp:77] Creating layer Convolution2_Scale2_0_split
I1025 10:04:54.119688 39807 net.cpp:84] Creating Layer Convolution2_Scale2_0_split
I1025 10:04:54.119699 39807 net.cpp:406] Convolution2_Scale2_0_split <- Convolution2
I1025 10:04:54.119712 39807 net.cpp:380] Convolution2_Scale2_0_split -> Convolution2_Scale2_0_split_0
I1025 10:04:54.119729 39807 net.cpp:380] Convolution2_Scale2_0_split -> Convolution2_Scale2_0_split_1
I1025 10:04:54.119793 39807 net.cpp:122] Setting up Convolution2_Scale2_0_split
I1025 10:04:54.119813 39807 net.cpp:129] Top shape: 128 16 32 32 (2097152)
I1025 10:04:54.119824 39807 net.cpp:129] Top shape: 128 16 32 32 (2097152)
I1025 10:04:54.119832 39807 net.cpp:137] Memory required for data: 119013888
I1025 10:04:54.119840 39807 layer_factory.hpp:77] Creating layer Sigmoid2
I1025 10:04:54.119851 39807 net.cpp:84] Creating Layer Sigmoid2
I1025 10:04:54.119859 39807 net.cpp:406] Sigmoid2 <- Convolution2_Scale2_0_split_0
I1025 10:04:54.119869 39807 net.cpp:380] Sigmoid2 -> Sigmoid2
I1025 10:04:54.120945 39807 net.cpp:122] Setting up Sigmoid2
I1025 10:04:54.120970 39807 net.cpp:129] Top shape: 128 16 32 32 (2097152)
I1025 10:04:54.120977 39807 net.cpp:137] Memory required for data: 127402496
I1025 10:04:54.120985 39807 layer_factory.hpp:77] Creating layer Eltwise2
I1025 10:04:54.120997 39807 net.cpp:84] Creating Layer Eltwise2
I1025 10:04:54.121006 39807 net.cpp:406] Eltwise2 <- Convolution2_Scale2_0_split_1
I1025 10:04:54.121016 39807 net.cpp:406] Eltwise2 <- Sigmoid2
I1025 10:04:54.121026 39807 net.cpp:380] Eltwise2 -> Eltwise2
I1025 10:04:54.121065 39807 net.cpp:122] Setting up Eltwise2
I1025 10:04:54.121078 39807 net.cpp:129] Top shape: 128 16 32 32 (2097152)
I1025 10:04:54.121085 39807 net.cpp:137] Memory required for data: 135791104
I1025 10:04:54.121099 39807 layer_factory.hpp:77] Creating layer Convolution3
I1025 10:04:54.121131 39807 net.cpp:84] Creating Layer Convolution3
I1025 10:04:54.121140 39807 net.cpp:406] Convolution3 <- Eltwise2
I1025 10:04:54.121153 39807 net.cpp:380] Convolution3 -> Convolution3
I1025 10:04:54.123957 39807 net.cpp:122] Setting up Convolution3
I1025 10:04:54.123981 39807 net.cpp:129] Top shape: 128 16 32 32 (2097152)
I1025 10:04:54.123989 39807 net.cpp:137] Memory required for data: 144179712
I1025 10:04:54.124002 39807 layer_factory.hpp:77] Creating layer BatchNorm3
I1025 10:04:54.124017 39807 net.cpp:84] Creating Layer BatchNorm3
I1025 10:04:54.124025 39807 net.cpp:406] BatchNorm3 <- Convolution3
I1025 10:04:54.124037 39807 net.cpp:367] BatchNorm3 -> Convolution3 (in-place)
I1025 10:04:54.124315 39807 net.cpp:122] Setting up BatchNorm3
I1025 10:04:54.124328 39807 net.cpp:129] Top shape: 128 16 32 32 (2097152)
I1025 10:04:54.124336 39807 net.cpp:137] Memory required for data: 152568320
I1025 10:04:54.124354 39807 layer_factory.hpp:77] Creating layer Scale3
I1025 10:04:54.124367 39807 net.cpp:84] Creating Layer Scale3
I1025 10:04:54.124375 39807 net.cpp:406] Scale3 <- Convolution3
I1025 10:04:54.124387 39807 net.cpp:367] Scale3 -> Convolution3 (in-place)
I1025 10:04:54.124444 39807 layer_factory.hpp:77] Creating layer Scale3
I1025 10:04:54.124608 39807 net.cpp:122] Setting up Scale3
I1025 10:04:54.124622 39807 net.cpp:129] Top shape: 128 16 32 32 (2097152)
I1025 10:04:54.124630 39807 net.cpp:137] Memory required for data: 160956928
I1025 10:04:54.124642 39807 layer_factory.hpp:77] Creating layer Eltwise3
I1025 10:04:54.124653 39807 net.cpp:84] Creating Layer Eltwise3
I1025 10:04:54.124661 39807 net.cpp:406] Eltwise3 <- Convolution3
I1025 10:04:54.124672 39807 net.cpp:406] Eltwise3 <- Eltwise1_Eltwise1_0_split_1
I1025 10:04:54.124682 39807 net.cpp:380] Eltwise3 -> Eltwise3
I1025 10:04:54.124716 39807 net.cpp:122] Setting up Eltwise3
I1025 10:04:54.124728 39807 net.cpp:129] Top shape: 128 16 32 32 (2097152)
I1025 10:04:54.124737 39807 net.cpp:137] Memory required for data: 169345536
I1025 10:04:54.124743 39807 layer_factory.hpp:77] Creating layer Eltwise3_Eltwise3_0_split
I1025 10:04:54.124755 39807 net.cpp:84] Creating Layer Eltwise3_Eltwise3_0_split
I1025 10:04:54.124763 39807 net.cpp:406] Eltwise3_Eltwise3_0_split <- Eltwise3
I1025 10:04:54.124773 39807 net.cpp:380] Eltwise3_Eltwise3_0_split -> Eltwise3_Eltwise3_0_split_0
I1025 10:04:54.124788 39807 net.cpp:380] Eltwise3_Eltwise3_0_split -> Eltwise3_Eltwise3_0_split_1
I1025 10:04:54.124840 39807 net.cpp:122] Setting up Eltwise3_Eltwise3_0_split
I1025 10:04:54.124852 39807 net.cpp:129] Top shape: 128 16 32 32 (2097152)
I1025 10:04:54.124862 39807 net.cpp:129] Top shape: 128 16 32 32 (2097152)
I1025 10:04:54.124869 39807 net.cpp:137] Memory required for data: 186122752
I1025 10:04:54.124877 39807 layer_factory.hpp:77] Creating layer Sigmoid3
I1025 10:04:54.124886 39807 net.cpp:84] Creating Layer Sigmoid3
I1025 10:04:54.124894 39807 net.cpp:406] Sigmoid3 <- Eltwise3_Eltwise3_0_split_0
I1025 10:04:54.124904 39807 net.cpp:380] Sigmoid3 -> Sigmoid3
I1025 10:04:54.125185 39807 net.cpp:122] Setting up Sigmoid3
I1025 10:04:54.125203 39807 net.cpp:129] Top shape: 128 16 32 32 (2097152)
I1025 10:04:54.125211 39807 net.cpp:137] Memory required for data: 194511360
I1025 10:04:54.125218 39807 layer_factory.hpp:77] Creating layer Eltwise4
I1025 10:04:54.125232 39807 net.cpp:84] Creating Layer Eltwise4
I1025 10:04:54.125241 39807 net.cpp:406] Eltwise4 <- Eltwise3_Eltwise3_0_split_1
I1025 10:04:54.125250 39807 net.cpp:406] Eltwise4 <- Sigmoid3
I1025 10:04:54.125260 39807 net.cpp:380] Eltwise4 -> Eltwise4
I1025 10:04:54.125299 39807 net.cpp:122] Setting up Eltwise4
I1025 10:04:54.125318 39807 net.cpp:129] Top shape: 128 16 32 32 (2097152)
I1025 10:04:54.125327 39807 net.cpp:137] Memory required for data: 202899968
I1025 10:04:54.125336 39807 layer_factory.hpp:77] Creating layer Eltwise4_Eltwise4_0_split
I1025 10:04:54.125349 39807 net.cpp:84] Creating Layer Eltwise4_Eltwise4_0_split
I1025 10:04:54.125358 39807 net.cpp:406] Eltwise4_Eltwise4_0_split <- Eltwise4
I1025 10:04:54.125388 39807 net.cpp:380] Eltwise4_Eltwise4_0_split -> Eltwise4_Eltwise4_0_split_0
I1025 10:04:54.125406 39807 net.cpp:380] Eltwise4_Eltwise4_0_split -> Eltwise4_Eltwise4_0_split_1
I1025 10:04:54.125468 39807 net.cpp:122] Setting up Eltwise4_Eltwise4_0_split
I1025 10:04:54.125484 39807 net.cpp:129] Top shape: 128 16 32 32 (2097152)
I1025 10:04:54.125495 39807 net.cpp:129] Top shape: 128 16 32 32 (2097152)
I1025 10:04:54.125505 39807 net.cpp:137] Memory required for data: 219677184
I1025 10:04:54.125514 39807 layer_factory.hpp:77] Creating layer Convolution4
I1025 10:04:54.125535 39807 net.cpp:84] Creating Layer Convolution4
I1025 10:04:54.125546 39807 net.cpp:406] Convolution4 <- Eltwise4_Eltwise4_0_split_0
I1025 10:04:54.125561 39807 net.cpp:380] Convolution4 -> Convolution4
I1025 10:04:54.128607 39807 net.cpp:122] Setting up Convolution4
I1025 10:04:54.128648 39807 net.cpp:129] Top shape: 128 16 32 32 (2097152)
I1025 10:04:54.128655 39807 net.cpp:137] Memory required for data: 228065792
I1025 10:04:54.128666 39807 layer_factory.hpp:77] Creating layer BatchNorm4
I1025 10:04:54.128682 39807 net.cpp:84] Creating Layer BatchNorm4
I1025 10:04:54.128690 39807 net.cpp:406] BatchNorm4 <- Convolution4
I1025 10:04:54.128700 39807 net.cpp:367] BatchNorm4 -> Convolution4 (in-place)
I1025 10:04:54.128895 39807 net.cpp:122] Setting up BatchNorm4
I1025 10:04:54.128904 39807 net.cpp:129] Top shape: 128 16 32 32 (2097152)
I1025 10:04:54.128909 39807 net.cpp:137] Memory required for data: 236454400
I1025 10:04:54.128918 39807 layer_factory.hpp:77] Creating layer Scale4
I1025 10:04:54.128929 39807 net.cpp:84] Creating Layer Scale4
I1025 10:04:54.128935 39807 net.cpp:406] Scale4 <- Convolution4
I1025 10:04:54.128942 39807 net.cpp:367] Scale4 -> Convolution4 (in-place)
I1025 10:04:54.128980 39807 layer_factory.hpp:77] Creating layer Scale4
I1025 10:04:54.129096 39807 net.cpp:122] Setting up Scale4
I1025 10:04:54.129104 39807 net.cpp:129] Top shape: 128 16 32 32 (2097152)
I1025 10:04:54.129109 39807 net.cpp:137] Memory required for data: 244843008
I1025 10:04:54.129117 39807 layer_factory.hpp:77] Creating layer Convolution4_Scale4_0_split
I1025 10:04:54.129125 39807 net.cpp:84] Creating Layer Convolution4_Scale4_0_split
I1025 10:04:54.129130 39807 net.cpp:406] Convolution4_Scale4_0_split <- Convolution4
I1025 10:04:54.129137 39807 net.cpp:380] Convolution4_Scale4_0_split -> Convolution4_Scale4_0_split_0
I1025 10:04:54.129148 39807 net.cpp:380] Convolution4_Scale4_0_split -> Convolution4_Scale4_0_split_1
I1025 10:04:54.129184 39807 net.cpp:122] Setting up Convolution4_Scale4_0_split
I1025 10:04:54.129191 39807 net.cpp:129] Top shape: 128 16 32 32 (2097152)
I1025 10:04:54.129197 39807 net.cpp:129] Top shape: 128 16 32 32 (2097152)
I1025 10:04:54.129202 39807 net.cpp:137] Memory required for data: 261620224
I1025 10:04:54.129207 39807 layer_factory.hpp:77] Creating layer Sigmoid4
I1025 10:04:54.129218 39807 net.cpp:84] Creating Layer Sigmoid4
I1025 10:04:54.129225 39807 net.cpp:406] Sigmoid4 <- Convolution4_Scale4_0_split_0
I1025 10:04:54.129231 39807 net.cpp:380] Sigmoid4 -> Sigmoid4
I1025 10:04:54.130146 39807 net.cpp:122] Setting up Sigmoid4
I1025 10:04:54.130162 39807 net.cpp:129] Top shape: 128 16 32 32 (2097152)
I1025 10:04:54.130168 39807 net.cpp:137] Memory required for data: 270008832
I1025 10:04:54.130173 39807 layer_factory.hpp:77] Creating layer Eltwise5
I1025 10:04:54.130183 39807 net.cpp:84] Creating Layer Eltwise5
I1025 10:04:54.130188 39807 net.cpp:406] Eltwise5 <- Convolution4_Scale4_0_split_1
I1025 10:04:54.130198 39807 net.cpp:406] Eltwise5 <- Sigmoid4
I1025 10:04:54.130205 39807 net.cpp:380] Eltwise5 -> Eltwise5
I1025 10:04:54.130236 39807 net.cpp:122] Setting up Eltwise5
I1025 10:04:54.130244 39807 net.cpp:129] Top shape: 128 16 32 32 (2097152)
I1025 10:04:54.130249 39807 net.cpp:137] Memory required for data: 278397440
I1025 10:04:54.130254 39807 layer_factory.hpp:77] Creating layer Convolution5
I1025 10:04:54.130267 39807 net.cpp:84] Creating Layer Convolution5
I1025 10:04:54.130280 39807 net.cpp:406] Convolution5 <- Eltwise5
I1025 10:04:54.130302 39807 net.cpp:380] Convolution5 -> Convolution5
I1025 10:04:54.131873 39807 net.cpp:122] Setting up Convolution5
I1025 10:04:54.131891 39807 net.cpp:129] Top shape: 128 16 32 32 (2097152)
I1025 10:04:54.131897 39807 net.cpp:137] Memory required for data: 286786048
I1025 10:04:54.131906 39807 layer_factory.hpp:77] Creating layer BatchNorm5
I1025 10:04:54.131916 39807 net.cpp:84] Creating Layer BatchNorm5
I1025 10:04:54.131922 39807 net.cpp:406] BatchNorm5 <- Convolution5
I1025 10:04:54.131929 39807 net.cpp:367] BatchNorm5 -> Convolution5 (in-place)
I1025 10:04:54.132119 39807 net.cpp:122] Setting up BatchNorm5
I1025 10:04:54.132128 39807 net.cpp:129] Top shape: 128 16 32 32 (2097152)
I1025 10:04:54.132133 39807 net.cpp:137] Memory required for data: 295174656
I1025 10:04:54.132148 39807 layer_factory.hpp:77] Creating layer Scale5
I1025 10:04:54.132156 39807 net.cpp:84] Creating Layer Scale5
I1025 10:04:54.132161 39807 net.cpp:406] Scale5 <- Convolution5
I1025 10:04:54.132169 39807 net.cpp:367] Scale5 -> Convolution5 (in-place)
I1025 10:04:54.132206 39807 layer_factory.hpp:77] Creating layer Scale5
I1025 10:04:54.132323 39807 net.cpp:122] Setting up Scale5
I1025 10:04:54.132333 39807 net.cpp:129] Top shape: 128 16 32 32 (2097152)
I1025 10:04:54.132338 39807 net.cpp:137] Memory required for data: 303563264
I1025 10:04:54.132344 39807 layer_factory.hpp:77] Creating layer Eltwise6
I1025 10:04:54.132354 39807 net.cpp:84] Creating Layer Eltwise6
I1025 10:04:54.132359 39807 net.cpp:406] Eltwise6 <- Convolution5
I1025 10:04:54.132365 39807 net.cpp:406] Eltwise6 <- Eltwise4_Eltwise4_0_split_1
I1025 10:04:54.132371 39807 net.cpp:380] Eltwise6 -> Eltwise6
I1025 10:04:54.132397 39807 net.cpp:122] Setting up Eltwise6
I1025 10:04:54.132405 39807 net.cpp:129] Top shape: 128 16 32 32 (2097152)
I1025 10:04:54.132410 39807 net.cpp:137] Memory required for data: 311951872
I1025 10:04:54.132414 39807 layer_factory.hpp:77] Creating layer Eltwise6_Eltwise6_0_split
I1025 10:04:54.132426 39807 net.cpp:84] Creating Layer Eltwise6_Eltwise6_0_split
I1025 10:04:54.132431 39807 net.cpp:406] Eltwise6_Eltwise6_0_split <- Eltwise6
I1025 10:04:54.132438 39807 net.cpp:380] Eltwise6_Eltwise6_0_split -> Eltwise6_Eltwise6_0_split_0
I1025 10:04:54.132447 39807 net.cpp:380] Eltwise6_Eltwise6_0_split -> Eltwise6_Eltwise6_0_split_1
I1025 10:04:54.132480 39807 net.cpp:122] Setting up Eltwise6_Eltwise6_0_split
I1025 10:04:54.132488 39807 net.cpp:129] Top shape: 128 16 32 32 (2097152)
I1025 10:04:54.132494 39807 net.cpp:129] Top shape: 128 16 32 32 (2097152)
I1025 10:04:54.132498 39807 net.cpp:137] Memory required for data: 328729088
I1025 10:04:54.132503 39807 layer_factory.hpp:77] Creating layer Sigmoid5
I1025 10:04:54.132510 39807 net.cpp:84] Creating Layer Sigmoid5
I1025 10:04:54.132515 39807 net.cpp:406] Sigmoid5 <- Eltwise6_Eltwise6_0_split_0
I1025 10:04:54.132521 39807 net.cpp:380] Sigmoid5 -> Sigmoid5
I1025 10:04:54.133443 39807 net.cpp:122] Setting up Sigmoid5
I1025 10:04:54.133460 39807 net.cpp:129] Top shape: 128 16 32 32 (2097152)
I1025 10:04:54.133466 39807 net.cpp:137] Memory required for data: 337117696
I1025 10:04:54.133471 39807 layer_factory.hpp:77] Creating layer Eltwise7
I1025 10:04:54.133481 39807 net.cpp:84] Creating Layer Eltwise7
I1025 10:04:54.133486 39807 net.cpp:406] Eltwise7 <- Eltwise6_Eltwise6_0_split_1
I1025 10:04:54.133492 39807 net.cpp:406] Eltwise7 <- Sigmoid5
I1025 10:04:54.133499 39807 net.cpp:380] Eltwise7 -> Eltwise7
I1025 10:04:54.133535 39807 net.cpp:122] Setting up Eltwise7
I1025 10:04:54.133543 39807 net.cpp:129] Top shape: 128 16 32 32 (2097152)
I1025 10:04:54.133548 39807 net.cpp:137] Memory required for data: 345506304
I1025 10:04:54.133553 39807 layer_factory.hpp:77] Creating layer Eltwise7_Eltwise7_0_split
I1025 10:04:54.133560 39807 net.cpp:84] Creating Layer Eltwise7_Eltwise7_0_split
I1025 10:04:54.133565 39807 net.cpp:406] Eltwise7_Eltwise7_0_split <- Eltwise7
I1025 10:04:54.133572 39807 net.cpp:380] Eltwise7_Eltwise7_0_split -> Eltwise7_Eltwise7_0_split_0
I1025 10:04:54.133587 39807 net.cpp:380] Eltwise7_Eltwise7_0_split -> Eltwise7_Eltwise7_0_split_1
I1025 10:04:54.133632 39807 net.cpp:122] Setting up Eltwise7_Eltwise7_0_split
I1025 10:04:54.133641 39807 net.cpp:129] Top shape: 128 16 32 32 (2097152)
I1025 10:04:54.133646 39807 net.cpp:129] Top shape: 128 16 32 32 (2097152)
I1025 10:04:54.133651 39807 net.cpp:137] Memory required for data: 362283520
I1025 10:04:54.133656 39807 layer_factory.hpp:77] Creating layer Convolution6
I1025 10:04:54.133671 39807 net.cpp:84] Creating Layer Convolution6
I1025 10:04:54.133677 39807 net.cpp:406] Convolution6 <- Eltwise7_Eltwise7_0_split_0
I1025 10:04:54.133683 39807 net.cpp:380] Convolution6 -> Convolution6
I1025 10:04:54.136358 39807 net.cpp:122] Setting up Convolution6
I1025 10:04:54.136378 39807 net.cpp:129] Top shape: 128 16 32 32 (2097152)
I1025 10:04:54.136384 39807 net.cpp:137] Memory required for data: 370672128
I1025 10:04:54.136392 39807 layer_factory.hpp:77] Creating layer BatchNorm6
I1025 10:04:54.136404 39807 net.cpp:84] Creating Layer BatchNorm6
I1025 10:04:54.136409 39807 net.cpp:406] BatchNorm6 <- Convolution6
I1025 10:04:54.136420 39807 net.cpp:367] BatchNorm6 -> Convolution6 (in-place)
I1025 10:04:54.136616 39807 net.cpp:122] Setting up BatchNorm6
I1025 10:04:54.136626 39807 net.cpp:129] Top shape: 128 16 32 32 (2097152)
I1025 10:04:54.136631 39807 net.cpp:137] Memory required for data: 379060736
I1025 10:04:54.136641 39807 layer_factory.hpp:77] Creating layer Scale6
I1025 10:04:54.136648 39807 net.cpp:84] Creating Layer Scale6
I1025 10:04:54.136653 39807 net.cpp:406] Scale6 <- Convolution6
I1025 10:04:54.136662 39807 net.cpp:367] Scale6 -> Convolution6 (in-place)
I1025 10:04:54.136698 39807 layer_factory.hpp:77] Creating layer Scale6
I1025 10:04:54.136811 39807 net.cpp:122] Setting up Scale6
I1025 10:04:54.136819 39807 net.cpp:129] Top shape: 128 16 32 32 (2097152)
I1025 10:04:54.136823 39807 net.cpp:137] Memory required for data: 387449344
I1025 10:04:54.136831 39807 layer_factory.hpp:77] Creating layer Convolution6_Scale6_0_split
I1025 10:04:54.136840 39807 net.cpp:84] Creating Layer Convolution6_Scale6_0_split
I1025 10:04:54.136847 39807 net.cpp:406] Convolution6_Scale6_0_split <- Convolution6
I1025 10:04:54.136852 39807 net.cpp:380] Convolution6_Scale6_0_split -> Convolution6_Scale6_0_split_0
I1025 10:04:54.136860 39807 net.cpp:380] Convolution6_Scale6_0_split -> Convolution6_Scale6_0_split_1
I1025 10:04:54.136903 39807 net.cpp:122] Setting up Convolution6_Scale6_0_split
I1025 10:04:54.136910 39807 net.cpp:129] Top shape: 128 16 32 32 (2097152)
I1025 10:04:54.136916 39807 net.cpp:129] Top shape: 128 16 32 32 (2097152)
I1025 10:04:54.136920 39807 net.cpp:137] Memory required for data: 404226560
I1025 10:04:54.136925 39807 layer_factory.hpp:77] Creating layer Sigmoid6
I1025 10:04:54.136932 39807 net.cpp:84] Creating Layer Sigmoid6
I1025 10:04:54.136937 39807 net.cpp:406] Sigmoid6 <- Convolution6_Scale6_0_split_0
I1025 10:04:54.136946 39807 net.cpp:380] Sigmoid6 -> Sigmoid6
I1025 10:04:54.137151 39807 net.cpp:122] Setting up Sigmoid6
I1025 10:04:54.137167 39807 net.cpp:129] Top shape: 128 16 32 32 (2097152)
I1025 10:04:54.137176 39807 net.cpp:137] Memory required for data: 412615168
I1025 10:04:54.137184 39807 layer_factory.hpp:77] Creating layer Eltwise8
I1025 10:04:54.137197 39807 net.cpp:84] Creating Layer Eltwise8
I1025 10:04:54.137207 39807 net.cpp:406] Eltwise8 <- Convolution6_Scale6_0_split_1
I1025 10:04:54.137223 39807 net.cpp:406] Eltwise8 <- Sigmoid6
I1025 10:04:54.137234 39807 net.cpp:380] Eltwise8 -> Eltwise8
I1025 10:04:54.137279 39807 net.cpp:122] Setting up Eltwise8
I1025 10:04:54.137296 39807 net.cpp:129] Top shape: 128 16 32 32 (2097152)
I1025 10:04:54.137305 39807 net.cpp:137] Memory required for data: 421003776
I1025 10:04:54.137315 39807 layer_factory.hpp:77] Creating layer Convolution7
I1025 10:04:54.137338 39807 net.cpp:84] Creating Layer Convolution7
I1025 10:04:54.137351 39807 net.cpp:406] Convolution7 <- Eltwise8
I1025 10:04:54.137364 39807 net.cpp:380] Convolution7 -> Convolution7
I1025 10:04:54.140385 39807 net.cpp:122] Setting up Convolution7
I1025 10:04:54.140424 39807 net.cpp:129] Top shape: 128 16 32 32 (2097152)
I1025 10:04:54.140434 39807 net.cpp:137] Memory required for data: 429392384
I1025 10:04:54.140447 39807 layer_factory.hpp:77] Creating layer BatchNorm7
I1025 10:04:54.140465 39807 net.cpp:84] Creating Layer BatchNorm7
I1025 10:04:54.140473 39807 net.cpp:406] BatchNorm7 <- Convolution7
I1025 10:04:54.140486 39807 net.cpp:367] BatchNorm7 -> Convolution7 (in-place)
I1025 10:04:54.140794 39807 net.cpp:122] Setting up BatchNorm7
I1025 10:04:54.140815 39807 net.cpp:129] Top shape: 128 16 32 32 (2097152)
I1025 10:04:54.140825 39807 net.cpp:137] Memory required for data: 437780992
I1025 10:04:54.140839 39807 layer_factory.hpp:77] Creating layer Scale7
I1025 10:04:54.140854 39807 net.cpp:84] Creating Layer Scale7
I1025 10:04:54.140864 39807 net.cpp:406] Scale7 <- Convolution7
I1025 10:04:54.140874 39807 net.cpp:367] Scale7 -> Convolution7 (in-place)
I1025 10:04:54.140939 39807 layer_factory.hpp:77] Creating layer Scale7
I1025 10:04:54.141113 39807 net.cpp:122] Setting up Scale7
I1025 10:04:54.141126 39807 net.cpp:129] Top shape: 128 16 32 32 (2097152)
I1025 10:04:54.141134 39807 net.cpp:137] Memory required for data: 446169600
I1025 10:04:54.141146 39807 layer_factory.hpp:77] Creating layer Eltwise9
I1025 10:04:54.141158 39807 net.cpp:84] Creating Layer Eltwise9
I1025 10:04:54.141166 39807 net.cpp:406] Eltwise9 <- Convolution7
I1025 10:04:54.141177 39807 net.cpp:406] Eltwise9 <- Eltwise7_Eltwise7_0_split_1
I1025 10:04:54.141191 39807 net.cpp:380] Eltwise9 -> Eltwise9
I1025 10:04:54.141227 39807 net.cpp:122] Setting up Eltwise9
I1025 10:04:54.141242 39807 net.cpp:129] Top shape: 128 16 32 32 (2097152)
I1025 10:04:54.141250 39807 net.cpp:137] Memory required for data: 454558208
I1025 10:04:54.141258 39807 layer_factory.hpp:77] Creating layer Eltwise9_Eltwise9_0_split
I1025 10:04:54.141268 39807 net.cpp:84] Creating Layer Eltwise9_Eltwise9_0_split
I1025 10:04:54.141276 39807 net.cpp:406] Eltwise9_Eltwise9_0_split <- Eltwise9
I1025 10:04:54.141285 39807 net.cpp:380] Eltwise9_Eltwise9_0_split -> Eltwise9_Eltwise9_0_split_0
I1025 10:04:54.141297 39807 net.cpp:380] Eltwise9_Eltwise9_0_split -> Eltwise9_Eltwise9_0_split_1
I1025 10:04:54.141351 39807 net.cpp:122] Setting up Eltwise9_Eltwise9_0_split
I1025 10:04:54.141364 39807 net.cpp:129] Top shape: 128 16 32 32 (2097152)
I1025 10:04:54.141373 39807 net.cpp:129] Top shape: 128 16 32 32 (2097152)
I1025 10:04:54.141381 39807 net.cpp:137] Memory required for data: 471335424
I1025 10:04:54.141389 39807 layer_factory.hpp:77] Creating layer Sigmoid7
I1025 10:04:54.141399 39807 net.cpp:84] Creating Layer Sigmoid7
I1025 10:04:54.141407 39807 net.cpp:406] Sigmoid7 <- Eltwise9_Eltwise9_0_split_0
I1025 10:04:54.141419 39807 net.cpp:380] Sigmoid7 -> Sigmoid7
I1025 10:04:54.142518 39807 net.cpp:122] Setting up Sigmoid7
I1025 10:04:54.142542 39807 net.cpp:129] Top shape: 128 16 32 32 (2097152)
I1025 10:04:54.142551 39807 net.cpp:137] Memory required for data: 479724032
I1025 10:04:54.142560 39807 layer_factory.hpp:77] Creating layer Eltwise10
I1025 10:04:54.142571 39807 net.cpp:84] Creating Layer Eltwise10
I1025 10:04:54.142581 39807 net.cpp:406] Eltwise10 <- Eltwise9_Eltwise9_0_split_1
I1025 10:04:54.142591 39807 net.cpp:406] Eltwise10 <- Sigmoid7
I1025 10:04:54.142606 39807 net.cpp:380] Eltwise10 -> Eltwise10
I1025 10:04:54.142647 39807 net.cpp:122] Setting up Eltwise10
I1025 10:04:54.142660 39807 net.cpp:129] Top shape: 128 16 32 32 (2097152)
I1025 10:04:54.142668 39807 net.cpp:137] Memory required for data: 488112640
I1025 10:04:54.142676 39807 layer_factory.hpp:77] Creating layer Eltwise10_Eltwise10_0_split
I1025 10:04:54.142688 39807 net.cpp:84] Creating Layer Eltwise10_Eltwise10_0_split
I1025 10:04:54.142695 39807 net.cpp:406] Eltwise10_Eltwise10_0_split <- Eltwise10
I1025 10:04:54.142705 39807 net.cpp:380] Eltwise10_Eltwise10_0_split -> Eltwise10_Eltwise10_0_split_0
I1025 10:04:54.142717 39807 net.cpp:380] Eltwise10_Eltwise10_0_split -> Eltwise10_Eltwise10_0_split_1
I1025 10:04:54.142781 39807 net.cpp:122] Setting up Eltwise10_Eltwise10_0_split
I1025 10:04:54.142804 39807 net.cpp:129] Top shape: 128 16 32 32 (2097152)
I1025 10:04:54.142814 39807 net.cpp:129] Top shape: 128 16 32 32 (2097152)
I1025 10:04:54.142822 39807 net.cpp:137] Memory required for data: 504889856
I1025 10:04:54.142829 39807 layer_factory.hpp:77] Creating layer Convolution8
I1025 10:04:54.142850 39807 net.cpp:84] Creating Layer Convolution8
I1025 10:04:54.142859 39807 net.cpp:406] Convolution8 <- Eltwise10_Eltwise10_0_split_0
I1025 10:04:54.142871 39807 net.cpp:380] Convolution8 -> Convolution8
I1025 10:04:54.147181 39807 net.cpp:122] Setting up Convolution8
I1025 10:04:54.147205 39807 net.cpp:129] Top shape: 128 32 16 16 (1048576)
I1025 10:04:54.147213 39807 net.cpp:137] Memory required for data: 509084160
I1025 10:04:54.147227 39807 layer_factory.hpp:77] Creating layer BatchNorm8
I1025 10:04:54.147240 39807 net.cpp:84] Creating Layer BatchNorm8
I1025 10:04:54.147249 39807 net.cpp:406] BatchNorm8 <- Convolution8
I1025 10:04:54.147264 39807 net.cpp:367] BatchNorm8 -> Convolution8 (in-place)
I1025 10:04:54.147552 39807 net.cpp:122] Setting up BatchNorm8
I1025 10:04:54.147567 39807 net.cpp:129] Top shape: 128 32 16 16 (1048576)
I1025 10:04:54.147574 39807 net.cpp:137] Memory required for data: 513278464
I1025 10:04:54.147588 39807 layer_factory.hpp:77] Creating layer Scale8
I1025 10:04:54.147599 39807 net.cpp:84] Creating Layer Scale8
I1025 10:04:54.147608 39807 net.cpp:406] Scale8 <- Convolution8
I1025 10:04:54.147619 39807 net.cpp:367] Scale8 -> Convolution8 (in-place)
I1025 10:04:54.147671 39807 layer_factory.hpp:77] Creating layer Scale8
I1025 10:04:54.147840 39807 net.cpp:122] Setting up Scale8
I1025 10:04:54.147855 39807 net.cpp:129] Top shape: 128 32 16 16 (1048576)
I1025 10:04:54.147862 39807 net.cpp:137] Memory required for data: 517472768
I1025 10:04:54.147873 39807 layer_factory.hpp:77] Creating layer Convolution8_Scale8_0_split
I1025 10:04:54.147884 39807 net.cpp:84] Creating Layer Convolution8_Scale8_0_split
I1025 10:04:54.147892 39807 net.cpp:406] Convolution8_Scale8_0_split <- Convolution8
I1025 10:04:54.147905 39807 net.cpp:380] Convolution8_Scale8_0_split -> Convolution8_Scale8_0_split_0
I1025 10:04:54.147918 39807 net.cpp:380] Convolution8_Scale8_0_split -> Convolution8_Scale8_0_split_1
I1025 10:04:54.147967 39807 net.cpp:122] Setting up Convolution8_Scale8_0_split
I1025 10:04:54.147979 39807 net.cpp:129] Top shape: 128 32 16 16 (1048576)
I1025 10:04:54.147989 39807 net.cpp:129] Top shape: 128 32 16 16 (1048576)
I1025 10:04:54.147996 39807 net.cpp:137] Memory required for data: 525861376
I1025 10:04:54.148005 39807 layer_factory.hpp:77] Creating layer Sigmoid8
I1025 10:04:54.148015 39807 net.cpp:84] Creating Layer Sigmoid8
I1025 10:04:54.148025 39807 net.cpp:406] Sigmoid8 <- Convolution8_Scale8_0_split_0
I1025 10:04:54.148036 39807 net.cpp:380] Sigmoid8 -> Sigmoid8
I1025 10:04:54.149102 39807 net.cpp:122] Setting up Sigmoid8
I1025 10:04:54.149122 39807 net.cpp:129] Top shape: 128 32 16 16 (1048576)
I1025 10:04:54.149132 39807 net.cpp:137] Memory required for data: 530055680
I1025 10:04:54.149140 39807 layer_factory.hpp:77] Creating layer Eltwise11
I1025 10:04:54.149152 39807 net.cpp:84] Creating Layer Eltwise11
I1025 10:04:54.149163 39807 net.cpp:406] Eltwise11 <- Convolution8_Scale8_0_split_1
I1025 10:04:54.149173 39807 net.cpp:406] Eltwise11 <- Sigmoid8
I1025 10:04:54.149183 39807 net.cpp:380] Eltwise11 -> Eltwise11
I1025 10:04:54.149221 39807 net.cpp:122] Setting up Eltwise11
I1025 10:04:54.149233 39807 net.cpp:129] Top shape: 128 32 16 16 (1048576)
I1025 10:04:54.149241 39807 net.cpp:137] Memory required for data: 534249984
I1025 10:04:54.149248 39807 layer_factory.hpp:77] Creating layer Convolution9
I1025 10:04:54.149269 39807 net.cpp:84] Creating Layer Convolution9
I1025 10:04:54.149278 39807 net.cpp:406] Convolution9 <- Eltwise11
I1025 10:04:54.149289 39807 net.cpp:380] Convolution9 -> Convolution9
I1025 10:04:54.152245 39807 net.cpp:122] Setting up Convolution9
I1025 10:04:54.152271 39807 net.cpp:129] Top shape: 128 32 16 16 (1048576)
I1025 10:04:54.152284 39807 net.cpp:137] Memory required for data: 538444288
I1025 10:04:54.152293 39807 layer_factory.hpp:77] Creating layer BatchNorm9
I1025 10:04:54.152305 39807 net.cpp:84] Creating Layer BatchNorm9
I1025 10:04:54.152312 39807 net.cpp:406] BatchNorm9 <- Convolution9
I1025 10:04:54.152318 39807 net.cpp:367] BatchNorm9 -> Convolution9 (in-place)
I1025 10:04:54.152514 39807 net.cpp:122] Setting up BatchNorm9
I1025 10:04:54.152524 39807 net.cpp:129] Top shape: 128 32 16 16 (1048576)
I1025 10:04:54.152529 39807 net.cpp:137] Memory required for data: 542638592
I1025 10:04:54.152539 39807 layer_factory.hpp:77] Creating layer Scale9
I1025 10:04:54.152549 39807 net.cpp:84] Creating Layer Scale9
I1025 10:04:54.152554 39807 net.cpp:406] Scale9 <- Convolution9
I1025 10:04:54.152560 39807 net.cpp:367] Scale9 -> Convolution9 (in-place)
I1025 10:04:54.152595 39807 layer_factory.hpp:77] Creating layer Scale9
I1025 10:04:54.152714 39807 net.cpp:122] Setting up Scale9
I1025 10:04:54.152722 39807 net.cpp:129] Top shape: 128 32 16 16 (1048576)
I1025 10:04:54.152726 39807 net.cpp:137] Memory required for data: 546832896
I1025 10:04:54.152734 39807 layer_factory.hpp:77] Creating layer Convolution10
I1025 10:04:54.152746 39807 net.cpp:84] Creating Layer Convolution10
I1025 10:04:54.152753 39807 net.cpp:406] Convolution10 <- Eltwise10_Eltwise10_0_split_1
I1025 10:04:54.152762 39807 net.cpp:380] Convolution10 -> Convolution10
I1025 10:04:54.154970 39807 net.cpp:122] Setting up Convolution10
I1025 10:04:54.154989 39807 net.cpp:129] Top shape: 128 32 16 16 (1048576)
I1025 10:04:54.154994 39807 net.cpp:137] Memory required for data: 551027200
I1025 10:04:54.155016 39807 layer_factory.hpp:77] Creating layer BatchNorm10
I1025 10:04:54.155026 39807 net.cpp:84] Creating Layer BatchNorm10
I1025 10:04:54.155032 39807 net.cpp:406] BatchNorm10 <- Convolution10
I1025 10:04:54.155041 39807 net.cpp:367] BatchNorm10 -> Convolution10 (in-place)
I1025 10:04:54.155241 39807 net.cpp:122] Setting up BatchNorm10
I1025 10:04:54.155249 39807 net.cpp:129] Top shape: 128 32 16 16 (1048576)
I1025 10:04:54.155254 39807 net.cpp:137] Memory required for data: 555221504
I1025 10:04:54.155263 39807 layer_factory.hpp:77] Creating layer Scale10
I1025 10:04:54.155272 39807 net.cpp:84] Creating Layer Scale10
I1025 10:04:54.155277 39807 net.cpp:406] Scale10 <- Convolution10
I1025 10:04:54.155282 39807 net.cpp:367] Scale10 -> Convolution10 (in-place)
I1025 10:04:54.155320 39807 layer_factory.hpp:77] Creating layer Scale10
I1025 10:04:54.155436 39807 net.cpp:122] Setting up Scale10
I1025 10:04:54.155444 39807 net.cpp:129] Top shape: 128 32 16 16 (1048576)
I1025 10:04:54.155449 39807 net.cpp:137] Memory required for data: 559415808
I1025 10:04:54.155457 39807 layer_factory.hpp:77] Creating layer Eltwise12
I1025 10:04:54.155464 39807 net.cpp:84] Creating Layer Eltwise12
I1025 10:04:54.155470 39807 net.cpp:406] Eltwise12 <- Convolution9
I1025 10:04:54.155475 39807 net.cpp:406] Eltwise12 <- Convolution10
I1025 10:04:54.155484 39807 net.cpp:380] Eltwise12 -> Eltwise12
I1025 10:04:54.155506 39807 net.cpp:122] Setting up Eltwise12
I1025 10:04:54.155514 39807 net.cpp:129] Top shape: 128 32 16 16 (1048576)
I1025 10:04:54.155519 39807 net.cpp:137] Memory required for data: 563610112
I1025 10:04:54.155524 39807 layer_factory.hpp:77] Creating layer Eltwise12_Eltwise12_0_split
I1025 10:04:54.155534 39807 net.cpp:84] Creating Layer Eltwise12_Eltwise12_0_split
I1025 10:04:54.155539 39807 net.cpp:406] Eltwise12_Eltwise12_0_split <- Eltwise12
I1025 10:04:54.155544 39807 net.cpp:380] Eltwise12_Eltwise12_0_split -> Eltwise12_Eltwise12_0_split_0
I1025 10:04:54.155552 39807 net.cpp:380] Eltwise12_Eltwise12_0_split -> Eltwise12_Eltwise12_0_split_1
I1025 10:04:54.155591 39807 net.cpp:122] Setting up Eltwise12_Eltwise12_0_split
I1025 10:04:54.155599 39807 net.cpp:129] Top shape: 128 32 16 16 (1048576)
I1025 10:04:54.155606 39807 net.cpp:129] Top shape: 128 32 16 16 (1048576)
I1025 10:04:54.155614 39807 net.cpp:137] Memory required for data: 571998720
I1025 10:04:54.155628 39807 layer_factory.hpp:77] Creating layer Sigmoid9
I1025 10:04:54.155644 39807 net.cpp:84] Creating Layer Sigmoid9
I1025 10:04:54.155650 39807 net.cpp:406] Sigmoid9 <- Eltwise12_Eltwise12_0_split_0
I1025 10:04:54.155656 39807 net.cpp:380] Sigmoid9 -> Sigmoid9
I1025 10:04:54.155871 39807 net.cpp:122] Setting up Sigmoid9
I1025 10:04:54.155884 39807 net.cpp:129] Top shape: 128 32 16 16 (1048576)
I1025 10:04:54.155889 39807 net.cpp:137] Memory required for data: 576193024
I1025 10:04:54.155895 39807 layer_factory.hpp:77] Creating layer Eltwise13
I1025 10:04:54.155905 39807 net.cpp:84] Creating Layer Eltwise13
I1025 10:04:54.155910 39807 net.cpp:406] Eltwise13 <- Eltwise12_Eltwise12_0_split_1
I1025 10:04:54.155917 39807 net.cpp:406] Eltwise13 <- Sigmoid9
I1025 10:04:54.155925 39807 net.cpp:380] Eltwise13 -> Eltwise13
I1025 10:04:54.155952 39807 net.cpp:122] Setting up Eltwise13
I1025 10:04:54.155961 39807 net.cpp:129] Top shape: 128 32 16 16 (1048576)
I1025 10:04:54.155964 39807 net.cpp:137] Memory required for data: 580387328
I1025 10:04:54.155969 39807 layer_factory.hpp:77] Creating layer Eltwise13_Eltwise13_0_split
I1025 10:04:54.155978 39807 net.cpp:84] Creating Layer Eltwise13_Eltwise13_0_split
I1025 10:04:54.155983 39807 net.cpp:406] Eltwise13_Eltwise13_0_split <- Eltwise13
I1025 10:04:54.155990 39807 net.cpp:380] Eltwise13_Eltwise13_0_split -> Eltwise13_Eltwise13_0_split_0
I1025 10:04:54.155997 39807 net.cpp:380] Eltwise13_Eltwise13_0_split -> Eltwise13_Eltwise13_0_split_1
I1025 10:04:54.156036 39807 net.cpp:122] Setting up Eltwise13_Eltwise13_0_split
I1025 10:04:54.156044 39807 net.cpp:129] Top shape: 128 32 16 16 (1048576)
I1025 10:04:54.156050 39807 net.cpp:129] Top shape: 128 32 16 16 (1048576)
I1025 10:04:54.156055 39807 net.cpp:137] Memory required for data: 588775936
I1025 10:04:54.156059 39807 layer_factory.hpp:77] Creating layer Convolution11
I1025 10:04:54.156072 39807 net.cpp:84] Creating Layer Convolution11
I1025 10:04:54.156077 39807 net.cpp:406] Convolution11 <- Eltwise13_Eltwise13_0_split_0
I1025 10:04:54.156087 39807 net.cpp:380] Convolution11 -> Convolution11
I1025 10:04:54.160050 39807 net.cpp:122] Setting up Convolution11
I1025 10:04:54.160080 39807 net.cpp:129] Top shape: 128 32 16 16 (1048576)
I1025 10:04:54.160090 39807 net.cpp:137] Memory required for data: 592970240
I1025 10:04:54.160104 39807 layer_factory.hpp:77] Creating layer BatchNorm11
I1025 10:04:54.160121 39807 net.cpp:84] Creating Layer BatchNorm11
I1025 10:04:54.160130 39807 net.cpp:406] BatchNorm11 <- Convolution11
I1025 10:04:54.160145 39807 net.cpp:367] BatchNorm11 -> Convolution11 (in-place)
I1025 10:04:54.160444 39807 net.cpp:122] Setting up BatchNorm11
I1025 10:04:54.160459 39807 net.cpp:129] Top shape: 128 32 16 16 (1048576)
I1025 10:04:54.160466 39807 net.cpp:137] Memory required for data: 597164544
I1025 10:04:54.160480 39807 layer_factory.hpp:77] Creating layer Scale11
I1025 10:04:54.160492 39807 net.cpp:84] Creating Layer Scale11
I1025 10:04:54.160501 39807 net.cpp:406] Scale11 <- Convolution11
I1025 10:04:54.160511 39807 net.cpp:367] Scale11 -> Convolution11 (in-place)
I1025 10:04:54.160565 39807 layer_factory.hpp:77] Creating layer Scale11
I1025 10:04:54.160739 39807 net.cpp:122] Setting up Scale11
I1025 10:04:54.160753 39807 net.cpp:129] Top shape: 128 32 16 16 (1048576)
I1025 10:04:54.160760 39807 net.cpp:137] Memory required for data: 601358848
I1025 10:04:54.160773 39807 layer_factory.hpp:77] Creating layer Convolution11_Scale11_0_split
I1025 10:04:54.160785 39807 net.cpp:84] Creating Layer Convolution11_Scale11_0_split
I1025 10:04:54.160794 39807 net.cpp:406] Convolution11_Scale11_0_split <- Convolution11
I1025 10:04:54.160804 39807 net.cpp:380] Convolution11_Scale11_0_split -> Convolution11_Scale11_0_split_0
I1025 10:04:54.160816 39807 net.cpp:380] Convolution11_Scale11_0_split -> Convolution11_Scale11_0_split_1
I1025 10:04:54.160879 39807 net.cpp:122] Setting up Convolution11_Scale11_0_split
I1025 10:04:54.160892 39807 net.cpp:129] Top shape: 128 32 16 16 (1048576)
I1025 10:04:54.160910 39807 net.cpp:129] Top shape: 128 32 16 16 (1048576)
I1025 10:04:54.160930 39807 net.cpp:137] Memory required for data: 609747456
I1025 10:04:54.160938 39807 layer_factory.hpp:77] Creating layer Sigmoid10
I1025 10:04:54.160950 39807 net.cpp:84] Creating Layer Sigmoid10
I1025 10:04:54.160959 39807 net.cpp:406] Sigmoid10 <- Convolution11_Scale11_0_split_0
I1025 10:04:54.160969 39807 net.cpp:380] Sigmoid10 -> Sigmoid10
I1025 10:04:54.161268 39807 net.cpp:122] Setting up Sigmoid10
I1025 10:04:54.161286 39807 net.cpp:129] Top shape: 128 32 16 16 (1048576)
I1025 10:04:54.161294 39807 net.cpp:137] Memory required for data: 613941760
I1025 10:04:54.161303 39807 layer_factory.hpp:77] Creating layer Eltwise14
I1025 10:04:54.161316 39807 net.cpp:84] Creating Layer Eltwise14
I1025 10:04:54.161325 39807 net.cpp:406] Eltwise14 <- Convolution11_Scale11_0_split_1
I1025 10:04:54.161335 39807 net.cpp:406] Eltwise14 <- Sigmoid10
I1025 10:04:54.161347 39807 net.cpp:380] Eltwise14 -> Eltwise14
I1025 10:04:54.161386 39807 net.cpp:122] Setting up Eltwise14
I1025 10:04:54.161398 39807 net.cpp:129] Top shape: 128 32 16 16 (1048576)
I1025 10:04:54.161406 39807 net.cpp:137] Memory required for data: 618136064
I1025 10:04:54.161413 39807 layer_factory.hpp:77] Creating layer Convolution12
I1025 10:04:54.161435 39807 net.cpp:84] Creating Layer Convolution12
I1025 10:04:54.161444 39807 net.cpp:406] Convolution12 <- Eltwise14
I1025 10:04:54.161456 39807 net.cpp:380] Convolution12 -> Convolution12
I1025 10:04:54.164458 39807 net.cpp:122] Setting up Convolution12
I1025 10:04:54.164477 39807 net.cpp:129] Top shape: 128 32 16 16 (1048576)
I1025 10:04:54.164484 39807 net.cpp:137] Memory required for data: 622330368
I1025 10:04:54.164491 39807 layer_factory.hpp:77] Creating layer BatchNorm12
I1025 10:04:54.164503 39807 net.cpp:84] Creating Layer BatchNorm12
I1025 10:04:54.164510 39807 net.cpp:406] BatchNorm12 <- Convolution12
I1025 10:04:54.164520 39807 net.cpp:367] BatchNorm12 -> Convolution12 (in-place)
I1025 10:04:54.164723 39807 net.cpp:122] Setting up BatchNorm12
I1025 10:04:54.164733 39807 net.cpp:129] Top shape: 128 32 16 16 (1048576)
I1025 10:04:54.164737 39807 net.cpp:137] Memory required for data: 626524672
I1025 10:04:54.164746 39807 layer_factory.hpp:77] Creating layer Scale12
I1025 10:04:54.164754 39807 net.cpp:84] Creating Layer Scale12
I1025 10:04:54.164759 39807 net.cpp:406] Scale12 <- Convolution12
I1025 10:04:54.164768 39807 net.cpp:367] Scale12 -> Convolution12 (in-place)
I1025 10:04:54.164805 39807 layer_factory.hpp:77] Creating layer Scale12
I1025 10:04:54.164923 39807 net.cpp:122] Setting up Scale12
I1025 10:04:54.164932 39807 net.cpp:129] Top shape: 128 32 16 16 (1048576)
I1025 10:04:54.164937 39807 net.cpp:137] Memory required for data: 630718976
I1025 10:04:54.164944 39807 layer_factory.hpp:77] Creating layer Eltwise15
I1025 10:04:54.164952 39807 net.cpp:84] Creating Layer Eltwise15
I1025 10:04:54.164958 39807 net.cpp:406] Eltwise15 <- Convolution12
I1025 10:04:54.164964 39807 net.cpp:406] Eltwise15 <- Eltwise13_Eltwise13_0_split_1
I1025 10:04:54.164970 39807 net.cpp:380] Eltwise15 -> Eltwise15
I1025 10:04:54.164994 39807 net.cpp:122] Setting up Eltwise15
I1025 10:04:54.165002 39807 net.cpp:129] Top shape: 128 32 16 16 (1048576)
I1025 10:04:54.165007 39807 net.cpp:137] Memory required for data: 634913280
I1025 10:04:54.165012 39807 layer_factory.hpp:77] Creating layer Eltwise15_Eltwise15_0_split
I1025 10:04:54.165019 39807 net.cpp:84] Creating Layer Eltwise15_Eltwise15_0_split
I1025 10:04:54.165024 39807 net.cpp:406] Eltwise15_Eltwise15_0_split <- Eltwise15
I1025 10:04:54.165032 39807 net.cpp:380] Eltwise15_Eltwise15_0_split -> Eltwise15_Eltwise15_0_split_0
I1025 10:04:54.165040 39807 net.cpp:380] Eltwise15_Eltwise15_0_split -> Eltwise15_Eltwise15_0_split_1
I1025 10:04:54.165091 39807 net.cpp:122] Setting up Eltwise15_Eltwise15_0_split
I1025 10:04:54.165108 39807 net.cpp:129] Top shape: 128 32 16 16 (1048576)
I1025 10:04:54.165122 39807 net.cpp:129] Top shape: 128 32 16 16 (1048576)
I1025 10:04:54.165138 39807 net.cpp:137] Memory required for data: 643301888
I1025 10:04:54.165165 39807 layer_factory.hpp:77] Creating layer Sigmoid11
I1025 10:04:54.165179 39807 net.cpp:84] Creating Layer Sigmoid11
I1025 10:04:54.165190 39807 net.cpp:406] Sigmoid11 <- Eltwise15_Eltwise15_0_split_0
I1025 10:04:54.165204 39807 net.cpp:380] Sigmoid11 -> Sigmoid11
I1025 10:04:54.166322 39807 net.cpp:122] Setting up Sigmoid11
I1025 10:04:54.166344 39807 net.cpp:129] Top shape: 128 32 16 16 (1048576)
I1025 10:04:54.166350 39807 net.cpp:137] Memory required for data: 647496192
I1025 10:04:54.166357 39807 layer_factory.hpp:77] Creating layer Eltwise16
I1025 10:04:54.166364 39807 net.cpp:84] Creating Layer Eltwise16
I1025 10:04:54.166369 39807 net.cpp:406] Eltwise16 <- Eltwise15_Eltwise15_0_split_1
I1025 10:04:54.166376 39807 net.cpp:406] Eltwise16 <- Sigmoid11
I1025 10:04:54.166383 39807 net.cpp:380] Eltwise16 -> Eltwise16
I1025 10:04:54.166416 39807 net.cpp:122] Setting up Eltwise16
I1025 10:04:54.166425 39807 net.cpp:129] Top shape: 128 32 16 16 (1048576)
I1025 10:04:54.166430 39807 net.cpp:137] Memory required for data: 651690496
I1025 10:04:54.166435 39807 layer_factory.hpp:77] Creating layer Eltwise16_Eltwise16_0_split
I1025 10:04:54.166441 39807 net.cpp:84] Creating Layer Eltwise16_Eltwise16_0_split
I1025 10:04:54.166450 39807 net.cpp:406] Eltwise16_Eltwise16_0_split <- Eltwise16
I1025 10:04:54.166455 39807 net.cpp:380] Eltwise16_Eltwise16_0_split -> Eltwise16_Eltwise16_0_split_0
I1025 10:04:54.166463 39807 net.cpp:380] Eltwise16_Eltwise16_0_split -> Eltwise16_Eltwise16_0_split_1
I1025 10:04:54.166509 39807 net.cpp:122] Setting up Eltwise16_Eltwise16_0_split
I1025 10:04:54.166518 39807 net.cpp:129] Top shape: 128 32 16 16 (1048576)
I1025 10:04:54.166524 39807 net.cpp:129] Top shape: 128 32 16 16 (1048576)
I1025 10:04:54.166529 39807 net.cpp:137] Memory required for data: 660079104
I1025 10:04:54.166533 39807 layer_factory.hpp:77] Creating layer Convolution13
I1025 10:04:54.166546 39807 net.cpp:84] Creating Layer Convolution13
I1025 10:04:54.166553 39807 net.cpp:406] Convolution13 <- Eltwise16_Eltwise16_0_split_0
I1025 10:04:54.166563 39807 net.cpp:380] Convolution13 -> Convolution13
I1025 10:04:54.169939 39807 net.cpp:122] Setting up Convolution13
I1025 10:04:54.169961 39807 net.cpp:129] Top shape: 128 32 16 16 (1048576)
I1025 10:04:54.169972 39807 net.cpp:137] Memory required for data: 664273408
I1025 10:04:54.169987 39807 layer_factory.hpp:77] Creating layer BatchNorm13
I1025 10:04:54.170006 39807 net.cpp:84] Creating Layer BatchNorm13
I1025 10:04:54.170017 39807 net.cpp:406] BatchNorm13 <- Convolution13
I1025 10:04:54.170029 39807 net.cpp:367] BatchNorm13 -> Convolution13 (in-place)
I1025 10:04:54.170343 39807 net.cpp:122] Setting up BatchNorm13
I1025 10:04:54.170361 39807 net.cpp:129] Top shape: 128 32 16 16 (1048576)
I1025 10:04:54.170372 39807 net.cpp:137] Memory required for data: 668467712
I1025 10:04:54.170387 39807 layer_factory.hpp:77] Creating layer Scale13
I1025 10:04:54.170402 39807 net.cpp:84] Creating Layer Scale13
I1025 10:04:54.170410 39807 net.cpp:406] Scale13 <- Convolution13
I1025 10:04:54.170425 39807 net.cpp:367] Scale13 -> Convolution13 (in-place)
I1025 10:04:54.170485 39807 layer_factory.hpp:77] Creating layer Scale13
I1025 10:04:54.170686 39807 net.cpp:122] Setting up Scale13
I1025 10:04:54.170706 39807 net.cpp:129] Top shape: 128 32 16 16 (1048576)
I1025 10:04:54.170713 39807 net.cpp:137] Memory required for data: 672662016
I1025 10:04:54.170727 39807 layer_factory.hpp:77] Creating layer Convolution13_Scale13_0_split
I1025 10:04:54.170740 39807 net.cpp:84] Creating Layer Convolution13_Scale13_0_split
I1025 10:04:54.170749 39807 net.cpp:406] Convolution13_Scale13_0_split <- Convolution13
I1025 10:04:54.170760 39807 net.cpp:380] Convolution13_Scale13_0_split -> Convolution13_Scale13_0_split_0
I1025 10:04:54.170773 39807 net.cpp:380] Convolution13_Scale13_0_split -> Convolution13_Scale13_0_split_1
I1025 10:04:54.170825 39807 net.cpp:122] Setting up Convolution13_Scale13_0_split
I1025 10:04:54.170851 39807 net.cpp:129] Top shape: 128 32 16 16 (1048576)
I1025 10:04:54.170871 39807 net.cpp:129] Top shape: 128 32 16 16 (1048576)
I1025 10:04:54.170878 39807 net.cpp:137] Memory required for data: 681050624
I1025 10:04:54.170886 39807 layer_factory.hpp:77] Creating layer Sigmoid12
I1025 10:04:54.170897 39807 net.cpp:84] Creating Layer Sigmoid12
I1025 10:04:54.170905 39807 net.cpp:406] Sigmoid12 <- Convolution13_Scale13_0_split_0
I1025 10:04:54.170917 39807 net.cpp:380] Sigmoid12 -> Sigmoid12
I1025 10:04:54.171224 39807 net.cpp:122] Setting up Sigmoid12
I1025 10:04:54.171247 39807 net.cpp:129] Top shape: 128 32 16 16 (1048576)
I1025 10:04:54.171257 39807 net.cpp:137] Memory required for data: 685244928
I1025 10:04:54.171265 39807 layer_factory.hpp:77] Creating layer Eltwise17
I1025 10:04:54.171280 39807 net.cpp:84] Creating Layer Eltwise17
I1025 10:04:54.171289 39807 net.cpp:406] Eltwise17 <- Convolution13_Scale13_0_split_1
I1025 10:04:54.171300 39807 net.cpp:406] Eltwise17 <- Sigmoid12
I1025 10:04:54.171314 39807 net.cpp:380] Eltwise17 -> Eltwise17
I1025 10:04:54.171357 39807 net.cpp:122] Setting up Eltwise17
I1025 10:04:54.171370 39807 net.cpp:129] Top shape: 128 32 16 16 (1048576)
I1025 10:04:54.171378 39807 net.cpp:137] Memory required for data: 689439232
I1025 10:04:54.171386 39807 layer_factory.hpp:77] Creating layer Convolution14
I1025 10:04:54.171406 39807 net.cpp:84] Creating Layer Convolution14
I1025 10:04:54.171416 39807 net.cpp:406] Convolution14 <- Eltwise17
I1025 10:04:54.171427 39807 net.cpp:380] Convolution14 -> Convolution14
I1025 10:04:54.174849 39807 net.cpp:122] Setting up Convolution14
I1025 10:04:54.174872 39807 net.cpp:129] Top shape: 128 32 16 16 (1048576)
I1025 10:04:54.174881 39807 net.cpp:137] Memory required for data: 693633536
I1025 10:04:54.174895 39807 layer_factory.hpp:77] Creating layer BatchNorm14
I1025 10:04:54.174911 39807 net.cpp:84] Creating Layer BatchNorm14
I1025 10:04:54.174919 39807 net.cpp:406] BatchNorm14 <- Convolution14
I1025 10:04:54.174933 39807 net.cpp:367] BatchNorm14 -> Convolution14 (in-place)
I1025 10:04:54.175233 39807 net.cpp:122] Setting up BatchNorm14
I1025 10:04:54.175248 39807 net.cpp:129] Top shape: 128 32 16 16 (1048576)
I1025 10:04:54.175256 39807 net.cpp:137] Memory required for data: 697827840
I1025 10:04:54.175271 39807 layer_factory.hpp:77] Creating layer Scale14
I1025 10:04:54.175282 39807 net.cpp:84] Creating Layer Scale14
I1025 10:04:54.175289 39807 net.cpp:406] Scale14 <- Convolution14
I1025 10:04:54.175302 39807 net.cpp:367] Scale14 -> Convolution14 (in-place)
I1025 10:04:54.175356 39807 layer_factory.hpp:77] Creating layer Scale14
I1025 10:04:54.175532 39807 net.cpp:122] Setting up Scale14
I1025 10:04:54.175549 39807 net.cpp:129] Top shape: 128 32 16 16 (1048576)
I1025 10:04:54.175556 39807 net.cpp:137] Memory required for data: 702022144
I1025 10:04:54.175570 39807 layer_factory.hpp:77] Creating layer Eltwise18
I1025 10:04:54.175580 39807 net.cpp:84] Creating Layer Eltwise18
I1025 10:04:54.175588 39807 net.cpp:406] Eltwise18 <- Convolution14
I1025 10:04:54.175598 39807 net.cpp:406] Eltwise18 <- Eltwise16_Eltwise16_0_split_1
I1025 10:04:54.175608 39807 net.cpp:380] Eltwise18 -> Eltwise18
I1025 10:04:54.175648 39807 net.cpp:122] Setting up Eltwise18
I1025 10:04:54.175660 39807 net.cpp:129] Top shape: 128 32 16 16 (1048576)
I1025 10:04:54.175668 39807 net.cpp:137] Memory required for data: 706216448
I1025 10:04:54.175675 39807 layer_factory.hpp:77] Creating layer Eltwise18_Eltwise18_0_split
I1025 10:04:54.175686 39807 net.cpp:84] Creating Layer Eltwise18_Eltwise18_0_split
I1025 10:04:54.175694 39807 net.cpp:406] Eltwise18_Eltwise18_0_split <- Eltwise18
I1025 10:04:54.175706 39807 net.cpp:380] Eltwise18_Eltwise18_0_split -> Eltwise18_Eltwise18_0_split_0
I1025 10:04:54.175719 39807 net.cpp:380] Eltwise18_Eltwise18_0_split -> Eltwise18_Eltwise18_0_split_1
I1025 10:04:54.175776 39807 net.cpp:122] Setting up Eltwise18_Eltwise18_0_split
I1025 10:04:54.175788 39807 net.cpp:129] Top shape: 128 32 16 16 (1048576)
I1025 10:04:54.175797 39807 net.cpp:129] Top shape: 128 32 16 16 (1048576)
I1025 10:04:54.175812 39807 net.cpp:137] Memory required for data: 714605056
I1025 10:04:54.175830 39807 layer_factory.hpp:77] Creating layer Sigmoid13
I1025 10:04:54.175842 39807 net.cpp:84] Creating Layer Sigmoid13
I1025 10:04:54.175850 39807 net.cpp:406] Sigmoid13 <- Eltwise18_Eltwise18_0_split_0
I1025 10:04:54.175860 39807 net.cpp:380] Sigmoid13 -> Sigmoid13
I1025 10:04:54.176156 39807 net.cpp:122] Setting up Sigmoid13
I1025 10:04:54.176174 39807 net.cpp:129] Top shape: 128 32 16 16 (1048576)
I1025 10:04:54.176182 39807 net.cpp:137] Memory required for data: 718799360
I1025 10:04:54.176190 39807 layer_factory.hpp:77] Creating layer Eltwise19
I1025 10:04:54.176204 39807 net.cpp:84] Creating Layer Eltwise19
I1025 10:04:54.176213 39807 net.cpp:406] Eltwise19 <- Eltwise18_Eltwise18_0_split_1
I1025 10:04:54.176223 39807 net.cpp:406] Eltwise19 <- Sigmoid13
I1025 10:04:54.176234 39807 net.cpp:380] Eltwise19 -> Eltwise19
I1025 10:04:54.176275 39807 net.cpp:122] Setting up Eltwise19
I1025 10:04:54.176288 39807 net.cpp:129] Top shape: 128 32 16 16 (1048576)
I1025 10:04:54.176295 39807 net.cpp:137] Memory required for data: 722993664
I1025 10:04:54.176303 39807 layer_factory.hpp:77] Creating layer Eltwise19_Eltwise19_0_split
I1025 10:04:54.176313 39807 net.cpp:84] Creating Layer Eltwise19_Eltwise19_0_split
I1025 10:04:54.176321 39807 net.cpp:406] Eltwise19_Eltwise19_0_split <- Eltwise19
I1025 10:04:54.176336 39807 net.cpp:380] Eltwise19_Eltwise19_0_split -> Eltwise19_Eltwise19_0_split_0
I1025 10:04:54.176348 39807 net.cpp:380] Eltwise19_Eltwise19_0_split -> Eltwise19_Eltwise19_0_split_1
I1025 10:04:54.176404 39807 net.cpp:122] Setting up Eltwise19_Eltwise19_0_split
I1025 10:04:54.176419 39807 net.cpp:129] Top shape: 128 32 16 16 (1048576)
I1025 10:04:54.176429 39807 net.cpp:129] Top shape: 128 32 16 16 (1048576)
I1025 10:04:54.176437 39807 net.cpp:137] Memory required for data: 731382272
I1025 10:04:54.176445 39807 layer_factory.hpp:77] Creating layer Convolution15
I1025 10:04:54.176461 39807 net.cpp:84] Creating Layer Convolution15
I1025 10:04:54.176470 39807 net.cpp:406] Convolution15 <- Eltwise19_Eltwise19_0_split_0
I1025 10:04:54.176483 39807 net.cpp:380] Convolution15 -> Convolution15
I1025 10:04:54.182345 39807 net.cpp:122] Setting up Convolution15
I1025 10:04:54.182377 39807 net.cpp:129] Top shape: 128 64 8 8 (524288)
I1025 10:04:54.182386 39807 net.cpp:137] Memory required for data: 733479424
I1025 10:04:54.182400 39807 layer_factory.hpp:77] Creating layer BatchNorm15
I1025 10:04:54.182416 39807 net.cpp:84] Creating Layer BatchNorm15
I1025 10:04:54.182426 39807 net.cpp:406] BatchNorm15 <- Convolution15
I1025 10:04:54.182440 39807 net.cpp:367] BatchNorm15 -> Convolution15 (in-place)
I1025 10:04:54.182765 39807 net.cpp:122] Setting up BatchNorm15
I1025 10:04:54.182782 39807 net.cpp:129] Top shape: 128 64 8 8 (524288)
I1025 10:04:54.182790 39807 net.cpp:137] Memory required for data: 735576576
I1025 10:04:54.182806 39807 layer_factory.hpp:77] Creating layer Scale15
I1025 10:04:54.182821 39807 net.cpp:84] Creating Layer Scale15
I1025 10:04:54.182829 39807 net.cpp:406] Scale15 <- Convolution15
I1025 10:04:54.182839 39807 net.cpp:367] Scale15 -> Convolution15 (in-place)
I1025 10:04:54.182899 39807 layer_factory.hpp:77] Creating layer Scale15
I1025 10:04:54.183084 39807 net.cpp:122] Setting up Scale15
I1025 10:04:54.183097 39807 net.cpp:129] Top shape: 128 64 8 8 (524288)
I1025 10:04:54.183105 39807 net.cpp:137] Memory required for data: 737673728
I1025 10:04:54.183117 39807 layer_factory.hpp:77] Creating layer Convolution15_Scale15_0_split
I1025 10:04:54.183128 39807 net.cpp:84] Creating Layer Convolution15_Scale15_0_split
I1025 10:04:54.183137 39807 net.cpp:406] Convolution15_Scale15_0_split <- Convolution15
I1025 10:04:54.183151 39807 net.cpp:380] Convolution15_Scale15_0_split -> Convolution15_Scale15_0_split_0
I1025 10:04:54.183163 39807 net.cpp:380] Convolution15_Scale15_0_split -> Convolution15_Scale15_0_split_1
I1025 10:04:54.183218 39807 net.cpp:122] Setting up Convolution15_Scale15_0_split
I1025 10:04:54.183239 39807 net.cpp:129] Top shape: 128 64 8 8 (524288)
I1025 10:04:54.183260 39807 net.cpp:129] Top shape: 128 64 8 8 (524288)
I1025 10:04:54.183269 39807 net.cpp:137] Memory required for data: 741868032
I1025 10:04:54.183276 39807 layer_factory.hpp:77] Creating layer Sigmoid14
I1025 10:04:54.183290 39807 net.cpp:84] Creating Layer Sigmoid14
I1025 10:04:54.183298 39807 net.cpp:406] Sigmoid14 <- Convolution15_Scale15_0_split_0
I1025 10:04:54.183310 39807 net.cpp:380] Sigmoid14 -> Sigmoid14
I1025 10:04:54.184427 39807 net.cpp:122] Setting up Sigmoid14
I1025 10:04:54.184451 39807 net.cpp:129] Top shape: 128 64 8 8 (524288)
I1025 10:04:54.184459 39807 net.cpp:137] Memory required for data: 743965184
I1025 10:04:54.184468 39807 layer_factory.hpp:77] Creating layer Eltwise20
I1025 10:04:54.184484 39807 net.cpp:84] Creating Layer Eltwise20
I1025 10:04:54.184492 39807 net.cpp:406] Eltwise20 <- Convolution15_Scale15_0_split_1
I1025 10:04:54.184504 39807 net.cpp:406] Eltwise20 <- Sigmoid14
I1025 10:04:54.184514 39807 net.cpp:380] Eltwise20 -> Eltwise20
I1025 10:04:54.184561 39807 net.cpp:122] Setting up Eltwise20
I1025 10:04:54.184574 39807 net.cpp:129] Top shape: 128 64 8 8 (524288)
I1025 10:04:54.184582 39807 net.cpp:137] Memory required for data: 746062336
I1025 10:04:54.184590 39807 layer_factory.hpp:77] Creating layer Convolution16
I1025 10:04:54.184608 39807 net.cpp:84] Creating Layer Convolution16
I1025 10:04:54.184617 39807 net.cpp:406] Convolution16 <- Eltwise20
I1025 10:04:54.184631 39807 net.cpp:380] Convolution16 -> Convolution16
I1025 10:04:54.191148 39807 net.cpp:122] Setting up Convolution16
I1025 10:04:54.191175 39807 net.cpp:129] Top shape: 128 64 8 8 (524288)
I1025 10:04:54.191184 39807 net.cpp:137] Memory required for data: 748159488
I1025 10:04:54.191198 39807 layer_factory.hpp:77] Creating layer BatchNorm16
I1025 10:04:54.191212 39807 net.cpp:84] Creating Layer BatchNorm16
I1025 10:04:54.191221 39807 net.cpp:406] BatchNorm16 <- Convolution16
I1025 10:04:54.191236 39807 net.cpp:367] BatchNorm16 -> Convolution16 (in-place)
I1025 10:04:54.191557 39807 net.cpp:122] Setting up BatchNorm16
I1025 10:04:54.191571 39807 net.cpp:129] Top shape: 128 64 8 8 (524288)
I1025 10:04:54.191579 39807 net.cpp:137] Memory required for data: 750256640
I1025 10:04:54.191593 39807 layer_factory.hpp:77] Creating layer Scale16
I1025 10:04:54.191606 39807 net.cpp:84] Creating Layer Scale16
I1025 10:04:54.191614 39807 net.cpp:406] Scale16 <- Convolution16
I1025 10:04:54.191627 39807 net.cpp:367] Scale16 -> Convolution16 (in-place)
I1025 10:04:54.191684 39807 layer_factory.hpp:77] Creating layer Scale16
I1025 10:04:54.191872 39807 net.cpp:122] Setting up Scale16
I1025 10:04:54.191886 39807 net.cpp:129] Top shape: 128 64 8 8 (524288)
I1025 10:04:54.191895 39807 net.cpp:137] Memory required for data: 752353792
I1025 10:04:54.191906 39807 layer_factory.hpp:77] Creating layer Convolution17
I1025 10:04:54.191923 39807 net.cpp:84] Creating Layer Convolution17
I1025 10:04:54.191933 39807 net.cpp:406] Convolution17 <- Eltwise19_Eltwise19_0_split_1
I1025 10:04:54.191948 39807 net.cpp:380] Convolution17 -> Convolution17
I1025 10:04:54.195111 39807 net.cpp:122] Setting up Convolution17
I1025 10:04:54.195134 39807 net.cpp:129] Top shape: 128 64 8 8 (524288)
I1025 10:04:54.195143 39807 net.cpp:137] Memory required for data: 754450944
I1025 10:04:54.195156 39807 layer_factory.hpp:77] Creating layer BatchNorm17
I1025 10:04:54.195169 39807 net.cpp:84] Creating Layer BatchNorm17
I1025 10:04:54.195179 39807 net.cpp:406] BatchNorm17 <- Convolution17
I1025 10:04:54.195194 39807 net.cpp:367] BatchNorm17 -> Convolution17 (in-place)
I1025 10:04:54.195513 39807 net.cpp:122] Setting up BatchNorm17
I1025 10:04:54.195526 39807 net.cpp:129] Top shape: 128 64 8 8 (524288)
I1025 10:04:54.195534 39807 net.cpp:137] Memory required for data: 756548096
I1025 10:04:54.195549 39807 layer_factory.hpp:77] Creating layer Scale17
I1025 10:04:54.195560 39807 net.cpp:84] Creating Layer Scale17
I1025 10:04:54.195569 39807 net.cpp:406] Scale17 <- Convolution17
I1025 10:04:54.195593 39807 net.cpp:367] Scale17 -> Convolution17 (in-place)
I1025 10:04:54.195663 39807 layer_factory.hpp:77] Creating layer Scale17
I1025 10:04:54.195853 39807 net.cpp:122] Setting up Scale17
I1025 10:04:54.195868 39807 net.cpp:129] Top shape: 128 64 8 8 (524288)
I1025 10:04:54.195875 39807 net.cpp:137] Memory required for data: 758645248
I1025 10:04:54.195888 39807 layer_factory.hpp:77] Creating layer Eltwise21
I1025 10:04:54.195899 39807 net.cpp:84] Creating Layer Eltwise21
I1025 10:04:54.195907 39807 net.cpp:406] Eltwise21 <- Convolution16
I1025 10:04:54.195916 39807 net.cpp:406] Eltwise21 <- Convolution17
I1025 10:04:54.195927 39807 net.cpp:380] Eltwise21 -> Eltwise21
I1025 10:04:54.195962 39807 net.cpp:122] Setting up Eltwise21
I1025 10:04:54.195976 39807 net.cpp:129] Top shape: 128 64 8 8 (524288)
I1025 10:04:54.195982 39807 net.cpp:137] Memory required for data: 760742400
I1025 10:04:54.195991 39807 layer_factory.hpp:77] Creating layer Eltwise21_Eltwise21_0_split
I1025 10:04:54.196002 39807 net.cpp:84] Creating Layer Eltwise21_Eltwise21_0_split
I1025 10:04:54.196009 39807 net.cpp:406] Eltwise21_Eltwise21_0_split <- Eltwise21
I1025 10:04:54.196022 39807 net.cpp:380] Eltwise21_Eltwise21_0_split -> Eltwise21_Eltwise21_0_split_0
I1025 10:04:54.196033 39807 net.cpp:380] Eltwise21_Eltwise21_0_split -> Eltwise21_Eltwise21_0_split_1
I1025 10:04:54.196092 39807 net.cpp:122] Setting up Eltwise21_Eltwise21_0_split
I1025 10:04:54.196105 39807 net.cpp:129] Top shape: 128 64 8 8 (524288)
I1025 10:04:54.196115 39807 net.cpp:129] Top shape: 128 64 8 8 (524288)
I1025 10:04:54.196121 39807 net.cpp:137] Memory required for data: 764936704
I1025 10:04:54.196130 39807 layer_factory.hpp:77] Creating layer Sigmoid15
I1025 10:04:54.196140 39807 net.cpp:84] Creating Layer Sigmoid15
I1025 10:04:54.196148 39807 net.cpp:406] Sigmoid15 <- Eltwise21_Eltwise21_0_split_0
I1025 10:04:54.196158 39807 net.cpp:380] Sigmoid15 -> Sigmoid15
I1025 10:04:54.197263 39807 net.cpp:122] Setting up Sigmoid15
I1025 10:04:54.197285 39807 net.cpp:129] Top shape: 128 64 8 8 (524288)
I1025 10:04:54.197295 39807 net.cpp:137] Memory required for data: 767033856
I1025 10:04:54.197304 39807 layer_factory.hpp:77] Creating layer Eltwise22
I1025 10:04:54.197315 39807 net.cpp:84] Creating Layer Eltwise22
I1025 10:04:54.197324 39807 net.cpp:406] Eltwise22 <- Eltwise21_Eltwise21_0_split_1
I1025 10:04:54.197335 39807 net.cpp:406] Eltwise22 <- Sigmoid15
I1025 10:04:54.197345 39807 net.cpp:380] Eltwise22 -> Eltwise22
I1025 10:04:54.197388 39807 net.cpp:122] Setting up Eltwise22
I1025 10:04:54.197402 39807 net.cpp:129] Top shape: 128 64 8 8 (524288)
I1025 10:04:54.197409 39807 net.cpp:137] Memory required for data: 769131008
I1025 10:04:54.197417 39807 layer_factory.hpp:77] Creating layer Eltwise22_Eltwise22_0_split
I1025 10:04:54.197429 39807 net.cpp:84] Creating Layer Eltwise22_Eltwise22_0_split
I1025 10:04:54.197438 39807 net.cpp:406] Eltwise22_Eltwise22_0_split <- Eltwise22
I1025 10:04:54.197448 39807 net.cpp:380] Eltwise22_Eltwise22_0_split -> Eltwise22_Eltwise22_0_split_0
I1025 10:04:54.197460 39807 net.cpp:380] Eltwise22_Eltwise22_0_split -> Eltwise22_Eltwise22_0_split_1
I1025 10:04:54.197521 39807 net.cpp:122] Setting up Eltwise22_Eltwise22_0_split
I1025 10:04:54.197533 39807 net.cpp:129] Top shape: 128 64 8 8 (524288)
I1025 10:04:54.197543 39807 net.cpp:129] Top shape: 128 64 8 8 (524288)
I1025 10:04:54.197551 39807 net.cpp:137] Memory required for data: 773325312
I1025 10:04:54.197558 39807 layer_factory.hpp:77] Creating layer Convolution18
I1025 10:04:54.197576 39807 net.cpp:84] Creating Layer Convolution18
I1025 10:04:54.197585 39807 net.cpp:406] Convolution18 <- Eltwise22_Eltwise22_0_split_0
I1025 10:04:54.197599 39807 net.cpp:380] Convolution18 -> Convolution18
I1025 10:04:54.202154 39807 net.cpp:122] Setting up Convolution18
I1025 10:04:54.202181 39807 net.cpp:129] Top shape: 128 64 8 8 (524288)
I1025 10:04:54.202190 39807 net.cpp:137] Memory required for data: 775422464
I1025 10:04:54.202203 39807 layer_factory.hpp:77] Creating layer BatchNorm18
I1025 10:04:54.202225 39807 net.cpp:84] Creating Layer BatchNorm18
I1025 10:04:54.202245 39807 net.cpp:406] BatchNorm18 <- Convolution18
I1025 10:04:54.202257 39807 net.cpp:367] BatchNorm18 -> Convolution18 (in-place)
I1025 10:04:54.202592 39807 net.cpp:122] Setting up BatchNorm18
I1025 10:04:54.202610 39807 net.cpp:129] Top shape: 128 64 8 8 (524288)
I1025 10:04:54.202618 39807 net.cpp:137] Memory required for data: 777519616
I1025 10:04:54.202632 39807 layer_factory.hpp:77] Creating layer Scale18
I1025 10:04:54.202643 39807 net.cpp:84] Creating Layer Scale18
I1025 10:04:54.202651 39807 net.cpp:406] Scale18 <- Convolution18
I1025 10:04:54.202662 39807 net.cpp:367] Scale18 -> Convolution18 (in-place)
I1025 10:04:54.202725 39807 layer_factory.hpp:77] Creating layer Scale18
I1025 10:04:54.202915 39807 net.cpp:122] Setting up Scale18
I1025 10:04:54.202930 39807 net.cpp:129] Top shape: 128 64 8 8 (524288)
I1025 10:04:54.202937 39807 net.cpp:137] Memory required for data: 779616768
I1025 10:04:54.202950 39807 layer_factory.hpp:77] Creating layer Convolution18_Scale18_0_split
I1025 10:04:54.202960 39807 net.cpp:84] Creating Layer Convolution18_Scale18_0_split
I1025 10:04:54.202968 39807 net.cpp:406] Convolution18_Scale18_0_split <- Convolution18
I1025 10:04:54.202981 39807 net.cpp:380] Convolution18_Scale18_0_split -> Convolution18_Scale18_0_split_0
I1025 10:04:54.202994 39807 net.cpp:380] Convolution18_Scale18_0_split -> Convolution18_Scale18_0_split_1
I1025 10:04:54.203048 39807 net.cpp:122] Setting up Convolution18_Scale18_0_split
I1025 10:04:54.203060 39807 net.cpp:129] Top shape: 128 64 8 8 (524288)
I1025 10:04:54.203070 39807 net.cpp:129] Top shape: 128 64 8 8 (524288)
I1025 10:04:54.203078 39807 net.cpp:137] Memory required for data: 783811072
I1025 10:04:54.203085 39807 layer_factory.hpp:77] Creating layer Sigmoid16
I1025 10:04:54.203096 39807 net.cpp:84] Creating Layer Sigmoid16
I1025 10:04:54.203104 39807 net.cpp:406] Sigmoid16 <- Convolution18_Scale18_0_split_0
I1025 10:04:54.203114 39807 net.cpp:380] Sigmoid16 -> Sigmoid16
I1025 10:04:54.203418 39807 net.cpp:122] Setting up Sigmoid16
I1025 10:04:54.203436 39807 net.cpp:129] Top shape: 128 64 8 8 (524288)
I1025 10:04:54.203445 39807 net.cpp:137] Memory required for data: 785908224
I1025 10:04:54.203454 39807 layer_factory.hpp:77] Creating layer Eltwise23
I1025 10:04:54.203464 39807 net.cpp:84] Creating Layer Eltwise23
I1025 10:04:54.203474 39807 net.cpp:406] Eltwise23 <- Convolution18_Scale18_0_split_1
I1025 10:04:54.203483 39807 net.cpp:406] Eltwise23 <- Sigmoid16
I1025 10:04:54.203496 39807 net.cpp:380] Eltwise23 -> Eltwise23
I1025 10:04:54.203541 39807 net.cpp:122] Setting up Eltwise23
I1025 10:04:54.203553 39807 net.cpp:129] Top shape: 128 64 8 8 (524288)
I1025 10:04:54.203562 39807 net.cpp:137] Memory required for data: 788005376
I1025 10:04:54.203568 39807 layer_factory.hpp:77] Creating layer Convolution19
I1025 10:04:54.203588 39807 net.cpp:84] Creating Layer Convolution19
I1025 10:04:54.203595 39807 net.cpp:406] Convolution19 <- Eltwise23
I1025 10:04:54.203610 39807 net.cpp:380] Convolution19 -> Convolution19
I1025 10:04:54.208155 39807 net.cpp:122] Setting up Convolution19
I1025 10:04:54.208178 39807 net.cpp:129] Top shape: 128 64 8 8 (524288)
I1025 10:04:54.208187 39807 net.cpp:137] Memory required for data: 790102528
I1025 10:04:54.208200 39807 layer_factory.hpp:77] Creating layer BatchNorm19
I1025 10:04:54.208215 39807 net.cpp:84] Creating Layer BatchNorm19
I1025 10:04:54.208225 39807 net.cpp:406] BatchNorm19 <- Convolution19
I1025 10:04:54.208236 39807 net.cpp:367] BatchNorm19 -> Convolution19 (in-place)
I1025 10:04:54.208561 39807 net.cpp:122] Setting up BatchNorm19
I1025 10:04:54.208575 39807 net.cpp:129] Top shape: 128 64 8 8 (524288)
I1025 10:04:54.208583 39807 net.cpp:137] Memory required for data: 792199680
I1025 10:04:54.208631 39807 layer_factory.hpp:77] Creating layer Scale19
I1025 10:04:54.208644 39807 net.cpp:84] Creating Layer Scale19
I1025 10:04:54.208653 39807 net.cpp:406] Scale19 <- Convolution19
I1025 10:04:54.208663 39807 net.cpp:367] Scale19 -> Convolution19 (in-place)
I1025 10:04:54.208734 39807 layer_factory.hpp:77] Creating layer Scale19
I1025 10:04:54.208935 39807 net.cpp:122] Setting up Scale19
I1025 10:04:54.208948 39807 net.cpp:129] Top shape: 128 64 8 8 (524288)
I1025 10:04:54.208956 39807 net.cpp:137] Memory required for data: 794296832
I1025 10:04:54.208968 39807 layer_factory.hpp:77] Creating layer Eltwise24
I1025 10:04:54.208982 39807 net.cpp:84] Creating Layer Eltwise24
I1025 10:04:54.208991 39807 net.cpp:406] Eltwise24 <- Convolution19
I1025 10:04:54.209000 39807 net.cpp:406] Eltwise24 <- Eltwise22_Eltwise22_0_split_1
I1025 10:04:54.209010 39807 net.cpp:380] Eltwise24 -> Eltwise24
I1025 10:04:54.209043 39807 net.cpp:122] Setting up Eltwise24
I1025 10:04:54.209055 39807 net.cpp:129] Top shape: 128 64 8 8 (524288)
I1025 10:04:54.209064 39807 net.cpp:137] Memory required for data: 796393984
I1025 10:04:54.209070 39807 layer_factory.hpp:77] Creating layer Eltwise24_Eltwise24_0_split
I1025 10:04:54.209081 39807 net.cpp:84] Creating Layer Eltwise24_Eltwise24_0_split
I1025 10:04:54.209089 39807 net.cpp:406] Eltwise24_Eltwise24_0_split <- Eltwise24
I1025 10:04:54.209100 39807 net.cpp:380] Eltwise24_Eltwise24_0_split -> Eltwise24_Eltwise24_0_split_0
I1025 10:04:54.209111 39807 net.cpp:380] Eltwise24_Eltwise24_0_split -> Eltwise24_Eltwise24_0_split_1
I1025 10:04:54.209172 39807 net.cpp:122] Setting up Eltwise24_Eltwise24_0_split
I1025 10:04:54.209184 39807 net.cpp:129] Top shape: 128 64 8 8 (524288)
I1025 10:04:54.209195 39807 net.cpp:129] Top shape: 128 64 8 8 (524288)
I1025 10:04:54.209203 39807 net.cpp:137] Memory required for data: 800588288
I1025 10:04:54.209210 39807 layer_factory.hpp:77] Creating layer Sigmoid17
I1025 10:04:54.209221 39807 net.cpp:84] Creating Layer Sigmoid17
I1025 10:04:54.209229 39807 net.cpp:406] Sigmoid17 <- Eltwise24_Eltwise24_0_split_0
I1025 10:04:54.209241 39807 net.cpp:380] Sigmoid17 -> Sigmoid17
I1025 10:04:54.210331 39807 net.cpp:122] Setting up Sigmoid17
I1025 10:04:54.210352 39807 net.cpp:129] Top shape: 128 64 8 8 (524288)
I1025 10:04:54.210361 39807 net.cpp:137] Memory required for data: 802685440
I1025 10:04:54.210369 39807 layer_factory.hpp:77] Creating layer Eltwise25
I1025 10:04:54.210381 39807 net.cpp:84] Creating Layer Eltwise25
I1025 10:04:54.210389 39807 net.cpp:406] Eltwise25 <- Eltwise24_Eltwise24_0_split_1
I1025 10:04:54.210402 39807 net.cpp:406] Eltwise25 <- Sigmoid17
I1025 10:04:54.210413 39807 net.cpp:380] Eltwise25 -> Eltwise25
I1025 10:04:54.210458 39807 net.cpp:122] Setting up Eltwise25
I1025 10:04:54.210470 39807 net.cpp:129] Top shape: 128 64 8 8 (524288)
I1025 10:04:54.210479 39807 net.cpp:137] Memory required for data: 804782592
I1025 10:04:54.210486 39807 layer_factory.hpp:77] Creating layer Eltwise25_Eltwise25_0_split
I1025 10:04:54.210503 39807 net.cpp:84] Creating Layer Eltwise25_Eltwise25_0_split
I1025 10:04:54.210515 39807 net.cpp:406] Eltwise25_Eltwise25_0_split <- Eltwise25
I1025 10:04:54.210525 39807 net.cpp:380] Eltwise25_Eltwise25_0_split -> Eltwise25_Eltwise25_0_split_0
I1025 10:04:54.210539 39807 net.cpp:380] Eltwise25_Eltwise25_0_split -> Eltwise25_Eltwise25_0_split_1
I1025 10:04:54.210600 39807 net.cpp:122] Setting up Eltwise25_Eltwise25_0_split
I1025 10:04:54.210613 39807 net.cpp:129] Top shape: 128 64 8 8 (524288)
I1025 10:04:54.210623 39807 net.cpp:129] Top shape: 128 64 8 8 (524288)
I1025 10:04:54.210630 39807 net.cpp:137] Memory required for data: 808976896
I1025 10:04:54.210638 39807 layer_factory.hpp:77] Creating layer Convolution20
I1025 10:04:54.210657 39807 net.cpp:84] Creating Layer Convolution20
I1025 10:04:54.210666 39807 net.cpp:406] Convolution20 <- Eltwise25_Eltwise25_0_split_0
I1025 10:04:54.210678 39807 net.cpp:380] Convolution20 -> Convolution20
I1025 10:04:54.214452 39807 net.cpp:122] Setting up Convolution20
I1025 10:04:54.214473 39807 net.cpp:129] Top shape: 128 64 8 8 (524288)
I1025 10:04:54.214483 39807 net.cpp:137] Memory required for data: 811074048
I1025 10:04:54.214499 39807 layer_factory.hpp:77] Creating layer BatchNorm20
I1025 10:04:54.214519 39807 net.cpp:84] Creating Layer BatchNorm20
I1025 10:04:54.214535 39807 net.cpp:406] BatchNorm20 <- Convolution20
I1025 10:04:54.214560 39807 net.cpp:367] BatchNorm20 -> Convolution20 (in-place)
I1025 10:04:54.214882 39807 net.cpp:122] Setting up BatchNorm20
I1025 10:04:54.214896 39807 net.cpp:129] Top shape: 128 64 8 8 (524288)
I1025 10:04:54.214905 39807 net.cpp:137] Memory required for data: 813171200
I1025 10:04:54.214918 39807 layer_factory.hpp:77] Creating layer Scale20
I1025 10:04:54.214954 39807 net.cpp:84] Creating Layer Scale20
I1025 10:04:54.214963 39807 net.cpp:406] Scale20 <- Convolution20
I1025 10:04:54.214974 39807 net.cpp:367] Scale20 -> Convolution20 (in-place)
I1025 10:04:54.215034 39807 layer_factory.hpp:77] Creating layer Scale20
I1025 10:04:54.215226 39807 net.cpp:122] Setting up Scale20
I1025 10:04:54.215240 39807 net.cpp:129] Top shape: 128 64 8 8 (524288)
I1025 10:04:54.215248 39807 net.cpp:137] Memory required for data: 815268352
I1025 10:04:54.215260 39807 layer_factory.hpp:77] Creating layer Convolution20_Scale20_0_split
I1025 10:04:54.215271 39807 net.cpp:84] Creating Layer Convolution20_Scale20_0_split
I1025 10:04:54.215279 39807 net.cpp:406] Convolution20_Scale20_0_split <- Convolution20
I1025 10:04:54.215289 39807 net.cpp:380] Convolution20_Scale20_0_split -> Convolution20_Scale20_0_split_0
I1025 10:04:54.215304 39807 net.cpp:380] Convolution20_Scale20_0_split -> Convolution20_Scale20_0_split_1
I1025 10:04:54.215355 39807 net.cpp:122] Setting up Convolution20_Scale20_0_split
I1025 10:04:54.215368 39807 net.cpp:129] Top shape: 128 64 8 8 (524288)
I1025 10:04:54.215378 39807 net.cpp:129] Top shape: 128 64 8 8 (524288)
I1025 10:04:54.215385 39807 net.cpp:137] Memory required for data: 819462656
I1025 10:04:54.215392 39807 layer_factory.hpp:77] Creating layer Sigmoid18
I1025 10:04:54.215404 39807 net.cpp:84] Creating Layer Sigmoid18
I1025 10:04:54.215411 39807 net.cpp:406] Sigmoid18 <- Convolution20_Scale20_0_split_0
I1025 10:04:54.215425 39807 net.cpp:380] Sigmoid18 -> Sigmoid18
I1025 10:04:54.216519 39807 net.cpp:122] Setting up Sigmoid18
I1025 10:04:54.216540 39807 net.cpp:129] Top shape: 128 64 8 8 (524288)
I1025 10:04:54.216548 39807 net.cpp:137] Memory required for data: 821559808
I1025 10:04:54.216557 39807 layer_factory.hpp:77] Creating layer Eltwise26
I1025 10:04:54.216568 39807 net.cpp:84] Creating Layer Eltwise26
I1025 10:04:54.216578 39807 net.cpp:406] Eltwise26 <- Convolution20_Scale20_0_split_1
I1025 10:04:54.216588 39807 net.cpp:406] Eltwise26 <- Sigmoid18
I1025 10:04:54.216600 39807 net.cpp:380] Eltwise26 -> Eltwise26
I1025 10:04:54.216646 39807 net.cpp:122] Setting up Eltwise26
I1025 10:04:54.216660 39807 net.cpp:129] Top shape: 128 64 8 8 (524288)
I1025 10:04:54.216667 39807 net.cpp:137] Memory required for data: 823656960
I1025 10:04:54.216675 39807 layer_factory.hpp:77] Creating layer Convolution21
I1025 10:04:54.216692 39807 net.cpp:84] Creating Layer Convolution21
I1025 10:04:54.216702 39807 net.cpp:406] Convolution21 <- Eltwise26
I1025 10:04:54.216713 39807 net.cpp:380] Convolution21 -> Convolution21
I1025 10:04:54.220924 39807 net.cpp:122] Setting up Convolution21
I1025 10:04:54.220943 39807 net.cpp:129] Top shape: 128 64 8 8 (524288)
I1025 10:04:54.220949 39807 net.cpp:137] Memory required for data: 825754112
I1025 10:04:54.220958 39807 layer_factory.hpp:77] Creating layer BatchNorm21
I1025 10:04:54.220970 39807 net.cpp:84] Creating Layer BatchNorm21
I1025 10:04:54.220978 39807 net.cpp:406] BatchNorm21 <- Convolution21
I1025 10:04:54.220985 39807 net.cpp:367] BatchNorm21 -> Convolution21 (in-place)
I1025 10:04:54.221207 39807 net.cpp:122] Setting up BatchNorm21
I1025 10:04:54.221216 39807 net.cpp:129] Top shape: 128 64 8 8 (524288)
I1025 10:04:54.221221 39807 net.cpp:137] Memory required for data: 827851264
I1025 10:04:54.221232 39807 layer_factory.hpp:77] Creating layer Scale21
I1025 10:04:54.221240 39807 net.cpp:84] Creating Layer Scale21
I1025 10:04:54.221246 39807 net.cpp:406] Scale21 <- Convolution21
I1025 10:04:54.221252 39807 net.cpp:367] Scale21 -> Convolution21 (in-place)
I1025 10:04:54.221300 39807 layer_factory.hpp:77] Creating layer Scale21
I1025 10:04:54.221441 39807 net.cpp:122] Setting up Scale21
I1025 10:04:54.221449 39807 net.cpp:129] Top shape: 128 64 8 8 (524288)
I1025 10:04:54.221454 39807 net.cpp:137] Memory required for data: 829948416
I1025 10:04:54.221462 39807 layer_factory.hpp:77] Creating layer Eltwise27
I1025 10:04:54.221472 39807 net.cpp:84] Creating Layer Eltwise27
I1025 10:04:54.221477 39807 net.cpp:406] Eltwise27 <- Convolution21
I1025 10:04:54.221483 39807 net.cpp:406] Eltwise27 <- Eltwise25_Eltwise25_0_split_1
I1025 10:04:54.221493 39807 net.cpp:380] Eltwise27 -> Eltwise27
I1025 10:04:54.221515 39807 net.cpp:122] Setting up Eltwise27
I1025 10:04:54.221524 39807 net.cpp:129] Top shape: 128 64 8 8 (524288)
I1025 10:04:54.221529 39807 net.cpp:137] Memory required for data: 832045568
I1025 10:04:54.221534 39807 layer_factory.hpp:77] Creating layer Eltwise27_Eltwise27_0_split
I1025 10:04:54.221540 39807 net.cpp:84] Creating Layer Eltwise27_Eltwise27_0_split
I1025 10:04:54.221545 39807 net.cpp:406] Eltwise27_Eltwise27_0_split <- Eltwise27
I1025 10:04:54.221554 39807 net.cpp:380] Eltwise27_Eltwise27_0_split -> Eltwise27_Eltwise27_0_split_0
I1025 10:04:54.221562 39807 net.cpp:380] Eltwise27_Eltwise27_0_split -> Eltwise27_Eltwise27_0_split_1
I1025 10:04:54.221601 39807 net.cpp:122] Setting up Eltwise27_Eltwise27_0_split
I1025 10:04:54.221608 39807 net.cpp:129] Top shape: 128 64 8 8 (524288)
I1025 10:04:54.221614 39807 net.cpp:129] Top shape: 128 64 8 8 (524288)
I1025 10:04:54.221618 39807 net.cpp:137] Memory required for data: 836239872
I1025 10:04:54.221623 39807 layer_factory.hpp:77] Creating layer Sigmoid19
I1025 10:04:54.221632 39807 net.cpp:84] Creating Layer Sigmoid19
I1025 10:04:54.221637 39807 net.cpp:406] Sigmoid19 <- Eltwise27_Eltwise27_0_split_0
I1025 10:04:54.221644 39807 net.cpp:380] Sigmoid19 -> Sigmoid19
I1025 10:04:54.221853 39807 net.cpp:122] Setting up Sigmoid19
I1025 10:04:54.221865 39807 net.cpp:129] Top shape: 128 64 8 8 (524288)
I1025 10:04:54.221870 39807 net.cpp:137] Memory required for data: 838337024
I1025 10:04:54.221875 39807 layer_factory.hpp:77] Creating layer Eltwise28
I1025 10:04:54.221884 39807 net.cpp:84] Creating Layer Eltwise28
I1025 10:04:54.221889 39807 net.cpp:406] Eltwise28 <- Eltwise27_Eltwise27_0_split_1
I1025 10:04:54.221895 39807 net.cpp:406] Eltwise28 <- Sigmoid19
I1025 10:04:54.221901 39807 net.cpp:380] Eltwise28 -> Eltwise28
I1025 10:04:54.221933 39807 net.cpp:122] Setting up Eltwise28
I1025 10:04:54.221941 39807 net.cpp:129] Top shape: 128 64 8 8 (524288)
I1025 10:04:54.221946 39807 net.cpp:137] Memory required for data: 840434176
I1025 10:04:54.221951 39807 layer_factory.hpp:77] Creating layer Pooling1
I1025 10:04:54.221961 39807 net.cpp:84] Creating Layer Pooling1
I1025 10:04:54.221967 39807 net.cpp:406] Pooling1 <- Eltwise28
I1025 10:04:54.221974 39807 net.cpp:380] Pooling1 -> Pooling1
I1025 10:04:54.223022 39807 net.cpp:122] Setting up Pooling1
I1025 10:04:54.223047 39807 net.cpp:129] Top shape: 128 64 1 1 (8192)
I1025 10:04:54.223057 39807 net.cpp:137] Memory required for data: 840466944
I1025 10:04:54.223064 39807 layer_factory.hpp:77] Creating layer InnerProduct1
I1025 10:04:54.223085 39807 net.cpp:84] Creating Layer InnerProduct1
I1025 10:04:54.223095 39807 net.cpp:406] InnerProduct1 <- Pooling1
I1025 10:04:54.223106 39807 net.cpp:380] InnerProduct1 -> InnerProduct1
I1025 10:04:54.223327 39807 net.cpp:122] Setting up InnerProduct1
I1025 10:04:54.223342 39807 net.cpp:129] Top shape: 128 10 (1280)
I1025 10:04:54.223350 39807 net.cpp:137] Memory required for data: 840472064
I1025 10:04:54.223362 39807 layer_factory.hpp:77] Creating layer Accuracy1
I1025 10:04:54.223374 39807 net.cpp:84] Creating Layer Accuracy1
I1025 10:04:54.223383 39807 net.cpp:406] Accuracy1 <- InnerProduct1
I1025 10:04:54.223392 39807 net.cpp:406] Accuracy1 <- Data2
I1025 10:04:54.223407 39807 net.cpp:380] Accuracy1 -> Accuracy1
…
