…
I1025 10:23:23.971318  1220 upgrade_proto.cpp:80] Successfully upgraded batch norm layers using deprecated params.
I1025 10:23:23.972512  1220 net.cpp:51] Initializing net from parameters: 
state {
  phase: TEST
  level: 0
  stage: ""
}
layer {
  name: "Data1"
  type: "Data"
  top: "Data1"
  top: "Data2"
  transform_param {
    crop_size: 32
    mean_value: 125.306915
    mean_value: 122.950394
    mean_value: 113.865387
  }
  data_param {
    source: "/data/hjy1312/data/RESNET/cifar-10/cifar10_test_lmdb"
    batch_size: 128
    backend: LMDB
  }
}
layer {
  name: "Convolution1"
  type: "Convolution"
  bottom: "Data1"
  top: "Convolution1"
  param {
    lr_mult: 1
    decay_mult: 1
  }
  param {
    lr_mult: 2
    decay_mult: 0
  }
  convolution_param {
    num_output: 16
    bias_term: true
    pad: 1
    kernel_size: 3
    stride: 1
    weight_filler {
      type: "msra"
    }
    bias_filler {
      type: "constant"
    }
  }
}
layer {
  name: "BatchNorm1"
  type: "BatchNorm"
  bottom: "Convolution1"
  top: "Convolution1"
  param {
    lr_mult: 0
    decay_mult: 0
  }
  param {
    lr_mult: 0
    decay_mult: 0
  }
  param {
    lr_mult: 0
    decay_mult: 0
  }
  batch_norm_param {
    use_global_stats: true
  }
}
layer {
  name: "Scale1"
  type: "Scale"
  bottom: "Convolution1"
  top: "Convolution1"
  scale_param {
    bias_term: true
  }
}
layer {
  name: "Sigmoid1"
  type: "Sigmoid"
  bottom: "Convolution1"
  top: "Sigmoid1"
}
layer {
  name: "Eltwise1"
  type: "Eltwise"
  bottom: "Convolution1"
  bottom: "Sigmoid1"
  top: "Eltwise1"
  eltwise_param {
    operation: PROD
  }
}
layer {
  name: "Convolution2"
  type: "Convolution"
  bottom: "Eltwise1"
  top: "Convolution2"
  param {
    lr_mult: 1
    decay_mult: 1
  }
  param {
    lr_mult: 2
    decay_mult: 0
  }
  convolution_param {
    num_output: 16
    bias_term: true
    pad: 1
    kernel_size: 3
    stride: 1
    weight_filler {
      type: "msra"
    }
    bias_filler {
      type: "constant"
    }
  }
}
layer {
  name: "BatchNorm2"
  type: "BatchNorm"
  bottom: "Convolution2"
  top: "Convolution2"
  param {
    lr_mult: 0
    decay_mult: 0
  }
  param {
    lr_mult: 0
    decay_mult: 0
  }
  param {
    lr_mult: 0
    decay_mult: 0
  }
  batch_norm_param {
    use_global_stats: true
  }
}
layer {
  name: "Scale2"
  type: "Scale"
  bottom: "Convolution2"
  top: "Convolution2"
  scale_param {
    bias_term: true
  }
}
layer {
  name: "Sigmoid2"
  type: "Sigmoid"
  bottom: "Convolution2"
  top: "Sigmoid2"
}
layer {
  name: "Eltwise2"
  type: "Eltwise"
  bottom: "Convolution2"
  bottom: "Sigmoid2"
  top: "Eltwise2"
  eltwise_param {
    operation: PROD
  }
}
layer {
  name: "Convolution3"
  type: "Convolution"
  bottom: "Eltwise2"
  top: "Convolution3"
  param {
    lr_mult: 1
    decay_mult: 1
  }
  param {
    lr_mult: 2
    decay_mult: 0
  }
  convolution_param {
    num_output: 16
    bias_term: true
    pad: 1
    kernel_size: 3
    stride: 1
    weight_filler {
      type: "msra"
    }
    bias_filler {
      type: "constant"
    }
  }
}
layer {
  name: "BatchNorm3"
  type: "BatchNorm"
  bottom: "Convolution3"
  top: "Convolution3"
  param {
    lr_mult: 0
    decay_mult: 0
  }
  param {
    lr_mult: 0
    decay_mult: 0
  }
  param {
    lr_mult: 0
    decay_mult: 0
  }
  batch_norm_param {
    use_global_stats: true
  }
}
layer {
  name: "Scale3"
  type: "Scale"
  bottom: "Convolution3"
  top: "Convolution3"
  scale_param {
    bias_term: true
  }
}
layer {
  name: "Eltwise3"
  type: "Eltwise"
  bottom: "Convolution3"
  bottom: "Eltwise1"
  top: "Eltwise3"
  eltwise_param {
    operation: SUM
  }
}
layer {
  name: "Sigmoid3"
  type: "Sigmoid"
  bottom: "Eltwise3"
  top: "Sigmoid3"
}
layer {
  name: "Eltwise4"
  type: "Eltwise"
  bottom: "Eltwise3"
  bottom: "Sigmoid3"
  top: "Eltwise4"
  eltwise_param {
    operation: PROD
  }
}
layer {
  name: "Convolution4"
  type: "Convolution"
  bottom: "Eltwise4"
  top: "Convolution4"
  param {
    lr_mult: 1
    decay_mult: 1
  }
  param {
    lr_mult: 2
    decay_mult: 0
  }
  convolution_param {
    num_output: 16
    bias_term: true
    pad: 1
    kernel_size: 3
    stride: 1
    weight_filler {
      type: "msra"
    }
    bias_filler {
      type: "constant"
    }
  }
}
layer {
  name: "BatchNorm4"
  type: "BatchNorm"
  bottom: "Convolution4"
  top: "Convolution4"
  param {
    lr_mult: 0
    decay_mult: 0
  }
  param {
    lr_mult: 0
    decay_mult: 0
  }
  param {
    lr_mult: 0
    decay_mult: 0
  }
  batch_norm_param {
    use_global_stats: true
  }
}
layer {
  name: "Scale4"
  type: "Scale"
  bottom: "Convolution4"
  top: "Convolution4"
  scale_param {
    bias_term: true
  }
}
layer {
  name: "Sigmoid4"
  type: "Sigmoid"
  bottom: "Convolution4"
  top: "Sigmoid4"
}
layer {
  name: "Eltwise5"
  type: "Eltwise"
  bottom: "Convolution4"
  bottom: "Sigmoid4"
  top: "Eltwise5"
  eltwise_param {
    operation: PROD
  }
}
layer {
  name: "Convolution5"
  type: "Convolution"
  bottom: "Eltwise5"
  top: "Convolution5"
  param {
    lr_mult: 1
    decay_mult: 1
  }
  param {
    lr_mult: 2
    decay_mult: 0
  }
  convolution_param {
    num_output: 16
    bias_term: true
    pad: 1
    kernel_size: 3
    stride: 1
    weight_filler {
      type: "msra"
    }
    bias_filler {
      type: "constant"
    }
  }
}
layer {
  name: "BatchNorm5"
  type: "BatchNorm"
  bottom: "Convolution5"
  top: "Convolution5"
  param {
    lr_mult: 0
    decay_mult: 0
  }
  param {
    lr_mult: 0
    decay_mult: 0
  }
  param {
    lr_mult: 0
    decay_mult: 0
  }
  batch_norm_param {
    use_global_stats: true
  }
}
layer {
  name: "Scale5"
  type: "Scale"
  bottom: "Convolution5"
  top: "Convolution5"
  scale_param {
    bias_term: true
  }
}
layer {
  name: "Eltwise6"
  type: "Eltwise"
  bottom: "Convolution5"
  bottom: "Eltwise4"
  top: "Eltwise6"
  eltwise_param {
    operation: SUM
  }
}
layer {
  name: "Sigmoid5"
  type: "Sigmoid"
  bottom: "Eltwise6"
  top: "Sigmoid5"
}
layer {
  name: "Eltwise7"
  type: "Eltwise"
  bottom: "Eltwise6"
  bottom: "Sigmoid5"
  top: "Eltwise7"
  eltwise_param {
    operation: PROD
  }
}
layer {
  name: "Convolution6"
  type: "Convolution"
  bottom: "Eltwise7"
  top: "Convolution6"
  param {
    lr_mult: 1
    decay_mult: 1
  }
  param {
    lr_mult: 2
    decay_mult: 0
  }
  convolution_param {
    num_output: 16
    bias_term: true
    pad: 1
    kernel_size: 3
    stride: 1
    weight_filler {
      type: "msra"
    }
    bias_filler {
      type: "constant"
    }
  }
}
layer {
  name: "BatchNorm6"
  type: "BatchNorm"
  bottom: "Convolution6"
  top: "Convolution6"
  param {
    lr_mult: 0
    decay_mult: 0
  }
  param {
    lr_mult: 0
    decay_mult: 0
  }
  param {
    lr_mult: 0
    decay_mult: 0
  }
  batch_norm_param {
    use_global_stats: true
  }
}
layer {
  name: "Scale6"
  type: "Scale"
  bottom: "Convolution6"
  top: "Convolution6"
  scale_param {
    bias_term: true
  }
}
layer {
  name: "Sigmoid6"
  type: "Sigmoid"
  bottom: "Convolution6"
  top: "Sigmoid6"
}
layer {
  name: "Eltwise8"
  type: "Eltwise"
  bottom: "Convolution6"
  bottom: "Sigmoid6"
  top: "Eltwise8"
  eltwise_param {
    operation: PROD
  }
}
layer {
  name: "Convolution7"
  type: "Convolution"
  bottom: "Eltwise8"
  top: "Convolution7"
  param {
    lr_mult: 1
    decay_mult: 1
  }
  param {
    lr_mult: 2
    decay_mult: 0
  }
  convolution_param {
    num_output: 16
    bias_term: true
    pad: 1
    kernel_size: 3
    stride: 1
    weight_filler {
      type: "msra"
    }
    bias_filler {
      type: "constant"
    }
  }
}
layer {
  name: "BatchNorm7"
  type: "BatchNorm"
  bottom: "Convolution7"
  top: "Convolution7"
  param {
    lr_mult: 0
    decay_mult: 0
  }
  param {
    lr_mult: 0
    decay_mult: 0
  }
  param {
    lr_mult: 0
    decay_mult: 0
  }
  batch_norm_param {
    use_global_stats: true
  }
}
layer {
  name: "Scale7"
  type: "Scale"
  bottom: "Convolution7"
  top: "Convolution7"
  scale_param {
    bias_term: true
  }
}
layer {
  name: "Eltwise9"
  type: "Eltwise"
  bottom: "Convolution7"
  bottom: "Eltwise7"
  top: "Eltwise9"
  eltwise_param {
    operation: SUM
  }
}
layer {
  name: "Sigmoid7"
  type: "Sigmoid"
  bottom: "Eltwise9"
  top: "Sigmoid7"
}
layer {
  name: "Eltwise10"
  type: "Eltwise"
  bottom: "Eltwise9"
  bottom: "Sigmoid7"
  top: "Eltwise10"
  eltwise_param {
    operation: PROD
  }
}
layer {
  name: "Convolution8"
  type: "Convolution"
  bottom: "Eltwise10"
  top: "Convolution8"
  param {
    lr_mult: 1
    decay_mult: 1
  }
  param {
    lr_mult: 2
    decay_mult: 0
  }
  convolution_param {
    num_output: 32
    bias_term: true
    pad: 1
    kernel_size: 3
    stride: 2
    weight_filler {
      type: "msra"
    }
    bias_filler {
      type: "constant"
    }
  }
}
layer {
  name: "BatchNorm8"
  type: "BatchNorm"
  bottom: "Convolution8"
  top: "Convolution8"
  param {
    lr_mult: 0
    decay_mult: 0
  }
  param {
    lr_mult: 0
    decay_mult: 0
  }
  param {
    lr_mult: 0
    decay_mult: 0
  }
  batch_norm_param {
    use_global_stats: true
  }
}
layer {
  name: "Scale8"
  type: "Scale"
  bottom: "Convolution8"
  top: "Convolution8"
  scale_param {
    bias_term: true
  }
}
layer {
  name: "Sigmoid8"
  type: "Sigmoid"
  bottom: "Convolution8"
  top: "Sigmoid8"
}
layer {
  name: "Eltwise11"
  type: "Eltwise"
  bottom: "Convolution8"
  bottom: "Sigmoid8"
  top: "Eltwise11"
  eltwise_param {
    operation: PROD
  }
}
layer {
  name: "Convolution9"
  type: "Convolution"
  bottom: "Eltwise11"
  top: "Convolution9"
  param {
    lr_mult: 1
    decay_mult: 1
  }
  param {
    lr_mult: 2
    decay_mult: 0
  }
  convolution_param {
    num_output: 32
    bias_term: true
    pad: 1
    kernel_size: 3
    stride: 1
    weight_filler {
      type: "msra"
    }
    bias_filler {
      type: "constant"
    }
  }
}
layer {
  name: "BatchNorm9"
  type: "BatchNorm"
  bottom: "Convolution9"
  top: "Convolution9"
  param {
    lr_mult: 0
    decay_mult: 0
  }
  param {
    lr_mult: 0
    decay_mult: 0
  }
  param {
    lr_mult: 0
    decay_mult: 0
  }
  batch_norm_param {
    use_global_stats: true
  }
}
layer {
  name: "Scale9"
  type: "Scale"
  bottom: "Convolution9"
  top: "Convolution9"
  scale_param {
    bias_term: true
  }
}
layer {
  name: "Convolution10"
  type: "Convolution"
  bottom: "Eltwise10"
  top: "Convolution10"
  param {
    lr_mult: 1
    decay_mult: 1
  }
  param {
    lr_mult: 2
    decay_mult: 0
  }
  convolution_param {
    num_output: 32
    bias_term: true
    pad: 0
    kernel_size: 1
    stride: 2
    weight_filler {
      type: "msra"
    }
    bias_filler {
      type: "constant"
    }
  }
}
layer {
  name: "BatchNorm10"
  type: "BatchNorm"
  bottom: "Convolution10"
  top: "Convolution10"
  param {
    lr_mult: 0
    decay_mult: 0
  }
  param {
    lr_mult: 0
    decay_mult: 0
  }
  param {
    lr_mult: 0
    decay_mult: 0
  }
  batch_norm_param {
    use_global_stats: true
  }
}
layer {
  name: "Scale10"
  type: "Scale"
  bottom: "Convolution10"
  top: "Convolution10"
  scale_param {
    bias_term: true
  }
}
layer {
  name: "Eltwise12"
  type: "Eltwise"
  bottom: "Convolution9"
  bottom: "Convolution10"
  top: "Eltwise12"
  eltwise_param {
    operation: SUM
  }
}
layer {
  name: "Sigmoid9"
  type: "Sigmoid"
  bottom: "Eltwise12"
  top: "Sigmoid9"
}
layer {
  name: "Eltwise13"
  type: "Eltwise"
  bottom: "Eltwise12"
  bottom: "Sigmoid9"
  top: "Eltwise13"
  eltwise_param {
    operation: PROD
  }
}
layer {
  name: "Convolution11"
  type: "Convolution"
  bottom: "Eltwise13"
  top: "Convolution11"
  param {
    lr_mult: 1
    decay_mult: 1
  }
  param {
    lr_mult: 2
    decay_mult: 0
  }
  convolution_param {
    num_output: 32
    bias_term: true
    pad: 1
    kernel_size: 3
    stride: 1
    weight_filler {
      type: "msra"
    }
    bias_filler {
      type: "constant"
    }
  }
}
layer {
  name: "BatchNorm11"
  type: "BatchNorm"
  bottom: "Convolution11"
  top: "Convolution11"
  param {
    lr_mult: 0
    decay_mult: 0
  }
  param {
    lr_mult: 0
    decay_mult: 0
  }
  param {
    lr_mult: 0
    decay_mult: 0
  }
  batch_norm_param {
    use_global_stats: true
  }
}
layer {
  name: "Scale11"
  type: "Scale"
  bottom: "Convolution11"
  top: "Convolution11"
  scale_param {
    bias_term: true
  }
}
layer {
  name: "Sigmoid10"
  type: "Sigmoid"
  bottom: "Convolution11"
  top: "Sigmoid10"
}
layer {
  name: "Eltwise14"
  type: "Eltwise"
  bottom: "Convolution11"
  bottom: "Sigmoid10"
  top: "Eltwise14"
  eltwise_param {
    operation: PROD
  }
}
layer {
  name: "Convolution12"
  type: "Convolution"
  bottom: "Eltwise14"
  top: "Convolution12"
  param {
    lr_mult: 1
    decay_mult: 1
  }
  param {
    lr_mult: 2
    decay_mult: 0
  }
  convolution_param {
    num_output: 32
    bias_term: true
    pad: 1
    kernel_size: 3
    stride: 1
    weight_filler {
      type: "msra"
    }
    bias_filler {
      type: "constant"
    }
  }
}
layer {
  name: "BatchNorm12"
  type: "BatchNorm"
  bottom: "Convolution12"
  top: "Convolution12"
  param {
    lr_mult: 0
    decay_mult: 0
  }
  param {
    lr_mult: 0
    decay_mult: 0
  }
  param {
    lr_mult: 0
    decay_mult: 0
  }
  batch_norm_param {
    use_global_stats: true
  }
}
layer {
  name: "Scale12"
  type: "Scale"
  bottom: "Convolution12"
  top: "Convolution12"
  scale_param {
    bias_term: true
  }
}
layer {
  name: "Eltwise15"
  type: "Eltwise"
  bottom: "Convolution12"
  bottom: "Eltwise13"
  top: "Eltwise15"
  eltwise_param {
    operation: SUM
  }
}
layer {
  name: "Sigmoid11"
  type: "Sigmoid"
  bottom: "Eltwise15"
  top: "Sigmoid11"
}
layer {
  name: "Eltwise16"
  type: "Eltwise"
  bottom: "Eltwise15"
  bottom: "Sigmoid11"
  top: "Eltwise16"
  eltwise_param {
    operation: PROD
  }
}
layer {
  name: "Convolution13"
  type: "Convolution"
  bottom: "Eltwise16"
  top: "Convolution13"
  param {
    lr_mult: 1
    decay_mult: 1
  }
  param {
    lr_mult: 2
    decay_mult: 0
  }
  convolution_param {
    num_output: 32
    bias_term: true
    pad: 1
    kernel_size: 3
    stride: 1
    weight_filler {
      type: "msra"
    }
    bias_filler {
      type: "constant"
    }
  }
}
layer {
  name: "BatchNorm13"
  type: "BatchNorm"
  bottom: "Convolution13"
  top: "Convolution13"
  param {
    lr_mult: 0
    decay_mult: 0
  }
  param {
    lr_mult: 0
    decay_mult: 0
  }
  param {
    lr_mult: 0
    decay_mult: 0
  }
  batch_norm_param {
    use_global_stats: true
  }
}
layer {
  name: "Scale13"
  type: "Scale"
  bottom: "Convolution13"
  top: "Convolution13"
  scale_param {
    bias_term: true
  }
}
layer {
  name: "Sigmoid12"
  type: "Sigmoid"
  bottom: "Convolution13"
  top: "Sigmoid12"
}
layer {
  name: "Eltwise17"
  type: "Eltwise"
  bottom: "Convolution13"
  bottom: "Sigmoid12"
  top: "Eltwise17"
  eltwise_param {
    operation: PROD
  }
}
layer {
  name: "Convolution14"
  type: "Convolution"
  bottom: "Eltwise17"
  top: "Convolution14"
  param {
    lr_mult: 1
    decay_mult: 1
  }
  param {
    lr_mult: 2
    decay_mult: 0
  }
  convolution_param {
    num_output: 32
    bias_term: true
    pad: 1
    kernel_size: 3
    stride: 1
    weight_filler {
      type: "msra"
    }
    bias_filler {
      type: "constant"
    }
  }
}
layer {
  name: "BatchNorm14"
  type: "BatchNorm"
  bottom: "Convolution14"
  top: "Convolution14"
  param {
    lr_mult: 0
    decay_mult: 0
  }
  param {
    lr_mult: 0
    decay_mult: 0
  }
  param {
    lr_mult: 0
    decay_mult: 0
  }
  batch_norm_param {
    use_global_stats: true
  }
}
layer {
  name: "Scale14"
  type: "Scale"
  bottom: "Convolution14"
  top: "Convolution14"
  scale_param {
    bias_term: true
  }
}
layer {
  name: "Eltwise18"
  type: "Eltwise"
  bottom: "Convolution14"
  bottom: "Eltwise16"
  top: "Eltwise18"
  eltwise_param {
    operation: SUM
  }
}
layer {
  name: "Sigmoid13"
  type: "Sigmoid"
  bottom: "Eltwise18"
  top: "Sigmoid13"
}
layer {
  name: "Eltwise19"
  type: "Eltwise"
  bottom: "Eltwise18"
  bottom: "Sigmoid13"
  top: "Eltwise19"
  eltwise_param {
    operation: PROD
  }
}
layer {
  name: "Convolution15"
  type: "Convolution"
  bottom: "Eltwise19"
  top: "Convolution15"
  param {
    lr_mult: 1
    decay_mult: 1
  }
  param {
    lr_mult: 2
    decay_mult: 0
  }
  convolution_param {
    num_output: 64
    bias_term: true
    pad: 1
    kernel_size: 3
    stride: 2
    weight_filler {
      type: "msra"
    }
    bias_filler {
      type: "constant"
    }
  }
}
layer {
  name: "BatchNorm15"
  type: "BatchNorm"
  bottom: "Convolution15"
  top: "Convolution15"
  param {
    lr_mult: 0
    decay_mult: 0
  }
  param {
    lr_mult: 0
    decay_mult: 0
  }
  param {
    lr_mult: 0
    decay_mult: 0
  }
  batch_norm_param {
    use_global_stats: true
  }
}
layer {
  name: "Scale15"
  type: "Scale"
  bottom: "Convolution15"
  top: "Convolution15"
  scale_param {
    bias_term: true
  }
}
layer {
  name: "Sigmoid14"
  type: "Sigmoid"
  bottom: "Convolution15"
  top: "Sigmoid14"
}
layer {
  name: "Eltwise20"
  type: "Eltwise"
  bottom: "Convolution15"
  bottom: "Sigmoid14"
  top: "Eltwise20"
  eltwise_param {
    operation: PROD
  }
}
layer {
  name: "Convolution16"
  type: "Convolution"
  bottom: "Eltwise20"
  top: "Convolution16"
  param {
    lr_mult: 1
    decay_mult: 1
  }
  param {
    lr_mult: 2
    decay_mult: 0
  }
  convolution_param {
    num_output: 64
    bias_term: true
    pad: 1
    kernel_size: 3
    stride: 1
    weight_filler {
      type: "msra"
    }
    bias_filler {
      type: "constant"
    }
  }
}
layer {
  name: "BatchNorm16"
  type: "BatchNorm"
  bottom: "Convolution16"
  top: "Convolution16"
  param {
    lr_mult: 0
    decay_mult: 0
  }
  param {
    lr_mult: 0
    decay_mult: 0
  }
  param {
    lr_mult: 0
    decay_mult: 0
  }
  batch_norm_param {
    use_global_stats: true
  }
}
layer {
  name: "Scale16"
  type: "Scale"
  bottom: "Convolution16"
  top: "Convolution16"
  scale_param {
    bias_term: true
  }
}
layer {
  name: "Convolution17"
  type: "Convolution"
  bottom: "Eltwise19"
  top: "Convolution17"
  param {
    lr_mult: 1
    decay_mult: 1
  }
  param {
    lr_mult: 2
    decay_mult: 0
  }
  convolution_param {
    num_output: 64
    bias_term: true
    pad: 0
    kernel_size: 1
    stride: 2
    weight_filler {
      type: "msra"
    }
    bias_filler {
      type: "constant"
    }
  }
}
layer {
  name: "BatchNorm17"
  type: "BatchNorm"
  bottom: "Convolution17"
  top: "Convolution17"
  param {
    lr_mult: 0
    decay_mult: 0
  }
  param {
    lr_mult: 0
    decay_mult: 0
  }
  param {
    lr_mult: 0
    decay_mult: 0
  }
  batch_norm_param {
    use_global_stats: true
  }
}
layer {
  name: "Scale17"
  type: "Scale"
  bottom: "Convolution17"
  top: "Convolution17"
  scale_param {
    bias_term: true
  }
}
layer {
  name: "Eltwise21"
  type: "Eltwise"
  bottom: "Convolution16"
  bottom: "Convolution17"
  top: "Eltwise21"
  eltwise_param {
    operation: SUM
  }
}
layer {
  name: "Sigmoid15"
  type: "Sigmoid"
  bottom: "Eltwise21"
  top: "Sigmoid15"
}
layer {
  name: "Eltwise22"
  type: "Eltwise"
  bottom: "Eltwise21"
  bottom: "Sigmoid15"
  top: "Eltwise22"
  eltwise_param {
    operation: PROD
  }
}
layer {
  name: "Convolution18"
  type: "Convolution"
  bottom: "Eltwise22"
  top: "Convolution18"
  param {
    lr_mult: 1
    decay_mult: 1
  }
  param {
    lr_mult: 2
    decay_mult: 0
  }
  convolution_param {
    num_output: 64
    bias_term: true
    pad: 1
    kernel_size: 3
    stride: 1
    weight_filler {
      type: "msra"
    }
    bias_filler {
      type: "constant"
    }
  }
}
layer {
  name: "BatchNorm18"
  type: "BatchNorm"
  bottom: "Convolution18"
  top: "Convolution18"
  param {
    lr_mult: 0
    decay_mult: 0
  }
  param {
    lr_mult: 0
    decay_mult: 0
  }
  param {
    lr_mult: 0
    decay_mult: 0
  }
  batch_norm_param {
    use_global_stats: true
  }
}
layer {
  name: "Scale18"
  type: "Scale"
  bottom: "Convolution18"
  top: "Convolution18"
  scale_param {
    bias_term: true
  }
}
layer {
  name: "Sigmoid16"
  type: "Sigmoid"
  bottom: "Convolution18"
  top: "Sigmoid16"
}
layer {
  name: "Eltwise23"
  type: "Eltwise"
  bottom: "Convolution18"
  bottom: "Sigmoid16"
  top: "Eltwise23"
  eltwise_param {
    operation: PROD
  }
}
layer {
  name: "Convolution19"
  type: "Convolution"
  bottom: "Eltwise23"
  top: "Convolution19"
  param {
    lr_mult: 1
    decay_mult: 1
  }
  param {
    lr_mult: 2
    decay_mult: 0
  }
  convolution_param {
    num_output: 64
    bias_term: true
    pad: 1
    kernel_size: 3
    stride: 1
    weight_filler {
      type: "msra"
    }
    bias_filler {
      type: "constant"
    }
  }
}
layer {
  name: "BatchNorm19"
  type: "BatchNorm"
  bottom: "Convolution19"
  top: "Convolution19"
  param {
    lr_mult: 0
    decay_mult: 0
  }
  param {
    lr_mult: 0
    decay_mult: 0
  }
  param {
    lr_mult: 0
    decay_mult: 0
  }
  batch_norm_param {
    use_global_stats: true
  }
}
layer {
  name: "Scale19"
  type: "Scale"
  bottom: "Convolution19"
  top: "Convolution19"
  scale_param {
    bias_term: true
  }
}
layer {
  name: "Eltwise24"
  type: "Eltwise"
  bottom: "Convolution19"
  bottom: "Eltwise22"
  top: "Eltwise24"
  eltwise_param {
    operation: SUM
  }
}
layer {
  name: "Sigmoid17"
  type: "Sigmoid"
  bottom: "Eltwise24"
  top: "Sigmoid17"
}
layer {
  name: "Eltwise25"
  type: "Eltwise"
  bottom: "Eltwise24"
  bottom: "Sigmoid17"
  top: "Eltwise25"
  eltwise_param {
    operation: PROD
  }
}
layer {
  name: "Convolution20"
  type: "Convolution"
  bottom: "Eltwise25"
  top: "Convolution20"
  param {
    lr_mult: 1
    decay_mult: 1
  }
  param {
    lr_mult: 2
    decay_mult: 0
  }
  convolution_param {
    num_output: 64
    bias_term: true
    pad: 1
    kernel_size: 3
    stride: 1
    weight_filler {
      type: "msra"
    }
    bias_filler {
      type: "constant"
    }
  }
}
layer {
  name: "BatchNorm20"
  type: "BatchNorm"
  bottom: "Convolution20"
  top: "Convolution20"
  param {
    lr_mult: 0
    decay_mult: 0
  }
  param {
    lr_mult: 0
    decay_mult: 0
  }
  param {
    lr_mult: 0
    decay_mult: 0
  }
  batch_norm_param {
    use_global_stats: true
  }
}
layer {
  name: "Scale20"
  type: "Scale"
  bottom: "Convolution20"
  top: "Convolution20"
  scale_param {
    bias_term: true
  }
}
layer {
  name: "Sigmoid18"
  type: "Sigmoid"
  bottom: "Convolution20"
  top: "Sigmoid18"
}
layer {
  name: "Eltwise26"
  type: "Eltwise"
  bottom: "Convolution20"
  bottom: "Sigmoid18"
  top: "Eltwise26"
  eltwise_param {
    operation: PROD
  }
}
layer {
  name: "Convolution21"
  type: "Convolution"
  bottom: "Eltwise26"
  top: "Convolution21"
  param {
    lr_mult: 1
    decay_mult: 1
  }
  param {
    lr_mult: 2
    decay_mult: 0
  }
  convolution_param {
    num_output: 64
    bias_term: true
    pad: 1
    kernel_size: 3
    stride: 1
    weight_filler {
      type: "msra"
    }
    bias_filler {
      type: "constant"
    }
  }
}
layer {
  name: "BatchNorm21"
  type: "BatchNorm"
  bottom: "Convolution21"
  top: "Convolution21"
  param {
    lr_mult: 0
    decay_mult: 0
  }
  param {
    lr_mult: 0
    decay_mult: 0
  }
  param {
    lr_mult: 0
    decay_mult: 0
  }
  batch_norm_param {
    use_global_stats: true
  }
}
layer {
  name: "Scale21"
  type: "Scale"
  bottom: "Convolution21"
  top: "Convolution21"
  scale_param {
    bias_term: true
  }
}
layer {
  name: "Eltwise27"
  type: "Eltwise"
  bottom: "Convolution21"
  bottom: "Eltwise25"
  top: "Eltwise27"
  eltwise_param {
    operation: SUM
  }
}
layer {
  name: "Sigmoid19"
  type: "Sigmoid"
  bottom: "Eltwise27"
  top: "Sigmoid19"
}
layer {
  name: "Eltwise28"
  type: "Eltwise"
  bottom: "Eltwise27"
  bottom: "Sigmoid19"
  top: "Eltwise28"
  eltwise_param {
    operation: PROD
  }
}
layer {
  name: "Pooling1"
  type: "Pooling"
  bottom: "Eltwise28"
  top: "Pooling1"
  pooling_param {
    pool: AVE
    global_pooling: true
  }
}
layer {
  name: "InnerProduct1"
  type: "InnerProduct"
  bottom: "Pooling1"
  top: "InnerProduct1"
  inner_product_param {
    num_output: 10
    weight_filler {
      type: "msra"
    }
    bias_filler {
      type: "constant"
    }
  }
}
layer {
  name: "Accuracy1"
  type: "Accuracy"
  bottom: "InnerProduct1"
  bottom: "Data2"
  top: "Accuracy1"
}
I1025 10:23:23.973341  1220 layer_factory.hpp:77] Creating layer Data1
I1025 10:23:23.973508  1220 db_lmdb.cpp:35] Opened lmdb /data/hjy1312/data/RESNET/cifar-10/cifar10_test_lmdb
I1025 10:23:23.973561  1220 net.cpp:84] Creating Layer Data1
I1025 10:23:23.973574  1220 net.cpp:380] Data1 -> Data1
I1025 10:23:23.973609  1220 net.cpp:380] Data1 -> Data2
I1025 10:23:23.999040  1220 data_layer.cpp:45] output data size: 128,3,32,32
I1025 10:23:24.009708  1220 net.cpp:122] Setting up Data1
I1025 10:23:24.009766  1220 net.cpp:129] Top shape: 128 3 32 32 (393216)
I1025 10:23:24.009779  1220 net.cpp:129] Top shape: 128 (128)
I1025 10:23:24.009788  1220 net.cpp:137] Memory required for data: 1573376
I1025 10:23:24.009801  1220 layer_factory.hpp:77] Creating layer Convolution1
I1025 10:23:24.009836  1220 net.cpp:84] Creating Layer Convolution1
I1025 10:23:24.009848  1220 net.cpp:406] Convolution1 <- Data1
I1025 10:23:24.009868  1220 net.cpp:380] Convolution1 -> Convolution1
I1025 10:23:24.248406  1220 net.cpp:122] Setting up Convolution1
I1025 10:23:24.248452  1220 net.cpp:129] Top shape: 128 16 32 32 (2097152)
I1025 10:23:24.248458  1220 net.cpp:137] Memory required for data: 9961984
I1025 10:23:24.248477  1220 layer_factory.hpp:77] Creating layer BatchNorm1
I1025 10:23:24.248492  1220 net.cpp:84] Creating Layer BatchNorm1
I1025 10:23:24.248499  1220 net.cpp:406] BatchNorm1 <- Convolution1
I1025 10:23:24.248507  1220 net.cpp:367] BatchNorm1 -> Convolution1 (in-place)
I1025 10:23:24.248689  1220 net.cpp:122] Setting up BatchNorm1
I1025 10:23:24.248699  1220 net.cpp:129] Top shape: 128 16 32 32 (2097152)
I1025 10:23:24.248704  1220 net.cpp:137] Memory required for data: 18350592
I1025 10:23:24.248716  1220 layer_factory.hpp:77] Creating layer Scale1
I1025 10:23:24.248725  1220 net.cpp:84] Creating Layer Scale1
I1025 10:23:24.248730  1220 net.cpp:406] Scale1 <- Convolution1
I1025 10:23:24.248738  1220 net.cpp:367] Scale1 -> Convolution1 (in-place)
I1025 10:23:24.248777  1220 layer_factory.hpp:77] Creating layer Scale1
I1025 10:23:24.248878  1220 net.cpp:122] Setting up Scale1
I1025 10:23:24.248888  1220 net.cpp:129] Top shape: 128 16 32 32 (2097152)
I1025 10:23:24.248891  1220 net.cpp:137] Memory required for data: 26739200
I1025 10:23:24.248899  1220 layer_factory.hpp:77] Creating layer Convolution1_Scale1_0_split
I1025 10:23:24.248908  1220 net.cpp:84] Creating Layer Convolution1_Scale1_0_split
I1025 10:23:24.248914  1220 net.cpp:406] Convolution1_Scale1_0_split <- Convolution1
I1025 10:23:24.248919  1220 net.cpp:380] Convolution1_Scale1_0_split -> Convolution1_Scale1_0_split_0
I1025 10:23:24.248929  1220 net.cpp:380] Convolution1_Scale1_0_split -> Convolution1_Scale1_0_split_1
I1025 10:23:24.248962  1220 net.cpp:122] Setting up Convolution1_Scale1_0_split
I1025 10:23:24.248970  1220 net.cpp:129] Top shape: 128 16 32 32 (2097152)
I1025 10:23:24.248975  1220 net.cpp:129] Top shape: 128 16 32 32 (2097152)
I1025 10:23:24.248980  1220 net.cpp:137] Memory required for data: 43516416
I1025 10:23:24.248984  1220 layer_factory.hpp:77] Creating layer Sigmoid1
I1025 10:23:24.248991  1220 net.cpp:84] Creating Layer Sigmoid1
I1025 10:23:24.248996  1220 net.cpp:406] Sigmoid1 <- Convolution1_Scale1_0_split_0
I1025 10:23:24.249002  1220 net.cpp:380] Sigmoid1 -> Sigmoid1
I1025 10:23:24.251026  1220 net.cpp:122] Setting up Sigmoid1
I1025 10:23:24.251049  1220 net.cpp:129] Top shape: 128 16 32 32 (2097152)
I1025 10:23:24.251056  1220 net.cpp:137] Memory required for data: 51905024
I1025 10:23:24.251062  1220 layer_factory.hpp:77] Creating layer Eltwise1
I1025 10:23:24.251071  1220 net.cpp:84] Creating Layer Eltwise1
I1025 10:23:24.251077  1220 net.cpp:406] Eltwise1 <- Convolution1_Scale1_0_split_1
I1025 10:23:24.251085  1220 net.cpp:406] Eltwise1 <- Sigmoid1
I1025 10:23:24.251091  1220 net.cpp:380] Eltwise1 -> Eltwise1
I1025 10:23:24.251122  1220 net.cpp:122] Setting up Eltwise1
I1025 10:23:24.251130  1220 net.cpp:129] Top shape: 128 16 32 32 (2097152)
I1025 10:23:24.251135  1220 net.cpp:137] Memory required for data: 60293632
I1025 10:23:24.251139  1220 layer_factory.hpp:77] Creating layer Eltwise1_Eltwise1_0_split
I1025 10:23:24.251157  1220 net.cpp:84] Creating Layer Eltwise1_Eltwise1_0_split
I1025 10:23:24.251179  1220 net.cpp:406] Eltwise1_Eltwise1_0_split <- Eltwise1
I1025 10:23:24.251186  1220 net.cpp:380] Eltwise1_Eltwise1_0_split -> Eltwise1_Eltwise1_0_split_0
I1025 10:23:24.251194  1220 net.cpp:380] Eltwise1_Eltwise1_0_split -> Eltwise1_Eltwise1_0_split_1
I1025 10:23:24.251230  1220 net.cpp:122] Setting up Eltwise1_Eltwise1_0_split
I1025 10:23:24.251237  1220 net.cpp:129] Top shape: 128 16 32 32 (2097152)
I1025 10:23:24.251242  1220 net.cpp:129] Top shape: 128 16 32 32 (2097152)
I1025 10:23:24.251246  1220 net.cpp:137] Memory required for data: 77070848
I1025 10:23:24.251251  1220 layer_factory.hpp:77] Creating layer Convolution2
I1025 10:23:24.251263  1220 net.cpp:84] Creating Layer Convolution2
I1025 10:23:24.251269  1220 net.cpp:406] Convolution2 <- Eltwise1_Eltwise1_0_split_0
I1025 10:23:24.251276  1220 net.cpp:380] Convolution2 -> Convolution2
I1025 10:23:24.253736  1220 net.cpp:122] Setting up Convolution2
I1025 10:23:24.253756  1220 net.cpp:129] Top shape: 128 16 32 32 (2097152)
I1025 10:23:24.253762  1220 net.cpp:137] Memory required for data: 85459456
I1025 10:23:24.253773  1220 layer_factory.hpp:77] Creating layer BatchNorm2
I1025 10:23:24.253782  1220 net.cpp:84] Creating Layer BatchNorm2
I1025 10:23:24.253788  1220 net.cpp:406] BatchNorm2 <- Convolution2
I1025 10:23:24.253796  1220 net.cpp:367] BatchNorm2 -> Convolution2 (in-place)
I1025 10:23:24.253981  1220 net.cpp:122] Setting up BatchNorm2
I1025 10:23:24.253991  1220 net.cpp:129] Top shape: 128 16 32 32 (2097152)
I1025 10:23:24.253995  1220 net.cpp:137] Memory required for data: 93848064
I1025 10:23:24.254004  1220 layer_factory.hpp:77] Creating layer Scale2
I1025 10:23:24.254011  1220 net.cpp:84] Creating Layer Scale2
I1025 10:23:24.254016  1220 net.cpp:406] Scale2 <- Convolution2
I1025 10:23:24.254022  1220 net.cpp:367] Scale2 -> Convolution2 (in-place)
I1025 10:23:24.254057  1220 layer_factory.hpp:77] Creating layer Scale2
I1025 10:23:24.254168  1220 net.cpp:122] Setting up Scale2
I1025 10:23:24.254178  1220 net.cpp:129] Top shape: 128 16 32 32 (2097152)
I1025 10:23:24.254182  1220 net.cpp:137] Memory required for data: 102236672
I1025 10:23:24.254189  1220 layer_factory.hpp:77] Creating layer Convolution2_Scale2_0_split
I1025 10:23:24.254196  1220 net.cpp:84] Creating Layer Convolution2_Scale2_0_split
I1025 10:23:24.254200  1220 net.cpp:406] Convolution2_Scale2_0_split <- Convolution2
I1025 10:23:24.254209  1220 net.cpp:380] Convolution2_Scale2_0_split -> Convolution2_Scale2_0_split_0
I1025 10:23:24.254216  1220 net.cpp:380] Convolution2_Scale2_0_split -> Convolution2_Scale2_0_split_1
I1025 10:23:24.254251  1220 net.cpp:122] Setting up Convolution2_Scale2_0_split
I1025 10:23:24.254261  1220 net.cpp:129] Top shape: 128 16 32 32 (2097152)
I1025 10:23:24.254266  1220 net.cpp:129] Top shape: 128 16 32 32 (2097152)
I1025 10:23:24.254271  1220 net.cpp:137] Memory required for data: 119013888
I1025 10:23:24.254274  1220 layer_factory.hpp:77] Creating layer Sigmoid2
I1025 10:23:24.254281  1220 net.cpp:84] Creating Layer Sigmoid2
I1025 10:23:24.254287  1220 net.cpp:406] Sigmoid2 <- Convolution2_Scale2_0_split_0
I1025 10:23:24.254292  1220 net.cpp:380] Sigmoid2 -> Sigmoid2
I1025 10:23:24.255178  1220 net.cpp:122] Setting up Sigmoid2
I1025 10:23:24.255201  1220 net.cpp:129] Top shape: 128 16 32 32 (2097152)
I1025 10:23:24.255209  1220 net.cpp:137] Memory required for data: 127402496
I1025 10:23:24.255216  1220 layer_factory.hpp:77] Creating layer Eltwise2
I1025 10:23:24.255229  1220 net.cpp:84] Creating Layer Eltwise2
I1025 10:23:24.255239  1220 net.cpp:406] Eltwise2 <- Convolution2_Scale2_0_split_1
I1025 10:23:24.255255  1220 net.cpp:406] Eltwise2 <- Sigmoid2
I1025 10:23:24.255275  1220 net.cpp:380] Eltwise2 -> Eltwise2
I1025 10:23:24.255339  1220 net.cpp:122] Setting up Eltwise2
I1025 10:23:24.255359  1220 net.cpp:129] Top shape: 128 16 32 32 (2097152)
I1025 10:23:24.255373  1220 net.cpp:137] Memory required for data: 135791104
I1025 10:23:24.255400  1220 layer_factory.hpp:77] Creating layer Convolution3
I1025 10:23:24.255446  1220 net.cpp:84] Creating Layer Convolution3
I1025 10:23:24.255463  1220 net.cpp:406] Convolution3 <- Eltwise2
I1025 10:23:24.255486  1220 net.cpp:380] Convolution3 -> Convolution3
I1025 10:23:24.258234  1220 net.cpp:122] Setting up Convolution3
I1025 10:23:24.258252  1220 net.cpp:129] Top shape: 128 16 32 32 (2097152)
I1025 10:23:24.258258  1220 net.cpp:137] Memory required for data: 144179712
I1025 10:23:24.258266  1220 layer_factory.hpp:77] Creating layer BatchNorm3
I1025 10:23:24.258277  1220 net.cpp:84] Creating Layer BatchNorm3
I1025 10:23:24.258282  1220 net.cpp:406] BatchNorm3 <- Convolution3
I1025 10:23:24.258289  1220 net.cpp:367] BatchNorm3 -> Convolution3 (in-place)
I1025 10:23:24.258473  1220 net.cpp:122] Setting up BatchNorm3
I1025 10:23:24.258482  1220 net.cpp:129] Top shape: 128 16 32 32 (2097152)
I1025 10:23:24.258487  1220 net.cpp:137] Memory required for data: 152568320
I1025 10:23:24.258505  1220 layer_factory.hpp:77] Creating layer Scale3
I1025 10:23:24.258515  1220 net.cpp:84] Creating Layer Scale3
I1025 10:23:24.258522  1220 net.cpp:406] Scale3 <- Convolution3
I1025 10:23:24.258527  1220 net.cpp:367] Scale3 -> Convolution3 (in-place)
I1025 10:23:24.258566  1220 layer_factory.hpp:77] Creating layer Scale3
I1025 10:23:24.258675  1220 net.cpp:122] Setting up Scale3
I1025 10:23:24.258684  1220 net.cpp:129] Top shape: 128 16 32 32 (2097152)
I1025 10:23:24.258689  1220 net.cpp:137] Memory required for data: 160956928
I1025 10:23:24.258697  1220 layer_factory.hpp:77] Creating layer Eltwise3
I1025 10:23:24.258703  1220 net.cpp:84] Creating Layer Eltwise3
I1025 10:23:24.258708  1220 net.cpp:406] Eltwise3 <- Convolution3
I1025 10:23:24.258713  1220 net.cpp:406] Eltwise3 <- Eltwise1_Eltwise1_0_split_1
I1025 10:23:24.258721  1220 net.cpp:380] Eltwise3 -> Eltwise3
I1025 10:23:24.258744  1220 net.cpp:122] Setting up Eltwise3
I1025 10:23:24.258751  1220 net.cpp:129] Top shape: 128 16 32 32 (2097152)
I1025 10:23:24.258755  1220 net.cpp:137] Memory required for data: 169345536
I1025 10:23:24.258759  1220 layer_factory.hpp:77] Creating layer Eltwise3_Eltwise3_0_split
I1025 10:23:24.258769  1220 net.cpp:84] Creating Layer Eltwise3_Eltwise3_0_split
I1025 10:23:24.258774  1220 net.cpp:406] Eltwise3_Eltwise3_0_split <- Eltwise3
I1025 10:23:24.258780  1220 net.cpp:380] Eltwise3_Eltwise3_0_split -> Eltwise3_Eltwise3_0_split_0
I1025 10:23:24.258787  1220 net.cpp:380] Eltwise3_Eltwise3_0_split -> Eltwise3_Eltwise3_0_split_1
I1025 10:23:24.258821  1220 net.cpp:122] Setting up Eltwise3_Eltwise3_0_split
I1025 10:23:24.258828  1220 net.cpp:129] Top shape: 128 16 32 32 (2097152)
I1025 10:23:24.258833  1220 net.cpp:129] Top shape: 128 16 32 32 (2097152)
I1025 10:23:24.258838  1220 net.cpp:137] Memory required for data: 186122752
I1025 10:23:24.258842  1220 layer_factory.hpp:77] Creating layer Sigmoid3
I1025 10:23:24.258848  1220 net.cpp:84] Creating Layer Sigmoid3
I1025 10:23:24.258853  1220 net.cpp:406] Sigmoid3 <- Eltwise3_Eltwise3_0_split_0
I1025 10:23:24.258859  1220 net.cpp:380] Sigmoid3 -> Sigmoid3
I1025 10:23:24.259069  1220 net.cpp:122] Setting up Sigmoid3
I1025 10:23:24.259083  1220 net.cpp:129] Top shape: 128 16 32 32 (2097152)
I1025 10:23:24.259088  1220 net.cpp:137] Memory required for data: 194511360
I1025 10:23:24.259093  1220 layer_factory.hpp:77] Creating layer Eltwise4
I1025 10:23:24.259104  1220 net.cpp:84] Creating Layer Eltwise4
I1025 10:23:24.259109  1220 net.cpp:406] Eltwise4 <- Eltwise3_Eltwise3_0_split_1
I1025 10:23:24.259115  1220 net.cpp:406] Eltwise4 <- Sigmoid3
I1025 10:23:24.259121  1220 net.cpp:380] Eltwise4 -> Eltwise4
I1025 10:23:24.259148  1220 net.cpp:122] Setting up Eltwise4
I1025 10:23:24.259156  1220 net.cpp:129] Top shape: 128 16 32 32 (2097152)
I1025 10:23:24.259160  1220 net.cpp:137] Memory required for data: 202899968
I1025 10:23:24.259166  1220 layer_factory.hpp:77] Creating layer Eltwise4_Eltwise4_0_split
I1025 10:23:24.259171  1220 net.cpp:84] Creating Layer Eltwise4_Eltwise4_0_split
I1025 10:23:24.259176  1220 net.cpp:406] Eltwise4_Eltwise4_0_split <- Eltwise4
I1025 10:23:24.259196  1220 net.cpp:380] Eltwise4_Eltwise4_0_split -> Eltwise4_Eltwise4_0_split_0
I1025 10:23:24.259203  1220 net.cpp:380] Eltwise4_Eltwise4_0_split -> Eltwise4_Eltwise4_0_split_1
I1025 10:23:24.259239  1220 net.cpp:122] Setting up Eltwise4_Eltwise4_0_split
I1025 10:23:24.259246  1220 net.cpp:129] Top shape: 128 16 32 32 (2097152)
I1025 10:23:24.259253  1220 net.cpp:129] Top shape: 128 16 32 32 (2097152)
I1025 10:23:24.259256  1220 net.cpp:137] Memory required for data: 219677184
I1025 10:23:24.259260  1220 layer_factory.hpp:77] Creating layer Convolution4
I1025 10:23:24.259274  1220 net.cpp:84] Creating Layer Convolution4
I1025 10:23:24.259279  1220 net.cpp:406] Convolution4 <- Eltwise4_Eltwise4_0_split_0
I1025 10:23:24.259285  1220 net.cpp:380] Convolution4 -> Convolution4
I1025 10:23:24.261503  1220 net.cpp:122] Setting up Convolution4
I1025 10:23:24.261520  1220 net.cpp:129] Top shape: 128 16 32 32 (2097152)
I1025 10:23:24.261526  1220 net.cpp:137] Memory required for data: 228065792
I1025 10:23:24.261534  1220 layer_factory.hpp:77] Creating layer BatchNorm4
I1025 10:23:24.261544  1220 net.cpp:84] Creating Layer BatchNorm4
I1025 10:23:24.261550  1220 net.cpp:406] BatchNorm4 <- Convolution4
I1025 10:23:24.261559  1220 net.cpp:367] BatchNorm4 -> Convolution4 (in-place)
I1025 10:23:24.261742  1220 net.cpp:122] Setting up BatchNorm4
I1025 10:23:24.261752  1220 net.cpp:129] Top shape: 128 16 32 32 (2097152)
I1025 10:23:24.261756  1220 net.cpp:137] Memory required for data: 236454400
I1025 10:23:24.261765  1220 layer_factory.hpp:77] Creating layer Scale4
I1025 10:23:24.261773  1220 net.cpp:84] Creating Layer Scale4
I1025 10:23:24.261778  1220 net.cpp:406] Scale4 <- Convolution4
I1025 10:23:24.261785  1220 net.cpp:367] Scale4 -> Convolution4 (in-place)
I1025 10:23:24.261818  1220 layer_factory.hpp:77] Creating layer Scale4
I1025 10:23:24.261926  1220 net.cpp:122] Setting up Scale4
I1025 10:23:24.261935  1220 net.cpp:129] Top shape: 128 16 32 32 (2097152)
I1025 10:23:24.261940  1220 net.cpp:137] Memory required for data: 244843008
I1025 10:23:24.261946  1220 layer_factory.hpp:77] Creating layer Convolution4_Scale4_0_split
I1025 10:23:24.261953  1220 net.cpp:84] Creating Layer Convolution4_Scale4_0_split
I1025 10:23:24.261958  1220 net.cpp:406] Convolution4_Scale4_0_split <- Convolution4
I1025 10:23:24.261965  1220 net.cpp:380] Convolution4_Scale4_0_split -> Convolution4_Scale4_0_split_0
I1025 10:23:24.261971  1220 net.cpp:380] Convolution4_Scale4_0_split -> Convolution4_Scale4_0_split_1
I1025 10:23:24.262008  1220 net.cpp:122] Setting up Convolution4_Scale4_0_split
I1025 10:23:24.262015  1220 net.cpp:129] Top shape: 128 16 32 32 (2097152)
I1025 10:23:24.262022  1220 net.cpp:129] Top shape: 128 16 32 32 (2097152)
I1025 10:23:24.262025  1220 net.cpp:137] Memory required for data: 261620224
I1025 10:23:24.262029  1220 layer_factory.hpp:77] Creating layer Sigmoid4
I1025 10:23:24.262037  1220 net.cpp:84] Creating Layer Sigmoid4
I1025 10:23:24.262040  1220 net.cpp:406] Sigmoid4 <- Convolution4_Scale4_0_split_0
I1025 10:23:24.262049  1220 net.cpp:380] Sigmoid4 -> Sigmoid4
I1025 10:23:24.262946  1220 net.cpp:122] Setting up Sigmoid4
I1025 10:23:24.262964  1220 net.cpp:129] Top shape: 128 16 32 32 (2097152)
I1025 10:23:24.262969  1220 net.cpp:137] Memory required for data: 270008832
I1025 10:23:24.262974  1220 layer_factory.hpp:77] Creating layer Eltwise5
I1025 10:23:24.262981  1220 net.cpp:84] Creating Layer Eltwise5
I1025 10:23:24.262987  1220 net.cpp:406] Eltwise5 <- Convolution4_Scale4_0_split_1
I1025 10:23:24.262993  1220 net.cpp:406] Eltwise5 <- Sigmoid4
I1025 10:23:24.263001  1220 net.cpp:380] Eltwise5 -> Eltwise5
I1025 10:23:24.263031  1220 net.cpp:122] Setting up Eltwise5
I1025 10:23:24.263039  1220 net.cpp:129] Top shape: 128 16 32 32 (2097152)
I1025 10:23:24.263043  1220 net.cpp:137] Memory required for data: 278397440
I1025 10:23:24.263048  1220 layer_factory.hpp:77] Creating layer Convolution5
I1025 10:23:24.263059  1220 net.cpp:84] Creating Layer Convolution5
I1025 10:23:24.263070  1220 net.cpp:406] Convolution5 <- Eltwise5
I1025 10:23:24.263088  1220 net.cpp:380] Convolution5 -> Convolution5
I1025 10:23:24.264683  1220 net.cpp:122] Setting up Convolution5
I1025 10:23:24.264701  1220 net.cpp:129] Top shape: 128 16 32 32 (2097152)
I1025 10:23:24.264706  1220 net.cpp:137] Memory required for data: 286786048
I1025 10:23:24.264714  1220 layer_factory.hpp:77] Creating layer BatchNorm5
I1025 10:23:24.264725  1220 net.cpp:84] Creating Layer BatchNorm5
I1025 10:23:24.264731  1220 net.cpp:406] BatchNorm5 <- Convolution5
I1025 10:23:24.264739  1220 net.cpp:367] BatchNorm5 -> Convolution5 (in-place)
I1025 10:23:24.264927  1220 net.cpp:122] Setting up BatchNorm5
I1025 10:23:24.264936  1220 net.cpp:129] Top shape: 128 16 32 32 (2097152)
I1025 10:23:24.264941  1220 net.cpp:137] Memory required for data: 295174656
I1025 10:23:24.264955  1220 layer_factory.hpp:77] Creating layer Scale5
I1025 10:23:24.264963  1220 net.cpp:84] Creating Layer Scale5
I1025 10:23:24.264968  1220 net.cpp:406] Scale5 <- Convolution5
I1025 10:23:24.264976  1220 net.cpp:367] Scale5 -> Convolution5 (in-place)
I1025 10:23:24.265014  1220 layer_factory.hpp:77] Creating layer Scale5
I1025 10:23:24.265122  1220 net.cpp:122] Setting up Scale5
I1025 10:23:24.265131  1220 net.cpp:129] Top shape: 128 16 32 32 (2097152)
I1025 10:23:24.265136  1220 net.cpp:137] Memory required for data: 303563264
I1025 10:23:24.265142  1220 layer_factory.hpp:77] Creating layer Eltwise6
I1025 10:23:24.265151  1220 net.cpp:84] Creating Layer Eltwise6
I1025 10:23:24.265156  1220 net.cpp:406] Eltwise6 <- Convolution5
I1025 10:23:24.265161  1220 net.cpp:406] Eltwise6 <- Eltwise4_Eltwise4_0_split_1
I1025 10:23:24.265167  1220 net.cpp:380] Eltwise6 -> Eltwise6
I1025 10:23:24.265190  1220 net.cpp:122] Setting up Eltwise6
I1025 10:23:24.265197  1220 net.cpp:129] Top shape: 128 16 32 32 (2097152)
I1025 10:23:24.265202  1220 net.cpp:137] Memory required for data: 311951872
I1025 10:23:24.265206  1220 layer_factory.hpp:77] Creating layer Eltwise6_Eltwise6_0_split
I1025 10:23:24.265218  1220 net.cpp:84] Creating Layer Eltwise6_Eltwise6_0_split
I1025 10:23:24.265224  1220 net.cpp:406] Eltwise6_Eltwise6_0_split <- Eltwise6
I1025 10:23:24.265230  1220 net.cpp:380] Eltwise6_Eltwise6_0_split -> Eltwise6_Eltwise6_0_split_0
I1025 10:23:24.265239  1220 net.cpp:380] Eltwise6_Eltwise6_0_split -> Eltwise6_Eltwise6_0_split_1
I1025 10:23:24.265272  1220 net.cpp:122] Setting up Eltwise6_Eltwise6_0_split
I1025 10:23:24.265280  1220 net.cpp:129] Top shape: 128 16 32 32 (2097152)
I1025 10:23:24.265285  1220 net.cpp:129] Top shape: 128 16 32 32 (2097152)
I1025 10:23:24.265290  1220 net.cpp:137] Memory required for data: 328729088
I1025 10:23:24.265293  1220 layer_factory.hpp:77] Creating layer Sigmoid5
I1025 10:23:24.265300  1220 net.cpp:84] Creating Layer Sigmoid5
I1025 10:23:24.265305  1220 net.cpp:406] Sigmoid5 <- Eltwise6_Eltwise6_0_split_0
I1025 10:23:24.265311  1220 net.cpp:380] Sigmoid5 -> Sigmoid5
I1025 10:23:24.266196  1220 net.cpp:122] Setting up Sigmoid5
I1025 10:23:24.266216  1220 net.cpp:129] Top shape: 128 16 32 32 (2097152)
I1025 10:23:24.266221  1220 net.cpp:137] Memory required for data: 337117696
I1025 10:23:24.266225  1220 layer_factory.hpp:77] Creating layer Eltwise7
I1025 10:23:24.266233  1220 net.cpp:84] Creating Layer Eltwise7
I1025 10:23:24.266238  1220 net.cpp:406] Eltwise7 <- Eltwise6_Eltwise6_0_split_1
I1025 10:23:24.266245  1220 net.cpp:406] Eltwise7 <- Sigmoid5
I1025 10:23:24.266252  1220 net.cpp:380] Eltwise7 -> Eltwise7
I1025 10:23:24.266283  1220 net.cpp:122] Setting up Eltwise7
I1025 10:23:24.266293  1220 net.cpp:129] Top shape: 128 16 32 32 (2097152)
I1025 10:23:24.266296  1220 net.cpp:137] Memory required for data: 345506304
I1025 10:23:24.266301  1220 layer_factory.hpp:77] Creating layer Eltwise7_Eltwise7_0_split
I1025 10:23:24.266307  1220 net.cpp:84] Creating Layer Eltwise7_Eltwise7_0_split
I1025 10:23:24.266312  1220 net.cpp:406] Eltwise7_Eltwise7_0_split <- Eltwise7
I1025 10:23:24.266319  1220 net.cpp:380] Eltwise7_Eltwise7_0_split -> Eltwise7_Eltwise7_0_split_0
I1025 10:23:24.266331  1220 net.cpp:380] Eltwise7_Eltwise7_0_split -> Eltwise7_Eltwise7_0_split_1
I1025 10:23:24.266377  1220 net.cpp:122] Setting up Eltwise7_Eltwise7_0_split
I1025 10:23:24.266386  1220 net.cpp:129] Top shape: 128 16 32 32 (2097152)
I1025 10:23:24.266391  1220 net.cpp:129] Top shape: 128 16 32 32 (2097152)
I1025 10:23:24.266394  1220 net.cpp:137] Memory required for data: 362283520
I1025 10:23:24.266399  1220 layer_factory.hpp:77] Creating layer Convolution6
I1025 10:23:24.266412  1220 net.cpp:84] Creating Layer Convolution6
I1025 10:23:24.266417  1220 net.cpp:406] Convolution6 <- Eltwise7_Eltwise7_0_split_0
I1025 10:23:24.266423  1220 net.cpp:380] Convolution6 -> Convolution6
I1025 10:23:24.268635  1220 net.cpp:122] Setting up Convolution6
I1025 10:23:24.268652  1220 net.cpp:129] Top shape: 128 16 32 32 (2097152)
I1025 10:23:24.268657  1220 net.cpp:137] Memory required for data: 370672128
I1025 10:23:24.268666  1220 layer_factory.hpp:77] Creating layer BatchNorm6
I1025 10:23:24.268676  1220 net.cpp:84] Creating Layer BatchNorm6
I1025 10:23:24.268682  1220 net.cpp:406] BatchNorm6 <- Convolution6
I1025 10:23:24.268688  1220 net.cpp:367] BatchNorm6 -> Convolution6 (in-place)
I1025 10:23:24.268877  1220 net.cpp:122] Setting up BatchNorm6
I1025 10:23:24.268887  1220 net.cpp:129] Top shape: 128 16 32 32 (2097152)
I1025 10:23:24.268890  1220 net.cpp:137] Memory required for data: 379060736
I1025 10:23:24.268899  1220 layer_factory.hpp:77] Creating layer Scale6
I1025 10:23:24.268906  1220 net.cpp:84] Creating Layer Scale6
I1025 10:23:24.268911  1220 net.cpp:406] Scale6 <- Convolution6
I1025 10:23:24.268918  1220 net.cpp:367] Scale6 -> Convolution6 (in-place)
I1025 10:23:24.268954  1220 layer_factory.hpp:77] Creating layer Scale6
I1025 10:23:24.269060  1220 net.cpp:122] Setting up Scale6
I1025 10:23:24.269069  1220 net.cpp:129] Top shape: 128 16 32 32 (2097152)
I1025 10:23:24.269073  1220 net.cpp:137] Memory required for data: 387449344
I1025 10:23:24.269080  1220 layer_factory.hpp:77] Creating layer Convolution6_Scale6_0_split
I1025 10:23:24.269089  1220 net.cpp:84] Creating Layer Convolution6_Scale6_0_split
I1025 10:23:24.269094  1220 net.cpp:406] Convolution6_Scale6_0_split <- Convolution6
I1025 10:23:24.269101  1220 net.cpp:380] Convolution6_Scale6_0_split -> Convolution6_Scale6_0_split_0
I1025 10:23:24.269109  1220 net.cpp:380] Convolution6_Scale6_0_split -> Convolution6_Scale6_0_split_1
I1025 10:23:24.269150  1220 net.cpp:122] Setting up Convolution6_Scale6_0_split
I1025 10:23:24.269157  1220 net.cpp:129] Top shape: 128 16 32 32 (2097152)
I1025 10:23:24.269163  1220 net.cpp:129] Top shape: 128 16 32 32 (2097152)
I1025 10:23:24.269167  1220 net.cpp:137] Memory required for data: 404226560
I1025 10:23:24.269171  1220 layer_factory.hpp:77] Creating layer Sigmoid6
I1025 10:23:24.269177  1220 net.cpp:84] Creating Layer Sigmoid6
I1025 10:23:24.269182  1220 net.cpp:406] Sigmoid6 <- Convolution6_Scale6_0_split_0
I1025 10:23:24.269188  1220 net.cpp:380] Sigmoid6 -> Sigmoid6
I1025 10:23:24.269387  1220 net.cpp:122] Setting up Sigmoid6
I1025 10:23:24.269398  1220 net.cpp:129] Top shape: 128 16 32 32 (2097152)
I1025 10:23:24.269402  1220 net.cpp:137] Memory required for data: 412615168
I1025 10:23:24.269407  1220 layer_factory.hpp:77] Creating layer Eltwise8
I1025 10:23:24.269414  1220 net.cpp:84] Creating Layer Eltwise8
I1025 10:23:24.269419  1220 net.cpp:406] Eltwise8 <- Convolution6_Scale6_0_split_1
I1025 10:23:24.269425  1220 net.cpp:406] Eltwise8 <- Sigmoid6
I1025 10:23:24.269433  1220 net.cpp:380] Eltwise8 -> Eltwise8
I1025 10:23:24.269457  1220 net.cpp:122] Setting up Eltwise8
I1025 10:23:24.269465  1220 net.cpp:129] Top shape: 128 16 32 32 (2097152)
I1025 10:23:24.269469  1220 net.cpp:137] Memory required for data: 421003776
I1025 10:23:24.269474  1220 layer_factory.hpp:77] Creating layer Convolution7
I1025 10:23:24.269486  1220 net.cpp:84] Creating Layer Convolution7
I1025 10:23:24.269491  1220 net.cpp:406] Convolution7 <- Eltwise8
I1025 10:23:24.269498  1220 net.cpp:380] Convolution7 -> Convolution7
I1025 10:23:24.271731  1220 net.cpp:122] Setting up Convolution7
I1025 10:23:24.271757  1220 net.cpp:129] Top shape: 128 16 32 32 (2097152)
I1025 10:23:24.271764  1220 net.cpp:137] Memory required for data: 429392384
I1025 10:23:24.271771  1220 layer_factory.hpp:77] Creating layer BatchNorm7
I1025 10:23:24.271781  1220 net.cpp:84] Creating Layer BatchNorm7
I1025 10:23:24.271788  1220 net.cpp:406] BatchNorm7 <- Convolution7
I1025 10:23:24.271796  1220 net.cpp:367] BatchNorm7 -> Convolution7 (in-place)
I1025 10:23:24.271986  1220 net.cpp:122] Setting up BatchNorm7
I1025 10:23:24.271996  1220 net.cpp:129] Top shape: 128 16 32 32 (2097152)
I1025 10:23:24.272001  1220 net.cpp:137] Memory required for data: 437780992
I1025 10:23:24.272009  1220 layer_factory.hpp:77] Creating layer Scale7
I1025 10:23:24.272017  1220 net.cpp:84] Creating Layer Scale7
I1025 10:23:24.272023  1220 net.cpp:406] Scale7 <- Convolution7
I1025 10:23:24.272029  1220 net.cpp:367] Scale7 -> Convolution7 (in-place)
I1025 10:23:24.272065  1220 layer_factory.hpp:77] Creating layer Scale7
I1025 10:23:24.272177  1220 net.cpp:122] Setting up Scale7
I1025 10:23:24.272186  1220 net.cpp:129] Top shape: 128 16 32 32 (2097152)
I1025 10:23:24.272192  1220 net.cpp:137] Memory required for data: 446169600
I1025 10:23:24.272198  1220 layer_factory.hpp:77] Creating layer Eltwise9
I1025 10:23:24.272207  1220 net.cpp:84] Creating Layer Eltwise9
I1025 10:23:24.272210  1220 net.cpp:406] Eltwise9 <- Convolution7
I1025 10:23:24.272217  1220 net.cpp:406] Eltwise9 <- Eltwise7_Eltwise7_0_split_1
I1025 10:23:24.272227  1220 net.cpp:380] Eltwise9 -> Eltwise9
I1025 10:23:24.272251  1220 net.cpp:122] Setting up Eltwise9
I1025 10:23:24.272261  1220 net.cpp:129] Top shape: 128 16 32 32 (2097152)
I1025 10:23:24.272265  1220 net.cpp:137] Memory required for data: 454558208
I1025 10:23:24.272269  1220 layer_factory.hpp:77] Creating layer Eltwise9_Eltwise9_0_split
I1025 10:23:24.272276  1220 net.cpp:84] Creating Layer Eltwise9_Eltwise9_0_split
I1025 10:23:24.272281  1220 net.cpp:406] Eltwise9_Eltwise9_0_split <- Eltwise9
I1025 10:23:24.272287  1220 net.cpp:380] Eltwise9_Eltwise9_0_split -> Eltwise9_Eltwise9_0_split_0
I1025 10:23:24.272294  1220 net.cpp:380] Eltwise9_Eltwise9_0_split -> Eltwise9_Eltwise9_0_split_1
I1025 10:23:24.272330  1220 net.cpp:122] Setting up Eltwise9_Eltwise9_0_split
I1025 10:23:24.272336  1220 net.cpp:129] Top shape: 128 16 32 32 (2097152)
I1025 10:23:24.272342  1220 net.cpp:129] Top shape: 128 16 32 32 (2097152)
I1025 10:23:24.272346  1220 net.cpp:137] Memory required for data: 471335424
I1025 10:23:24.272351  1220 layer_factory.hpp:77] Creating layer Sigmoid7
I1025 10:23:24.272356  1220 net.cpp:84] Creating Layer Sigmoid7
I1025 10:23:24.272361  1220 net.cpp:406] Sigmoid7 <- Eltwise9_Eltwise9_0_split_0
I1025 10:23:24.272369  1220 net.cpp:380] Sigmoid7 -> Sigmoid7
I1025 10:23:24.273329  1220 net.cpp:122] Setting up Sigmoid7
I1025 10:23:24.273346  1220 net.cpp:129] Top shape: 128 16 32 32 (2097152)
I1025 10:23:24.273352  1220 net.cpp:137] Memory required for data: 479724032
I1025 10:23:24.273357  1220 layer_factory.hpp:77] Creating layer Eltwise10
I1025 10:23:24.273365  1220 net.cpp:84] Creating Layer Eltwise10
I1025 10:23:24.273370  1220 net.cpp:406] Eltwise10 <- Eltwise9_Eltwise9_0_split_1
I1025 10:23:24.273376  1220 net.cpp:406] Eltwise10 <- Sigmoid7
I1025 10:23:24.273386  1220 net.cpp:380] Eltwise10 -> Eltwise10
I1025 10:23:24.273413  1220 net.cpp:122] Setting up Eltwise10
I1025 10:23:24.273423  1220 net.cpp:129] Top shape: 128 16 32 32 (2097152)
I1025 10:23:24.273427  1220 net.cpp:137] Memory required for data: 488112640
I1025 10:23:24.273432  1220 layer_factory.hpp:77] Creating layer Eltwise10_Eltwise10_0_split
I1025 10:23:24.273438  1220 net.cpp:84] Creating Layer Eltwise10_Eltwise10_0_split
I1025 10:23:24.273443  1220 net.cpp:406] Eltwise10_Eltwise10_0_split <- Eltwise10
I1025 10:23:24.273449  1220 net.cpp:380] Eltwise10_Eltwise10_0_split -> Eltwise10_Eltwise10_0_split_0
I1025 10:23:24.273457  1220 net.cpp:380] Eltwise10_Eltwise10_0_split -> Eltwise10_Eltwise10_0_split_1
I1025 10:23:24.273499  1220 net.cpp:122] Setting up Eltwise10_Eltwise10_0_split
I1025 10:23:24.273514  1220 net.cpp:129] Top shape: 128 16 32 32 (2097152)
I1025 10:23:24.273519  1220 net.cpp:129] Top shape: 128 16 32 32 (2097152)
I1025 10:23:24.273524  1220 net.cpp:137] Memory required for data: 504889856
I1025 10:23:24.273528  1220 layer_factory.hpp:77] Creating layer Convolution8
I1025 10:23:24.273540  1220 net.cpp:84] Creating Layer Convolution8
I1025 10:23:24.273545  1220 net.cpp:406] Convolution8 <- Eltwise10_Eltwise10_0_split_0
I1025 10:23:24.273553  1220 net.cpp:380] Convolution8 -> Convolution8
I1025 10:23:24.276937  1220 net.cpp:122] Setting up Convolution8
I1025 10:23:24.276958  1220 net.cpp:129] Top shape: 128 32 16 16 (1048576)
I1025 10:23:24.276964  1220 net.cpp:137] Memory required for data: 509084160
I1025 10:23:24.276973  1220 layer_factory.hpp:77] Creating layer BatchNorm8
I1025 10:23:24.276981  1220 net.cpp:84] Creating Layer BatchNorm8
I1025 10:23:24.276986  1220 net.cpp:406] BatchNorm8 <- Convolution8
I1025 10:23:24.276998  1220 net.cpp:367] BatchNorm8 -> Convolution8 (in-place)
I1025 10:23:24.277189  1220 net.cpp:122] Setting up BatchNorm8
I1025 10:23:24.277197  1220 net.cpp:129] Top shape: 128 32 16 16 (1048576)
I1025 10:23:24.277202  1220 net.cpp:137] Memory required for data: 513278464
I1025 10:23:24.277210  1220 layer_factory.hpp:77] Creating layer Scale8
I1025 10:23:24.277217  1220 net.cpp:84] Creating Layer Scale8
I1025 10:23:24.277222  1220 net.cpp:406] Scale8 <- Convolution8
I1025 10:23:24.277228  1220 net.cpp:367] Scale8 -> Convolution8 (in-place)
I1025 10:23:24.277264  1220 layer_factory.hpp:77] Creating layer Scale8
I1025 10:23:24.277374  1220 net.cpp:122] Setting up Scale8
I1025 10:23:24.277382  1220 net.cpp:129] Top shape: 128 32 16 16 (1048576)
I1025 10:23:24.277386  1220 net.cpp:137] Memory required for data: 517472768
I1025 10:23:24.277393  1220 layer_factory.hpp:77] Creating layer Convolution8_Scale8_0_split
I1025 10:23:24.277401  1220 net.cpp:84] Creating Layer Convolution8_Scale8_0_split
I1025 10:23:24.277406  1220 net.cpp:406] Convolution8_Scale8_0_split <- Convolution8
I1025 10:23:24.277415  1220 net.cpp:380] Convolution8_Scale8_0_split -> Convolution8_Scale8_0_split_0
I1025 10:23:24.277421  1220 net.cpp:380] Convolution8_Scale8_0_split -> Convolution8_Scale8_0_split_1
I1025 10:23:24.277457  1220 net.cpp:122] Setting up Convolution8_Scale8_0_split
I1025 10:23:24.277467  1220 net.cpp:129] Top shape: 128 32 16 16 (1048576)
I1025 10:23:24.277472  1220 net.cpp:129] Top shape: 128 32 16 16 (1048576)
I1025 10:23:24.277475  1220 net.cpp:137] Memory required for data: 525861376
I1025 10:23:24.277480  1220 layer_factory.hpp:77] Creating layer Sigmoid8
I1025 10:23:24.277487  1220 net.cpp:84] Creating Layer Sigmoid8
I1025 10:23:24.277492  1220 net.cpp:406] Sigmoid8 <- Convolution8_Scale8_0_split_0
I1025 10:23:24.277499  1220 net.cpp:380] Sigmoid8 -> Sigmoid8
I1025 10:23:24.278381  1220 net.cpp:122] Setting up Sigmoid8
I1025 10:23:24.278398  1220 net.cpp:129] Top shape: 128 32 16 16 (1048576)
I1025 10:23:24.278403  1220 net.cpp:137] Memory required for data: 530055680
I1025 10:23:24.278409  1220 layer_factory.hpp:77] Creating layer Eltwise11
I1025 10:23:24.278415  1220 net.cpp:84] Creating Layer Eltwise11
I1025 10:23:24.278421  1220 net.cpp:406] Eltwise11 <- Convolution8_Scale8_0_split_1
I1025 10:23:24.278427  1220 net.cpp:406] Eltwise11 <- Sigmoid8
I1025 10:23:24.278436  1220 net.cpp:380] Eltwise11 -> Eltwise11
I1025 10:23:24.278463  1220 net.cpp:122] Setting up Eltwise11
I1025 10:23:24.278472  1220 net.cpp:129] Top shape: 128 32 16 16 (1048576)
I1025 10:23:24.278476  1220 net.cpp:137] Memory required for data: 534249984
I1025 10:23:24.278481  1220 layer_factory.hpp:77] Creating layer Convolution9
I1025 10:23:24.278501  1220 net.cpp:84] Creating Layer Convolution9
I1025 10:23:24.278507  1220 net.cpp:406] Convolution9 <- Eltwise11
I1025 10:23:24.278514  1220 net.cpp:380] Convolution9 -> Convolution9
I1025 10:23:24.280983  1220 net.cpp:122] Setting up Convolution9
I1025 10:23:24.281008  1220 net.cpp:129] Top shape: 128 32 16 16 (1048576)
I1025 10:23:24.281023  1220 net.cpp:137] Memory required for data: 538444288
I1025 10:23:24.281031  1220 layer_factory.hpp:77] Creating layer BatchNorm9
I1025 10:23:24.281041  1220 net.cpp:84] Creating Layer BatchNorm9
I1025 10:23:24.281049  1220 net.cpp:406] BatchNorm9 <- Convolution9
I1025 10:23:24.281055  1220 net.cpp:367] BatchNorm9 -> Convolution9 (in-place)
I1025 10:23:24.281245  1220 net.cpp:122] Setting up BatchNorm9
I1025 10:23:24.281255  1220 net.cpp:129] Top shape: 128 32 16 16 (1048576)
I1025 10:23:24.281260  1220 net.cpp:137] Memory required for data: 542638592
I1025 10:23:24.281267  1220 layer_factory.hpp:77] Creating layer Scale9
I1025 10:23:24.281276  1220 net.cpp:84] Creating Layer Scale9
I1025 10:23:24.281281  1220 net.cpp:406] Scale9 <- Convolution9
I1025 10:23:24.281287  1220 net.cpp:367] Scale9 -> Convolution9 (in-place)
I1025 10:23:24.281322  1220 layer_factory.hpp:77] Creating layer Scale9
I1025 10:23:24.281435  1220 net.cpp:122] Setting up Scale9
I1025 10:23:24.281445  1220 net.cpp:129] Top shape: 128 32 16 16 (1048576)
I1025 10:23:24.281450  1220 net.cpp:137] Memory required for data: 546832896
I1025 10:23:24.281455  1220 layer_factory.hpp:77] Creating layer Convolution10
I1025 10:23:24.281467  1220 net.cpp:84] Creating Layer Convolution10
I1025 10:23:24.281472  1220 net.cpp:406] Convolution10 <- Eltwise10_Eltwise10_0_split_1
I1025 10:23:24.281481  1220 net.cpp:380] Convolution10 -> Convolution10
I1025 10:23:24.284018  1220 net.cpp:122] Setting up Convolution10
I1025 10:23:24.284044  1220 net.cpp:129] Top shape: 128 32 16 16 (1048576)
I1025 10:23:24.284055  1220 net.cpp:137] Memory required for data: 551027200
I1025 10:23:24.284087  1220 layer_factory.hpp:77] Creating layer BatchNorm10
I1025 10:23:24.284103  1220 net.cpp:84] Creating Layer BatchNorm10
I1025 10:23:24.284113  1220 net.cpp:406] BatchNorm10 <- Convolution10
I1025 10:23:24.284132  1220 net.cpp:367] BatchNorm10 -> Convolution10 (in-place)
I1025 10:23:24.284451  1220 net.cpp:122] Setting up BatchNorm10
I1025 10:23:24.284468  1220 net.cpp:129] Top shape: 128 32 16 16 (1048576)
I1025 10:23:24.284477  1220 net.cpp:137] Memory required for data: 555221504
I1025 10:23:24.284492  1220 layer_factory.hpp:77] Creating layer Scale10
I1025 10:23:24.284505  1220 net.cpp:84] Creating Layer Scale10
I1025 10:23:24.284515  1220 net.cpp:406] Scale10 <- Convolution10
I1025 10:23:24.284526  1220 net.cpp:367] Scale10 -> Convolution10 (in-place)
I1025 10:23:24.284591  1220 layer_factory.hpp:77] Creating layer Scale10
I1025 10:23:24.284785  1220 net.cpp:122] Setting up Scale10
I1025 10:23:24.284801  1220 net.cpp:129] Top shape: 128 32 16 16 (1048576)
I1025 10:23:24.284811  1220 net.cpp:137] Memory required for data: 559415808
I1025 10:23:24.284822  1220 layer_factory.hpp:77] Creating layer Eltwise12
I1025 10:23:24.284834  1220 net.cpp:84] Creating Layer Eltwise12
I1025 10:23:24.284843  1220 net.cpp:406] Eltwise12 <- Convolution9
I1025 10:23:24.284853  1220 net.cpp:406] Eltwise12 <- Convolution10
I1025 10:23:24.284868  1220 net.cpp:380] Eltwise12 -> Eltwise12
I1025 10:23:24.284904  1220 net.cpp:122] Setting up Eltwise12
I1025 10:23:24.284920  1220 net.cpp:129] Top shape: 128 32 16 16 (1048576)
I1025 10:23:24.284929  1220 net.cpp:137] Memory required for data: 563610112
I1025 10:23:24.284937  1220 layer_factory.hpp:77] Creating layer Eltwise12_Eltwise12_0_split
I1025 10:23:24.284948  1220 net.cpp:84] Creating Layer Eltwise12_Eltwise12_0_split
I1025 10:23:24.284957  1220 net.cpp:406] Eltwise12_Eltwise12_0_split <- Eltwise12
I1025 10:23:24.284971  1220 net.cpp:380] Eltwise12_Eltwise12_0_split -> Eltwise12_Eltwise12_0_split_0
I1025 10:23:24.284986  1220 net.cpp:380] Eltwise12_Eltwise12_0_split -> Eltwise12_Eltwise12_0_split_1
I1025 10:23:24.285050  1220 net.cpp:122] Setting up Eltwise12_Eltwise12_0_split
I1025 10:23:24.285068  1220 net.cpp:129] Top shape: 128 32 16 16 (1048576)
I1025 10:23:24.285079  1220 net.cpp:129] Top shape: 128 32 16 16 (1048576)
I1025 10:23:24.285095  1220 net.cpp:137] Memory required for data: 571998720
I1025 10:23:24.285116  1220 layer_factory.hpp:77] Creating layer Sigmoid9
I1025 10:23:24.285136  1220 net.cpp:84] Creating Layer Sigmoid9
I1025 10:23:24.285147  1220 net.cpp:406] Sigmoid9 <- Eltwise12_Eltwise12_0_split_0
I1025 10:23:24.285159  1220 net.cpp:380] Sigmoid9 -> Sigmoid9
I1025 10:23:24.285470  1220 net.cpp:122] Setting up Sigmoid9
I1025 10:23:24.285490  1220 net.cpp:129] Top shape: 128 32 16 16 (1048576)
I1025 10:23:24.285500  1220 net.cpp:137] Memory required for data: 576193024
I1025 10:23:24.285509  1220 layer_factory.hpp:77] Creating layer Eltwise13
I1025 10:23:24.285523  1220 net.cpp:84] Creating Layer Eltwise13
I1025 10:23:24.285534  1220 net.cpp:406] Eltwise13 <- Eltwise12_Eltwise12_0_split_1
I1025 10:23:24.285545  1220 net.cpp:406] Eltwise13 <- Sigmoid9
I1025 10:23:24.285559  1220 net.cpp:380] Eltwise13 -> Eltwise13
I1025 10:23:24.285604  1220 net.cpp:122] Setting up Eltwise13
I1025 10:23:24.285619  1220 net.cpp:129] Top shape: 128 32 16 16 (1048576)
I1025 10:23:24.285629  1220 net.cpp:137] Memory required for data: 580387328
I1025 10:23:24.285636  1220 layer_factory.hpp:77] Creating layer Eltwise13_Eltwise13_0_split
I1025 10:23:24.285647  1220 net.cpp:84] Creating Layer Eltwise13_Eltwise13_0_split
I1025 10:23:24.285656  1220 net.cpp:406] Eltwise13_Eltwise13_0_split <- Eltwise13
I1025 10:23:24.285670  1220 net.cpp:380] Eltwise13_Eltwise13_0_split -> Eltwise13_Eltwise13_0_split_0
I1025 10:23:24.285683  1220 net.cpp:380] Eltwise13_Eltwise13_0_split -> Eltwise13_Eltwise13_0_split_1
I1025 10:23:24.285749  1220 net.cpp:122] Setting up Eltwise13_Eltwise13_0_split
I1025 10:23:24.285764  1220 net.cpp:129] Top shape: 128 32 16 16 (1048576)
I1025 10:23:24.285774  1220 net.cpp:129] Top shape: 128 32 16 16 (1048576)
I1025 10:23:24.285782  1220 net.cpp:137] Memory required for data: 588775936
I1025 10:23:24.285791  1220 layer_factory.hpp:77] Creating layer Convolution11
I1025 10:23:24.285809  1220 net.cpp:84] Creating Layer Convolution11
I1025 10:23:24.285820  1220 net.cpp:406] Convolution11 <- Eltwise13_Eltwise13_0_split_0
I1025 10:23:24.285835  1220 net.cpp:380] Convolution11 -> Convolution11
I1025 10:23:24.288679  1220 net.cpp:122] Setting up Convolution11
I1025 10:23:24.288699  1220 net.cpp:129] Top shape: 128 32 16 16 (1048576)
I1025 10:23:24.288704  1220 net.cpp:137] Memory required for data: 592970240
I1025 10:23:24.288712  1220 layer_factory.hpp:77] Creating layer BatchNorm11
I1025 10:23:24.288723  1220 net.cpp:84] Creating Layer BatchNorm11
I1025 10:23:24.288729  1220 net.cpp:406] BatchNorm11 <- Convolution11
I1025 10:23:24.288736  1220 net.cpp:367] BatchNorm11 -> Convolution11 (in-place)
I1025 10:23:24.288933  1220 net.cpp:122] Setting up BatchNorm11
I1025 10:23:24.288942  1220 net.cpp:129] Top shape: 128 32 16 16 (1048576)
I1025 10:23:24.288946  1220 net.cpp:137] Memory required for data: 597164544
I1025 10:23:24.288956  1220 layer_factory.hpp:77] Creating layer Scale11
I1025 10:23:24.288964  1220 net.cpp:84] Creating Layer Scale11
I1025 10:23:24.288969  1220 net.cpp:406] Scale11 <- Convolution11
I1025 10:23:24.288975  1220 net.cpp:367] Scale11 -> Convolution11 (in-place)
I1025 10:23:24.289012  1220 layer_factory.hpp:77] Creating layer Scale11
I1025 10:23:24.289126  1220 net.cpp:122] Setting up Scale11
I1025 10:23:24.289135  1220 net.cpp:129] Top shape: 128 32 16 16 (1048576)
I1025 10:23:24.289140  1220 net.cpp:137] Memory required for data: 601358848
I1025 10:23:24.289146  1220 layer_factory.hpp:77] Creating layer Convolution11_Scale11_0_split
I1025 10:23:24.289155  1220 net.cpp:84] Creating Layer Convolution11_Scale11_0_split
I1025 10:23:24.289160  1220 net.cpp:406] Convolution11_Scale11_0_split <- Convolution11
I1025 10:23:24.289166  1220 net.cpp:380] Convolution11_Scale11_0_split -> Convolution11_Scale11_0_split_0
I1025 10:23:24.289175  1220 net.cpp:380] Convolution11_Scale11_0_split -> Convolution11_Scale11_0_split_1
I1025 10:23:24.289216  1220 net.cpp:122] Setting up Convolution11_Scale11_0_split
I1025 10:23:24.289223  1220 net.cpp:129] Top shape: 128 32 16 16 (1048576)
I1025 10:23:24.289234  1220 net.cpp:129] Top shape: 128 32 16 16 (1048576)
I1025 10:23:24.289249  1220 net.cpp:137] Memory required for data: 609747456
I1025 10:23:24.289254  1220 layer_factory.hpp:77] Creating layer Sigmoid10
I1025 10:23:24.289261  1220 net.cpp:84] Creating Layer Sigmoid10
I1025 10:23:24.289266  1220 net.cpp:406] Sigmoid10 <- Convolution11_Scale11_0_split_0
I1025 10:23:24.289273  1220 net.cpp:380] Sigmoid10 -> Sigmoid10
I1025 10:23:24.289469  1220 net.cpp:122] Setting up Sigmoid10
I1025 10:23:24.289480  1220 net.cpp:129] Top shape: 128 32 16 16 (1048576)
I1025 10:23:24.289485  1220 net.cpp:137] Memory required for data: 613941760
I1025 10:23:24.289490  1220 layer_factory.hpp:77] Creating layer Eltwise14
I1025 10:23:24.289499  1220 net.cpp:84] Creating Layer Eltwise14
I1025 10:23:24.289505  1220 net.cpp:406] Eltwise14 <- Convolution11_Scale11_0_split_1
I1025 10:23:24.289511  1220 net.cpp:406] Eltwise14 <- Sigmoid10
I1025 10:23:24.289520  1220 net.cpp:380] Eltwise14 -> Eltwise14
I1025 10:23:24.289546  1220 net.cpp:122] Setting up Eltwise14
I1025 10:23:24.289553  1220 net.cpp:129] Top shape: 128 32 16 16 (1048576)
I1025 10:23:24.289557  1220 net.cpp:137] Memory required for data: 618136064
I1025 10:23:24.289562  1220 layer_factory.hpp:77] Creating layer Convolution12
I1025 10:23:24.289574  1220 net.cpp:84] Creating Layer Convolution12
I1025 10:23:24.289580  1220 net.cpp:406] Convolution12 <- Eltwise14
I1025 10:23:24.289587  1220 net.cpp:380] Convolution12 -> Convolution12
I1025 10:23:24.293545  1220 net.cpp:122] Setting up Convolution12
I1025 10:23:24.293567  1220 net.cpp:129] Top shape: 128 32 16 16 (1048576)
I1025 10:23:24.293573  1220 net.cpp:137] Memory required for data: 622330368
I1025 10:23:24.293581  1220 layer_factory.hpp:77] Creating layer BatchNorm12
I1025 10:23:24.293593  1220 net.cpp:84] Creating Layer BatchNorm12
I1025 10:23:24.293598  1220 net.cpp:406] BatchNorm12 <- Convolution12
I1025 10:23:24.293607  1220 net.cpp:367] BatchNorm12 -> Convolution12 (in-place)
I1025 10:23:24.293804  1220 net.cpp:122] Setting up BatchNorm12
I1025 10:23:24.293814  1220 net.cpp:129] Top shape: 128 32 16 16 (1048576)
I1025 10:23:24.293818  1220 net.cpp:137] Memory required for data: 626524672
I1025 10:23:24.293828  1220 layer_factory.hpp:77] Creating layer Scale12
I1025 10:23:24.293834  1220 net.cpp:84] Creating Layer Scale12
I1025 10:23:24.293839  1220 net.cpp:406] Scale12 <- Convolution12
I1025 10:23:24.293848  1220 net.cpp:367] Scale12 -> Convolution12 (in-place)
I1025 10:23:24.293884  1220 layer_factory.hpp:77] Creating layer Scale12
I1025 10:23:24.294000  1220 net.cpp:122] Setting up Scale12
I1025 10:23:24.294011  1220 net.cpp:129] Top shape: 128 32 16 16 (1048576)
I1025 10:23:24.294016  1220 net.cpp:137] Memory required for data: 630718976
I1025 10:23:24.294023  1220 layer_factory.hpp:77] Creating layer Eltwise15
I1025 10:23:24.294030  1220 net.cpp:84] Creating Layer Eltwise15
I1025 10:23:24.294035  1220 net.cpp:406] Eltwise15 <- Convolution12
I1025 10:23:24.294041  1220 net.cpp:406] Eltwise15 <- Eltwise13_Eltwise13_0_split_1
I1025 10:23:24.294047  1220 net.cpp:380] Eltwise15 -> Eltwise15
I1025 10:23:24.294071  1220 net.cpp:122] Setting up Eltwise15
I1025 10:23:24.294080  1220 net.cpp:129] Top shape: 128 32 16 16 (1048576)
I1025 10:23:24.294083  1220 net.cpp:137] Memory required for data: 634913280
I1025 10:23:24.294087  1220 layer_factory.hpp:77] Creating layer Eltwise15_Eltwise15_0_split
I1025 10:23:24.294095  1220 net.cpp:84] Creating Layer Eltwise15_Eltwise15_0_split
I1025 10:23:24.294098  1220 net.cpp:406] Eltwise15_Eltwise15_0_split <- Eltwise15
I1025 10:23:24.294106  1220 net.cpp:380] Eltwise15_Eltwise15_0_split -> Eltwise15_Eltwise15_0_split_0
I1025 10:23:24.294113  1220 net.cpp:380] Eltwise15_Eltwise15_0_split -> Eltwise15_Eltwise15_0_split_1
I1025 10:23:24.294150  1220 net.cpp:122] Setting up Eltwise15_Eltwise15_0_split
I1025 10:23:24.294158  1220 net.cpp:129] Top shape: 128 32 16 16 (1048576)
I1025 10:23:24.294163  1220 net.cpp:129] Top shape: 128 32 16 16 (1048576)
I1025 10:23:24.294176  1220 net.cpp:137] Memory required for data: 643301888
I1025 10:23:24.294188  1220 layer_factory.hpp:77] Creating layer Sigmoid11
I1025 10:23:24.294195  1220 net.cpp:84] Creating Layer Sigmoid11
I1025 10:23:24.294200  1220 net.cpp:406] Sigmoid11 <- Eltwise15_Eltwise15_0_split_0
I1025 10:23:24.294206  1220 net.cpp:380] Sigmoid11 -> Sigmoid11
I1025 10:23:24.295114  1220 net.cpp:122] Setting up Sigmoid11
I1025 10:23:24.295131  1220 net.cpp:129] Top shape: 128 32 16 16 (1048576)
I1025 10:23:24.295136  1220 net.cpp:137] Memory required for data: 647496192
I1025 10:23:24.295141  1220 layer_factory.hpp:77] Creating layer Eltwise16
I1025 10:23:24.295151  1220 net.cpp:84] Creating Layer Eltwise16
I1025 10:23:24.295156  1220 net.cpp:406] Eltwise16 <- Eltwise15_Eltwise15_0_split_1
I1025 10:23:24.295163  1220 net.cpp:406] Eltwise16 <- Sigmoid11
I1025 10:23:24.295169  1220 net.cpp:380] Eltwise16 -> Eltwise16
I1025 10:23:24.295200  1220 net.cpp:122] Setting up Eltwise16
I1025 10:23:24.295208  1220 net.cpp:129] Top shape: 128 32 16 16 (1048576)
I1025 10:23:24.295213  1220 net.cpp:137] Memory required for data: 651690496
I1025 10:23:24.295217  1220 layer_factory.hpp:77] Creating layer Eltwise16_Eltwise16_0_split
I1025 10:23:24.295224  1220 net.cpp:84] Creating Layer Eltwise16_Eltwise16_0_split
I1025 10:23:24.295228  1220 net.cpp:406] Eltwise16_Eltwise16_0_split <- Eltwise16
I1025 10:23:24.295236  1220 net.cpp:380] Eltwise16_Eltwise16_0_split -> Eltwise16_Eltwise16_0_split_0
I1025 10:23:24.295244  1220 net.cpp:380] Eltwise16_Eltwise16_0_split -> Eltwise16_Eltwise16_0_split_1
I1025 10:23:24.295291  1220 net.cpp:122] Setting up Eltwise16_Eltwise16_0_split
I1025 10:23:24.295308  1220 net.cpp:129] Top shape: 128 32 16 16 (1048576)
I1025 10:23:24.295318  1220 net.cpp:129] Top shape: 128 32 16 16 (1048576)
I1025 10:23:24.295325  1220 net.cpp:137] Memory required for data: 660079104
I1025 10:23:24.295331  1220 layer_factory.hpp:77] Creating layer Convolution13
I1025 10:23:24.295348  1220 net.cpp:84] Creating Layer Convolution13
I1025 10:23:24.295357  1220 net.cpp:406] Convolution13 <- Eltwise16_Eltwise16_0_split_0
I1025 10:23:24.295372  1220 net.cpp:380] Convolution13 -> Convolution13
I1025 10:23:24.298295  1220 net.cpp:122] Setting up Convolution13
I1025 10:23:24.298315  1220 net.cpp:129] Top shape: 128 32 16 16 (1048576)
I1025 10:23:24.298321  1220 net.cpp:137] Memory required for data: 664273408
I1025 10:23:24.298328  1220 layer_factory.hpp:77] Creating layer BatchNorm13
I1025 10:23:24.298339  1220 net.cpp:84] Creating Layer BatchNorm13
I1025 10:23:24.298346  1220 net.cpp:406] BatchNorm13 <- Convolution13
I1025 10:23:24.298352  1220 net.cpp:367] BatchNorm13 -> Convolution13 (in-place)
I1025 10:23:24.298560  1220 net.cpp:122] Setting up BatchNorm13
I1025 10:23:24.298571  1220 net.cpp:129] Top shape: 128 32 16 16 (1048576)
I1025 10:23:24.298576  1220 net.cpp:137] Memory required for data: 668467712
I1025 10:23:24.298584  1220 layer_factory.hpp:77] Creating layer Scale13
I1025 10:23:24.298593  1220 net.cpp:84] Creating Layer Scale13
I1025 10:23:24.298597  1220 net.cpp:406] Scale13 <- Convolution13
I1025 10:23:24.298604  1220 net.cpp:367] Scale13 -> Convolution13 (in-place)
I1025 10:23:24.298642  1220 layer_factory.hpp:77] Creating layer Scale13
I1025 10:23:24.298758  1220 net.cpp:122] Setting up Scale13
I1025 10:23:24.298768  1220 net.cpp:129] Top shape: 128 32 16 16 (1048576)
I1025 10:23:24.298773  1220 net.cpp:137] Memory required for data: 672662016
I1025 10:23:24.298779  1220 layer_factory.hpp:77] Creating layer Convolution13_Scale13_0_split
I1025 10:23:24.298786  1220 net.cpp:84] Creating Layer Convolution13_Scale13_0_split
I1025 10:23:24.298791  1220 net.cpp:406] Convolution13_Scale13_0_split <- Convolution13
I1025 10:23:24.298799  1220 net.cpp:380] Convolution13_Scale13_0_split -> Convolution13_Scale13_0_split_0
I1025 10:23:24.298806  1220 net.cpp:380] Convolution13_Scale13_0_split -> Convolution13_Scale13_0_split_1
I1025 10:23:24.298841  1220 net.cpp:122] Setting up Convolution13_Scale13_0_split
I1025 10:23:24.298856  1220 net.cpp:129] Top shape: 128 32 16 16 (1048576)
I1025 10:23:24.298871  1220 net.cpp:129] Top shape: 128 32 16 16 (1048576)
I1025 10:23:24.298874  1220 net.cpp:137] Memory required for data: 681050624
I1025 10:23:24.298879  1220 layer_factory.hpp:77] Creating layer Sigmoid12
I1025 10:23:24.298885  1220 net.cpp:84] Creating Layer Sigmoid12
I1025 10:23:24.298890  1220 net.cpp:406] Sigmoid12 <- Convolution13_Scale13_0_split_0
I1025 10:23:24.298897  1220 net.cpp:380] Sigmoid12 -> Sigmoid12
I1025 10:23:24.299101  1220 net.cpp:122] Setting up Sigmoid12
I1025 10:23:24.299114  1220 net.cpp:129] Top shape: 128 32 16 16 (1048576)
I1025 10:23:24.299118  1220 net.cpp:137] Memory required for data: 685244928
I1025 10:23:24.299124  1220 layer_factory.hpp:77] Creating layer Eltwise17
I1025 10:23:24.299132  1220 net.cpp:84] Creating Layer Eltwise17
I1025 10:23:24.299137  1220 net.cpp:406] Eltwise17 <- Convolution13_Scale13_0_split_1
I1025 10:23:24.299144  1220 net.cpp:406] Eltwise17 <- Sigmoid12
I1025 10:23:24.299150  1220 net.cpp:380] Eltwise17 -> Eltwise17
I1025 10:23:24.299178  1220 net.cpp:122] Setting up Eltwise17
I1025 10:23:24.299187  1220 net.cpp:129] Top shape: 128 32 16 16 (1048576)
I1025 10:23:24.299191  1220 net.cpp:137] Memory required for data: 689439232
I1025 10:23:24.299196  1220 layer_factory.hpp:77] Creating layer Convolution14
I1025 10:23:24.299207  1220 net.cpp:84] Creating Layer Convolution14
I1025 10:23:24.299212  1220 net.cpp:406] Convolution14 <- Eltwise17
I1025 10:23:24.299221  1220 net.cpp:380] Convolution14 -> Convolution14
I1025 10:23:24.302528  1220 net.cpp:122] Setting up Convolution14
I1025 10:23:24.302572  1220 net.cpp:129] Top shape: 128 32 16 16 (1048576)
I1025 10:23:24.302588  1220 net.cpp:137] Memory required for data: 693633536
I1025 10:23:24.302608  1220 layer_factory.hpp:77] Creating layer BatchNorm14
I1025 10:23:24.302631  1220 net.cpp:84] Creating Layer BatchNorm14
I1025 10:23:24.302646  1220 net.cpp:406] BatchNorm14 <- Convolution14
I1025 10:23:24.302666  1220 net.cpp:367] BatchNorm14 -> Convolution14 (in-place)
I1025 10:23:24.303092  1220 net.cpp:122] Setting up BatchNorm14
I1025 10:23:24.303109  1220 net.cpp:129] Top shape: 128 32 16 16 (1048576)
I1025 10:23:24.303122  1220 net.cpp:137] Memory required for data: 697827840
I1025 10:23:24.303138  1220 layer_factory.hpp:77] Creating layer Scale14
I1025 10:23:24.303155  1220 net.cpp:84] Creating Layer Scale14
I1025 10:23:24.303167  1220 net.cpp:406] Scale14 <- Convolution14
I1025 10:23:24.303184  1220 net.cpp:367] Scale14 -> Convolution14 (in-place)
I1025 10:23:24.303258  1220 layer_factory.hpp:77] Creating layer Scale14
I1025 10:23:24.303503  1220 net.cpp:122] Setting up Scale14
I1025 10:23:24.303529  1220 net.cpp:129] Top shape: 128 32 16 16 (1048576)
I1025 10:23:24.303541  1220 net.cpp:137] Memory required for data: 702022144
I1025 10:23:24.303557  1220 layer_factory.hpp:77] Creating layer Eltwise18
I1025 10:23:24.303573  1220 net.cpp:84] Creating Layer Eltwise18
I1025 10:23:24.303586  1220 net.cpp:406] Eltwise18 <- Convolution14
I1025 10:23:24.303599  1220 net.cpp:406] Eltwise18 <- Eltwise16_Eltwise16_0_split_1
I1025 10:23:24.303614  1220 net.cpp:380] Eltwise18 -> Eltwise18
I1025 10:23:24.303663  1220 net.cpp:122] Setting up Eltwise18
I1025 10:23:24.303679  1220 net.cpp:129] Top shape: 128 32 16 16 (1048576)
I1025 10:23:24.303690  1220 net.cpp:137] Memory required for data: 706216448
I1025 10:23:24.303700  1220 layer_factory.hpp:77] Creating layer Eltwise18_Eltwise18_0_split
I1025 10:23:24.303714  1220 net.cpp:84] Creating Layer Eltwise18_Eltwise18_0_split
I1025 10:23:24.303726  1220 net.cpp:406] Eltwise18_Eltwise18_0_split <- Eltwise18
I1025 10:23:24.303745  1220 net.cpp:380] Eltwise18_Eltwise18_0_split -> Eltwise18_Eltwise18_0_split_0
I1025 10:23:24.303763  1220 net.cpp:380] Eltwise18_Eltwise18_0_split -> Eltwise18_Eltwise18_0_split_1
I1025 10:23:24.303843  1220 net.cpp:122] Setting up Eltwise18_Eltwise18_0_split
I1025 10:23:24.303860  1220 net.cpp:129] Top shape: 128 32 16 16 (1048576)
I1025 10:23:24.303874  1220 net.cpp:129] Top shape: 128 32 16 16 (1048576)
I1025 10:23:24.303899  1220 net.cpp:137] Memory required for data: 714605056
I1025 10:23:24.303931  1220 layer_factory.hpp:77] Creating layer Sigmoid13
I1025 10:23:24.303944  1220 net.cpp:84] Creating Layer Sigmoid13
I1025 10:23:24.303953  1220 net.cpp:406] Sigmoid13 <- Eltwise18_Eltwise18_0_split_0
I1025 10:23:24.303966  1220 net.cpp:380] Sigmoid13 -> Sigmoid13
I1025 10:23:24.304190  1220 net.cpp:122] Setting up Sigmoid13
I1025 10:23:24.304205  1220 net.cpp:129] Top shape: 128 32 16 16 (1048576)
I1025 10:23:24.304210  1220 net.cpp:137] Memory required for data: 718799360
I1025 10:23:24.304214  1220 layer_factory.hpp:77] Creating layer Eltwise19
I1025 10:23:24.304224  1220 net.cpp:84] Creating Layer Eltwise19
I1025 10:23:24.304229  1220 net.cpp:406] Eltwise19 <- Eltwise18_Eltwise18_0_split_1
I1025 10:23:24.304235  1220 net.cpp:406] Eltwise19 <- Sigmoid13
I1025 10:23:24.304241  1220 net.cpp:380] Eltwise19 -> Eltwise19
I1025 10:23:24.304272  1220 net.cpp:122] Setting up Eltwise19
I1025 10:23:24.304280  1220 net.cpp:129] Top shape: 128 32 16 16 (1048576)
I1025 10:23:24.304285  1220 net.cpp:137] Memory required for data: 722993664
I1025 10:23:24.304289  1220 layer_factory.hpp:77] Creating layer Eltwise19_Eltwise19_0_split
I1025 10:23:24.304296  1220 net.cpp:84] Creating Layer Eltwise19_Eltwise19_0_split
I1025 10:23:24.304301  1220 net.cpp:406] Eltwise19_Eltwise19_0_split <- Eltwise19
I1025 10:23:24.304307  1220 net.cpp:380] Eltwise19_Eltwise19_0_split -> Eltwise19_Eltwise19_0_split_0
I1025 10:23:24.304316  1220 net.cpp:380] Eltwise19_Eltwise19_0_split -> Eltwise19_Eltwise19_0_split_1
I1025 10:23:24.304353  1220 net.cpp:122] Setting up Eltwise19_Eltwise19_0_split
I1025 10:23:24.304360  1220 net.cpp:129] Top shape: 128 32 16 16 (1048576)
I1025 10:23:24.304365  1220 net.cpp:129] Top shape: 128 32 16 16 (1048576)
I1025 10:23:24.304369  1220 net.cpp:137] Memory required for data: 731382272
I1025 10:23:24.304374  1220 layer_factory.hpp:77] Creating layer Convolution15
I1025 10:23:24.304388  1220 net.cpp:84] Creating Layer Convolution15
I1025 10:23:24.304394  1220 net.cpp:406] Convolution15 <- Eltwise19_Eltwise19_0_split_0
I1025 10:23:24.304402  1220 net.cpp:380] Convolution15 -> Convolution15
I1025 10:23:24.308285  1220 net.cpp:122] Setting up Convolution15
I1025 10:23:24.308305  1220 net.cpp:129] Top shape: 128 64 8 8 (524288)
I1025 10:23:24.308310  1220 net.cpp:137] Memory required for data: 733479424
I1025 10:23:24.308318  1220 layer_factory.hpp:77] Creating layer BatchNorm15
I1025 10:23:24.308328  1220 net.cpp:84] Creating Layer BatchNorm15
I1025 10:23:24.308334  1220 net.cpp:406] BatchNorm15 <- Convolution15
I1025 10:23:24.308343  1220 net.cpp:367] BatchNorm15 -> Convolution15 (in-place)
I1025 10:23:24.308553  1220 net.cpp:122] Setting up BatchNorm15
I1025 10:23:24.308563  1220 net.cpp:129] Top shape: 128 64 8 8 (524288)
I1025 10:23:24.308568  1220 net.cpp:137] Memory required for data: 735576576
I1025 10:23:24.308576  1220 layer_factory.hpp:77] Creating layer Scale15
I1025 10:23:24.308585  1220 net.cpp:84] Creating Layer Scale15
I1025 10:23:24.308590  1220 net.cpp:406] Scale15 <- Convolution15
I1025 10:23:24.308596  1220 net.cpp:367] Scale15 -> Convolution15 (in-place)
I1025 10:23:24.308634  1220 layer_factory.hpp:77] Creating layer Scale15
I1025 10:23:24.308758  1220 net.cpp:122] Setting up Scale15
I1025 10:23:24.308768  1220 net.cpp:129] Top shape: 128 64 8 8 (524288)
I1025 10:23:24.308771  1220 net.cpp:137] Memory required for data: 737673728
I1025 10:23:24.308779  1220 layer_factory.hpp:77] Creating layer Convolution15_Scale15_0_split
I1025 10:23:24.308785  1220 net.cpp:84] Creating Layer Convolution15_Scale15_0_split
I1025 10:23:24.308790  1220 net.cpp:406] Convolution15_Scale15_0_split <- Convolution15
I1025 10:23:24.308799  1220 net.cpp:380] Convolution15_Scale15_0_split -> Convolution15_Scale15_0_split_0
I1025 10:23:24.308806  1220 net.cpp:380] Convolution15_Scale15_0_split -> Convolution15_Scale15_0_split_1
I1025 10:23:24.308841  1220 net.cpp:122] Setting up Convolution15_Scale15_0_split
I1025 10:23:24.308854  1220 net.cpp:129] Top shape: 128 64 8 8 (524288)
I1025 10:23:24.308868  1220 net.cpp:129] Top shape: 128 64 8 8 (524288)
I1025 10:23:24.308873  1220 net.cpp:137] Memory required for data: 741868032
I1025 10:23:24.308878  1220 layer_factory.hpp:77] Creating layer Sigmoid14
I1025 10:23:24.308887  1220 net.cpp:84] Creating Layer Sigmoid14
I1025 10:23:24.308892  1220 net.cpp:406] Sigmoid14 <- Convolution15_Scale15_0_split_0
I1025 10:23:24.308898  1220 net.cpp:380] Sigmoid14 -> Sigmoid14
I1025 10:23:24.309813  1220 net.cpp:122] Setting up Sigmoid14
I1025 10:23:24.309830  1220 net.cpp:129] Top shape: 128 64 8 8 (524288)
I1025 10:23:24.309835  1220 net.cpp:137] Memory required for data: 743965184
I1025 10:23:24.309840  1220 layer_factory.hpp:77] Creating layer Eltwise20
I1025 10:23:24.309850  1220 net.cpp:84] Creating Layer Eltwise20
I1025 10:23:24.309855  1220 net.cpp:406] Eltwise20 <- Convolution15_Scale15_0_split_1
I1025 10:23:24.309862  1220 net.cpp:406] Eltwise20 <- Sigmoid14
I1025 10:23:24.309870  1220 net.cpp:380] Eltwise20 -> Eltwise20
I1025 10:23:24.309902  1220 net.cpp:122] Setting up Eltwise20
I1025 10:23:24.309911  1220 net.cpp:129] Top shape: 128 64 8 8 (524288)
I1025 10:23:24.309914  1220 net.cpp:137] Memory required for data: 746062336
I1025 10:23:24.309919  1220 layer_factory.hpp:77] Creating layer Convolution16
I1025 10:23:24.309931  1220 net.cpp:84] Creating Layer Convolution16
I1025 10:23:24.309937  1220 net.cpp:406] Convolution16 <- Eltwise20
I1025 10:23:24.309945  1220 net.cpp:380] Convolution16 -> Convolution16
I1025 10:23:24.314225  1220 net.cpp:122] Setting up Convolution16
I1025 10:23:24.314254  1220 net.cpp:129] Top shape: 128 64 8 8 (524288)
I1025 10:23:24.314262  1220 net.cpp:137] Memory required for data: 748159488
I1025 10:23:24.314276  1220 layer_factory.hpp:77] Creating layer BatchNorm16
I1025 10:23:24.314291  1220 net.cpp:84] Creating Layer BatchNorm16
I1025 10:23:24.314301  1220 net.cpp:406] BatchNorm16 <- Convolution16
I1025 10:23:24.314314  1220 net.cpp:367] BatchNorm16 -> Convolution16 (in-place)
I1025 10:23:24.314646  1220 net.cpp:122] Setting up BatchNorm16
I1025 10:23:24.314664  1220 net.cpp:129] Top shape: 128 64 8 8 (524288)
I1025 10:23:24.314672  1220 net.cpp:137] Memory required for data: 750256640
I1025 10:23:24.314687  1220 layer_factory.hpp:77] Creating layer Scale16
I1025 10:23:24.314697  1220 net.cpp:84] Creating Layer Scale16
I1025 10:23:24.314703  1220 net.cpp:406] Scale16 <- Convolution16
I1025 10:23:24.314713  1220 net.cpp:367] Scale16 -> Convolution16 (in-place)
I1025 10:23:24.314755  1220 layer_factory.hpp:77] Creating layer Scale16
I1025 10:23:24.314880  1220 net.cpp:122] Setting up Scale16
I1025 10:23:24.314891  1220 net.cpp:129] Top shape: 128 64 8 8 (524288)
I1025 10:23:24.314896  1220 net.cpp:137] Memory required for data: 752353792
I1025 10:23:24.314903  1220 layer_factory.hpp:77] Creating layer Convolution17
I1025 10:23:24.314914  1220 net.cpp:84] Creating Layer Convolution17
I1025 10:23:24.314920  1220 net.cpp:406] Convolution17 <- Eltwise19_Eltwise19_0_split_1
I1025 10:23:24.314927  1220 net.cpp:380] Convolution17 -> Convolution17
I1025 10:23:24.319097  1220 net.cpp:122] Setting up Convolution17
I1025 10:23:24.319119  1220 net.cpp:129] Top shape: 128 64 8 8 (524288)
I1025 10:23:24.319125  1220 net.cpp:137] Memory required for data: 754450944
I1025 10:23:24.319134  1220 layer_factory.hpp:77] Creating layer BatchNorm17
I1025 10:23:24.319144  1220 net.cpp:84] Creating Layer BatchNorm17
I1025 10:23:24.319149  1220 net.cpp:406] BatchNorm17 <- Convolution17
I1025 10:23:24.319159  1220 net.cpp:367] BatchNorm17 -> Convolution17 (in-place)
I1025 10:23:24.319375  1220 net.cpp:122] Setting up BatchNorm17
I1025 10:23:24.319384  1220 net.cpp:129] Top shape: 128 64 8 8 (524288)
I1025 10:23:24.319389  1220 net.cpp:137] Memory required for data: 756548096
I1025 10:23:24.319397  1220 layer_factory.hpp:77] Creating layer Scale17
I1025 10:23:24.319406  1220 net.cpp:84] Creating Layer Scale17
I1025 10:23:24.319411  1220 net.cpp:406] Scale17 <- Convolution17
I1025 10:23:24.319425  1220 net.cpp:367] Scale17 -> Convolution17 (in-place)
I1025 10:23:24.319476  1220 layer_factory.hpp:77] Creating layer Scale17
I1025 10:23:24.319602  1220 net.cpp:122] Setting up Scale17
I1025 10:23:24.319613  1220 net.cpp:129] Top shape: 128 64 8 8 (524288)
I1025 10:23:24.319618  1220 net.cpp:137] Memory required for data: 758645248
I1025 10:23:24.319625  1220 layer_factory.hpp:77] Creating layer Eltwise21
I1025 10:23:24.319633  1220 net.cpp:84] Creating Layer Eltwise21
I1025 10:23:24.319638  1220 net.cpp:406] Eltwise21 <- Convolution16
I1025 10:23:24.319643  1220 net.cpp:406] Eltwise21 <- Convolution17
I1025 10:23:24.319649  1220 net.cpp:380] Eltwise21 -> Eltwise21
I1025 10:23:24.319674  1220 net.cpp:122] Setting up Eltwise21
I1025 10:23:24.319680  1220 net.cpp:129] Top shape: 128 64 8 8 (524288)
I1025 10:23:24.319685  1220 net.cpp:137] Memory required for data: 760742400
I1025 10:23:24.319689  1220 layer_factory.hpp:77] Creating layer Eltwise21_Eltwise21_0_split
I1025 10:23:24.319695  1220 net.cpp:84] Creating Layer Eltwise21_Eltwise21_0_split
I1025 10:23:24.319700  1220 net.cpp:406] Eltwise21_Eltwise21_0_split <- Eltwise21
I1025 10:23:24.319708  1220 net.cpp:380] Eltwise21_Eltwise21_0_split -> Eltwise21_Eltwise21_0_split_0
I1025 10:23:24.319715  1220 net.cpp:380] Eltwise21_Eltwise21_0_split -> Eltwise21_Eltwise21_0_split_1
I1025 10:23:24.319753  1220 net.cpp:122] Setting up Eltwise21_Eltwise21_0_split
I1025 10:23:24.319761  1220 net.cpp:129] Top shape: 128 64 8 8 (524288)
I1025 10:23:24.319767  1220 net.cpp:129] Top shape: 128 64 8 8 (524288)
I1025 10:23:24.319772  1220 net.cpp:137] Memory required for data: 764936704
I1025 10:23:24.319775  1220 layer_factory.hpp:77] Creating layer Sigmoid15
I1025 10:23:24.319782  1220 net.cpp:84] Creating Layer Sigmoid15
I1025 10:23:24.319787  1220 net.cpp:406] Sigmoid15 <- Eltwise21_Eltwise21_0_split_0
I1025 10:23:24.319793  1220 net.cpp:380] Sigmoid15 -> Sigmoid15
I1025 10:23:24.320699  1220 net.cpp:122] Setting up Sigmoid15
I1025 10:23:24.320716  1220 net.cpp:129] Top shape: 128 64 8 8 (524288)
I1025 10:23:24.320724  1220 net.cpp:137] Memory required for data: 767033856
I1025 10:23:24.320729  1220 layer_factory.hpp:77] Creating layer Eltwise22
I1025 10:23:24.320735  1220 net.cpp:84] Creating Layer Eltwise22
I1025 10:23:24.320741  1220 net.cpp:406] Eltwise22 <- Eltwise21_Eltwise21_0_split_1
I1025 10:23:24.320747  1220 net.cpp:406] Eltwise22 <- Sigmoid15
I1025 10:23:24.320755  1220 net.cpp:380] Eltwise22 -> Eltwise22
I1025 10:23:24.320786  1220 net.cpp:122] Setting up Eltwise22
I1025 10:23:24.320794  1220 net.cpp:129] Top shape: 128 64 8 8 (524288)
I1025 10:23:24.320798  1220 net.cpp:137] Memory required for data: 769131008
I1025 10:23:24.320803  1220 layer_factory.hpp:77] Creating layer Eltwise22_Eltwise22_0_split
I1025 10:23:24.320811  1220 net.cpp:84] Creating Layer Eltwise22_Eltwise22_0_split
I1025 10:23:24.320816  1220 net.cpp:406] Eltwise22_Eltwise22_0_split <- Eltwise22
I1025 10:23:24.320823  1220 net.cpp:380] Eltwise22_Eltwise22_0_split -> Eltwise22_Eltwise22_0_split_0
I1025 10:23:24.320830  1220 net.cpp:380] Eltwise22_Eltwise22_0_split -> Eltwise22_Eltwise22_0_split_1
I1025 10:23:24.320868  1220 net.cpp:122] Setting up Eltwise22_Eltwise22_0_split
I1025 10:23:24.320879  1220 net.cpp:129] Top shape: 128 64 8 8 (524288)
I1025 10:23:24.320884  1220 net.cpp:129] Top shape: 128 64 8 8 (524288)
I1025 10:23:24.320888  1220 net.cpp:137] Memory required for data: 773325312
I1025 10:23:24.320894  1220 layer_factory.hpp:77] Creating layer Convolution18
I1025 10:23:24.320904  1220 net.cpp:84] Creating Layer Convolution18
I1025 10:23:24.320910  1220 net.cpp:406] Convolution18 <- Eltwise22_Eltwise22_0_split_0
I1025 10:23:24.320917  1220 net.cpp:380] Convolution18 -> Convolution18
I1025 10:23:24.326802  1220 net.cpp:122] Setting up Convolution18
I1025 10:23:24.326829  1220 net.cpp:129] Top shape: 128 64 8 8 (524288)
I1025 10:23:24.326839  1220 net.cpp:137] Memory required for data: 775422464
I1025 10:23:24.326856  1220 layer_factory.hpp:77] Creating layer BatchNorm18
I1025 10:23:24.326889  1220 net.cpp:84] Creating Layer BatchNorm18
I1025 10:23:24.326920  1220 net.cpp:406] BatchNorm18 <- Convolution18
I1025 10:23:24.326938  1220 net.cpp:367] BatchNorm18 -> Convolution18 (in-place)
I1025 10:23:24.327441  1220 net.cpp:122] Setting up BatchNorm18
I1025 10:23:24.327461  1220 net.cpp:129] Top shape: 128 64 8 8 (524288)
I1025 10:23:24.327473  1220 net.cpp:137] Memory required for data: 777519616
I1025 10:23:24.327495  1220 layer_factory.hpp:77] Creating layer Scale18
I1025 10:23:24.327512  1220 net.cpp:84] Creating Layer Scale18
I1025 10:23:24.327527  1220 net.cpp:406] Scale18 <- Convolution18
I1025 10:23:24.327541  1220 net.cpp:367] Scale18 -> Convolution18 (in-place)
I1025 10:23:24.327625  1220 layer_factory.hpp:77] Creating layer Scale18
I1025 10:23:24.327898  1220 net.cpp:122] Setting up Scale18
I1025 10:23:24.327917  1220 net.cpp:129] Top shape: 128 64 8 8 (524288)
I1025 10:23:24.327929  1220 net.cpp:137] Memory required for data: 779616768
I1025 10:23:24.327945  1220 layer_factory.hpp:77] Creating layer Convolution18_Scale18_0_split
I1025 10:23:24.327963  1220 net.cpp:84] Creating Layer Convolution18_Scale18_0_split
I1025 10:23:24.327976  1220 net.cpp:406] Convolution18_Scale18_0_split <- Convolution18
I1025 10:23:24.327991  1220 net.cpp:380] Convolution18_Scale18_0_split -> Convolution18_Scale18_0_split_0
I1025 10:23:24.328013  1220 net.cpp:380] Convolution18_Scale18_0_split -> Convolution18_Scale18_0_split_1
I1025 10:23:24.328090  1220 net.cpp:122] Setting up Convolution18_Scale18_0_split
I1025 10:23:24.328107  1220 net.cpp:129] Top shape: 128 64 8 8 (524288)
I1025 10:23:24.328120  1220 net.cpp:129] Top shape: 128 64 8 8 (524288)
I1025 10:23:24.328130  1220 net.cpp:137] Memory required for data: 783811072
I1025 10:23:24.328141  1220 layer_factory.hpp:77] Creating layer Sigmoid16
I1025 10:23:24.328155  1220 net.cpp:84] Creating Layer Sigmoid16
I1025 10:23:24.328167  1220 net.cpp:406] Sigmoid16 <- Convolution18_Scale18_0_split_0
I1025 10:23:24.328182  1220 net.cpp:380] Sigmoid16 -> Sigmoid16
I1025 10:23:24.328521  1220 net.cpp:122] Setting up Sigmoid16
I1025 10:23:24.328537  1220 net.cpp:129] Top shape: 128 64 8 8 (524288)
I1025 10:23:24.328542  1220 net.cpp:137] Memory required for data: 785908224
I1025 10:23:24.328547  1220 layer_factory.hpp:77] Creating layer Eltwise23
I1025 10:23:24.328555  1220 net.cpp:84] Creating Layer Eltwise23
I1025 10:23:24.328562  1220 net.cpp:406] Eltwise23 <- Convolution18_Scale18_0_split_1
I1025 10:23:24.328567  1220 net.cpp:406] Eltwise23 <- Sigmoid16
I1025 10:23:24.328577  1220 net.cpp:380] Eltwise23 -> Eltwise23
I1025 10:23:24.328609  1220 net.cpp:122] Setting up Eltwise23
I1025 10:23:24.328618  1220 net.cpp:129] Top shape: 128 64 8 8 (524288)
I1025 10:23:24.328621  1220 net.cpp:137] Memory required for data: 788005376
I1025 10:23:24.328626  1220 layer_factory.hpp:77] Creating layer Convolution19
I1025 10:23:24.328639  1220 net.cpp:84] Creating Layer Convolution19
I1025 10:23:24.328644  1220 net.cpp:406] Convolution19 <- Eltwise23
I1025 10:23:24.328652  1220 net.cpp:380] Convolution19 -> Convolution19
I1025 10:23:24.332149  1220 net.cpp:122] Setting up Convolution19
I1025 10:23:24.332167  1220 net.cpp:129] Top shape: 128 64 8 8 (524288)
I1025 10:23:24.332173  1220 net.cpp:137] Memory required for data: 790102528
I1025 10:23:24.332181  1220 layer_factory.hpp:77] Creating layer BatchNorm19
I1025 10:23:24.332193  1220 net.cpp:84] Creating Layer BatchNorm19
I1025 10:23:24.332200  1220 net.cpp:406] BatchNorm19 <- Convolution19
I1025 10:23:24.332206  1220 net.cpp:367] BatchNorm19 -> Convolution19 (in-place)
I1025 10:23:24.332425  1220 net.cpp:122] Setting up BatchNorm19
I1025 10:23:24.332434  1220 net.cpp:129] Top shape: 128 64 8 8 (524288)
I1025 10:23:24.332438  1220 net.cpp:137] Memory required for data: 792199680
I1025 10:23:24.332470  1220 layer_factory.hpp:77] Creating layer Scale19
I1025 10:23:24.332480  1220 net.cpp:84] Creating Layer Scale19
I1025 10:23:24.332485  1220 net.cpp:406] Scale19 <- Convolution19
I1025 10:23:24.332491  1220 net.cpp:367] Scale19 -> Convolution19 (in-place)
I1025 10:23:24.332543  1220 layer_factory.hpp:77] Creating layer Scale19
I1025 10:23:24.332681  1220 net.cpp:122] Setting up Scale19
I1025 10:23:24.332690  1220 net.cpp:129] Top shape: 128 64 8 8 (524288)
I1025 10:23:24.332695  1220 net.cpp:137] Memory required for data: 794296832
I1025 10:23:24.332701  1220 layer_factory.hpp:77] Creating layer Eltwise24
I1025 10:23:24.332708  1220 net.cpp:84] Creating Layer Eltwise24
I1025 10:23:24.332713  1220 net.cpp:406] Eltwise24 <- Convolution19
I1025 10:23:24.332721  1220 net.cpp:406] Eltwise24 <- Eltwise22_Eltwise22_0_split_1
I1025 10:23:24.332728  1220 net.cpp:380] Eltwise24 -> Eltwise24
I1025 10:23:24.332751  1220 net.cpp:122] Setting up Eltwise24
I1025 10:23:24.332758  1220 net.cpp:129] Top shape: 128 64 8 8 (524288)
I1025 10:23:24.332762  1220 net.cpp:137] Memory required for data: 796393984
I1025 10:23:24.332767  1220 layer_factory.hpp:77] Creating layer Eltwise24_Eltwise24_0_split
I1025 10:23:24.332773  1220 net.cpp:84] Creating Layer Eltwise24_Eltwise24_0_split
I1025 10:23:24.332778  1220 net.cpp:406] Eltwise24_Eltwise24_0_split <- Eltwise24
I1025 10:23:24.332784  1220 net.cpp:380] Eltwise24_Eltwise24_0_split -> Eltwise24_Eltwise24_0_split_0
I1025 10:23:24.332792  1220 net.cpp:380] Eltwise24_Eltwise24_0_split -> Eltwise24_Eltwise24_0_split_1
I1025 10:23:24.332831  1220 net.cpp:122] Setting up Eltwise24_Eltwise24_0_split
I1025 10:23:24.332839  1220 net.cpp:129] Top shape: 128 64 8 8 (524288)
I1025 10:23:24.332845  1220 net.cpp:129] Top shape: 128 64 8 8 (524288)
I1025 10:23:24.332849  1220 net.cpp:137] Memory required for data: 800588288
I1025 10:23:24.332854  1220 layer_factory.hpp:77] Creating layer Sigmoid17
I1025 10:23:24.332861  1220 net.cpp:84] Creating Layer Sigmoid17
I1025 10:23:24.332866  1220 net.cpp:406] Sigmoid17 <- Eltwise24_Eltwise24_0_split_0
I1025 10:23:24.332875  1220 net.cpp:380] Sigmoid17 -> Sigmoid17
I1025 10:23:24.333860  1220 net.cpp:122] Setting up Sigmoid17
I1025 10:23:24.333878  1220 net.cpp:129] Top shape: 128 64 8 8 (524288)
I1025 10:23:24.333883  1220 net.cpp:137] Memory required for data: 802685440
I1025 10:23:24.333887  1220 layer_factory.hpp:77] Creating layer Eltwise25
I1025 10:23:24.333895  1220 net.cpp:84] Creating Layer Eltwise25
I1025 10:23:24.333901  1220 net.cpp:406] Eltwise25 <- Eltwise24_Eltwise24_0_split_1
I1025 10:23:24.333907  1220 net.cpp:406] Eltwise25 <- Sigmoid17
I1025 10:23:24.333915  1220 net.cpp:380] Eltwise25 -> Eltwise25
I1025 10:23:24.333948  1220 net.cpp:122] Setting up Eltwise25
I1025 10:23:24.333956  1220 net.cpp:129] Top shape: 128 64 8 8 (524288)
I1025 10:23:24.333961  1220 net.cpp:137] Memory required for data: 804782592
I1025 10:23:24.333966  1220 layer_factory.hpp:77] Creating layer Eltwise25_Eltwise25_0_split
I1025 10:23:24.333972  1220 net.cpp:84] Creating Layer Eltwise25_Eltwise25_0_split
I1025 10:23:24.333977  1220 net.cpp:406] Eltwise25_Eltwise25_0_split <- Eltwise25
I1025 10:23:24.333983  1220 net.cpp:380] Eltwise25_Eltwise25_0_split -> Eltwise25_Eltwise25_0_split_0
I1025 10:23:24.333992  1220 net.cpp:380] Eltwise25_Eltwise25_0_split -> Eltwise25_Eltwise25_0_split_1
I1025 10:23:24.334031  1220 net.cpp:122] Setting up Eltwise25_Eltwise25_0_split
I1025 10:23:24.334039  1220 net.cpp:129] Top shape: 128 64 8 8 (524288)
I1025 10:23:24.334045  1220 net.cpp:129] Top shape: 128 64 8 8 (524288)
I1025 10:23:24.334049  1220 net.cpp:137] Memory required for data: 808976896
I1025 10:23:24.334053  1220 layer_factory.hpp:77] Creating layer Convolution20
I1025 10:23:24.334066  1220 net.cpp:84] Creating Layer Convolution20
I1025 10:23:24.334072  1220 net.cpp:406] Convolution20 <- Eltwise25_Eltwise25_0_split_0
I1025 10:23:24.334079  1220 net.cpp:380] Convolution20 -> Convolution20
I1025 10:23:24.337263  1220 net.cpp:122] Setting up Convolution20
I1025 10:23:24.337286  1220 net.cpp:129] Top shape: 128 64 8 8 (524288)
I1025 10:23:24.337296  1220 net.cpp:137] Memory required for data: 811074048
I1025 10:23:24.337307  1220 layer_factory.hpp:77] Creating layer BatchNorm20
I1025 10:23:24.337321  1220 net.cpp:84] Creating Layer BatchNorm20
I1025 10:23:24.337337  1220 net.cpp:406] BatchNorm20 <- Convolution20
I1025 10:23:24.337360  1220 net.cpp:367] BatchNorm20 -> Convolution20 (in-place)
I1025 10:23:24.337676  1220 net.cpp:122] Setting up BatchNorm20
I1025 10:23:24.337689  1220 net.cpp:129] Top shape: 128 64 8 8 (524288)
I1025 10:23:24.337697  1220 net.cpp:137] Memory required for data: 813171200
I1025 10:23:24.337710  1220 layer_factory.hpp:77] Creating layer Scale20
I1025 10:23:24.337739  1220 net.cpp:84] Creating Layer Scale20
I1025 10:23:24.337749  1220 net.cpp:406] Scale20 <- Convolution20
I1025 10:23:24.337757  1220 net.cpp:367] Scale20 -> Convolution20 (in-place)
I1025 10:23:24.337818  1220 layer_factory.hpp:77] Creating layer Scale20
I1025 10:23:24.338002  1220 net.cpp:122] Setting up Scale20
I1025 10:23:24.338017  1220 net.cpp:129] Top shape: 128 64 8 8 (524288)
I1025 10:23:24.338024  1220 net.cpp:137] Memory required for data: 815268352
I1025 10:23:24.338037  1220 layer_factory.hpp:77] Creating layer Convolution20_Scale20_0_split
I1025 10:23:24.338047  1220 net.cpp:84] Creating Layer Convolution20_Scale20_0_split
I1025 10:23:24.338053  1220 net.cpp:406] Convolution20_Scale20_0_split <- Convolution20
I1025 10:23:24.338063  1220 net.cpp:380] Convolution20_Scale20_0_split -> Convolution20_Scale20_0_split_0
I1025 10:23:24.338074  1220 net.cpp:380] Convolution20_Scale20_0_split -> Convolution20_Scale20_0_split_1
I1025 10:23:24.338126  1220 net.cpp:122] Setting up Convolution20_Scale20_0_split
I1025 10:23:24.338138  1220 net.cpp:129] Top shape: 128 64 8 8 (524288)
I1025 10:23:24.338147  1220 net.cpp:129] Top shape: 128 64 8 8 (524288)
I1025 10:23:24.338155  1220 net.cpp:137] Memory required for data: 819462656
I1025 10:23:24.338161  1220 layer_factory.hpp:77] Creating layer Sigmoid18
I1025 10:23:24.338171  1220 net.cpp:84] Creating Layer Sigmoid18
I1025 10:23:24.338178  1220 net.cpp:406] Sigmoid18 <- Convolution20_Scale20_0_split_0
I1025 10:23:24.338191  1220 net.cpp:380] Sigmoid18 -> Sigmoid18
I1025 10:23:24.340415  1220 net.cpp:122] Setting up Sigmoid18
I1025 10:23:24.340433  1220 net.cpp:129] Top shape: 128 64 8 8 (524288)
I1025 10:23:24.340440  1220 net.cpp:137] Memory required for data: 821559808
I1025 10:23:24.340445  1220 layer_factory.hpp:77] Creating layer Eltwise26
I1025 10:23:24.340452  1220 net.cpp:84] Creating Layer Eltwise26
I1025 10:23:24.340457  1220 net.cpp:406] Eltwise26 <- Convolution20_Scale20_0_split_1
I1025 10:23:24.340464  1220 net.cpp:406] Eltwise26 <- Sigmoid18
I1025 10:23:24.340472  1220 net.cpp:380] Eltwise26 -> Eltwise26
I1025 10:23:24.340504  1220 net.cpp:122] Setting up Eltwise26
I1025 10:23:24.340514  1220 net.cpp:129] Top shape: 128 64 8 8 (524288)
I1025 10:23:24.340519  1220 net.cpp:137] Memory required for data: 823656960
I1025 10:23:24.340523  1220 layer_factory.hpp:77] Creating layer Convolution21
I1025 10:23:24.340535  1220 net.cpp:84] Creating Layer Convolution21
I1025 10:23:24.340540  1220 net.cpp:406] Convolution21 <- Eltwise26
I1025 10:23:24.340548  1220 net.cpp:380] Convolution21 -> Convolution21
I1025 10:23:24.345341  1220 net.cpp:122] Setting up Convolution21
I1025 10:23:24.345371  1220 net.cpp:129] Top shape: 128 64 8 8 (524288)
I1025 10:23:24.345382  1220 net.cpp:137] Memory required for data: 825754112
I1025 10:23:24.345396  1220 layer_factory.hpp:77] Creating layer BatchNorm21
I1025 10:23:24.345413  1220 net.cpp:84] Creating Layer BatchNorm21
I1025 10:23:24.345424  1220 net.cpp:406] BatchNorm21 <- Convolution21
I1025 10:23:24.345439  1220 net.cpp:367] BatchNorm21 -> Convolution21 (in-place)
I1025 10:23:24.345818  1220 net.cpp:122] Setting up BatchNorm21
I1025 10:23:24.345835  1220 net.cpp:129] Top shape: 128 64 8 8 (524288)
I1025 10:23:24.345845  1220 net.cpp:137] Memory required for data: 827851264
I1025 10:23:24.345860  1220 layer_factory.hpp:77] Creating layer Scale21
I1025 10:23:24.345876  1220 net.cpp:84] Creating Layer Scale21
I1025 10:23:24.345886  1220 net.cpp:406] Scale21 <- Convolution21
I1025 10:23:24.345898  1220 net.cpp:367] Scale21 -> Convolution21 (in-place)
I1025 10:23:24.345978  1220 layer_factory.hpp:77] Creating layer Scale21
I1025 10:23:24.346217  1220 net.cpp:122] Setting up Scale21
I1025 10:23:24.346235  1220 net.cpp:129] Top shape: 128 64 8 8 (524288)
I1025 10:23:24.346243  1220 net.cpp:137] Memory required for data: 829948416
I1025 10:23:24.346257  1220 layer_factory.hpp:77] Creating layer Eltwise27
I1025 10:23:24.346271  1220 net.cpp:84] Creating Layer Eltwise27
I1025 10:23:24.346282  1220 net.cpp:406] Eltwise27 <- Convolution21
I1025 10:23:24.346292  1220 net.cpp:406] Eltwise27 <- Eltwise25_Eltwise25_0_split_1
I1025 10:23:24.346303  1220 net.cpp:380] Eltwise27 -> Eltwise27
I1025 10:23:24.346345  1220 net.cpp:122] Setting up Eltwise27
I1025 10:23:24.346359  1220 net.cpp:129] Top shape: 128 64 8 8 (524288)
I1025 10:23:24.346369  1220 net.cpp:137] Memory required for data: 832045568
I1025 10:23:24.346376  1220 layer_factory.hpp:77] Creating layer Eltwise27_Eltwise27_0_split
I1025 10:23:24.346387  1220 net.cpp:84] Creating Layer Eltwise27_Eltwise27_0_split
I1025 10:23:24.346397  1220 net.cpp:406] Eltwise27_Eltwise27_0_split <- Eltwise27
I1025 10:23:24.346410  1220 net.cpp:380] Eltwise27_Eltwise27_0_split -> Eltwise27_Eltwise27_0_split_0
I1025 10:23:24.346426  1220 net.cpp:380] Eltwise27_Eltwise27_0_split -> Eltwise27_Eltwise27_0_split_1
I1025 10:23:24.346493  1220 net.cpp:122] Setting up Eltwise27_Eltwise27_0_split
I1025 10:23:24.346519  1220 net.cpp:129] Top shape: 128 64 8 8 (524288)
I1025 10:23:24.346530  1220 net.cpp:129] Top shape: 128 64 8 8 (524288)
I1025 10:23:24.346539  1220 net.cpp:137] Memory required for data: 836239872
I1025 10:23:24.346546  1220 layer_factory.hpp:77] Creating layer Sigmoid19
I1025 10:23:24.346560  1220 net.cpp:84] Creating Layer Sigmoid19
I1025 10:23:24.346570  1220 net.cpp:406] Sigmoid19 <- Eltwise27_Eltwise27_0_split_0
I1025 10:23:24.346582  1220 net.cpp:380] Sigmoid19 -> Sigmoid19
I1025 10:23:24.346909  1220 net.cpp:122] Setting up Sigmoid19
I1025 10:23:24.346930  1220 net.cpp:129] Top shape: 128 64 8 8 (524288)
I1025 10:23:24.346940  1220 net.cpp:137] Memory required for data: 838337024
I1025 10:23:24.346949  1220 layer_factory.hpp:77] Creating layer Eltwise28
I1025 10:23:24.346962  1220 net.cpp:84] Creating Layer Eltwise28
I1025 10:23:24.346971  1220 net.cpp:406] Eltwise28 <- Eltwise27_Eltwise27_0_split_1
I1025 10:23:24.346983  1220 net.cpp:406] Eltwise28 <- Sigmoid19
I1025 10:23:24.346994  1220 net.cpp:380] Eltwise28 -> Eltwise28
I1025 10:23:24.347045  1220 net.cpp:122] Setting up Eltwise28
I1025 10:23:24.347059  1220 net.cpp:129] Top shape: 128 64 8 8 (524288)
I1025 10:23:24.347069  1220 net.cpp:137] Memory required for data: 840434176
I1025 10:23:24.347076  1220 layer_factory.hpp:77] Creating layer Pooling1
I1025 10:23:24.347096  1220 net.cpp:84] Creating Layer Pooling1
I1025 10:23:24.347105  1220 net.cpp:406] Pooling1 <- Eltwise28
I1025 10:23:24.347117  1220 net.cpp:380] Pooling1 -> Pooling1
I1025 10:23:24.348353  1220 net.cpp:122] Setting up Pooling1
I1025 10:23:24.348382  1220 net.cpp:129] Top shape: 128 64 1 1 (8192)
I1025 10:23:24.348399  1220 net.cpp:137] Memory required for data: 840466944
I1025 10:23:24.348412  1220 layer_factory.hpp:77] Creating layer InnerProduct1
I1025 10:23:24.348440  1220 net.cpp:84] Creating Layer InnerProduct1
I1025 10:23:24.348455  1220 net.cpp:406] InnerProduct1 <- Pooling1
I1025 10:23:24.348472  1220 net.cpp:380] InnerProduct1 -> InnerProduct1
I1025 10:23:24.348773  1220 net.cpp:122] Setting up InnerProduct1
I1025 10:23:24.348793  1220 net.cpp:129] Top shape: 128 10 (1280)
I1025 10:23:24.348804  1220 net.cpp:137] Memory required for data: 840472064
I1025 10:23:24.348821  1220 layer_factory.hpp:77] Creating layer Accuracy1
I1025 10:23:24.348837  1220 net.cpp:84] Creating Layer Accuracy1
I1025 10:23:24.348850  1220 net.cpp:406] Accuracy1 <- InnerProduct1
I1025 10:23:24.348863  1220 net.cpp:406] Accuracy1 <- Data2
I1025 10:23:24.348882  1220 net.cpp:380] Accuracy1 -> Accuracy1
…
