…
I1025 10:21:53.941628  1075 upgrade_proto.cpp:80] Successfully upgraded batch norm layers using deprecated params.
I1025 10:21:53.942428  1075 net.cpp:51] Initializing net from parameters: 
state {
  phase: TEST
  level: 0
  stage: ""
}
layer {
  name: "Data1"
  type: "Data"
  top: "Data1"
  top: "Data2"
  transform_param {
    crop_size: 32
    mean_value: 125.306915
    mean_value: 122.950394
    mean_value: 113.865387
  }
  data_param {
    source: "/data/hjy1312/data/RESNET/cifar-10/cifar10_test_lmdb"
    batch_size: 128
    backend: LMDB
  }
}
layer {
  name: "Convolution1"
  type: "Convolution"
  bottom: "Data1"
  top: "Convolution1"
  param {
    lr_mult: 1
    decay_mult: 1
  }
  param {
    lr_mult: 2
    decay_mult: 0
  }
  convolution_param {
    num_output: 16
    bias_term: true
    pad: 1
    kernel_size: 3
    stride: 1
    weight_filler {
      type: "msra"
    }
    bias_filler {
      type: "constant"
    }
  }
}
layer {
  name: "BatchNorm1"
  type: "BatchNorm"
  bottom: "Convolution1"
  top: "Convolution1"
  param {
    lr_mult: 0
    decay_mult: 0
  }
  param {
    lr_mult: 0
    decay_mult: 0
  }
  param {
    lr_mult: 0
    decay_mult: 0
  }
  batch_norm_param {
    use_global_stats: true
  }
}
layer {
  name: "Scale1"
  type: "Scale"
  bottom: "Convolution1"
  top: "Convolution1"
  scale_param {
    bias_term: true
  }
}
layer {
  name: "Sigmoid1"
  type: "Sigmoid"
  bottom: "Convolution1"
  top: "Sigmoid1"
}
layer {
  name: "Eltwise1"
  type: "Eltwise"
  bottom: "Convolution1"
  bottom: "Sigmoid1"
  top: "Eltwise1"
  eltwise_param {
    operation: PROD
  }
}
layer {
  name: "Convolution2"
  type: "Convolution"
  bottom: "Eltwise1"
  top: "Convolution2"
  param {
    lr_mult: 1
    decay_mult: 1
  }
  param {
    lr_mult: 2
    decay_mult: 0
  }
  convolution_param {
    num_output: 16
    bias_term: true
    pad: 1
    kernel_size: 3
    stride: 1
    weight_filler {
      type: "msra"
    }
    bias_filler {
      type: "constant"
    }
  }
}
layer {
  name: "BatchNorm2"
  type: "BatchNorm"
  bottom: "Convolution2"
  top: "Convolution2"
  param {
    lr_mult: 0
    decay_mult: 0
  }
  param {
    lr_mult: 0
    decay_mult: 0
  }
  param {
    lr_mult: 0
    decay_mult: 0
  }
  batch_norm_param {
    use_global_stats: true
  }
}
layer {
  name: "Scale2"
  type: "Scale"
  bottom: "Convolution2"
  top: "Convolution2"
  scale_param {
    bias_term: true
  }
}
layer {
  name: "Sigmoid2"
  type: "Sigmoid"
  bottom: "Convolution2"
  top: "Sigmoid2"
}
layer {
  name: "Eltwise2"
  type: "Eltwise"
  bottom: "Convolution2"
  bottom: "Sigmoid2"
  top: "Eltwise2"
  eltwise_param {
    operation: PROD
  }
}
layer {
  name: "Convolution3"
  type: "Convolution"
  bottom: "Eltwise2"
  top: "Convolution3"
  param {
    lr_mult: 1
    decay_mult: 1
  }
  param {
    lr_mult: 2
    decay_mult: 0
  }
  convolution_param {
    num_output: 16
    bias_term: true
    pad: 1
    kernel_size: 3
    stride: 1
    weight_filler {
      type: "msra"
    }
    bias_filler {
      type: "constant"
    }
  }
}
layer {
  name: "BatchNorm3"
  type: "BatchNorm"
  bottom: "Convolution3"
  top: "Convolution3"
  param {
    lr_mult: 0
    decay_mult: 0
  }
  param {
    lr_mult: 0
    decay_mult: 0
  }
  param {
    lr_mult: 0
    decay_mult: 0
  }
  batch_norm_param {
    use_global_stats: true
  }
}
layer {
  name: "Scale3"
  type: "Scale"
  bottom: "Convolution3"
  top: "Convolution3"
  scale_param {
    bias_term: true
  }
}
layer {
  name: "Eltwise3"
  type: "Eltwise"
  bottom: "Convolution3"
  bottom: "Eltwise1"
  top: "Eltwise3"
  eltwise_param {
    operation: SUM
  }
}
layer {
  name: "Sigmoid3"
  type: "Sigmoid"
  bottom: "Eltwise3"
  top: "Sigmoid3"
}
layer {
  name: "Eltwise4"
  type: "Eltwise"
  bottom: "Eltwise3"
  bottom: "Sigmoid3"
  top: "Eltwise4"
  eltwise_param {
    operation: PROD
  }
}
layer {
  name: "Convolution4"
  type: "Convolution"
  bottom: "Eltwise4"
  top: "Convolution4"
  param {
    lr_mult: 1
    decay_mult: 1
  }
  param {
    lr_mult: 2
    decay_mult: 0
  }
  convolution_param {
    num_output: 16
    bias_term: true
    pad: 1
    kernel_size: 3
    stride: 1
    weight_filler {
      type: "msra"
    }
    bias_filler {
      type: "constant"
    }
  }
}
layer {
  name: "BatchNorm4"
  type: "BatchNorm"
  bottom: "Convolution4"
  top: "Convolution4"
  param {
    lr_mult: 0
    decay_mult: 0
  }
  param {
    lr_mult: 0
    decay_mult: 0
  }
  param {
    lr_mult: 0
    decay_mult: 0
  }
  batch_norm_param {
    use_global_stats: true
  }
}
layer {
  name: "Scale4"
  type: "Scale"
  bottom: "Convolution4"
  top: "Convolution4"
  scale_param {
    bias_term: true
  }
}
layer {
  name: "Sigmoid4"
  type: "Sigmoid"
  bottom: "Convolution4"
  top: "Sigmoid4"
}
layer {
  name: "Eltwise5"
  type: "Eltwise"
  bottom: "Convolution4"
  bottom: "Sigmoid4"
  top: "Eltwise5"
  eltwise_param {
    operation: PROD
  }
}
layer {
  name: "Convolution5"
  type: "Convolution"
  bottom: "Eltwise5"
  top: "Convolution5"
  param {
    lr_mult: 1
    decay_mult: 1
  }
  param {
    lr_mult: 2
    decay_mult: 0
  }
  convolution_param {
    num_output: 16
    bias_term: true
    pad: 1
    kernel_size: 3
    stride: 1
    weight_filler {
      type: "msra"
    }
    bias_filler {
      type: "constant"
    }
  }
}
layer {
  name: "BatchNorm5"
  type: "BatchNorm"
  bottom: "Convolution5"
  top: "Convolution5"
  param {
    lr_mult: 0
    decay_mult: 0
  }
  param {
    lr_mult: 0
    decay_mult: 0
  }
  param {
    lr_mult: 0
    decay_mult: 0
  }
  batch_norm_param {
    use_global_stats: true
  }
}
layer {
  name: "Scale5"
  type: "Scale"
  bottom: "Convolution5"
  top: "Convolution5"
  scale_param {
    bias_term: true
  }
}
layer {
  name: "Eltwise6"
  type: "Eltwise"
  bottom: "Convolution5"
  bottom: "Eltwise4"
  top: "Eltwise6"
  eltwise_param {
    operation: SUM
  }
}
layer {
  name: "Sigmoid5"
  type: "Sigmoid"
  bottom: "Eltwise6"
  top: "Sigmoid5"
}
layer {
  name: "Eltwise7"
  type: "Eltwise"
  bottom: "Eltwise6"
  bottom: "Sigmoid5"
  top: "Eltwise7"
  eltwise_param {
    operation: PROD
  }
}
layer {
  name: "Convolution6"
  type: "Convolution"
  bottom: "Eltwise7"
  top: "Convolution6"
  param {
    lr_mult: 1
    decay_mult: 1
  }
  param {
    lr_mult: 2
    decay_mult: 0
  }
  convolution_param {
    num_output: 16
    bias_term: true
    pad: 1
    kernel_size: 3
    stride: 1
    weight_filler {
      type: "msra"
    }
    bias_filler {
      type: "constant"
    }
  }
}
layer {
  name: "BatchNorm6"
  type: "BatchNorm"
  bottom: "Convolution6"
  top: "Convolution6"
  param {
    lr_mult: 0
    decay_mult: 0
  }
  param {
    lr_mult: 0
    decay_mult: 0
  }
  param {
    lr_mult: 0
    decay_mult: 0
  }
  batch_norm_param {
    use_global_stats: true
  }
}
layer {
  name: "Scale6"
  type: "Scale"
  bottom: "Convolution6"
  top: "Convolution6"
  scale_param {
    bias_term: true
  }
}
layer {
  name: "Sigmoid6"
  type: "Sigmoid"
  bottom: "Convolution6"
  top: "Sigmoid6"
}
layer {
  name: "Eltwise8"
  type: "Eltwise"
  bottom: "Convolution6"
  bottom: "Sigmoid6"
  top: "Eltwise8"
  eltwise_param {
    operation: PROD
  }
}
layer {
  name: "Convolution7"
  type: "Convolution"
  bottom: "Eltwise8"
  top: "Convolution7"
  param {
    lr_mult: 1
    decay_mult: 1
  }
  param {
    lr_mult: 2
    decay_mult: 0
  }
  convolution_param {
    num_output: 16
    bias_term: true
    pad: 1
    kernel_size: 3
    stride: 1
    weight_filler {
      type: "msra"
    }
    bias_filler {
      type: "constant"
    }
  }
}
layer {
  name: "BatchNorm7"
  type: "BatchNorm"
  bottom: "Convolution7"
  top: "Convolution7"
  param {
    lr_mult: 0
    decay_mult: 0
  }
  param {
    lr_mult: 0
    decay_mult: 0
  }
  param {
    lr_mult: 0
    decay_mult: 0
  }
  batch_norm_param {
    use_global_stats: true
  }
}
layer {
  name: "Scale7"
  type: "Scale"
  bottom: "Convolution7"
  top: "Convolution7"
  scale_param {
    bias_term: true
  }
}
layer {
  name: "Eltwise9"
  type: "Eltwise"
  bottom: "Convolution7"
  bottom: "Eltwise7"
  top: "Eltwise9"
  eltwise_param {
    operation: SUM
  }
}
layer {
  name: "Sigmoid7"
  type: "Sigmoid"
  bottom: "Eltwise9"
  top: "Sigmoid7"
}
layer {
  name: "Eltwise10"
  type: "Eltwise"
  bottom: "Eltwise9"
  bottom: "Sigmoid7"
  top: "Eltwise10"
  eltwise_param {
    operation: PROD
  }
}
layer {
  name: "Convolution8"
  type: "Convolution"
  bottom: "Eltwise10"
  top: "Convolution8"
  param {
    lr_mult: 1
    decay_mult: 1
  }
  param {
    lr_mult: 2
    decay_mult: 0
  }
  convolution_param {
    num_output: 32
    bias_term: true
    pad: 1
    kernel_size: 3
    stride: 2
    weight_filler {
      type: "msra"
    }
    bias_filler {
      type: "constant"
    }
  }
}
layer {
  name: "BatchNorm8"
  type: "BatchNorm"
  bottom: "Convolution8"
  top: "Convolution8"
  param {
    lr_mult: 0
    decay_mult: 0
  }
  param {
    lr_mult: 0
    decay_mult: 0
  }
  param {
    lr_mult: 0
    decay_mult: 0
  }
  batch_norm_param {
    use_global_stats: true
  }
}
layer {
  name: "Scale8"
  type: "Scale"
  bottom: "Convolution8"
  top: "Convolution8"
  scale_param {
    bias_term: true
  }
}
layer {
  name: "Sigmoid8"
  type: "Sigmoid"
  bottom: "Convolution8"
  top: "Sigmoid8"
}
layer {
  name: "Eltwise11"
  type: "Eltwise"
  bottom: "Convolution8"
  bottom: "Sigmoid8"
  top: "Eltwise11"
  eltwise_param {
    operation: PROD
  }
}
layer {
  name: "Convolution9"
  type: "Convolution"
  bottom: "Eltwise11"
  top: "Convolution9"
  param {
    lr_mult: 1
    decay_mult: 1
  }
  param {
    lr_mult: 2
    decay_mult: 0
  }
  convolution_param {
    num_output: 32
    bias_term: true
    pad: 1
    kernel_size: 3
    stride: 1
    weight_filler {
      type: "msra"
    }
    bias_filler {
      type: "constant"
    }
  }
}
layer {
  name: "BatchNorm9"
  type: "BatchNorm"
  bottom: "Convolution9"
  top: "Convolution9"
  param {
    lr_mult: 0
    decay_mult: 0
  }
  param {
    lr_mult: 0
    decay_mult: 0
  }
  param {
    lr_mult: 0
    decay_mult: 0
  }
  batch_norm_param {
    use_global_stats: true
  }
}
layer {
  name: "Scale9"
  type: "Scale"
  bottom: "Convolution9"
  top: "Convolution9"
  scale_param {
    bias_term: true
  }
}
layer {
  name: "Convolution10"
  type: "Convolution"
  bottom: "Eltwise10"
  top: "Convolution10"
  param {
    lr_mult: 1
    decay_mult: 1
  }
  param {
    lr_mult: 2
    decay_mult: 0
  }
  convolution_param {
    num_output: 32
    bias_term: true
    pad: 0
    kernel_size: 1
    stride: 2
    weight_filler {
      type: "msra"
    }
    bias_filler {
      type: "constant"
    }
  }
}
layer {
  name: "BatchNorm10"
  type: "BatchNorm"
  bottom: "Convolution10"
  top: "Convolution10"
  param {
    lr_mult: 0
    decay_mult: 0
  }
  param {
    lr_mult: 0
    decay_mult: 0
  }
  param {
    lr_mult: 0
    decay_mult: 0
  }
  batch_norm_param {
    use_global_stats: true
  }
}
layer {
  name: "Scale10"
  type: "Scale"
  bottom: "Convolution10"
  top: "Convolution10"
  scale_param {
    bias_term: true
  }
}
layer {
  name: "Eltwise12"
  type: "Eltwise"
  bottom: "Convolution9"
  bottom: "Convolution10"
  top: "Eltwise12"
  eltwise_param {
    operation: SUM
  }
}
layer {
  name: "Sigmoid9"
  type: "Sigmoid"
  bottom: "Eltwise12"
  top: "Sigmoid9"
}
layer {
  name: "Eltwise13"
  type: "Eltwise"
  bottom: "Eltwise12"
  bottom: "Sigmoid9"
  top: "Eltwise13"
  eltwise_param {
    operation: PROD
  }
}
layer {
  name: "Convolution11"
  type: "Convolution"
  bottom: "Eltwise13"
  top: "Convolution11"
  param {
    lr_mult: 1
    decay_mult: 1
  }
  param {
    lr_mult: 2
    decay_mult: 0
  }
  convolution_param {
    num_output: 32
    bias_term: true
    pad: 1
    kernel_size: 3
    stride: 1
    weight_filler {
      type: "msra"
    }
    bias_filler {
      type: "constant"
    }
  }
}
layer {
  name: "BatchNorm11"
  type: "BatchNorm"
  bottom: "Convolution11"
  top: "Convolution11"
  param {
    lr_mult: 0
    decay_mult: 0
  }
  param {
    lr_mult: 0
    decay_mult: 0
  }
  param {
    lr_mult: 0
    decay_mult: 0
  }
  batch_norm_param {
    use_global_stats: true
  }
}
layer {
  name: "Scale11"
  type: "Scale"
  bottom: "Convolution11"
  top: "Convolution11"
  scale_param {
    bias_term: true
  }
}
layer {
  name: "Sigmoid10"
  type: "Sigmoid"
  bottom: "Convolution11"
  top: "Sigmoid10"
}
layer {
  name: "Eltwise14"
  type: "Eltwise"
  bottom: "Convolution11"
  bottom: "Sigmoid10"
  top: "Eltwise14"
  eltwise_param {
    operation: PROD
  }
}
layer {
  name: "Convolution12"
  type: "Convolution"
  bottom: "Eltwise14"
  top: "Convolution12"
  param {
    lr_mult: 1
    decay_mult: 1
  }
  param {
    lr_mult: 2
    decay_mult: 0
  }
  convolution_param {
    num_output: 32
    bias_term: true
    pad: 1
    kernel_size: 3
    stride: 1
    weight_filler {
      type: "msra"
    }
    bias_filler {
      type: "constant"
    }
  }
}
layer {
  name: "BatchNorm12"
  type: "BatchNorm"
  bottom: "Convolution12"
  top: "Convolution12"
  param {
    lr_mult: 0
    decay_mult: 0
  }
  param {
    lr_mult: 0
    decay_mult: 0
  }
  param {
    lr_mult: 0
    decay_mult: 0
  }
  batch_norm_param {
    use_global_stats: true
  }
}
layer {
  name: "Scale12"
  type: "Scale"
  bottom: "Convolution12"
  top: "Convolution12"
  scale_param {
    bias_term: true
  }
}
layer {
  name: "Eltwise15"
  type: "Eltwise"
  bottom: "Convolution12"
  bottom: "Eltwise13"
  top: "Eltwise15"
  eltwise_param {
    operation: SUM
  }
}
layer {
  name: "Sigmoid11"
  type: "Sigmoid"
  bottom: "Eltwise15"
  top: "Sigmoid11"
}
layer {
  name: "Eltwise16"
  type: "Eltwise"
  bottom: "Eltwise15"
  bottom: "Sigmoid11"
  top: "Eltwise16"
  eltwise_param {
    operation: PROD
  }
}
layer {
  name: "Convolution13"
  type: "Convolution"
  bottom: "Eltwise16"
  top: "Convolution13"
  param {
    lr_mult: 1
    decay_mult: 1
  }
  param {
    lr_mult: 2
    decay_mult: 0
  }
  convolution_param {
    num_output: 32
    bias_term: true
    pad: 1
    kernel_size: 3
    stride: 1
    weight_filler {
      type: "msra"
    }
    bias_filler {
      type: "constant"
    }
  }
}
layer {
  name: "BatchNorm13"
  type: "BatchNorm"
  bottom: "Convolution13"
  top: "Convolution13"
  param {
    lr_mult: 0
    decay_mult: 0
  }
  param {
    lr_mult: 0
    decay_mult: 0
  }
  param {
    lr_mult: 0
    decay_mult: 0
  }
  batch_norm_param {
    use_global_stats: true
  }
}
layer {
  name: "Scale13"
  type: "Scale"
  bottom: "Convolution13"
  top: "Convolution13"
  scale_param {
    bias_term: true
  }
}
layer {
  name: "Sigmoid12"
  type: "Sigmoid"
  bottom: "Convolution13"
  top: "Sigmoid12"
}
layer {
  name: "Eltwise17"
  type: "Eltwise"
  bottom: "Convolution13"
  bottom: "Sigmoid12"
  top: "Eltwise17"
  eltwise_param {
    operation: PROD
  }
}
layer {
  name: "Convolution14"
  type: "Convolution"
  bottom: "Eltwise17"
  top: "Convolution14"
  param {
    lr_mult: 1
    decay_mult: 1
  }
  param {
    lr_mult: 2
    decay_mult: 0
  }
  convolution_param {
    num_output: 32
    bias_term: true
    pad: 1
    kernel_size: 3
    stride: 1
    weight_filler {
      type: "msra"
    }
    bias_filler {
      type: "constant"
    }
  }
}
layer {
  name: "BatchNorm14"
  type: "BatchNorm"
  bottom: "Convolution14"
  top: "Convolution14"
  param {
    lr_mult: 0
    decay_mult: 0
  }
  param {
    lr_mult: 0
    decay_mult: 0
  }
  param {
    lr_mult: 0
    decay_mult: 0
  }
  batch_norm_param {
    use_global_stats: true
  }
}
layer {
  name: "Scale14"
  type: "Scale"
  bottom: "Convolution14"
  top: "Convolution14"
  scale_param {
    bias_term: true
  }
}
layer {
  name: "Eltwise18"
  type: "Eltwise"
  bottom: "Convolution14"
  bottom: "Eltwise16"
  top: "Eltwise18"
  eltwise_param {
    operation: SUM
  }
}
layer {
  name: "Sigmoid13"
  type: "Sigmoid"
  bottom: "Eltwise18"
  top: "Sigmoid13"
}
layer {
  name: "Eltwise19"
  type: "Eltwise"
  bottom: "Eltwise18"
  bottom: "Sigmoid13"
  top: "Eltwise19"
  eltwise_param {
    operation: PROD
  }
}
layer {
  name: "Convolution15"
  type: "Convolution"
  bottom: "Eltwise19"
  top: "Convolution15"
  param {
    lr_mult: 1
    decay_mult: 1
  }
  param {
    lr_mult: 2
    decay_mult: 0
  }
  convolution_param {
    num_output: 64
    bias_term: true
    pad: 1
    kernel_size: 3
    stride: 2
    weight_filler {
      type: "msra"
    }
    bias_filler {
      type: "constant"
    }
  }
}
layer {
  name: "BatchNorm15"
  type: "BatchNorm"
  bottom: "Convolution15"
  top: "Convolution15"
  param {
    lr_mult: 0
    decay_mult: 0
  }
  param {
    lr_mult: 0
    decay_mult: 0
  }
  param {
    lr_mult: 0
    decay_mult: 0
  }
  batch_norm_param {
    use_global_stats: true
  }
}
layer {
  name: "Scale15"
  type: "Scale"
  bottom: "Convolution15"
  top: "Convolution15"
  scale_param {
    bias_term: true
  }
}
layer {
  name: "Sigmoid14"
  type: "Sigmoid"
  bottom: "Convolution15"
  top: "Sigmoid14"
}
layer {
  name: "Eltwise20"
  type: "Eltwise"
  bottom: "Convolution15"
  bottom: "Sigmoid14"
  top: "Eltwise20"
  eltwise_param {
    operation: PROD
  }
}
layer {
  name: "Convolution16"
  type: "Convolution"
  bottom: "Eltwise20"
  top: "Convolution16"
  param {
    lr_mult: 1
    decay_mult: 1
  }
  param {
    lr_mult: 2
    decay_mult: 0
  }
  convolution_param {
    num_output: 64
    bias_term: true
    pad: 1
    kernel_size: 3
    stride: 1
    weight_filler {
      type: "msra"
    }
    bias_filler {
      type: "constant"
    }
  }
}
layer {
  name: "BatchNorm16"
  type: "BatchNorm"
  bottom: "Convolution16"
  top: "Convolution16"
  param {
    lr_mult: 0
    decay_mult: 0
  }
  param {
    lr_mult: 0
    decay_mult: 0
  }
  param {
    lr_mult: 0
    decay_mult: 0
  }
  batch_norm_param {
    use_global_stats: true
  }
}
layer {
  name: "Scale16"
  type: "Scale"
  bottom: "Convolution16"
  top: "Convolution16"
  scale_param {
    bias_term: true
  }
}
layer {
  name: "Convolution17"
  type: "Convolution"
  bottom: "Eltwise19"
  top: "Convolution17"
  param {
    lr_mult: 1
    decay_mult: 1
  }
  param {
    lr_mult: 2
    decay_mult: 0
  }
  convolution_param {
    num_output: 64
    bias_term: true
    pad: 0
    kernel_size: 1
    stride: 2
    weight_filler {
      type: "msra"
    }
    bias_filler {
      type: "constant"
    }
  }
}
layer {
  name: "BatchNorm17"
  type: "BatchNorm"
  bottom: "Convolution17"
  top: "Convolution17"
  param {
    lr_mult: 0
    decay_mult: 0
  }
  param {
    lr_mult: 0
    decay_mult: 0
  }
  param {
    lr_mult: 0
    decay_mult: 0
  }
  batch_norm_param {
    use_global_stats: true
  }
}
layer {
  name: "Scale17"
  type: "Scale"
  bottom: "Convolution17"
  top: "Convolution17"
  scale_param {
    bias_term: true
  }
}
layer {
  name: "Eltwise21"
  type: "Eltwise"
  bottom: "Convolution16"
  bottom: "Convolution17"
  top: "Eltwise21"
  eltwise_param {
    operation: SUM
  }
}
layer {
  name: "Sigmoid15"
  type: "Sigmoid"
  bottom: "Eltwise21"
  top: "Sigmoid15"
}
layer {
  name: "Eltwise22"
  type: "Eltwise"
  bottom: "Eltwise21"
  bottom: "Sigmoid15"
  top: "Eltwise22"
  eltwise_param {
    operation: PROD
  }
}
layer {
  name: "Convolution18"
  type: "Convolution"
  bottom: "Eltwise22"
  top: "Convolution18"
  param {
    lr_mult: 1
    decay_mult: 1
  }
  param {
    lr_mult: 2
    decay_mult: 0
  }
  convolution_param {
    num_output: 64
    bias_term: true
    pad: 1
    kernel_size: 3
    stride: 1
    weight_filler {
      type: "msra"
    }
    bias_filler {
      type: "constant"
    }
  }
}
layer {
  name: "BatchNorm18"
  type: "BatchNorm"
  bottom: "Convolution18"
  top: "Convolution18"
  param {
    lr_mult: 0
    decay_mult: 0
  }
  param {
    lr_mult: 0
    decay_mult: 0
  }
  param {
    lr_mult: 0
    decay_mult: 0
  }
  batch_norm_param {
    use_global_stats: true
  }
}
layer {
  name: "Scale18"
  type: "Scale"
  bottom: "Convolution18"
  top: "Convolution18"
  scale_param {
    bias_term: true
  }
}
layer {
  name: "Sigmoid16"
  type: "Sigmoid"
  bottom: "Convolution18"
  top: "Sigmoid16"
}
layer {
  name: "Eltwise23"
  type: "Eltwise"
  bottom: "Convolution18"
  bottom: "Sigmoid16"
  top: "Eltwise23"
  eltwise_param {
    operation: PROD
  }
}
layer {
  name: "Convolution19"
  type: "Convolution"
  bottom: "Eltwise23"
  top: "Convolution19"
  param {
    lr_mult: 1
    decay_mult: 1
  }
  param {
    lr_mult: 2
    decay_mult: 0
  }
  convolution_param {
    num_output: 64
    bias_term: true
    pad: 1
    kernel_size: 3
    stride: 1
    weight_filler {
      type: "msra"
    }
    bias_filler {
      type: "constant"
    }
  }
}
layer {
  name: "BatchNorm19"
  type: "BatchNorm"
  bottom: "Convolution19"
  top: "Convolution19"
  param {
    lr_mult: 0
    decay_mult: 0
  }
  param {
    lr_mult: 0
    decay_mult: 0
  }
  param {
    lr_mult: 0
    decay_mult: 0
  }
  batch_norm_param {
    use_global_stats: true
  }
}
layer {
  name: "Scale19"
  type: "Scale"
  bottom: "Convolution19"
  top: "Convolution19"
  scale_param {
    bias_term: true
  }
}
layer {
  name: "Eltwise24"
  type: "Eltwise"
  bottom: "Convolution19"
  bottom: "Eltwise22"
  top: "Eltwise24"
  eltwise_param {
    operation: SUM
  }
}
layer {
  name: "Sigmoid17"
  type: "Sigmoid"
  bottom: "Eltwise24"
  top: "Sigmoid17"
}
layer {
  name: "Eltwise25"
  type: "Eltwise"
  bottom: "Eltwise24"
  bottom: "Sigmoid17"
  top: "Eltwise25"
  eltwise_param {
    operation: PROD
  }
}
layer {
  name: "Convolution20"
  type: "Convolution"
  bottom: "Eltwise25"
  top: "Convolution20"
  param {
    lr_mult: 1
    decay_mult: 1
  }
  param {
    lr_mult: 2
    decay_mult: 0
  }
  convolution_param {
    num_output: 64
    bias_term: true
    pad: 1
    kernel_size: 3
    stride: 1
    weight_filler {
      type: "msra"
    }
    bias_filler {
      type: "constant"
    }
  }
}
layer {
  name: "BatchNorm20"
  type: "BatchNorm"
  bottom: "Convolution20"
  top: "Convolution20"
  param {
    lr_mult: 0
    decay_mult: 0
  }
  param {
    lr_mult: 0
    decay_mult: 0
  }
  param {
    lr_mult: 0
    decay_mult: 0
  }
  batch_norm_param {
    use_global_stats: true
  }
}
layer {
  name: "Scale20"
  type: "Scale"
  bottom: "Convolution20"
  top: "Convolution20"
  scale_param {
    bias_term: true
  }
}
layer {
  name: "Sigmoid18"
  type: "Sigmoid"
  bottom: "Convolution20"
  top: "Sigmoid18"
}
layer {
  name: "Eltwise26"
  type: "Eltwise"
  bottom: "Convolution20"
  bottom: "Sigmoid18"
  top: "Eltwise26"
  eltwise_param {
    operation: PROD
  }
}
layer {
  name: "Convolution21"
  type: "Convolution"
  bottom: "Eltwise26"
  top: "Convolution21"
  param {
    lr_mult: 1
    decay_mult: 1
  }
  param {
    lr_mult: 2
    decay_mult: 0
  }
  convolution_param {
    num_output: 64
    bias_term: true
    pad: 1
    kernel_size: 3
    stride: 1
    weight_filler {
      type: "msra"
    }
    bias_filler {
      type: "constant"
    }
  }
}
layer {
  name: "BatchNorm21"
  type: "BatchNorm"
  bottom: "Convolution21"
  top: "Convolution21"
  param {
    lr_mult: 0
    decay_mult: 0
  }
  param {
    lr_mult: 0
    decay_mult: 0
  }
  param {
    lr_mult: 0
    decay_mult: 0
  }
  batch_norm_param {
    use_global_stats: true
  }
}
layer {
  name: "Scale21"
  type: "Scale"
  bottom: "Convolution21"
  top: "Convolution21"
  scale_param {
    bias_term: true
  }
}
layer {
  name: "Eltwise27"
  type: "Eltwise"
  bottom: "Convolution21"
  bottom: "Eltwise25"
  top: "Eltwise27"
  eltwise_param {
    operation: SUM
  }
}
layer {
  name: "Sigmoid19"
  type: "Sigmoid"
  bottom: "Eltwise27"
  top: "Sigmoid19"
}
layer {
  name: "Eltwise28"
  type: "Eltwise"
  bottom: "Eltwise27"
  bottom: "Sigmoid19"
  top: "Eltwise28"
  eltwise_param {
    operation: PROD
  }
}
layer {
  name: "Pooling1"
  type: "Pooling"
  bottom: "Eltwise28"
  top: "Pooling1"
  pooling_param {
    pool: AVE
    global_pooling: true
  }
}
layer {
  name: "InnerProduct1"
  type: "InnerProduct"
  bottom: "Pooling1"
  top: "InnerProduct1"
  inner_product_param {
    num_output: 10
    weight_filler {
      type: "msra"
    }
    bias_filler {
      type: "constant"
    }
  }
}
layer {
  name: "Accuracy1"
  type: "Accuracy"
  bottom: "InnerProduct1"
  bottom: "Data2"
  top: "Accuracy1"
}
I1025 10:21:53.943073  1075 layer_factory.hpp:77] Creating layer Data1
I1025 10:21:53.943203  1075 db_lmdb.cpp:35] Opened lmdb /data/hjy1312/data/RESNET/cifar-10/cifar10_test_lmdb
I1025 10:21:53.943243  1075 net.cpp:84] Creating Layer Data1
I1025 10:21:53.943254  1075 net.cpp:380] Data1 -> Data1
I1025 10:21:53.943280  1075 net.cpp:380] Data1 -> Data2
I1025 10:21:53.968197  1075 data_layer.cpp:45] output data size: 128,3,32,32
I1025 10:21:53.977289  1075 net.cpp:122] Setting up Data1
I1025 10:21:53.977326  1075 net.cpp:129] Top shape: 128 3 32 32 (393216)
I1025 10:21:53.977342  1075 net.cpp:129] Top shape: 128 (128)
I1025 10:21:53.977352  1075 net.cpp:137] Memory required for data: 1573376
I1025 10:21:53.977370  1075 layer_factory.hpp:77] Creating layer Convolution1
I1025 10:21:53.977406  1075 net.cpp:84] Creating Layer Convolution1
I1025 10:21:53.977421  1075 net.cpp:406] Convolution1 <- Data1
I1025 10:21:53.977447  1075 net.cpp:380] Convolution1 -> Convolution1
I1025 10:21:54.211567  1075 net.cpp:122] Setting up Convolution1
I1025 10:21:54.211616  1075 net.cpp:129] Top shape: 128 16 32 32 (2097152)
I1025 10:21:54.211623  1075 net.cpp:137] Memory required for data: 9961984
I1025 10:21:54.211642  1075 layer_factory.hpp:77] Creating layer BatchNorm1
I1025 10:21:54.211663  1075 net.cpp:84] Creating Layer BatchNorm1
I1025 10:21:54.211671  1075 net.cpp:406] BatchNorm1 <- Convolution1
I1025 10:21:54.211679  1075 net.cpp:367] BatchNorm1 -> Convolution1 (in-place)
I1025 10:21:54.211861  1075 net.cpp:122] Setting up BatchNorm1
I1025 10:21:54.211872  1075 net.cpp:129] Top shape: 128 16 32 32 (2097152)
I1025 10:21:54.211879  1075 net.cpp:137] Memory required for data: 18350592
I1025 10:21:54.211890  1075 layer_factory.hpp:77] Creating layer Scale1
I1025 10:21:54.211900  1075 net.cpp:84] Creating Layer Scale1
I1025 10:21:54.211906  1075 net.cpp:406] Scale1 <- Convolution1
I1025 10:21:54.211913  1075 net.cpp:367] Scale1 -> Convolution1 (in-place)
I1025 10:21:54.211954  1075 layer_factory.hpp:77] Creating layer Scale1
I1025 10:21:54.212061  1075 net.cpp:122] Setting up Scale1
I1025 10:21:54.212072  1075 net.cpp:129] Top shape: 128 16 32 32 (2097152)
I1025 10:21:54.212079  1075 net.cpp:137] Memory required for data: 26739200
I1025 10:21:54.212086  1075 layer_factory.hpp:77] Creating layer Convolution1_Scale1_0_split
I1025 10:21:54.212095  1075 net.cpp:84] Creating Layer Convolution1_Scale1_0_split
I1025 10:21:54.212101  1075 net.cpp:406] Convolution1_Scale1_0_split <- Convolution1
I1025 10:21:54.212108  1075 net.cpp:380] Convolution1_Scale1_0_split -> Convolution1_Scale1_0_split_0
I1025 10:21:54.212117  1075 net.cpp:380] Convolution1_Scale1_0_split -> Convolution1_Scale1_0_split_1
I1025 10:21:54.212152  1075 net.cpp:122] Setting up Convolution1_Scale1_0_split
I1025 10:21:54.212162  1075 net.cpp:129] Top shape: 128 16 32 32 (2097152)
I1025 10:21:54.212168  1075 net.cpp:129] Top shape: 128 16 32 32 (2097152)
I1025 10:21:54.212173  1075 net.cpp:137] Memory required for data: 43516416
I1025 10:21:54.212178  1075 layer_factory.hpp:77] Creating layer Sigmoid1
I1025 10:21:54.212186  1075 net.cpp:84] Creating Layer Sigmoid1
I1025 10:21:54.212193  1075 net.cpp:406] Sigmoid1 <- Convolution1_Scale1_0_split_0
I1025 10:21:54.212198  1075 net.cpp:380] Sigmoid1 -> Sigmoid1
I1025 10:21:54.213186  1075 net.cpp:122] Setting up Sigmoid1
I1025 10:21:54.213207  1075 net.cpp:129] Top shape: 128 16 32 32 (2097152)
I1025 10:21:54.213212  1075 net.cpp:137] Memory required for data: 51905024
I1025 10:21:54.213218  1075 layer_factory.hpp:77] Creating layer Eltwise1
I1025 10:21:54.213228  1075 net.cpp:84] Creating Layer Eltwise1
I1025 10:21:54.213234  1075 net.cpp:406] Eltwise1 <- Convolution1_Scale1_0_split_1
I1025 10:21:54.213241  1075 net.cpp:406] Eltwise1 <- Sigmoid1
I1025 10:21:54.213248  1075 net.cpp:380] Eltwise1 -> Eltwise1
I1025 10:21:54.213277  1075 net.cpp:122] Setting up Eltwise1
I1025 10:21:54.213287  1075 net.cpp:129] Top shape: 128 16 32 32 (2097152)
I1025 10:21:54.213292  1075 net.cpp:137] Memory required for data: 60293632
I1025 10:21:54.213297  1075 layer_factory.hpp:77] Creating layer Eltwise1_Eltwise1_0_split
I1025 10:21:54.213315  1075 net.cpp:84] Creating Layer Eltwise1_Eltwise1_0_split
I1025 10:21:54.213336  1075 net.cpp:406] Eltwise1_Eltwise1_0_split <- Eltwise1
I1025 10:21:54.213343  1075 net.cpp:380] Eltwise1_Eltwise1_0_split -> Eltwise1_Eltwise1_0_split_0
I1025 10:21:54.213351  1075 net.cpp:380] Eltwise1_Eltwise1_0_split -> Eltwise1_Eltwise1_0_split_1
I1025 10:21:54.213388  1075 net.cpp:122] Setting up Eltwise1_Eltwise1_0_split
I1025 10:21:54.213398  1075 net.cpp:129] Top shape: 128 16 32 32 (2097152)
I1025 10:21:54.213404  1075 net.cpp:129] Top shape: 128 16 32 32 (2097152)
I1025 10:21:54.213409  1075 net.cpp:137] Memory required for data: 77070848
I1025 10:21:54.213414  1075 layer_factory.hpp:77] Creating layer Convolution2
I1025 10:21:54.213426  1075 net.cpp:84] Creating Layer Convolution2
I1025 10:21:54.213433  1075 net.cpp:406] Convolution2 <- Eltwise1_Eltwise1_0_split_0
I1025 10:21:54.213440  1075 net.cpp:380] Convolution2 -> Convolution2
I1025 10:21:54.215843  1075 net.cpp:122] Setting up Convolution2
I1025 10:21:54.215864  1075 net.cpp:129] Top shape: 128 16 32 32 (2097152)
I1025 10:21:54.215872  1075 net.cpp:137] Memory required for data: 85459456
I1025 10:21:54.215883  1075 layer_factory.hpp:77] Creating layer BatchNorm2
I1025 10:21:54.215894  1075 net.cpp:84] Creating Layer BatchNorm2
I1025 10:21:54.215900  1075 net.cpp:406] BatchNorm2 <- Convolution2
I1025 10:21:54.215908  1075 net.cpp:367] BatchNorm2 -> Convolution2 (in-place)
I1025 10:21:54.216094  1075 net.cpp:122] Setting up BatchNorm2
I1025 10:21:54.216105  1075 net.cpp:129] Top shape: 128 16 32 32 (2097152)
I1025 10:21:54.216110  1075 net.cpp:137] Memory required for data: 93848064
I1025 10:21:54.216120  1075 layer_factory.hpp:77] Creating layer Scale2
I1025 10:21:54.216127  1075 net.cpp:84] Creating Layer Scale2
I1025 10:21:54.216133  1075 net.cpp:406] Scale2 <- Convolution2
I1025 10:21:54.216141  1075 net.cpp:367] Scale2 -> Convolution2 (in-place)
I1025 10:21:54.216176  1075 layer_factory.hpp:77] Creating layer Scale2
I1025 10:21:54.216285  1075 net.cpp:122] Setting up Scale2
I1025 10:21:54.216296  1075 net.cpp:129] Top shape: 128 16 32 32 (2097152)
I1025 10:21:54.216301  1075 net.cpp:137] Memory required for data: 102236672
I1025 10:21:54.216308  1075 layer_factory.hpp:77] Creating layer Convolution2_Scale2_0_split
I1025 10:21:54.216317  1075 net.cpp:84] Creating Layer Convolution2_Scale2_0_split
I1025 10:21:54.216323  1075 net.cpp:406] Convolution2_Scale2_0_split <- Convolution2
I1025 10:21:54.216329  1075 net.cpp:380] Convolution2_Scale2_0_split -> Convolution2_Scale2_0_split_0
I1025 10:21:54.216337  1075 net.cpp:380] Convolution2_Scale2_0_split -> Convolution2_Scale2_0_split_1
I1025 10:21:54.216377  1075 net.cpp:122] Setting up Convolution2_Scale2_0_split
I1025 10:21:54.216387  1075 net.cpp:129] Top shape: 128 16 32 32 (2097152)
I1025 10:21:54.216392  1075 net.cpp:129] Top shape: 128 16 32 32 (2097152)
I1025 10:21:54.216398  1075 net.cpp:137] Memory required for data: 119013888
I1025 10:21:54.216403  1075 layer_factory.hpp:77] Creating layer Sigmoid2
I1025 10:21:54.216408  1075 net.cpp:84] Creating Layer Sigmoid2
I1025 10:21:54.216414  1075 net.cpp:406] Sigmoid2 <- Convolution2_Scale2_0_split_0
I1025 10:21:54.216420  1075 net.cpp:380] Sigmoid2 -> Sigmoid2
I1025 10:21:54.217309  1075 net.cpp:122] Setting up Sigmoid2
I1025 10:21:54.217327  1075 net.cpp:129] Top shape: 128 16 32 32 (2097152)
I1025 10:21:54.217334  1075 net.cpp:137] Memory required for data: 127402496
I1025 10:21:54.217339  1075 layer_factory.hpp:77] Creating layer Eltwise2
I1025 10:21:54.217347  1075 net.cpp:84] Creating Layer Eltwise2
I1025 10:21:54.217353  1075 net.cpp:406] Eltwise2 <- Convolution2_Scale2_0_split_1
I1025 10:21:54.217360  1075 net.cpp:406] Eltwise2 <- Sigmoid2
I1025 10:21:54.217366  1075 net.cpp:380] Eltwise2 -> Eltwise2
I1025 10:21:54.217396  1075 net.cpp:122] Setting up Eltwise2
I1025 10:21:54.217406  1075 net.cpp:129] Top shape: 128 16 32 32 (2097152)
I1025 10:21:54.217411  1075 net.cpp:137] Memory required for data: 135791104
I1025 10:21:54.217422  1075 layer_factory.hpp:77] Creating layer Convolution3
I1025 10:21:54.217442  1075 net.cpp:84] Creating Layer Convolution3
I1025 10:21:54.217447  1075 net.cpp:406] Convolution3 <- Eltwise2
I1025 10:21:54.217456  1075 net.cpp:380] Convolution3 -> Convolution3
I1025 10:21:54.219681  1075 net.cpp:122] Setting up Convolution3
I1025 10:21:54.219702  1075 net.cpp:129] Top shape: 128 16 32 32 (2097152)
I1025 10:21:54.219709  1075 net.cpp:137] Memory required for data: 144179712
I1025 10:21:54.219718  1075 layer_factory.hpp:77] Creating layer BatchNorm3
I1025 10:21:54.219727  1075 net.cpp:84] Creating Layer BatchNorm3
I1025 10:21:54.219733  1075 net.cpp:406] BatchNorm3 <- Convolution3
I1025 10:21:54.219743  1075 net.cpp:367] BatchNorm3 -> Convolution3 (in-place)
I1025 10:21:54.219933  1075 net.cpp:122] Setting up BatchNorm3
I1025 10:21:54.219944  1075 net.cpp:129] Top shape: 128 16 32 32 (2097152)
I1025 10:21:54.219949  1075 net.cpp:137] Memory required for data: 152568320
I1025 10:21:54.219961  1075 layer_factory.hpp:77] Creating layer Scale3
I1025 10:21:54.219970  1075 net.cpp:84] Creating Layer Scale3
I1025 10:21:54.219976  1075 net.cpp:406] Scale3 <- Convolution3
I1025 10:21:54.219985  1075 net.cpp:367] Scale3 -> Convolution3 (in-place)
I1025 10:21:54.220021  1075 layer_factory.hpp:77] Creating layer Scale3
I1025 10:21:54.220132  1075 net.cpp:122] Setting up Scale3
I1025 10:21:54.220142  1075 net.cpp:129] Top shape: 128 16 32 32 (2097152)
I1025 10:21:54.220147  1075 net.cpp:137] Memory required for data: 160956928
I1025 10:21:54.220155  1075 layer_factory.hpp:77] Creating layer Eltwise3
I1025 10:21:54.220165  1075 net.cpp:84] Creating Layer Eltwise3
I1025 10:21:54.220170  1075 net.cpp:406] Eltwise3 <- Convolution3
I1025 10:21:54.220176  1075 net.cpp:406] Eltwise3 <- Eltwise1_Eltwise1_0_split_1
I1025 10:21:54.220183  1075 net.cpp:380] Eltwise3 -> Eltwise3
I1025 10:21:54.220209  1075 net.cpp:122] Setting up Eltwise3
I1025 10:21:54.220218  1075 net.cpp:129] Top shape: 128 16 32 32 (2097152)
I1025 10:21:54.220223  1075 net.cpp:137] Memory required for data: 169345536
I1025 10:21:54.220228  1075 layer_factory.hpp:77] Creating layer Eltwise3_Eltwise3_0_split
I1025 10:21:54.220235  1075 net.cpp:84] Creating Layer Eltwise3_Eltwise3_0_split
I1025 10:21:54.220240  1075 net.cpp:406] Eltwise3_Eltwise3_0_split <- Eltwise3
I1025 10:21:54.220252  1075 net.cpp:380] Eltwise3_Eltwise3_0_split -> Eltwise3_Eltwise3_0_split_0
I1025 10:21:54.220260  1075 net.cpp:380] Eltwise3_Eltwise3_0_split -> Eltwise3_Eltwise3_0_split_1
I1025 10:21:54.220296  1075 net.cpp:122] Setting up Eltwise3_Eltwise3_0_split
I1025 10:21:54.220306  1075 net.cpp:129] Top shape: 128 16 32 32 (2097152)
I1025 10:21:54.220312  1075 net.cpp:129] Top shape: 128 16 32 32 (2097152)
I1025 10:21:54.220316  1075 net.cpp:137] Memory required for data: 186122752
I1025 10:21:54.220322  1075 layer_factory.hpp:77] Creating layer Sigmoid3
I1025 10:21:54.220329  1075 net.cpp:84] Creating Layer Sigmoid3
I1025 10:21:54.220335  1075 net.cpp:406] Sigmoid3 <- Eltwise3_Eltwise3_0_split_0
I1025 10:21:54.220340  1075 net.cpp:380] Sigmoid3 -> Sigmoid3
I1025 10:21:54.220541  1075 net.cpp:122] Setting up Sigmoid3
I1025 10:21:54.220553  1075 net.cpp:129] Top shape: 128 16 32 32 (2097152)
I1025 10:21:54.220558  1075 net.cpp:137] Memory required for data: 194511360
I1025 10:21:54.220564  1075 layer_factory.hpp:77] Creating layer Eltwise4
I1025 10:21:54.220573  1075 net.cpp:84] Creating Layer Eltwise4
I1025 10:21:54.220579  1075 net.cpp:406] Eltwise4 <- Eltwise3_Eltwise3_0_split_1
I1025 10:21:54.220585  1075 net.cpp:406] Eltwise4 <- Sigmoid3
I1025 10:21:54.220593  1075 net.cpp:380] Eltwise4 -> Eltwise4
I1025 10:21:54.220619  1075 net.cpp:122] Setting up Eltwise4
I1025 10:21:54.220628  1075 net.cpp:129] Top shape: 128 16 32 32 (2097152)
I1025 10:21:54.220633  1075 net.cpp:137] Memory required for data: 202899968
I1025 10:21:54.220638  1075 layer_factory.hpp:77] Creating layer Eltwise4_Eltwise4_0_split
I1025 10:21:54.220648  1075 net.cpp:84] Creating Layer Eltwise4_Eltwise4_0_split
I1025 10:21:54.220652  1075 net.cpp:406] Eltwise4_Eltwise4_0_split <- Eltwise4
I1025 10:21:54.220669  1075 net.cpp:380] Eltwise4_Eltwise4_0_split -> Eltwise4_Eltwise4_0_split_0
I1025 10:21:54.220679  1075 net.cpp:380] Eltwise4_Eltwise4_0_split -> Eltwise4_Eltwise4_0_split_1
I1025 10:21:54.220716  1075 net.cpp:122] Setting up Eltwise4_Eltwise4_0_split
I1025 10:21:54.220726  1075 net.cpp:129] Top shape: 128 16 32 32 (2097152)
I1025 10:21:54.220732  1075 net.cpp:129] Top shape: 128 16 32 32 (2097152)
I1025 10:21:54.220736  1075 net.cpp:137] Memory required for data: 219677184
I1025 10:21:54.220741  1075 layer_factory.hpp:77] Creating layer Convolution4
I1025 10:21:54.220753  1075 net.cpp:84] Creating Layer Convolution4
I1025 10:21:54.220759  1075 net.cpp:406] Convolution4 <- Eltwise4_Eltwise4_0_split_0
I1025 10:21:54.220768  1075 net.cpp:380] Convolution4 -> Convolution4
I1025 10:21:54.223024  1075 net.cpp:122] Setting up Convolution4
I1025 10:21:54.223048  1075 net.cpp:129] Top shape: 128 16 32 32 (2097152)
I1025 10:21:54.223055  1075 net.cpp:137] Memory required for data: 228065792
I1025 10:21:54.223064  1075 layer_factory.hpp:77] Creating layer BatchNorm4
I1025 10:21:54.223075  1075 net.cpp:84] Creating Layer BatchNorm4
I1025 10:21:54.223081  1075 net.cpp:406] BatchNorm4 <- Convolution4
I1025 10:21:54.223089  1075 net.cpp:367] BatchNorm4 -> Convolution4 (in-place)
I1025 10:21:54.223278  1075 net.cpp:122] Setting up BatchNorm4
I1025 10:21:54.223289  1075 net.cpp:129] Top shape: 128 16 32 32 (2097152)
I1025 10:21:54.223294  1075 net.cpp:137] Memory required for data: 236454400
I1025 10:21:54.223302  1075 layer_factory.hpp:77] Creating layer Scale4
I1025 10:21:54.223312  1075 net.cpp:84] Creating Layer Scale4
I1025 10:21:54.223318  1075 net.cpp:406] Scale4 <- Convolution4
I1025 10:21:54.223325  1075 net.cpp:367] Scale4 -> Convolution4 (in-place)
I1025 10:21:54.223364  1075 layer_factory.hpp:77] Creating layer Scale4
I1025 10:21:54.223481  1075 net.cpp:122] Setting up Scale4
I1025 10:21:54.223492  1075 net.cpp:129] Top shape: 128 16 32 32 (2097152)
I1025 10:21:54.223497  1075 net.cpp:137] Memory required for data: 244843008
I1025 10:21:54.223505  1075 layer_factory.hpp:77] Creating layer Convolution4_Scale4_0_split
I1025 10:21:54.223512  1075 net.cpp:84] Creating Layer Convolution4_Scale4_0_split
I1025 10:21:54.223518  1075 net.cpp:406] Convolution4_Scale4_0_split <- Convolution4
I1025 10:21:54.223526  1075 net.cpp:380] Convolution4_Scale4_0_split -> Convolution4_Scale4_0_split_0
I1025 10:21:54.223536  1075 net.cpp:380] Convolution4_Scale4_0_split -> Convolution4_Scale4_0_split_1
I1025 10:21:54.223572  1075 net.cpp:122] Setting up Convolution4_Scale4_0_split
I1025 10:21:54.223582  1075 net.cpp:129] Top shape: 128 16 32 32 (2097152)
I1025 10:21:54.223588  1075 net.cpp:129] Top shape: 128 16 32 32 (2097152)
I1025 10:21:54.223593  1075 net.cpp:137] Memory required for data: 261620224
I1025 10:21:54.223598  1075 layer_factory.hpp:77] Creating layer Sigmoid4
I1025 10:21:54.223606  1075 net.cpp:84] Creating Layer Sigmoid4
I1025 10:21:54.223613  1075 net.cpp:406] Sigmoid4 <- Convolution4_Scale4_0_split_0
I1025 10:21:54.223619  1075 net.cpp:380] Sigmoid4 -> Sigmoid4
I1025 10:21:54.224508  1075 net.cpp:122] Setting up Sigmoid4
I1025 10:21:54.224524  1075 net.cpp:129] Top shape: 128 16 32 32 (2097152)
I1025 10:21:54.224530  1075 net.cpp:137] Memory required for data: 270008832
I1025 10:21:54.224536  1075 layer_factory.hpp:77] Creating layer Eltwise5
I1025 10:21:54.224546  1075 net.cpp:84] Creating Layer Eltwise5
I1025 10:21:54.224552  1075 net.cpp:406] Eltwise5 <- Convolution4_Scale4_0_split_1
I1025 10:21:54.224560  1075 net.cpp:406] Eltwise5 <- Sigmoid4
I1025 10:21:54.224566  1075 net.cpp:380] Eltwise5 -> Eltwise5
I1025 10:21:54.224596  1075 net.cpp:122] Setting up Eltwise5
I1025 10:21:54.224606  1075 net.cpp:129] Top shape: 128 16 32 32 (2097152)
I1025 10:21:54.224611  1075 net.cpp:137] Memory required for data: 278397440
I1025 10:21:54.224616  1075 layer_factory.hpp:77] Creating layer Convolution5
I1025 10:21:54.224627  1075 net.cpp:84] Creating Layer Convolution5
I1025 10:21:54.224639  1075 net.cpp:406] Convolution5 <- Eltwise5
I1025 10:21:54.224656  1075 net.cpp:380] Convolution5 -> Convolution5
I1025 10:21:54.226207  1075 net.cpp:122] Setting up Convolution5
I1025 10:21:54.226227  1075 net.cpp:129] Top shape: 128 16 32 32 (2097152)
I1025 10:21:54.226233  1075 net.cpp:137] Memory required for data: 286786048
I1025 10:21:54.226241  1075 layer_factory.hpp:77] Creating layer BatchNorm5
I1025 10:21:54.226253  1075 net.cpp:84] Creating Layer BatchNorm5
I1025 10:21:54.226258  1075 net.cpp:406] BatchNorm5 <- Convolution5
I1025 10:21:54.226269  1075 net.cpp:367] BatchNorm5 -> Convolution5 (in-place)
I1025 10:21:54.226461  1075 net.cpp:122] Setting up BatchNorm5
I1025 10:21:54.226472  1075 net.cpp:129] Top shape: 128 16 32 32 (2097152)
I1025 10:21:54.226477  1075 net.cpp:137] Memory required for data: 295174656
I1025 10:21:54.226490  1075 layer_factory.hpp:77] Creating layer Scale5
I1025 10:21:54.226506  1075 net.cpp:84] Creating Layer Scale5
I1025 10:21:54.226514  1075 net.cpp:406] Scale5 <- Convolution5
I1025 10:21:54.226521  1075 net.cpp:367] Scale5 -> Convolution5 (in-place)
I1025 10:21:54.226559  1075 layer_factory.hpp:77] Creating layer Scale5
I1025 10:21:54.226672  1075 net.cpp:122] Setting up Scale5
I1025 10:21:54.226683  1075 net.cpp:129] Top shape: 128 16 32 32 (2097152)
I1025 10:21:54.226689  1075 net.cpp:137] Memory required for data: 303563264
I1025 10:21:54.226696  1075 layer_factory.hpp:77] Creating layer Eltwise6
I1025 10:21:54.226706  1075 net.cpp:84] Creating Layer Eltwise6
I1025 10:21:54.226712  1075 net.cpp:406] Eltwise6 <- Convolution5
I1025 10:21:54.226718  1075 net.cpp:406] Eltwise6 <- Eltwise4_Eltwise4_0_split_1
I1025 10:21:54.226725  1075 net.cpp:380] Eltwise6 -> Eltwise6
I1025 10:21:54.226752  1075 net.cpp:122] Setting up Eltwise6
I1025 10:21:54.226761  1075 net.cpp:129] Top shape: 128 16 32 32 (2097152)
I1025 10:21:54.226766  1075 net.cpp:137] Memory required for data: 311951872
I1025 10:21:54.226771  1075 layer_factory.hpp:77] Creating layer Eltwise6_Eltwise6_0_split
I1025 10:21:54.226783  1075 net.cpp:84] Creating Layer Eltwise6_Eltwise6_0_split
I1025 10:21:54.226789  1075 net.cpp:406] Eltwise6_Eltwise6_0_split <- Eltwise6
I1025 10:21:54.226796  1075 net.cpp:380] Eltwise6_Eltwise6_0_split -> Eltwise6_Eltwise6_0_split_0
I1025 10:21:54.226804  1075 net.cpp:380] Eltwise6_Eltwise6_0_split -> Eltwise6_Eltwise6_0_split_1
I1025 10:21:54.226843  1075 net.cpp:122] Setting up Eltwise6_Eltwise6_0_split
I1025 10:21:54.226852  1075 net.cpp:129] Top shape: 128 16 32 32 (2097152)
I1025 10:21:54.226860  1075 net.cpp:129] Top shape: 128 16 32 32 (2097152)
I1025 10:21:54.226864  1075 net.cpp:137] Memory required for data: 328729088
I1025 10:21:54.226869  1075 layer_factory.hpp:77] Creating layer Sigmoid5
I1025 10:21:54.226876  1075 net.cpp:84] Creating Layer Sigmoid5
I1025 10:21:54.226881  1075 net.cpp:406] Sigmoid5 <- Eltwise6_Eltwise6_0_split_0
I1025 10:21:54.226891  1075 net.cpp:380] Sigmoid5 -> Sigmoid5
I1025 10:21:54.227778  1075 net.cpp:122] Setting up Sigmoid5
I1025 10:21:54.227797  1075 net.cpp:129] Top shape: 128 16 32 32 (2097152)
I1025 10:21:54.227802  1075 net.cpp:137] Memory required for data: 337117696
I1025 10:21:54.227807  1075 layer_factory.hpp:77] Creating layer Eltwise7
I1025 10:21:54.227816  1075 net.cpp:84] Creating Layer Eltwise7
I1025 10:21:54.227821  1075 net.cpp:406] Eltwise7 <- Eltwise6_Eltwise6_0_split_1
I1025 10:21:54.227828  1075 net.cpp:406] Eltwise7 <- Sigmoid5
I1025 10:21:54.227838  1075 net.cpp:380] Eltwise7 -> Eltwise7
I1025 10:21:54.227869  1075 net.cpp:122] Setting up Eltwise7
I1025 10:21:54.227880  1075 net.cpp:129] Top shape: 128 16 32 32 (2097152)
I1025 10:21:54.227885  1075 net.cpp:137] Memory required for data: 345506304
I1025 10:21:54.227890  1075 layer_factory.hpp:77] Creating layer Eltwise7_Eltwise7_0_split
I1025 10:21:54.227897  1075 net.cpp:84] Creating Layer Eltwise7_Eltwise7_0_split
I1025 10:21:54.227902  1075 net.cpp:406] Eltwise7_Eltwise7_0_split <- Eltwise7
I1025 10:21:54.227911  1075 net.cpp:380] Eltwise7_Eltwise7_0_split -> Eltwise7_Eltwise7_0_split_0
I1025 10:21:54.227924  1075 net.cpp:380] Eltwise7_Eltwise7_0_split -> Eltwise7_Eltwise7_0_split_1
I1025 10:21:54.227969  1075 net.cpp:122] Setting up Eltwise7_Eltwise7_0_split
I1025 10:21:54.227979  1075 net.cpp:129] Top shape: 128 16 32 32 (2097152)
I1025 10:21:54.227986  1075 net.cpp:129] Top shape: 128 16 32 32 (2097152)
I1025 10:21:54.227990  1075 net.cpp:137] Memory required for data: 362283520
I1025 10:21:54.227995  1075 layer_factory.hpp:77] Creating layer Convolution6
I1025 10:21:54.228008  1075 net.cpp:84] Creating Layer Convolution6
I1025 10:21:54.228014  1075 net.cpp:406] Convolution6 <- Eltwise7_Eltwise7_0_split_0
I1025 10:21:54.228022  1075 net.cpp:380] Convolution6 -> Convolution6
I1025 10:21:54.230247  1075 net.cpp:122] Setting up Convolution6
I1025 10:21:54.230265  1075 net.cpp:129] Top shape: 128 16 32 32 (2097152)
I1025 10:21:54.230271  1075 net.cpp:137] Memory required for data: 370672128
I1025 10:21:54.230280  1075 layer_factory.hpp:77] Creating layer BatchNorm6
I1025 10:21:54.230291  1075 net.cpp:84] Creating Layer BatchNorm6
I1025 10:21:54.230298  1075 net.cpp:406] BatchNorm6 <- Convolution6
I1025 10:21:54.230306  1075 net.cpp:367] BatchNorm6 -> Convolution6 (in-place)
I1025 10:21:54.230502  1075 net.cpp:122] Setting up BatchNorm6
I1025 10:21:54.230515  1075 net.cpp:129] Top shape: 128 16 32 32 (2097152)
I1025 10:21:54.230520  1075 net.cpp:137] Memory required for data: 379060736
I1025 10:21:54.230530  1075 layer_factory.hpp:77] Creating layer Scale6
I1025 10:21:54.230540  1075 net.cpp:84] Creating Layer Scale6
I1025 10:21:54.230545  1075 net.cpp:406] Scale6 <- Convolution6
I1025 10:21:54.230551  1075 net.cpp:367] Scale6 -> Convolution6 (in-place)
I1025 10:21:54.230588  1075 layer_factory.hpp:77] Creating layer Scale6
I1025 10:21:54.230702  1075 net.cpp:122] Setting up Scale6
I1025 10:21:54.230715  1075 net.cpp:129] Top shape: 128 16 32 32 (2097152)
I1025 10:21:54.230720  1075 net.cpp:137] Memory required for data: 387449344
I1025 10:21:54.230728  1075 layer_factory.hpp:77] Creating layer Convolution6_Scale6_0_split
I1025 10:21:54.230736  1075 net.cpp:84] Creating Layer Convolution6_Scale6_0_split
I1025 10:21:54.230741  1075 net.cpp:406] Convolution6_Scale6_0_split <- Convolution6
I1025 10:21:54.230748  1075 net.cpp:380] Convolution6_Scale6_0_split -> Convolution6_Scale6_0_split_0
I1025 10:21:54.230756  1075 net.cpp:380] Convolution6_Scale6_0_split -> Convolution6_Scale6_0_split_1
I1025 10:21:54.230798  1075 net.cpp:122] Setting up Convolution6_Scale6_0_split
I1025 10:21:54.230806  1075 net.cpp:129] Top shape: 128 16 32 32 (2097152)
I1025 10:21:54.230813  1075 net.cpp:129] Top shape: 128 16 32 32 (2097152)
I1025 10:21:54.230818  1075 net.cpp:137] Memory required for data: 404226560
I1025 10:21:54.230823  1075 layer_factory.hpp:77] Creating layer Sigmoid6
I1025 10:21:54.230829  1075 net.cpp:84] Creating Layer Sigmoid6
I1025 10:21:54.230835  1075 net.cpp:406] Sigmoid6 <- Convolution6_Scale6_0_split_0
I1025 10:21:54.230844  1075 net.cpp:380] Sigmoid6 -> Sigmoid6
I1025 10:21:54.231045  1075 net.cpp:122] Setting up Sigmoid6
I1025 10:21:54.231058  1075 net.cpp:129] Top shape: 128 16 32 32 (2097152)
I1025 10:21:54.231063  1075 net.cpp:137] Memory required for data: 412615168
I1025 10:21:54.231068  1075 layer_factory.hpp:77] Creating layer Eltwise8
I1025 10:21:54.231078  1075 net.cpp:84] Creating Layer Eltwise8
I1025 10:21:54.231084  1075 net.cpp:406] Eltwise8 <- Convolution6_Scale6_0_split_1
I1025 10:21:54.231091  1075 net.cpp:406] Eltwise8 <- Sigmoid6
I1025 10:21:54.231097  1075 net.cpp:380] Eltwise8 -> Eltwise8
I1025 10:21:54.231127  1075 net.cpp:122] Setting up Eltwise8
I1025 10:21:54.231137  1075 net.cpp:129] Top shape: 128 16 32 32 (2097152)
I1025 10:21:54.231142  1075 net.cpp:137] Memory required for data: 421003776
I1025 10:21:54.231148  1075 layer_factory.hpp:77] Creating layer Convolution7
I1025 10:21:54.231159  1075 net.cpp:84] Creating Layer Convolution7
I1025 10:21:54.231165  1075 net.cpp:406] Convolution7 <- Eltwise8
I1025 10:21:54.231174  1075 net.cpp:380] Convolution7 -> Convolution7
I1025 10:21:54.233413  1075 net.cpp:122] Setting up Convolution7
I1025 10:21:54.233443  1075 net.cpp:129] Top shape: 128 16 32 32 (2097152)
I1025 10:21:54.233450  1075 net.cpp:137] Memory required for data: 429392384
I1025 10:21:54.233459  1075 layer_factory.hpp:77] Creating layer BatchNorm7
I1025 10:21:54.233470  1075 net.cpp:84] Creating Layer BatchNorm7
I1025 10:21:54.233477  1075 net.cpp:406] BatchNorm7 <- Convolution7
I1025 10:21:54.233484  1075 net.cpp:367] BatchNorm7 -> Convolution7 (in-place)
I1025 10:21:54.233683  1075 net.cpp:122] Setting up BatchNorm7
I1025 10:21:54.233695  1075 net.cpp:129] Top shape: 128 16 32 32 (2097152)
I1025 10:21:54.233700  1075 net.cpp:137] Memory required for data: 437780992
I1025 10:21:54.233711  1075 layer_factory.hpp:77] Creating layer Scale7
I1025 10:21:54.233718  1075 net.cpp:84] Creating Layer Scale7
I1025 10:21:54.233724  1075 net.cpp:406] Scale7 <- Convolution7
I1025 10:21:54.233731  1075 net.cpp:367] Scale7 -> Convolution7 (in-place)
I1025 10:21:54.233769  1075 layer_factory.hpp:77] Creating layer Scale7
I1025 10:21:54.233886  1075 net.cpp:122] Setting up Scale7
I1025 10:21:54.233896  1075 net.cpp:129] Top shape: 128 16 32 32 (2097152)
I1025 10:21:54.233901  1075 net.cpp:137] Memory required for data: 446169600
I1025 10:21:54.233909  1075 layer_factory.hpp:77] Creating layer Eltwise9
I1025 10:21:54.233917  1075 net.cpp:84] Creating Layer Eltwise9
I1025 10:21:54.233922  1075 net.cpp:406] Eltwise9 <- Convolution7
I1025 10:21:54.233929  1075 net.cpp:406] Eltwise9 <- Eltwise7_Eltwise7_0_split_1
I1025 10:21:54.233937  1075 net.cpp:380] Eltwise9 -> Eltwise9
I1025 10:21:54.233966  1075 net.cpp:122] Setting up Eltwise9
I1025 10:21:54.233976  1075 net.cpp:129] Top shape: 128 16 32 32 (2097152)
I1025 10:21:54.233981  1075 net.cpp:137] Memory required for data: 454558208
I1025 10:21:54.233986  1075 layer_factory.hpp:77] Creating layer Eltwise9_Eltwise9_0_split
I1025 10:21:54.233992  1075 net.cpp:84] Creating Layer Eltwise9_Eltwise9_0_split
I1025 10:21:54.233999  1075 net.cpp:406] Eltwise9_Eltwise9_0_split <- Eltwise9
I1025 10:21:54.234004  1075 net.cpp:380] Eltwise9_Eltwise9_0_split -> Eltwise9_Eltwise9_0_split_0
I1025 10:21:54.234015  1075 net.cpp:380] Eltwise9_Eltwise9_0_split -> Eltwise9_Eltwise9_0_split_1
I1025 10:21:54.234051  1075 net.cpp:122] Setting up Eltwise9_Eltwise9_0_split
I1025 10:21:54.234061  1075 net.cpp:129] Top shape: 128 16 32 32 (2097152)
I1025 10:21:54.234066  1075 net.cpp:129] Top shape: 128 16 32 32 (2097152)
I1025 10:21:54.234071  1075 net.cpp:137] Memory required for data: 471335424
I1025 10:21:54.234076  1075 layer_factory.hpp:77] Creating layer Sigmoid7
I1025 10:21:54.234086  1075 net.cpp:84] Creating Layer Sigmoid7
I1025 10:21:54.234091  1075 net.cpp:406] Sigmoid7 <- Eltwise9_Eltwise9_0_split_0
I1025 10:21:54.234097  1075 net.cpp:380] Sigmoid7 -> Sigmoid7
I1025 10:21:54.234999  1075 net.cpp:122] Setting up Sigmoid7
I1025 10:21:54.235018  1075 net.cpp:129] Top shape: 128 16 32 32 (2097152)
I1025 10:21:54.235023  1075 net.cpp:137] Memory required for data: 479724032
I1025 10:21:54.235029  1075 layer_factory.hpp:77] Creating layer Eltwise10
I1025 10:21:54.235039  1075 net.cpp:84] Creating Layer Eltwise10
I1025 10:21:54.235045  1075 net.cpp:406] Eltwise10 <- Eltwise9_Eltwise9_0_split_1
I1025 10:21:54.235052  1075 net.cpp:406] Eltwise10 <- Sigmoid7
I1025 10:21:54.235059  1075 net.cpp:380] Eltwise10 -> Eltwise10
I1025 10:21:54.235090  1075 net.cpp:122] Setting up Eltwise10
I1025 10:21:54.235100  1075 net.cpp:129] Top shape: 128 16 32 32 (2097152)
I1025 10:21:54.235105  1075 net.cpp:137] Memory required for data: 488112640
I1025 10:21:54.235110  1075 layer_factory.hpp:77] Creating layer Eltwise10_Eltwise10_0_split
I1025 10:21:54.235116  1075 net.cpp:84] Creating Layer Eltwise10_Eltwise10_0_split
I1025 10:21:54.235121  1075 net.cpp:406] Eltwise10_Eltwise10_0_split <- Eltwise10
I1025 10:21:54.235131  1075 net.cpp:380] Eltwise10_Eltwise10_0_split -> Eltwise10_Eltwise10_0_split_0
I1025 10:21:54.235138  1075 net.cpp:380] Eltwise10_Eltwise10_0_split -> Eltwise10_Eltwise10_0_split_1
I1025 10:21:54.235183  1075 net.cpp:122] Setting up Eltwise10_Eltwise10_0_split
I1025 10:21:54.235199  1075 net.cpp:129] Top shape: 128 16 32 32 (2097152)
I1025 10:21:54.235206  1075 net.cpp:129] Top shape: 128 16 32 32 (2097152)
I1025 10:21:54.235211  1075 net.cpp:137] Memory required for data: 504889856
I1025 10:21:54.235216  1075 layer_factory.hpp:77] Creating layer Convolution8
I1025 10:21:54.235231  1075 net.cpp:84] Creating Layer Convolution8
I1025 10:21:54.235237  1075 net.cpp:406] Convolution8 <- Eltwise10_Eltwise10_0_split_0
I1025 10:21:54.235245  1075 net.cpp:380] Convolution8 -> Convolution8
I1025 10:21:54.238587  1075 net.cpp:122] Setting up Convolution8
I1025 10:21:54.238608  1075 net.cpp:129] Top shape: 128 32 16 16 (1048576)
I1025 10:21:54.238615  1075 net.cpp:137] Memory required for data: 509084160
I1025 10:21:54.238623  1075 layer_factory.hpp:77] Creating layer BatchNorm8
I1025 10:21:54.238634  1075 net.cpp:84] Creating Layer BatchNorm8
I1025 10:21:54.238641  1075 net.cpp:406] BatchNorm8 <- Convolution8
I1025 10:21:54.238648  1075 net.cpp:367] BatchNorm8 -> Convolution8 (in-place)
I1025 10:21:54.238842  1075 net.cpp:122] Setting up BatchNorm8
I1025 10:21:54.238853  1075 net.cpp:129] Top shape: 128 32 16 16 (1048576)
I1025 10:21:54.238858  1075 net.cpp:137] Memory required for data: 513278464
I1025 10:21:54.238867  1075 layer_factory.hpp:77] Creating layer Scale8
I1025 10:21:54.238875  1075 net.cpp:84] Creating Layer Scale8
I1025 10:21:54.238880  1075 net.cpp:406] Scale8 <- Convolution8
I1025 10:21:54.238888  1075 net.cpp:367] Scale8 -> Convolution8 (in-place)
I1025 10:21:54.238926  1075 layer_factory.hpp:77] Creating layer Scale8
I1025 10:21:54.239039  1075 net.cpp:122] Setting up Scale8
I1025 10:21:54.239050  1075 net.cpp:129] Top shape: 128 32 16 16 (1048576)
I1025 10:21:54.239055  1075 net.cpp:137] Memory required for data: 517472768
I1025 10:21:54.239063  1075 layer_factory.hpp:77] Creating layer Convolution8_Scale8_0_split
I1025 10:21:54.239070  1075 net.cpp:84] Creating Layer Convolution8_Scale8_0_split
I1025 10:21:54.239075  1075 net.cpp:406] Convolution8_Scale8_0_split <- Convolution8
I1025 10:21:54.239084  1075 net.cpp:380] Convolution8_Scale8_0_split -> Convolution8_Scale8_0_split_0
I1025 10:21:54.239092  1075 net.cpp:380] Convolution8_Scale8_0_split -> Convolution8_Scale8_0_split_1
I1025 10:21:54.239127  1075 net.cpp:122] Setting up Convolution8_Scale8_0_split
I1025 10:21:54.239136  1075 net.cpp:129] Top shape: 128 32 16 16 (1048576)
I1025 10:21:54.239142  1075 net.cpp:129] Top shape: 128 32 16 16 (1048576)
I1025 10:21:54.239147  1075 net.cpp:137] Memory required for data: 525861376
I1025 10:21:54.239152  1075 layer_factory.hpp:77] Creating layer Sigmoid8
I1025 10:21:54.239161  1075 net.cpp:84] Creating Layer Sigmoid8
I1025 10:21:54.239166  1075 net.cpp:406] Sigmoid8 <- Convolution8_Scale8_0_split_0
I1025 10:21:54.239173  1075 net.cpp:380] Sigmoid8 -> Sigmoid8
I1025 10:21:54.240063  1075 net.cpp:122] Setting up Sigmoid8
I1025 10:21:54.240080  1075 net.cpp:129] Top shape: 128 32 16 16 (1048576)
I1025 10:21:54.240087  1075 net.cpp:137] Memory required for data: 530055680
I1025 10:21:54.240092  1075 layer_factory.hpp:77] Creating layer Eltwise11
I1025 10:21:54.240103  1075 net.cpp:84] Creating Layer Eltwise11
I1025 10:21:54.240109  1075 net.cpp:406] Eltwise11 <- Convolution8_Scale8_0_split_1
I1025 10:21:54.240116  1075 net.cpp:406] Eltwise11 <- Sigmoid8
I1025 10:21:54.240123  1075 net.cpp:380] Eltwise11 -> Eltwise11
I1025 10:21:54.240156  1075 net.cpp:122] Setting up Eltwise11
I1025 10:21:54.240165  1075 net.cpp:129] Top shape: 128 32 16 16 (1048576)
I1025 10:21:54.240170  1075 net.cpp:137] Memory required for data: 534249984
I1025 10:21:54.240175  1075 layer_factory.hpp:77] Creating layer Convolution9
I1025 10:21:54.240188  1075 net.cpp:84] Creating Layer Convolution9
I1025 10:21:54.240195  1075 net.cpp:406] Convolution9 <- Eltwise11
I1025 10:21:54.240203  1075 net.cpp:380] Convolution9 -> Convolution9
I1025 10:21:54.242698  1075 net.cpp:122] Setting up Convolution9
I1025 10:21:54.242723  1075 net.cpp:129] Top shape: 128 32 16 16 (1048576)
I1025 10:21:54.242736  1075 net.cpp:137] Memory required for data: 538444288
I1025 10:21:54.242745  1075 layer_factory.hpp:77] Creating layer BatchNorm9
I1025 10:21:54.242756  1075 net.cpp:84] Creating Layer BatchNorm9
I1025 10:21:54.242763  1075 net.cpp:406] BatchNorm9 <- Convolution9
I1025 10:21:54.242771  1075 net.cpp:367] BatchNorm9 -> Convolution9 (in-place)
I1025 10:21:54.242967  1075 net.cpp:122] Setting up BatchNorm9
I1025 10:21:54.242979  1075 net.cpp:129] Top shape: 128 32 16 16 (1048576)
I1025 10:21:54.242983  1075 net.cpp:137] Memory required for data: 542638592
I1025 10:21:54.242992  1075 layer_factory.hpp:77] Creating layer Scale9
I1025 10:21:54.243002  1075 net.cpp:84] Creating Layer Scale9
I1025 10:21:54.243008  1075 net.cpp:406] Scale9 <- Convolution9
I1025 10:21:54.243016  1075 net.cpp:367] Scale9 -> Convolution9 (in-place)
I1025 10:21:54.243055  1075 layer_factory.hpp:77] Creating layer Scale9
I1025 10:21:54.243175  1075 net.cpp:122] Setting up Scale9
I1025 10:21:54.243185  1075 net.cpp:129] Top shape: 128 32 16 16 (1048576)
I1025 10:21:54.243191  1075 net.cpp:137] Memory required for data: 546832896
I1025 10:21:54.243198  1075 layer_factory.hpp:77] Creating layer Convolution10
I1025 10:21:54.243211  1075 net.cpp:84] Creating Layer Convolution10
I1025 10:21:54.243217  1075 net.cpp:406] Convolution10 <- Eltwise10_Eltwise10_0_split_1
I1025 10:21:54.243227  1075 net.cpp:380] Convolution10 -> Convolution10
I1025 10:21:54.245564  1075 net.cpp:122] Setting up Convolution10
I1025 10:21:54.245586  1075 net.cpp:129] Top shape: 128 32 16 16 (1048576)
I1025 10:21:54.245594  1075 net.cpp:137] Memory required for data: 551027200
I1025 10:21:54.245612  1075 layer_factory.hpp:77] Creating layer BatchNorm10
I1025 10:21:54.245625  1075 net.cpp:84] Creating Layer BatchNorm10
I1025 10:21:54.245630  1075 net.cpp:406] BatchNorm10 <- Convolution10
I1025 10:21:54.245638  1075 net.cpp:367] BatchNorm10 -> Convolution10 (in-place)
I1025 10:21:54.245834  1075 net.cpp:122] Setting up BatchNorm10
I1025 10:21:54.245846  1075 net.cpp:129] Top shape: 128 32 16 16 (1048576)
I1025 10:21:54.245851  1075 net.cpp:137] Memory required for data: 555221504
I1025 10:21:54.245859  1075 layer_factory.hpp:77] Creating layer Scale10
I1025 10:21:54.245867  1075 net.cpp:84] Creating Layer Scale10
I1025 10:21:54.245872  1075 net.cpp:406] Scale10 <- Convolution10
I1025 10:21:54.245879  1075 net.cpp:367] Scale10 -> Convolution10 (in-place)
I1025 10:21:54.245918  1075 layer_factory.hpp:77] Creating layer Scale10
I1025 10:21:54.246033  1075 net.cpp:122] Setting up Scale10
I1025 10:21:54.246044  1075 net.cpp:129] Top shape: 128 32 16 16 (1048576)
I1025 10:21:54.246049  1075 net.cpp:137] Memory required for data: 559415808
I1025 10:21:54.246057  1075 layer_factory.hpp:77] Creating layer Eltwise12
I1025 10:21:54.246067  1075 net.cpp:84] Creating Layer Eltwise12
I1025 10:21:54.246073  1075 net.cpp:406] Eltwise12 <- Convolution9
I1025 10:21:54.246078  1075 net.cpp:406] Eltwise12 <- Convolution10
I1025 10:21:54.246085  1075 net.cpp:380] Eltwise12 -> Eltwise12
I1025 10:21:54.246107  1075 net.cpp:122] Setting up Eltwise12
I1025 10:21:54.246116  1075 net.cpp:129] Top shape: 128 32 16 16 (1048576)
I1025 10:21:54.246121  1075 net.cpp:137] Memory required for data: 563610112
I1025 10:21:54.246126  1075 layer_factory.hpp:77] Creating layer Eltwise12_Eltwise12_0_split
I1025 10:21:54.246135  1075 net.cpp:84] Creating Layer Eltwise12_Eltwise12_0_split
I1025 10:21:54.246141  1075 net.cpp:406] Eltwise12_Eltwise12_0_split <- Eltwise12
I1025 10:21:54.246148  1075 net.cpp:380] Eltwise12_Eltwise12_0_split -> Eltwise12_Eltwise12_0_split_0
I1025 10:21:54.246155  1075 net.cpp:380] Eltwise12_Eltwise12_0_split -> Eltwise12_Eltwise12_0_split_1
I1025 10:21:54.246196  1075 net.cpp:122] Setting up Eltwise12_Eltwise12_0_split
I1025 10:21:54.246206  1075 net.cpp:129] Top shape: 128 32 16 16 (1048576)
I1025 10:21:54.246212  1075 net.cpp:129] Top shape: 128 32 16 16 (1048576)
I1025 10:21:54.246222  1075 net.cpp:137] Memory required for data: 571998720
I1025 10:21:54.246234  1075 layer_factory.hpp:77] Creating layer Sigmoid9
I1025 10:21:54.246246  1075 net.cpp:84] Creating Layer Sigmoid9
I1025 10:21:54.246253  1075 net.cpp:406] Sigmoid9 <- Eltwise12_Eltwise12_0_split_0
I1025 10:21:54.246259  1075 net.cpp:380] Sigmoid9 -> Sigmoid9
I1025 10:21:54.246467  1075 net.cpp:122] Setting up Sigmoid9
I1025 10:21:54.246481  1075 net.cpp:129] Top shape: 128 32 16 16 (1048576)
I1025 10:21:54.246487  1075 net.cpp:137] Memory required for data: 576193024
I1025 10:21:54.246493  1075 layer_factory.hpp:77] Creating layer Eltwise13
I1025 10:21:54.246510  1075 net.cpp:84] Creating Layer Eltwise13
I1025 10:21:54.246515  1075 net.cpp:406] Eltwise13 <- Eltwise12_Eltwise12_0_split_1
I1025 10:21:54.246522  1075 net.cpp:406] Eltwise13 <- Sigmoid9
I1025 10:21:54.246531  1075 net.cpp:380] Eltwise13 -> Eltwise13
I1025 10:21:54.246559  1075 net.cpp:122] Setting up Eltwise13
I1025 10:21:54.246569  1075 net.cpp:129] Top shape: 128 32 16 16 (1048576)
I1025 10:21:54.246574  1075 net.cpp:137] Memory required for data: 580387328
I1025 10:21:54.246579  1075 layer_factory.hpp:77] Creating layer Eltwise13_Eltwise13_0_split
I1025 10:21:54.246588  1075 net.cpp:84] Creating Layer Eltwise13_Eltwise13_0_split
I1025 10:21:54.246593  1075 net.cpp:406] Eltwise13_Eltwise13_0_split <- Eltwise13
I1025 10:21:54.246600  1075 net.cpp:380] Eltwise13_Eltwise13_0_split -> Eltwise13_Eltwise13_0_split_0
I1025 10:21:54.246609  1075 net.cpp:380] Eltwise13_Eltwise13_0_split -> Eltwise13_Eltwise13_0_split_1
I1025 10:21:54.246647  1075 net.cpp:122] Setting up Eltwise13_Eltwise13_0_split
I1025 10:21:54.246656  1075 net.cpp:129] Top shape: 128 32 16 16 (1048576)
I1025 10:21:54.246664  1075 net.cpp:129] Top shape: 128 32 16 16 (1048576)
I1025 10:21:54.246668  1075 net.cpp:137] Memory required for data: 588775936
I1025 10:21:54.246673  1075 layer_factory.hpp:77] Creating layer Convolution11
I1025 10:21:54.246685  1075 net.cpp:84] Creating Layer Convolution11
I1025 10:21:54.246690  1075 net.cpp:406] Convolution11 <- Eltwise13_Eltwise13_0_split_0
I1025 10:21:54.246701  1075 net.cpp:380] Convolution11 -> Convolution11
I1025 10:21:54.249184  1075 net.cpp:122] Setting up Convolution11
I1025 10:21:54.249205  1075 net.cpp:129] Top shape: 128 32 16 16 (1048576)
I1025 10:21:54.249212  1075 net.cpp:137] Memory required for data: 592970240
I1025 10:21:54.249220  1075 layer_factory.hpp:77] Creating layer BatchNorm11
I1025 10:21:54.249229  1075 net.cpp:84] Creating Layer BatchNorm11
I1025 10:21:54.249235  1075 net.cpp:406] BatchNorm11 <- Convolution11
I1025 10:21:54.249248  1075 net.cpp:367] BatchNorm11 -> Convolution11 (in-place)
I1025 10:21:54.249444  1075 net.cpp:122] Setting up BatchNorm11
I1025 10:21:54.249454  1075 net.cpp:129] Top shape: 128 32 16 16 (1048576)
I1025 10:21:54.249459  1075 net.cpp:137] Memory required for data: 597164544
I1025 10:21:54.249467  1075 layer_factory.hpp:77] Creating layer Scale11
I1025 10:21:54.249475  1075 net.cpp:84] Creating Layer Scale11
I1025 10:21:54.249481  1075 net.cpp:406] Scale11 <- Convolution11
I1025 10:21:54.249487  1075 net.cpp:367] Scale11 -> Convolution11 (in-place)
I1025 10:21:54.249526  1075 layer_factory.hpp:77] Creating layer Scale11
I1025 10:21:54.249642  1075 net.cpp:122] Setting up Scale11
I1025 10:21:54.249652  1075 net.cpp:129] Top shape: 128 32 16 16 (1048576)
I1025 10:21:54.249657  1075 net.cpp:137] Memory required for data: 601358848
I1025 10:21:54.249665  1075 layer_factory.hpp:77] Creating layer Convolution11_Scale11_0_split
I1025 10:21:54.249675  1075 net.cpp:84] Creating Layer Convolution11_Scale11_0_split
I1025 10:21:54.249680  1075 net.cpp:406] Convolution11_Scale11_0_split <- Convolution11
I1025 10:21:54.249686  1075 net.cpp:380] Convolution11_Scale11_0_split -> Convolution11_Scale11_0_split_0
I1025 10:21:54.249697  1075 net.cpp:380] Convolution11_Scale11_0_split -> Convolution11_Scale11_0_split_1
I1025 10:21:54.249739  1075 net.cpp:122] Setting up Convolution11_Scale11_0_split
I1025 10:21:54.249749  1075 net.cpp:129] Top shape: 128 32 16 16 (1048576)
I1025 10:21:54.249761  1075 net.cpp:129] Top shape: 128 32 16 16 (1048576)
I1025 10:21:54.249774  1075 net.cpp:137] Memory required for data: 609747456
I1025 10:21:54.249780  1075 layer_factory.hpp:77] Creating layer Sigmoid10
I1025 10:21:54.249788  1075 net.cpp:84] Creating Layer Sigmoid10
I1025 10:21:54.249794  1075 net.cpp:406] Sigmoid10 <- Convolution11_Scale11_0_split_0
I1025 10:21:54.249800  1075 net.cpp:380] Sigmoid10 -> Sigmoid10
I1025 10:21:54.250005  1075 net.cpp:122] Setting up Sigmoid10
I1025 10:21:54.250018  1075 net.cpp:129] Top shape: 128 32 16 16 (1048576)
I1025 10:21:54.250025  1075 net.cpp:137] Memory required for data: 613941760
I1025 10:21:54.250030  1075 layer_factory.hpp:77] Creating layer Eltwise14
I1025 10:21:54.250037  1075 net.cpp:84] Creating Layer Eltwise14
I1025 10:21:54.250043  1075 net.cpp:406] Eltwise14 <- Convolution11_Scale11_0_split_1
I1025 10:21:54.250051  1075 net.cpp:406] Eltwise14 <- Sigmoid10
I1025 10:21:54.250058  1075 net.cpp:380] Eltwise14 -> Eltwise14
I1025 10:21:54.250087  1075 net.cpp:122] Setting up Eltwise14
I1025 10:21:54.250097  1075 net.cpp:129] Top shape: 128 32 16 16 (1048576)
I1025 10:21:54.250102  1075 net.cpp:137] Memory required for data: 618136064
I1025 10:21:54.250107  1075 layer_factory.hpp:77] Creating layer Convolution12
I1025 10:21:54.250121  1075 net.cpp:84] Creating Layer Convolution12
I1025 10:21:54.250128  1075 net.cpp:406] Convolution12 <- Eltwise14
I1025 10:21:54.250134  1075 net.cpp:380] Convolution12 -> Convolution12
I1025 10:21:54.252631  1075 net.cpp:122] Setting up Convolution12
I1025 10:21:54.252652  1075 net.cpp:129] Top shape: 128 32 16 16 (1048576)
I1025 10:21:54.252658  1075 net.cpp:137] Memory required for data: 622330368
I1025 10:21:54.252666  1075 layer_factory.hpp:77] Creating layer BatchNorm12
I1025 10:21:54.252679  1075 net.cpp:84] Creating Layer BatchNorm12
I1025 10:21:54.252686  1075 net.cpp:406] BatchNorm12 <- Convolution12
I1025 10:21:54.252692  1075 net.cpp:367] BatchNorm12 -> Convolution12 (in-place)
I1025 10:21:54.252894  1075 net.cpp:122] Setting up BatchNorm12
I1025 10:21:54.252905  1075 net.cpp:129] Top shape: 128 32 16 16 (1048576)
I1025 10:21:54.252910  1075 net.cpp:137] Memory required for data: 626524672
I1025 10:21:54.252919  1075 layer_factory.hpp:77] Creating layer Scale12
I1025 10:21:54.252929  1075 net.cpp:84] Creating Layer Scale12
I1025 10:21:54.252935  1075 net.cpp:406] Scale12 <- Convolution12
I1025 10:21:54.252943  1075 net.cpp:367] Scale12 -> Convolution12 (in-place)
I1025 10:21:54.252979  1075 layer_factory.hpp:77] Creating layer Scale12
I1025 10:21:54.253100  1075 net.cpp:122] Setting up Scale12
I1025 10:21:54.253111  1075 net.cpp:129] Top shape: 128 32 16 16 (1048576)
I1025 10:21:54.253116  1075 net.cpp:137] Memory required for data: 630718976
I1025 10:21:54.253124  1075 layer_factory.hpp:77] Creating layer Eltwise15
I1025 10:21:54.253132  1075 net.cpp:84] Creating Layer Eltwise15
I1025 10:21:54.253137  1075 net.cpp:406] Eltwise15 <- Convolution12
I1025 10:21:54.253144  1075 net.cpp:406] Eltwise15 <- Eltwise13_Eltwise13_0_split_1
I1025 10:21:54.253152  1075 net.cpp:380] Eltwise15 -> Eltwise15
I1025 10:21:54.253176  1075 net.cpp:122] Setting up Eltwise15
I1025 10:21:54.253185  1075 net.cpp:129] Top shape: 128 32 16 16 (1048576)
I1025 10:21:54.253190  1075 net.cpp:137] Memory required for data: 634913280
I1025 10:21:54.253196  1075 layer_factory.hpp:77] Creating layer Eltwise15_Eltwise15_0_split
I1025 10:21:54.253204  1075 net.cpp:84] Creating Layer Eltwise15_Eltwise15_0_split
I1025 10:21:54.253209  1075 net.cpp:406] Eltwise15_Eltwise15_0_split <- Eltwise15
I1025 10:21:54.253216  1075 net.cpp:380] Eltwise15_Eltwise15_0_split -> Eltwise15_Eltwise15_0_split_0
I1025 10:21:54.253224  1075 net.cpp:380] Eltwise15_Eltwise15_0_split -> Eltwise15_Eltwise15_0_split_1
I1025 10:21:54.253263  1075 net.cpp:122] Setting up Eltwise15_Eltwise15_0_split
I1025 10:21:54.253273  1075 net.cpp:129] Top shape: 128 32 16 16 (1048576)
I1025 10:21:54.253279  1075 net.cpp:129] Top shape: 128 32 16 16 (1048576)
I1025 10:21:54.253289  1075 net.cpp:137] Memory required for data: 643301888
I1025 10:21:54.253301  1075 layer_factory.hpp:77] Creating layer Sigmoid11
I1025 10:21:54.253309  1075 net.cpp:84] Creating Layer Sigmoid11
I1025 10:21:54.253314  1075 net.cpp:406] Sigmoid11 <- Eltwise15_Eltwise15_0_split_0
I1025 10:21:54.253321  1075 net.cpp:380] Sigmoid11 -> Sigmoid11
I1025 10:21:54.254220  1075 net.cpp:122] Setting up Sigmoid11
I1025 10:21:54.254238  1075 net.cpp:129] Top shape: 128 32 16 16 (1048576)
I1025 10:21:54.254243  1075 net.cpp:137] Memory required for data: 647496192
I1025 10:21:54.254250  1075 layer_factory.hpp:77] Creating layer Eltwise16
I1025 10:21:54.254257  1075 net.cpp:84] Creating Layer Eltwise16
I1025 10:21:54.254263  1075 net.cpp:406] Eltwise16 <- Eltwise15_Eltwise15_0_split_1
I1025 10:21:54.254271  1075 net.cpp:406] Eltwise16 <- Sigmoid11
I1025 10:21:54.254277  1075 net.cpp:380] Eltwise16 -> Eltwise16
I1025 10:21:54.254310  1075 net.cpp:122] Setting up Eltwise16
I1025 10:21:54.254320  1075 net.cpp:129] Top shape: 128 32 16 16 (1048576)
I1025 10:21:54.254324  1075 net.cpp:137] Memory required for data: 651690496
I1025 10:21:54.254330  1075 layer_factory.hpp:77] Creating layer Eltwise16_Eltwise16_0_split
I1025 10:21:54.254338  1075 net.cpp:84] Creating Layer Eltwise16_Eltwise16_0_split
I1025 10:21:54.254344  1075 net.cpp:406] Eltwise16_Eltwise16_0_split <- Eltwise16
I1025 10:21:54.254351  1075 net.cpp:380] Eltwise16_Eltwise16_0_split -> Eltwise16_Eltwise16_0_split_0
I1025 10:21:54.254359  1075 net.cpp:380] Eltwise16_Eltwise16_0_split -> Eltwise16_Eltwise16_0_split_1
I1025 10:21:54.254400  1075 net.cpp:122] Setting up Eltwise16_Eltwise16_0_split
I1025 10:21:54.254410  1075 net.cpp:129] Top shape: 128 32 16 16 (1048576)
I1025 10:21:54.254415  1075 net.cpp:129] Top shape: 128 32 16 16 (1048576)
I1025 10:21:54.254420  1075 net.cpp:137] Memory required for data: 660079104
I1025 10:21:54.254425  1075 layer_factory.hpp:77] Creating layer Convolution13
I1025 10:21:54.254441  1075 net.cpp:84] Creating Layer Convolution13
I1025 10:21:54.254446  1075 net.cpp:406] Convolution13 <- Eltwise16_Eltwise16_0_split_0
I1025 10:21:54.254456  1075 net.cpp:380] Convolution13 -> Convolution13
I1025 10:21:54.256948  1075 net.cpp:122] Setting up Convolution13
I1025 10:21:54.256970  1075 net.cpp:129] Top shape: 128 32 16 16 (1048576)
I1025 10:21:54.256978  1075 net.cpp:137] Memory required for data: 664273408
I1025 10:21:54.256985  1075 layer_factory.hpp:77] Creating layer BatchNorm13
I1025 10:21:54.256996  1075 net.cpp:84] Creating Layer BatchNorm13
I1025 10:21:54.257004  1075 net.cpp:406] BatchNorm13 <- Convolution13
I1025 10:21:54.257012  1075 net.cpp:367] BatchNorm13 -> Convolution13 (in-place)
I1025 10:21:54.257211  1075 net.cpp:122] Setting up BatchNorm13
I1025 10:21:54.257221  1075 net.cpp:129] Top shape: 128 32 16 16 (1048576)
I1025 10:21:54.257226  1075 net.cpp:137] Memory required for data: 668467712
I1025 10:21:54.257236  1075 layer_factory.hpp:77] Creating layer Scale13
I1025 10:21:54.257243  1075 net.cpp:84] Creating Layer Scale13
I1025 10:21:54.257249  1075 net.cpp:406] Scale13 <- Convolution13
I1025 10:21:54.257257  1075 net.cpp:367] Scale13 -> Convolution13 (in-place)
I1025 10:21:54.257295  1075 layer_factory.hpp:77] Creating layer Scale13
I1025 10:21:54.257416  1075 net.cpp:122] Setting up Scale13
I1025 10:21:54.257428  1075 net.cpp:129] Top shape: 128 32 16 16 (1048576)
I1025 10:21:54.257434  1075 net.cpp:137] Memory required for data: 672662016
I1025 10:21:54.257441  1075 layer_factory.hpp:77] Creating layer Convolution13_Scale13_0_split
I1025 10:21:54.257449  1075 net.cpp:84] Creating Layer Convolution13_Scale13_0_split
I1025 10:21:54.257454  1075 net.cpp:406] Convolution13_Scale13_0_split <- Convolution13
I1025 10:21:54.257462  1075 net.cpp:380] Convolution13_Scale13_0_split -> Convolution13_Scale13_0_split_0
I1025 10:21:54.257470  1075 net.cpp:380] Convolution13_Scale13_0_split -> Convolution13_Scale13_0_split_1
I1025 10:21:54.257509  1075 net.cpp:122] Setting up Convolution13_Scale13_0_split
I1025 10:21:54.257531  1075 net.cpp:129] Top shape: 128 32 16 16 (1048576)
I1025 10:21:54.257551  1075 net.cpp:129] Top shape: 128 32 16 16 (1048576)
I1025 10:21:54.257557  1075 net.cpp:137] Memory required for data: 681050624
I1025 10:21:54.257562  1075 layer_factory.hpp:77] Creating layer Sigmoid12
I1025 10:21:54.257570  1075 net.cpp:84] Creating Layer Sigmoid12
I1025 10:21:54.257576  1075 net.cpp:406] Sigmoid12 <- Convolution13_Scale13_0_split_0
I1025 10:21:54.257583  1075 net.cpp:380] Sigmoid12 -> Sigmoid12
I1025 10:21:54.257797  1075 net.cpp:122] Setting up Sigmoid12
I1025 10:21:54.257810  1075 net.cpp:129] Top shape: 128 32 16 16 (1048576)
I1025 10:21:54.257815  1075 net.cpp:137] Memory required for data: 685244928
I1025 10:21:54.257820  1075 layer_factory.hpp:77] Creating layer Eltwise17
I1025 10:21:54.257828  1075 net.cpp:84] Creating Layer Eltwise17
I1025 10:21:54.257834  1075 net.cpp:406] Eltwise17 <- Convolution13_Scale13_0_split_1
I1025 10:21:54.257841  1075 net.cpp:406] Eltwise17 <- Sigmoid12
I1025 10:21:54.257850  1075 net.cpp:380] Eltwise17 -> Eltwise17
I1025 10:21:54.257879  1075 net.cpp:122] Setting up Eltwise17
I1025 10:21:54.257889  1075 net.cpp:129] Top shape: 128 32 16 16 (1048576)
I1025 10:21:54.257894  1075 net.cpp:137] Memory required for data: 689439232
I1025 10:21:54.257899  1075 layer_factory.hpp:77] Creating layer Convolution14
I1025 10:21:54.257915  1075 net.cpp:84] Creating Layer Convolution14
I1025 10:21:54.257920  1075 net.cpp:406] Convolution14 <- Eltwise17
I1025 10:21:54.257928  1075 net.cpp:380] Convolution14 -> Convolution14
I1025 10:21:54.260433  1075 net.cpp:122] Setting up Convolution14
I1025 10:21:54.260452  1075 net.cpp:129] Top shape: 128 32 16 16 (1048576)
I1025 10:21:54.260459  1075 net.cpp:137] Memory required for data: 693633536
I1025 10:21:54.260468  1075 layer_factory.hpp:77] Creating layer BatchNorm14
I1025 10:21:54.260479  1075 net.cpp:84] Creating Layer BatchNorm14
I1025 10:21:54.260486  1075 net.cpp:406] BatchNorm14 <- Convolution14
I1025 10:21:54.260495  1075 net.cpp:367] BatchNorm14 -> Convolution14 (in-place)
I1025 10:21:54.260701  1075 net.cpp:122] Setting up BatchNorm14
I1025 10:21:54.260711  1075 net.cpp:129] Top shape: 128 32 16 16 (1048576)
I1025 10:21:54.260716  1075 net.cpp:137] Memory required for data: 697827840
I1025 10:21:54.260726  1075 layer_factory.hpp:77] Creating layer Scale14
I1025 10:21:54.260735  1075 net.cpp:84] Creating Layer Scale14
I1025 10:21:54.260742  1075 net.cpp:406] Scale14 <- Convolution14
I1025 10:21:54.260749  1075 net.cpp:367] Scale14 -> Convolution14 (in-place)
I1025 10:21:54.260787  1075 layer_factory.hpp:77] Creating layer Scale14
I1025 10:21:54.260910  1075 net.cpp:122] Setting up Scale14
I1025 10:21:54.260921  1075 net.cpp:129] Top shape: 128 32 16 16 (1048576)
I1025 10:21:54.260926  1075 net.cpp:137] Memory required for data: 702022144
I1025 10:21:54.260933  1075 layer_factory.hpp:77] Creating layer Eltwise18
I1025 10:21:54.260941  1075 net.cpp:84] Creating Layer Eltwise18
I1025 10:21:54.260946  1075 net.cpp:406] Eltwise18 <- Convolution14
I1025 10:21:54.260952  1075 net.cpp:406] Eltwise18 <- Eltwise16_Eltwise16_0_split_1
I1025 10:21:54.260959  1075 net.cpp:380] Eltwise18 -> Eltwise18
I1025 10:21:54.260985  1075 net.cpp:122] Setting up Eltwise18
I1025 10:21:54.260994  1075 net.cpp:129] Top shape: 128 32 16 16 (1048576)
I1025 10:21:54.260999  1075 net.cpp:137] Memory required for data: 706216448
I1025 10:21:54.261004  1075 layer_factory.hpp:77] Creating layer Eltwise18_Eltwise18_0_split
I1025 10:21:54.261010  1075 net.cpp:84] Creating Layer Eltwise18_Eltwise18_0_split
I1025 10:21:54.261016  1075 net.cpp:406] Eltwise18_Eltwise18_0_split <- Eltwise18
I1025 10:21:54.261025  1075 net.cpp:380] Eltwise18_Eltwise18_0_split -> Eltwise18_Eltwise18_0_split_0
I1025 10:21:54.261034  1075 net.cpp:380] Eltwise18_Eltwise18_0_split -> Eltwise18_Eltwise18_0_split_1
I1025 10:21:54.261075  1075 net.cpp:122] Setting up Eltwise18_Eltwise18_0_split
I1025 10:21:54.261083  1075 net.cpp:129] Top shape: 128 32 16 16 (1048576)
I1025 10:21:54.261090  1075 net.cpp:129] Top shape: 128 32 16 16 (1048576)
I1025 10:21:54.261099  1075 net.cpp:137] Memory required for data: 714605056
I1025 10:21:54.261112  1075 layer_factory.hpp:77] Creating layer Sigmoid13
I1025 10:21:54.261119  1075 net.cpp:84] Creating Layer Sigmoid13
I1025 10:21:54.261126  1075 net.cpp:406] Sigmoid13 <- Eltwise18_Eltwise18_0_split_0
I1025 10:21:54.261132  1075 net.cpp:380] Sigmoid13 -> Sigmoid13
I1025 10:21:54.261338  1075 net.cpp:122] Setting up Sigmoid13
I1025 10:21:54.261353  1075 net.cpp:129] Top shape: 128 32 16 16 (1048576)
I1025 10:21:54.261358  1075 net.cpp:137] Memory required for data: 718799360
I1025 10:21:54.261363  1075 layer_factory.hpp:77] Creating layer Eltwise19
I1025 10:21:54.261373  1075 net.cpp:84] Creating Layer Eltwise19
I1025 10:21:54.261379  1075 net.cpp:406] Eltwise19 <- Eltwise18_Eltwise18_0_split_1
I1025 10:21:54.261385  1075 net.cpp:406] Eltwise19 <- Sigmoid13
I1025 10:21:54.261396  1075 net.cpp:380] Eltwise19 -> Eltwise19
I1025 10:21:54.261426  1075 net.cpp:122] Setting up Eltwise19
I1025 10:21:54.261435  1075 net.cpp:129] Top shape: 128 32 16 16 (1048576)
I1025 10:21:54.261440  1075 net.cpp:137] Memory required for data: 722993664
I1025 10:21:54.261445  1075 layer_factory.hpp:77] Creating layer Eltwise19_Eltwise19_0_split
I1025 10:21:54.261454  1075 net.cpp:84] Creating Layer Eltwise19_Eltwise19_0_split
I1025 10:21:54.261461  1075 net.cpp:406] Eltwise19_Eltwise19_0_split <- Eltwise19
I1025 10:21:54.261467  1075 net.cpp:380] Eltwise19_Eltwise19_0_split -> Eltwise19_Eltwise19_0_split_0
I1025 10:21:54.261474  1075 net.cpp:380] Eltwise19_Eltwise19_0_split -> Eltwise19_Eltwise19_0_split_1
I1025 10:21:54.261518  1075 net.cpp:122] Setting up Eltwise19_Eltwise19_0_split
I1025 10:21:54.261526  1075 net.cpp:129] Top shape: 128 32 16 16 (1048576)
I1025 10:21:54.261533  1075 net.cpp:129] Top shape: 128 32 16 16 (1048576)
I1025 10:21:54.261538  1075 net.cpp:137] Memory required for data: 731382272
I1025 10:21:54.261543  1075 layer_factory.hpp:77] Creating layer Convolution15
I1025 10:21:54.261554  1075 net.cpp:84] Creating Layer Convolution15
I1025 10:21:54.261560  1075 net.cpp:406] Convolution15 <- Eltwise19_Eltwise19_0_split_0
I1025 10:21:54.261569  1075 net.cpp:380] Convolution15 -> Convolution15
I1025 10:21:54.265257  1075 net.cpp:122] Setting up Convolution15
I1025 10:21:54.265278  1075 net.cpp:129] Top shape: 128 64 8 8 (524288)
I1025 10:21:54.265285  1075 net.cpp:137] Memory required for data: 733479424
I1025 10:21:54.265293  1075 layer_factory.hpp:77] Creating layer BatchNorm15
I1025 10:21:54.265305  1075 net.cpp:84] Creating Layer BatchNorm15
I1025 10:21:54.265311  1075 net.cpp:406] BatchNorm15 <- Convolution15
I1025 10:21:54.265321  1075 net.cpp:367] BatchNorm15 -> Convolution15 (in-place)
I1025 10:21:54.265532  1075 net.cpp:122] Setting up BatchNorm15
I1025 10:21:54.265543  1075 net.cpp:129] Top shape: 128 64 8 8 (524288)
I1025 10:21:54.265548  1075 net.cpp:137] Memory required for data: 735576576
I1025 10:21:54.265558  1075 layer_factory.hpp:77] Creating layer Scale15
I1025 10:21:54.265568  1075 net.cpp:84] Creating Layer Scale15
I1025 10:21:54.265573  1075 net.cpp:406] Scale15 <- Convolution15
I1025 10:21:54.265580  1075 net.cpp:367] Scale15 -> Convolution15 (in-place)
I1025 10:21:54.265622  1075 layer_factory.hpp:77] Creating layer Scale15
I1025 10:21:54.265751  1075 net.cpp:122] Setting up Scale15
I1025 10:21:54.265761  1075 net.cpp:129] Top shape: 128 64 8 8 (524288)
I1025 10:21:54.265766  1075 net.cpp:137] Memory required for data: 737673728
I1025 10:21:54.265774  1075 layer_factory.hpp:77] Creating layer Convolution15_Scale15_0_split
I1025 10:21:54.265784  1075 net.cpp:84] Creating Layer Convolution15_Scale15_0_split
I1025 10:21:54.265789  1075 net.cpp:406] Convolution15_Scale15_0_split <- Convolution15
I1025 10:21:54.265795  1075 net.cpp:380] Convolution15_Scale15_0_split -> Convolution15_Scale15_0_split_0
I1025 10:21:54.265805  1075 net.cpp:380] Convolution15_Scale15_0_split -> Convolution15_Scale15_0_split_1
I1025 10:21:54.265842  1075 net.cpp:122] Setting up Convolution15_Scale15_0_split
I1025 10:21:54.265858  1075 net.cpp:129] Top shape: 128 64 8 8 (524288)
I1025 10:21:54.265873  1075 net.cpp:129] Top shape: 128 64 8 8 (524288)
I1025 10:21:54.265878  1075 net.cpp:137] Memory required for data: 741868032
I1025 10:21:54.265883  1075 layer_factory.hpp:77] Creating layer Sigmoid14
I1025 10:21:54.265892  1075 net.cpp:84] Creating Layer Sigmoid14
I1025 10:21:54.265898  1075 net.cpp:406] Sigmoid14 <- Convolution15_Scale15_0_split_0
I1025 10:21:54.265907  1075 net.cpp:380] Sigmoid14 -> Sigmoid14
I1025 10:21:54.266818  1075 net.cpp:122] Setting up Sigmoid14
I1025 10:21:54.266835  1075 net.cpp:129] Top shape: 128 64 8 8 (524288)
I1025 10:21:54.266841  1075 net.cpp:137] Memory required for data: 743965184
I1025 10:21:54.266847  1075 layer_factory.hpp:77] Creating layer Eltwise20
I1025 10:21:54.266857  1075 net.cpp:84] Creating Layer Eltwise20
I1025 10:21:54.266863  1075 net.cpp:406] Eltwise20 <- Convolution15_Scale15_0_split_1
I1025 10:21:54.266871  1075 net.cpp:406] Eltwise20 <- Sigmoid14
I1025 10:21:54.266880  1075 net.cpp:380] Eltwise20 -> Eltwise20
I1025 10:21:54.266912  1075 net.cpp:122] Setting up Eltwise20
I1025 10:21:54.266922  1075 net.cpp:129] Top shape: 128 64 8 8 (524288)
I1025 10:21:54.266927  1075 net.cpp:137] Memory required for data: 746062336
I1025 10:21:54.266932  1075 layer_factory.hpp:77] Creating layer Convolution16
I1025 10:21:54.266947  1075 net.cpp:84] Creating Layer Convolution16
I1025 10:21:54.266953  1075 net.cpp:406] Convolution16 <- Eltwise20
I1025 10:21:54.266961  1075 net.cpp:380] Convolution16 -> Convolution16
I1025 10:21:54.271214  1075 net.cpp:122] Setting up Convolution16
I1025 10:21:54.271236  1075 net.cpp:129] Top shape: 128 64 8 8 (524288)
I1025 10:21:54.271244  1075 net.cpp:137] Memory required for data: 748159488
I1025 10:21:54.271252  1075 layer_factory.hpp:77] Creating layer BatchNorm16
I1025 10:21:54.271262  1075 net.cpp:84] Creating Layer BatchNorm16
I1025 10:21:54.271268  1075 net.cpp:406] BatchNorm16 <- Convolution16
I1025 10:21:54.271278  1075 net.cpp:367] BatchNorm16 -> Convolution16 (in-place)
I1025 10:21:54.271500  1075 net.cpp:122] Setting up BatchNorm16
I1025 10:21:54.271512  1075 net.cpp:129] Top shape: 128 64 8 8 (524288)
I1025 10:21:54.271517  1075 net.cpp:137] Memory required for data: 750256640
I1025 10:21:54.271525  1075 layer_factory.hpp:77] Creating layer Scale16
I1025 10:21:54.271534  1075 net.cpp:84] Creating Layer Scale16
I1025 10:21:54.271540  1075 net.cpp:406] Scale16 <- Convolution16
I1025 10:21:54.271548  1075 net.cpp:367] Scale16 -> Convolution16 (in-place)
I1025 10:21:54.271589  1075 layer_factory.hpp:77] Creating layer Scale16
I1025 10:21:54.271721  1075 net.cpp:122] Setting up Scale16
I1025 10:21:54.271731  1075 net.cpp:129] Top shape: 128 64 8 8 (524288)
I1025 10:21:54.271736  1075 net.cpp:137] Memory required for data: 752353792
I1025 10:21:54.271744  1075 layer_factory.hpp:77] Creating layer Convolution17
I1025 10:21:54.271756  1075 net.cpp:84] Creating Layer Convolution17
I1025 10:21:54.271764  1075 net.cpp:406] Convolution17 <- Eltwise19_Eltwise19_0_split_1
I1025 10:21:54.271773  1075 net.cpp:380] Convolution17 -> Convolution17
I1025 10:21:54.274191  1075 net.cpp:122] Setting up Convolution17
I1025 10:21:54.274214  1075 net.cpp:129] Top shape: 128 64 8 8 (524288)
I1025 10:21:54.274219  1075 net.cpp:137] Memory required for data: 754450944
I1025 10:21:54.274229  1075 layer_factory.hpp:77] Creating layer BatchNorm17
I1025 10:21:54.274240  1075 net.cpp:84] Creating Layer BatchNorm17
I1025 10:21:54.274246  1075 net.cpp:406] BatchNorm17 <- Convolution17
I1025 10:21:54.274253  1075 net.cpp:367] BatchNorm17 -> Convolution17 (in-place)
I1025 10:21:54.274473  1075 net.cpp:122] Setting up BatchNorm17
I1025 10:21:54.274483  1075 net.cpp:129] Top shape: 128 64 8 8 (524288)
I1025 10:21:54.274489  1075 net.cpp:137] Memory required for data: 756548096
I1025 10:21:54.274504  1075 layer_factory.hpp:77] Creating layer Scale17
I1025 10:21:54.274514  1075 net.cpp:84] Creating Layer Scale17
I1025 10:21:54.274520  1075 net.cpp:406] Scale17 <- Convolution17
I1025 10:21:54.274534  1075 net.cpp:367] Scale17 -> Convolution17 (in-place)
I1025 10:21:54.274587  1075 layer_factory.hpp:77] Creating layer Scale17
I1025 10:21:54.274716  1075 net.cpp:122] Setting up Scale17
I1025 10:21:54.274727  1075 net.cpp:129] Top shape: 128 64 8 8 (524288)
I1025 10:21:54.274732  1075 net.cpp:137] Memory required for data: 758645248
I1025 10:21:54.274740  1075 layer_factory.hpp:77] Creating layer Eltwise21
I1025 10:21:54.274747  1075 net.cpp:84] Creating Layer Eltwise21
I1025 10:21:54.274754  1075 net.cpp:406] Eltwise21 <- Convolution16
I1025 10:21:54.274760  1075 net.cpp:406] Eltwise21 <- Convolution17
I1025 10:21:54.274770  1075 net.cpp:380] Eltwise21 -> Eltwise21
I1025 10:21:54.274793  1075 net.cpp:122] Setting up Eltwise21
I1025 10:21:54.274802  1075 net.cpp:129] Top shape: 128 64 8 8 (524288)
I1025 10:21:54.274807  1075 net.cpp:137] Memory required for data: 760742400
I1025 10:21:54.274812  1075 layer_factory.hpp:77] Creating layer Eltwise21_Eltwise21_0_split
I1025 10:21:54.274821  1075 net.cpp:84] Creating Layer Eltwise21_Eltwise21_0_split
I1025 10:21:54.274827  1075 net.cpp:406] Eltwise21_Eltwise21_0_split <- Eltwise21
I1025 10:21:54.274833  1075 net.cpp:380] Eltwise21_Eltwise21_0_split -> Eltwise21_Eltwise21_0_split_0
I1025 10:21:54.274842  1075 net.cpp:380] Eltwise21_Eltwise21_0_split -> Eltwise21_Eltwise21_0_split_1
I1025 10:21:54.274883  1075 net.cpp:122] Setting up Eltwise21_Eltwise21_0_split
I1025 10:21:54.274891  1075 net.cpp:129] Top shape: 128 64 8 8 (524288)
I1025 10:21:54.274899  1075 net.cpp:129] Top shape: 128 64 8 8 (524288)
I1025 10:21:54.274902  1075 net.cpp:137] Memory required for data: 764936704
I1025 10:21:54.274907  1075 layer_factory.hpp:77] Creating layer Sigmoid15
I1025 10:21:54.274914  1075 net.cpp:84] Creating Layer Sigmoid15
I1025 10:21:54.274920  1075 net.cpp:406] Sigmoid15 <- Eltwise21_Eltwise21_0_split_0
I1025 10:21:54.274926  1075 net.cpp:380] Sigmoid15 -> Sigmoid15
I1025 10:21:54.275847  1075 net.cpp:122] Setting up Sigmoid15
I1025 10:21:54.275866  1075 net.cpp:129] Top shape: 128 64 8 8 (524288)
I1025 10:21:54.275871  1075 net.cpp:137] Memory required for data: 767033856
I1025 10:21:54.275876  1075 layer_factory.hpp:77] Creating layer Eltwise22
I1025 10:21:54.275884  1075 net.cpp:84] Creating Layer Eltwise22
I1025 10:21:54.275890  1075 net.cpp:406] Eltwise22 <- Eltwise21_Eltwise21_0_split_1
I1025 10:21:54.275897  1075 net.cpp:406] Eltwise22 <- Sigmoid15
I1025 10:21:54.275904  1075 net.cpp:380] Eltwise22 -> Eltwise22
I1025 10:21:54.275938  1075 net.cpp:122] Setting up Eltwise22
I1025 10:21:54.275949  1075 net.cpp:129] Top shape: 128 64 8 8 (524288)
I1025 10:21:54.275954  1075 net.cpp:137] Memory required for data: 769131008
I1025 10:21:54.275959  1075 layer_factory.hpp:77] Creating layer Eltwise22_Eltwise22_0_split
I1025 10:21:54.275966  1075 net.cpp:84] Creating Layer Eltwise22_Eltwise22_0_split
I1025 10:21:54.275972  1075 net.cpp:406] Eltwise22_Eltwise22_0_split <- Eltwise22
I1025 10:21:54.275979  1075 net.cpp:380] Eltwise22_Eltwise22_0_split -> Eltwise22_Eltwise22_0_split_0
I1025 10:21:54.275986  1075 net.cpp:380] Eltwise22_Eltwise22_0_split -> Eltwise22_Eltwise22_0_split_1
I1025 10:21:54.276029  1075 net.cpp:122] Setting up Eltwise22_Eltwise22_0_split
I1025 10:21:54.276039  1075 net.cpp:129] Top shape: 128 64 8 8 (524288)
I1025 10:21:54.276046  1075 net.cpp:129] Top shape: 128 64 8 8 (524288)
I1025 10:21:54.276049  1075 net.cpp:137] Memory required for data: 773325312
I1025 10:21:54.276054  1075 layer_factory.hpp:77] Creating layer Convolution18
I1025 10:21:54.276067  1075 net.cpp:84] Creating Layer Convolution18
I1025 10:21:54.276073  1075 net.cpp:406] Convolution18 <- Eltwise22_Eltwise22_0_split_0
I1025 10:21:54.276083  1075 net.cpp:380] Convolution18 -> Convolution18
I1025 10:21:54.279556  1075 net.cpp:122] Setting up Convolution18
I1025 10:21:54.279575  1075 net.cpp:129] Top shape: 128 64 8 8 (524288)
I1025 10:21:54.279582  1075 net.cpp:137] Memory required for data: 775422464
I1025 10:21:54.279590  1075 layer_factory.hpp:77] Creating layer BatchNorm18
I1025 10:21:54.279606  1075 net.cpp:84] Creating Layer BatchNorm18
I1025 10:21:54.279621  1075 net.cpp:406] BatchNorm18 <- Convolution18
I1025 10:21:54.279629  1075 net.cpp:367] BatchNorm18 -> Convolution18 (in-place)
I1025 10:21:54.279850  1075 net.cpp:122] Setting up BatchNorm18
I1025 10:21:54.279860  1075 net.cpp:129] Top shape: 128 64 8 8 (524288)
I1025 10:21:54.279865  1075 net.cpp:137] Memory required for data: 777519616
I1025 10:21:54.279875  1075 layer_factory.hpp:77] Creating layer Scale18
I1025 10:21:54.279882  1075 net.cpp:84] Creating Layer Scale18
I1025 10:21:54.279888  1075 net.cpp:406] Scale18 <- Convolution18
I1025 10:21:54.279896  1075 net.cpp:367] Scale18 -> Convolution18 (in-place)
I1025 10:21:54.279937  1075 layer_factory.hpp:77] Creating layer Scale18
I1025 10:21:54.280066  1075 net.cpp:122] Setting up Scale18
I1025 10:21:54.280076  1075 net.cpp:129] Top shape: 128 64 8 8 (524288)
I1025 10:21:54.280081  1075 net.cpp:137] Memory required for data: 779616768
I1025 10:21:54.280089  1075 layer_factory.hpp:77] Creating layer Convolution18_Scale18_0_split
I1025 10:21:54.280097  1075 net.cpp:84] Creating Layer Convolution18_Scale18_0_split
I1025 10:21:54.280102  1075 net.cpp:406] Convolution18_Scale18_0_split <- Convolution18
I1025 10:21:54.280110  1075 net.cpp:380] Convolution18_Scale18_0_split -> Convolution18_Scale18_0_split_0
I1025 10:21:54.280119  1075 net.cpp:380] Convolution18_Scale18_0_split -> Convolution18_Scale18_0_split_1
I1025 10:21:54.280158  1075 net.cpp:122] Setting up Convolution18_Scale18_0_split
I1025 10:21:54.280167  1075 net.cpp:129] Top shape: 128 64 8 8 (524288)
I1025 10:21:54.280174  1075 net.cpp:129] Top shape: 128 64 8 8 (524288)
I1025 10:21:54.280177  1075 net.cpp:137] Memory required for data: 783811072
I1025 10:21:54.280184  1075 layer_factory.hpp:77] Creating layer Sigmoid16
I1025 10:21:54.280194  1075 net.cpp:84] Creating Layer Sigmoid16
I1025 10:21:54.280200  1075 net.cpp:406] Sigmoid16 <- Convolution18_Scale18_0_split_0
I1025 10:21:54.280206  1075 net.cpp:380] Sigmoid16 -> Sigmoid16
I1025 10:21:54.280421  1075 net.cpp:122] Setting up Sigmoid16
I1025 10:21:54.280434  1075 net.cpp:129] Top shape: 128 64 8 8 (524288)
I1025 10:21:54.280439  1075 net.cpp:137] Memory required for data: 785908224
I1025 10:21:54.280445  1075 layer_factory.hpp:77] Creating layer Eltwise23
I1025 10:21:54.280454  1075 net.cpp:84] Creating Layer Eltwise23
I1025 10:21:54.280462  1075 net.cpp:406] Eltwise23 <- Convolution18_Scale18_0_split_1
I1025 10:21:54.280467  1075 net.cpp:406] Eltwise23 <- Sigmoid16
I1025 10:21:54.280474  1075 net.cpp:380] Eltwise23 -> Eltwise23
I1025 10:21:54.280508  1075 net.cpp:122] Setting up Eltwise23
I1025 10:21:54.280517  1075 net.cpp:129] Top shape: 128 64 8 8 (524288)
I1025 10:21:54.280522  1075 net.cpp:137] Memory required for data: 788005376
I1025 10:21:54.280527  1075 layer_factory.hpp:77] Creating layer Convolution19
I1025 10:21:54.280539  1075 net.cpp:84] Creating Layer Convolution19
I1025 10:21:54.280545  1075 net.cpp:406] Convolution19 <- Eltwise23
I1025 10:21:54.280555  1075 net.cpp:380] Convolution19 -> Convolution19
I1025 10:21:54.284001  1075 net.cpp:122] Setting up Convolution19
I1025 10:21:54.284024  1075 net.cpp:129] Top shape: 128 64 8 8 (524288)
I1025 10:21:54.284029  1075 net.cpp:137] Memory required for data: 790102528
I1025 10:21:54.284039  1075 layer_factory.hpp:77] Creating layer BatchNorm19
I1025 10:21:54.284050  1075 net.cpp:84] Creating Layer BatchNorm19
I1025 10:21:54.284057  1075 net.cpp:406] BatchNorm19 <- Convolution19
I1025 10:21:54.284065  1075 net.cpp:367] BatchNorm19 -> Convolution19 (in-place)
I1025 10:21:54.284286  1075 net.cpp:122] Setting up BatchNorm19
I1025 10:21:54.284297  1075 net.cpp:129] Top shape: 128 64 8 8 (524288)
I1025 10:21:54.284302  1075 net.cpp:137] Memory required for data: 792199680
I1025 10:21:54.284328  1075 layer_factory.hpp:77] Creating layer Scale19
I1025 10:21:54.284337  1075 net.cpp:84] Creating Layer Scale19
I1025 10:21:54.284343  1075 net.cpp:406] Scale19 <- Convolution19
I1025 10:21:54.284350  1075 net.cpp:367] Scale19 -> Convolution19 (in-place)
I1025 10:21:54.284402  1075 layer_factory.hpp:77] Creating layer Scale19
I1025 10:21:54.284546  1075 net.cpp:122] Setting up Scale19
I1025 10:21:54.284557  1075 net.cpp:129] Top shape: 128 64 8 8 (524288)
I1025 10:21:54.284562  1075 net.cpp:137] Memory required for data: 794296832
I1025 10:21:54.284570  1075 layer_factory.hpp:77] Creating layer Eltwise24
I1025 10:21:54.284579  1075 net.cpp:84] Creating Layer Eltwise24
I1025 10:21:54.284585  1075 net.cpp:406] Eltwise24 <- Convolution19
I1025 10:21:54.284592  1075 net.cpp:406] Eltwise24 <- Eltwise22_Eltwise22_0_split_1
I1025 10:21:54.284600  1075 net.cpp:380] Eltwise24 -> Eltwise24
I1025 10:21:54.284624  1075 net.cpp:122] Setting up Eltwise24
I1025 10:21:54.284633  1075 net.cpp:129] Top shape: 128 64 8 8 (524288)
I1025 10:21:54.284638  1075 net.cpp:137] Memory required for data: 796393984
I1025 10:21:54.284642  1075 layer_factory.hpp:77] Creating layer Eltwise24_Eltwise24_0_split
I1025 10:21:54.284649  1075 net.cpp:84] Creating Layer Eltwise24_Eltwise24_0_split
I1025 10:21:54.284656  1075 net.cpp:406] Eltwise24_Eltwise24_0_split <- Eltwise24
I1025 10:21:54.284664  1075 net.cpp:380] Eltwise24_Eltwise24_0_split -> Eltwise24_Eltwise24_0_split_0
I1025 10:21:54.284672  1075 net.cpp:380] Eltwise24_Eltwise24_0_split -> Eltwise24_Eltwise24_0_split_1
I1025 10:21:54.284714  1075 net.cpp:122] Setting up Eltwise24_Eltwise24_0_split
I1025 10:21:54.284723  1075 net.cpp:129] Top shape: 128 64 8 8 (524288)
I1025 10:21:54.284729  1075 net.cpp:129] Top shape: 128 64 8 8 (524288)
I1025 10:21:54.284734  1075 net.cpp:137] Memory required for data: 800588288
I1025 10:21:54.284739  1075 layer_factory.hpp:77] Creating layer Sigmoid17
I1025 10:21:54.284749  1075 net.cpp:84] Creating Layer Sigmoid17
I1025 10:21:54.284754  1075 net.cpp:406] Sigmoid17 <- Eltwise24_Eltwise24_0_split_0
I1025 10:21:54.284760  1075 net.cpp:380] Sigmoid17 -> Sigmoid17
I1025 10:21:54.285670  1075 net.cpp:122] Setting up Sigmoid17
I1025 10:21:54.285686  1075 net.cpp:129] Top shape: 128 64 8 8 (524288)
I1025 10:21:54.285692  1075 net.cpp:137] Memory required for data: 802685440
I1025 10:21:54.285698  1075 layer_factory.hpp:77] Creating layer Eltwise25
I1025 10:21:54.285709  1075 net.cpp:84] Creating Layer Eltwise25
I1025 10:21:54.285715  1075 net.cpp:406] Eltwise25 <- Eltwise24_Eltwise24_0_split_1
I1025 10:21:54.285722  1075 net.cpp:406] Eltwise25 <- Sigmoid17
I1025 10:21:54.285729  1075 net.cpp:380] Eltwise25 -> Eltwise25
I1025 10:21:54.285764  1075 net.cpp:122] Setting up Eltwise25
I1025 10:21:54.285774  1075 net.cpp:129] Top shape: 128 64 8 8 (524288)
I1025 10:21:54.285779  1075 net.cpp:137] Memory required for data: 804782592
I1025 10:21:54.285784  1075 layer_factory.hpp:77] Creating layer Eltwise25_Eltwise25_0_split
I1025 10:21:54.285791  1075 net.cpp:84] Creating Layer Eltwise25_Eltwise25_0_split
I1025 10:21:54.285796  1075 net.cpp:406] Eltwise25_Eltwise25_0_split <- Eltwise25
I1025 10:21:54.285805  1075 net.cpp:380] Eltwise25_Eltwise25_0_split -> Eltwise25_Eltwise25_0_split_0
I1025 10:21:54.285814  1075 net.cpp:380] Eltwise25_Eltwise25_0_split -> Eltwise25_Eltwise25_0_split_1
I1025 10:21:54.285856  1075 net.cpp:122] Setting up Eltwise25_Eltwise25_0_split
I1025 10:21:54.285866  1075 net.cpp:129] Top shape: 128 64 8 8 (524288)
I1025 10:21:54.285871  1075 net.cpp:129] Top shape: 128 64 8 8 (524288)
I1025 10:21:54.285876  1075 net.cpp:137] Memory required for data: 808976896
I1025 10:21:54.285881  1075 layer_factory.hpp:77] Creating layer Convolution20
I1025 10:21:54.285894  1075 net.cpp:84] Creating Layer Convolution20
I1025 10:21:54.285900  1075 net.cpp:406] Convolution20 <- Eltwise25_Eltwise25_0_split_0
I1025 10:21:54.285908  1075 net.cpp:380] Convolution20 -> Convolution20
I1025 10:21:54.288698  1075 net.cpp:122] Setting up Convolution20
I1025 10:21:54.288718  1075 net.cpp:129] Top shape: 128 64 8 8 (524288)
I1025 10:21:54.288724  1075 net.cpp:137] Memory required for data: 811074048
I1025 10:21:54.288733  1075 layer_factory.hpp:77] Creating layer BatchNorm20
I1025 10:21:54.288746  1075 net.cpp:84] Creating Layer BatchNorm20
I1025 10:21:54.288758  1075 net.cpp:406] BatchNorm20 <- Convolution20
I1025 10:21:54.288777  1075 net.cpp:367] BatchNorm20 -> Convolution20 (in-place)
I1025 10:21:54.289001  1075 net.cpp:122] Setting up BatchNorm20
I1025 10:21:54.289012  1075 net.cpp:129] Top shape: 128 64 8 8 (524288)
I1025 10:21:54.289017  1075 net.cpp:137] Memory required for data: 813171200
I1025 10:21:54.289026  1075 layer_factory.hpp:77] Creating layer Scale20
I1025 10:21:54.289046  1075 net.cpp:84] Creating Layer Scale20
I1025 10:21:54.289052  1075 net.cpp:406] Scale20 <- Convolution20
I1025 10:21:54.289059  1075 net.cpp:367] Scale20 -> Convolution20 (in-place)
I1025 10:21:54.289108  1075 layer_factory.hpp:77] Creating layer Scale20
I1025 10:21:54.289242  1075 net.cpp:122] Setting up Scale20
I1025 10:21:54.289252  1075 net.cpp:129] Top shape: 128 64 8 8 (524288)
I1025 10:21:54.289258  1075 net.cpp:137] Memory required for data: 815268352
I1025 10:21:54.289265  1075 layer_factory.hpp:77] Creating layer Convolution20_Scale20_0_split
I1025 10:21:54.289273  1075 net.cpp:84] Creating Layer Convolution20_Scale20_0_split
I1025 10:21:54.289278  1075 net.cpp:406] Convolution20_Scale20_0_split <- Convolution20
I1025 10:21:54.289286  1075 net.cpp:380] Convolution20_Scale20_0_split -> Convolution20_Scale20_0_split_0
I1025 10:21:54.289295  1075 net.cpp:380] Convolution20_Scale20_0_split -> Convolution20_Scale20_0_split_1
I1025 10:21:54.289332  1075 net.cpp:122] Setting up Convolution20_Scale20_0_split
I1025 10:21:54.289343  1075 net.cpp:129] Top shape: 128 64 8 8 (524288)
I1025 10:21:54.289350  1075 net.cpp:129] Top shape: 128 64 8 8 (524288)
I1025 10:21:54.289355  1075 net.cpp:137] Memory required for data: 819462656
I1025 10:21:54.289360  1075 layer_factory.hpp:77] Creating layer Sigmoid18
I1025 10:21:54.289366  1075 net.cpp:84] Creating Layer Sigmoid18
I1025 10:21:54.289371  1075 net.cpp:406] Sigmoid18 <- Convolution20_Scale20_0_split_0
I1025 10:21:54.289381  1075 net.cpp:380] Sigmoid18 -> Sigmoid18
I1025 10:21:54.290292  1075 net.cpp:122] Setting up Sigmoid18
I1025 10:21:54.290309  1075 net.cpp:129] Top shape: 128 64 8 8 (524288)
I1025 10:21:54.290315  1075 net.cpp:137] Memory required for data: 821559808
I1025 10:21:54.290320  1075 layer_factory.hpp:77] Creating layer Eltwise26
I1025 10:21:54.290329  1075 net.cpp:84] Creating Layer Eltwise26
I1025 10:21:54.290335  1075 net.cpp:406] Eltwise26 <- Convolution20_Scale20_0_split_1
I1025 10:21:54.290344  1075 net.cpp:406] Eltwise26 <- Sigmoid18
I1025 10:21:54.290351  1075 net.cpp:380] Eltwise26 -> Eltwise26
I1025 10:21:54.290386  1075 net.cpp:122] Setting up Eltwise26
I1025 10:21:54.290396  1075 net.cpp:129] Top shape: 128 64 8 8 (524288)
I1025 10:21:54.290401  1075 net.cpp:137] Memory required for data: 823656960
I1025 10:21:54.290406  1075 layer_factory.hpp:77] Creating layer Convolution21
I1025 10:21:54.290418  1075 net.cpp:84] Creating Layer Convolution21
I1025 10:21:54.290424  1075 net.cpp:406] Convolution21 <- Eltwise26
I1025 10:21:54.290434  1075 net.cpp:380] Convolution21 -> Convolution21
I1025 10:21:54.293920  1075 net.cpp:122] Setting up Convolution21
I1025 10:21:54.293939  1075 net.cpp:129] Top shape: 128 64 8 8 (524288)
I1025 10:21:54.293946  1075 net.cpp:137] Memory required for data: 825754112
I1025 10:21:54.293954  1075 layer_factory.hpp:77] Creating layer BatchNorm21
I1025 10:21:54.293967  1075 net.cpp:84] Creating Layer BatchNorm21
I1025 10:21:54.293972  1075 net.cpp:406] BatchNorm21 <- Convolution21
I1025 10:21:54.293980  1075 net.cpp:367] BatchNorm21 -> Convolution21 (in-place)
I1025 10:21:54.294208  1075 net.cpp:122] Setting up BatchNorm21
I1025 10:21:54.294221  1075 net.cpp:129] Top shape: 128 64 8 8 (524288)
I1025 10:21:54.294226  1075 net.cpp:137] Memory required for data: 827851264
I1025 10:21:54.294236  1075 layer_factory.hpp:77] Creating layer Scale21
I1025 10:21:54.294243  1075 net.cpp:84] Creating Layer Scale21
I1025 10:21:54.294250  1075 net.cpp:406] Scale21 <- Convolution21
I1025 10:21:54.294256  1075 net.cpp:367] Scale21 -> Convolution21 (in-place)
I1025 10:21:54.294311  1075 layer_factory.hpp:77] Creating layer Scale21
I1025 10:21:54.294453  1075 net.cpp:122] Setting up Scale21
I1025 10:21:54.294464  1075 net.cpp:129] Top shape: 128 64 8 8 (524288)
I1025 10:21:54.294469  1075 net.cpp:137] Memory required for data: 829948416
I1025 10:21:54.294477  1075 layer_factory.hpp:77] Creating layer Eltwise27
I1025 10:21:54.294484  1075 net.cpp:84] Creating Layer Eltwise27
I1025 10:21:54.294490  1075 net.cpp:406] Eltwise27 <- Convolution21
I1025 10:21:54.294504  1075 net.cpp:406] Eltwise27 <- Eltwise25_Eltwise25_0_split_1
I1025 10:21:54.294515  1075 net.cpp:380] Eltwise27 -> Eltwise27
I1025 10:21:54.294541  1075 net.cpp:122] Setting up Eltwise27
I1025 10:21:54.294551  1075 net.cpp:129] Top shape: 128 64 8 8 (524288)
I1025 10:21:54.294556  1075 net.cpp:137] Memory required for data: 832045568
I1025 10:21:54.294561  1075 layer_factory.hpp:77] Creating layer Eltwise27_Eltwise27_0_split
I1025 10:21:54.294569  1075 net.cpp:84] Creating Layer Eltwise27_Eltwise27_0_split
I1025 10:21:54.294574  1075 net.cpp:406] Eltwise27_Eltwise27_0_split <- Eltwise27
I1025 10:21:54.294582  1075 net.cpp:380] Eltwise27_Eltwise27_0_split -> Eltwise27_Eltwise27_0_split_0
I1025 10:21:54.294590  1075 net.cpp:380] Eltwise27_Eltwise27_0_split -> Eltwise27_Eltwise27_0_split_1
I1025 10:21:54.294631  1075 net.cpp:122] Setting up Eltwise27_Eltwise27_0_split
I1025 10:21:54.294641  1075 net.cpp:129] Top shape: 128 64 8 8 (524288)
I1025 10:21:54.294648  1075 net.cpp:129] Top shape: 128 64 8 8 (524288)
I1025 10:21:54.294652  1075 net.cpp:137] Memory required for data: 836239872
I1025 10:21:54.294657  1075 layer_factory.hpp:77] Creating layer Sigmoid19
I1025 10:21:54.294664  1075 net.cpp:84] Creating Layer Sigmoid19
I1025 10:21:54.294670  1075 net.cpp:406] Sigmoid19 <- Eltwise27_Eltwise27_0_split_0
I1025 10:21:54.294677  1075 net.cpp:380] Sigmoid19 -> Sigmoid19
I1025 10:21:54.294888  1075 net.cpp:122] Setting up Sigmoid19
I1025 10:21:54.294901  1075 net.cpp:129] Top shape: 128 64 8 8 (524288)
I1025 10:21:54.294906  1075 net.cpp:137] Memory required for data: 838337024
I1025 10:21:54.294912  1075 layer_factory.hpp:77] Creating layer Eltwise28
I1025 10:21:54.294919  1075 net.cpp:84] Creating Layer Eltwise28
I1025 10:21:54.294925  1075 net.cpp:406] Eltwise28 <- Eltwise27_Eltwise27_0_split_1
I1025 10:21:54.294932  1075 net.cpp:406] Eltwise28 <- Sigmoid19
I1025 10:21:54.294941  1075 net.cpp:380] Eltwise28 -> Eltwise28
I1025 10:21:54.294971  1075 net.cpp:122] Setting up Eltwise28
I1025 10:21:54.294982  1075 net.cpp:129] Top shape: 128 64 8 8 (524288)
I1025 10:21:54.294987  1075 net.cpp:137] Memory required for data: 840434176
I1025 10:21:54.294992  1075 layer_factory.hpp:77] Creating layer Pooling1
I1025 10:21:54.295001  1075 net.cpp:84] Creating Layer Pooling1
I1025 10:21:54.295006  1075 net.cpp:406] Pooling1 <- Eltwise28
I1025 10:21:54.295013  1075 net.cpp:380] Pooling1 -> Pooling1
I1025 10:21:54.295954  1075 net.cpp:122] Setting up Pooling1
I1025 10:21:54.295975  1075 net.cpp:129] Top shape: 128 64 1 1 (8192)
I1025 10:21:54.295981  1075 net.cpp:137] Memory required for data: 840466944
I1025 10:21:54.295986  1075 layer_factory.hpp:77] Creating layer InnerProduct1
I1025 10:21:54.295996  1075 net.cpp:84] Creating Layer InnerProduct1
I1025 10:21:54.296002  1075 net.cpp:406] InnerProduct1 <- Pooling1
I1025 10:21:54.296011  1075 net.cpp:380] InnerProduct1 -> InnerProduct1
I1025 10:21:54.296167  1075 net.cpp:122] Setting up InnerProduct1
I1025 10:21:54.296178  1075 net.cpp:129] Top shape: 128 10 (1280)
I1025 10:21:54.296183  1075 net.cpp:137] Memory required for data: 840472064
I1025 10:21:54.296191  1075 layer_factory.hpp:77] Creating layer Accuracy1
I1025 10:21:54.296201  1075 net.cpp:84] Creating Layer Accuracy1
I1025 10:21:54.296207  1075 net.cpp:406] Accuracy1 <- InnerProduct1
I1025 10:21:54.296214  1075 net.cpp:406] Accuracy1 <- Data2
I1025 10:21:54.296222  1075 net.cpp:380] Accuracy1 -> Accuracy1
…
